…
    mean_value: 122.67892
  }
  image_data_param {
    source: "./tracker_model/data/SegTrackv2_hdf5_t0/images.txt"
    batch_size: 2
    shuffle: false
  }
}
layer {
  name: "data"
  type: "HDF5Data"
  top: "cont"
  top: "mask_size"
  top: "spixel_data"
  top: "spixel_ptr"
  top: "spixel_num"
  top: "seg_data"
  top: "seg_ptr"
  top: "seg_num"
  top: "seg_coef"
  top: "overlaps"
  top: "gt_num"
  top: "gt_overlaps"
  include {
    phase: TRAIN
  }
  hdf5_data_param {
    source: "./tracker_model/data/SegTrackv2_hdf5_t0/seq_data.txt"
    batch_size: 2
  }
}
layer {
  name: "silent_gt_overlaps"
  type: "Silence"
  bottom: "gt_overlaps"
  include {
    phase: TRAIN
  }
}
layer {
  name: "silent_gt_overlaps"
  type: "Silence"
  bottom: "gt_num"
  include {
    phase: TRAIN
  }
}
layer {
  name: "silent_ilabel"
  type: "Silence"
  bottom: "ilabel"
}
layer {
  name: "conv1"
  type: "Convolution"
  bottom: "image"
  top: "conv1"
  param {
    lr_mult: 1
    decay_mult: 1
  }
  param {
    lr_mult: 2
    decay_mult: 0
  }
  convolution_param {
    num_output: 96
    pad: 100
    kernel_size: 11
    stride: 4
    weight_filler {
      type: "gaussian"
      std: 0.01
    }
    bias_filler {
      type: "constant"
      value: 0
    }
  }
}
layer {
  name: "relu1"
  type: "ReLU"
  bottom: "conv1"
  top: "conv1"
}
layer {
  name: "pool1"
  type: "Pooling"
  bottom: "conv1"
  top: "pool1"
  pooling_param {
    pool: MAX
    kernel_size: 3
    stride: 2
  }
}
layer {
  name: "norm1"
  type: "LRN"
  bottom: "pool1"
  top: "norm1"
  lrn_param {
    local_size: 5
    alpha: 0.0001
    beta: 0.75
  }
}
layer {
  name: "conv2"
  type: "Convolution"
  bottom: "norm1"
  top: "conv2"
  param {
    lr_mult: 1
    decay_mult: 1
  }
  param {
    lr_mult: 2
    decay_mult: 0
  }
  convolution_param {
    num_output: 256
    pad: 2
    kernel_size: 5
    group: 2
    weight_filler {
      type: "gaussian"
      std: 0.01
    }
    bias_filler {
      type: "constant"
      value: 1
    }
  }
}
layer {
  name: "relu2"
  type: "ReLU"
  bottom: "conv2"
  top: "conv2"
}
layer {
  name: "pool2"
  type: "Pooling"
  bottom: "conv2"
  top: "pool2"
  pooling_param {
    pool: MAX
    kernel_size: 3
    stride: 2
  }
}
layer {
  name: "norm2"
  type: "LRN"
  bottom: "pool2"
  top: "norm2"
  lrn_param {
    local_size: 5
    alpha: 0.0001
    beta: 0.75
  }
}
layer {
  name: "conv3"
  type: "Convolution"
  bottom: "norm2"
  top: "conv3"
  param {
    lr_mult: 1
    decay_mult: 1
  }
  param {
    lr_mult: 2
    decay_mult: 0
  }
  convolution_param {
    num_output: 384
    pad: 1
    kernel_size: 3
    weight_filler {
      type: "gaussian"
      std: 0.01
    }
    bias_filler {
      type: "constant"
      value: 0
    }
  }
}
layer {
  name: "relu3"
  type: "ReLU"
  bottom: "conv3"
  top: "conv3"
}
layer {
  name: "conv4"
  type: "Convolution"
  bottom: "conv3"
  top: "conv4"
  param {
    lr_mult: 1
    decay_mult: 1
  }
  param {
    lr_mult: 2
    decay_mult: 0
  }
  convolution_param {
    num_output: 384
    pad: 1
    kernel_size: 3
    group: 2
    weight_filler {
      type: "gaussian"
      std: 0.01
    }
    bias_filler {
      type: "constant"
      value: 1
    }
  }
}
layer {
  name: "relu4"
  type: "ReLU"
  bottom: "conv4"
  top: "conv4"
}
layer {
  name: "conv5"
  type: "Convolution"
  bottom: "conv4"
  top: "conv5"
  param {
    lr_mult: 1
    decay_mult: 1
  }
  param {
    lr_mult: 2
    decay_mult: 0
  }
  convolution_param {
    num_output: 256
    pad: 1
    kernel_size: 3
    group: 2
    weight_filler {
      type: "gaussian"
      std: 0.01
    }
    bias_filler {
      type: "constant"
      value: 1
    }
  }
}
layer {
  name: "relu5"
  type: "ReLU"
  bottom: "conv5"
  top: "conv5"
}
layer {
  name: "pool5"
  type: "Pooling"
  bottom: "conv5"
  top: "pool5"
  pooling_param {
    pool: MAX
    kernel_size: 3
    stride: 2
  }
}
layer {
  name: "fc6"
  type: "Convolution"
  bottom: "pool5"
  top: "fc6"
  param {
    lr_mult: 1
    decay_mult: 1
  }
  param {
    lr_mult: 2
    decay_mult: 0
  }
  convolution_param {
    num_output: 4096
    kernel_size: 6
    weight_filler {
      type: "gaussian"
      std: 0.005
    }
    bias_filler {
      type: "constant"
      value: 1
    }
  }
}
layer {
  name: "relu6"
  type: "ReLU"
  bottom: "fc6"
  top: "fc6"
}
layer {
  name: "fc7"
  type: "Convolution"
  bottom: "fc6"
  top: "fc7"
  param {
    lr_mult: 1
    decay_mult: 1
  }
  param {
    lr_mult: 2
    decay_mult: 0
  }
  convolution_param {
    num_output: 4096
    kernel_size: 1
    weight_filler {
      type: "gaussian"
      std: 0.005
    }
    bias_filler {
      type: "constant"
      value: 1
    }
  }
}
layer {
  name: "relu7"
  type: "ReLU"
  bottom: "fc7"
  top: "fc7"
}
layer {
  name: "deconv-1"
  type: "Deconvolution"
  bottom: "fc7"
  top: "up-fc7"
  param {
    lr_mult: 0
    decay_mult: 0
  }
  convolution_param {
    num_output: 256
    bias_term: false
    kernel_size: 63
    group: 256
    stride: 32
    weight_filler {
      type: "bilinear"
    }
  }
}
layer {
  name: "crop"
  type: "Crop"
  bottom: "up-fc7"
  bottom: "image"
  top: "conv-feature"
}
layer {
  name: "spixel_pooling1"
  type: "SuperpixelPooling"
  bottom: "conv-feature"
  bottom: "spixel_data"
  bottom: "spixel_ptr"
  bottom: "spixel_num"
  bottom: "mask_size"
  top: "spixel_feature"
}
layer {
  name: "rpixel_pooling1"
  type: "RowPooling"
  bottom: "spixel_feature"
  bottom: "seg_data"
  bottom: "seg_ptr"
  bottom: "seg_num"
  bottom: "seg_coef"
  top: "seg_feature"
}
layer {
  name: "tracker"
  type: "Tracker"
  bottom: "seg_feature"
  bottom: "overlaps"
  bottom: "seg_num"
  bottom: "cont"
  top: "v"
  top: "vtilde"
  tracker_param {
    num_track: 1800
    feature_dim: 256
    lambda: 10000
    use_softmax: false
    use_vtilde_in_c: false
  }
}
layer {
  name: "silent_vtilde"
  type: "Silence"
  bottom: "vtilde"
  include {
    phase: TRAIN
  }
}
layer {
  name: "reshape_v"
  type: "Reshape"
  bottom: "v"
  top: "rv"
  include {
    phase: TRAIN
  }
  reshape_param {
    shape {
      dim: -1
    }
    num_axes: 2
  }
}
layer {
  name: "reshape_overlaps"
  type: "Reshape"
  bottom: "overlaps"
  top: "roverlaps"
  include {
    phase: TRAIN
  }
  propagate_down: false
  reshape_param {
    shape {
      dim: -1
    }
    num_axes: 2
  }
}
layer {
  name: "euclideanLoss"
  type: "EuclideanLoss"
  bottom: "rv"
  bottom: "roverlaps"
  top: "unsupervised_loss"
  include {
    phase: TRAIN
  }
  propagate_down: true
  propagate_down: false
}
I0122 01:56:19.798219 27918 layer_factory.hpp:76] Creating layer images
I0122 01:56:19.798244 27918 net.cpp:107] Creating Layer images
I0122 01:56:19.798249 27918 net.cpp:412] images -> image
I0122 01:56:19.798266 27918 net.cpp:412] images -> ilabel
I0122 01:56:19.798290 27918 image_data_layer.cpp:37] Opening file ./tracker_model/data/SegTrackv2_hdf5_t0/images.txt
I0122 01:56:19.799613 27918 image_data_layer.cpp:52] A total of 606 images.
I0122 01:56:19.809082 27918 image_data_layer.cpp:79] output data size: 2,3,500,500
I0122 01:56:19.815486 27918 net.cpp:151] Setting up images
I0122 01:56:19.815506 27918 net.cpp:158] Top shape: 2 3 500 500 (1500000)
I0122 01:56:19.815510 27918 net.cpp:158] Top shape: 2 (2)
I0122 01:56:19.815513 27918 net.cpp:166] Memory required for data: 6000008
I0122 01:56:19.815520 27918 layer_factory.hpp:76] Creating layer image_images_0_split
I0122 01:56:19.815533 27918 net.cpp:107] Creating Layer image_images_0_split
I0122 01:56:19.815538 27918 net.cpp:455] image_images_0_split <- image
I0122 01:56:19.815549 27918 net.cpp:412] image_images_0_split -> image_images_0_split_0
I0122 01:56:19.815565 27918 net.cpp:412] image_images_0_split -> image_images_0_split_1
I0122 01:56:19.815605 27918 net.cpp:151] Setting up image_images_0_split
I0122 01:56:19.815613 27918 net.cpp:158] Top shape: 2 3 500 500 (1500000)
I0122 01:56:19.815618 27918 net.cpp:158] Top shape: 2 3 500 500 (1500000)
I0122 01:56:19.815620 27918 net.cpp:166] Memory required for data: 18000008
I0122 01:56:19.815624 27918 layer_factory.hpp:76] Creating layer data
I0122 01:56:19.815632 27918 net.cpp:107] Creating Layer data
I0122 01:56:19.815640 27918 net.cpp:412] data -> cont
I0122 01:56:19.815650 27918 net.cpp:412] data -> mask_size
I0122 01:56:19.815659 27918 net.cpp:412] data -> spixel_data
I0122 01:56:19.815670 27918 net.cpp:412] data -> spixel_ptr
I0122 01:56:19.815677 27918 net.cpp:412] data -> spixel_num
I0122 01:56:19.815687 27918 net.cpp:412] data -> seg_data
I0122 01:56:19.815696 27918 net.cpp:412] data -> seg_ptr
I0122 01:56:19.815703 27918 net.cpp:412] data -> seg_num
I0122 01:56:19.815711 27918 net.cpp:412] data -> seg_coef
I0122 01:56:19.815719 27918 net.cpp:412] data -> overlaps
I0122 01:56:19.815727 27918 net.cpp:412] data -> gt_num
I0122 01:56:19.815734 27918 net.cpp:412] data -> gt_overlaps
I0122 01:56:19.815744 27918 hdf5_data_layer.cpp:80] Loading list of HDF5 filenames from: ./tracker_model/data/SegTrackv2_hdf5_t0/seq_data.txt
I0122 01:56:19.815933 27918 hdf5_data_layer.cpp:94] Number of HDF5 files: 38
I0122 01:56:19.816851 27918 hdf5.cpp:35] Datatype class: H5T_INTEGER
I0122 01:56:20.387605 27918 hdf5.cpp:32] Datatype class: H5T_FLOAT
I0122 01:56:21.391926 27918 net.cpp:151] Setting up data
I0122 01:56:21.391957 27918 net.cpp:158] Top shape: 2 1 (2)
I0122 01:56:21.391960 27918 net.cpp:158] Top shape: 2 1 2 (4)
I0122 01:56:21.391963 27918 net.cpp:158] Top shape: 2 1 230400 2 (921600)
I0122 01:56:21.391966 27918 net.cpp:158] Top shape: 2 1 9778 (19556)
I0122 01:56:21.391968 27918 net.cpp:158] Top shape: 2 1 (2)
I0122 01:56:21.391971 27918 net.cpp:158] Top shape: 2 1 3102361 (6204722)
I0122 01:56:21.391975 27918 net.cpp:158] Top shape: 2 1 1801 (3602)
I0122 01:56:21.391978 27918 net.cpp:158] Top shape: 2 1 (2)
I0122 01:56:21.391981 27918 net.cpp:158] Top shape: 2 1 3102361 (6204722)
I0122 01:56:21.391985 27918 net.cpp:158] Top shape: 2 1 1800 1800 (6480000)
I0122 01:56:21.391989 27918 net.cpp:158] Top shape: 2 1 (2)
I0122 01:56:21.391993 27918 net.cpp:158] Top shape: 2 1 6 1800 (21600)
I0122 01:56:21.391995 27918 net.cpp:166] Memory required for data: 97423264
I0122 01:56:21.392000 27918 layer_factory.hpp:76] Creating layer seg_num_data_7_split
I0122 01:56:21.392009 27918 net.cpp:107] Creating Layer seg_num_data_7_split
I0122 01:56:21.392014 27918 net.cpp:455] seg_num_data_7_split <- seg_num
I0122 01:56:21.392022 27918 net.cpp:412] seg_num_data_7_split -> seg_num_data_7_split_0
I0122 01:56:21.392035 27918 net.cpp:412] seg_num_data_7_split -> seg_num_data_7_split_1
I0122 01:56:21.392066 27918 net.cpp:151] Setting up seg_num_data_7_split
I0122 01:56:21.392071 27918 net.cpp:158] Top shape: 2 1 (2)
I0122 01:56:21.392076 27918 net.cpp:158] Top shape: 2 1 (2)
I0122 01:56:21.392078 27918 net.cpp:166] Memory required for data: 97423280
I0122 01:56:21.392082 27918 layer_factory.hpp:76] Creating layer overlaps_data_9_split
I0122 01:56:21.392102 27918 net.cpp:107] Creating Layer overlaps_data_9_split
I0122 01:56:21.392105 27918 net.cpp:455] overlaps_data_9_split <- overlaps
I0122 01:56:21.392112 27918 net.cpp:412] overlaps_data_9_split -> overlaps_data_9_split_0
I0122 01:56:21.392119 27918 net.cpp:412] overlaps_data_9_split -> overlaps_data_9_split_1
I0122 01:56:21.392146 27918 net.cpp:151] Setting up overlaps_data_9_split
I0122 01:56:21.392153 27918 net.cpp:158] Top shape: 2 1 1800 1800 (6480000)
I0122 01:56:21.392158 27918 net.cpp:158] Top shape: 2 1 1800 1800 (6480000)
I0122 01:56:21.392160 27918 net.cpp:166] Memory required for data: 149263280
I0122 01:56:21.392164 27918 layer_factory.hpp:76] Creating layer silent_gt_overlaps
I0122 01:56:21.392169 27918 net.cpp:107] Creating Layer silent_gt_overlaps
I0122 01:56:21.392174 27918 net.cpp:455] silent_gt_overlaps <- gt_overlaps
I0122 01:56:21.392179 27918 net.cpp:151] Setting up silent_gt_overlaps
…
I0122 01:56:21.392206 27918 net.cpp:107] Creating Layer silent_ilabel
I0122 01:56:21.392210 27918 net.cpp:455] silent_ilabel <- ilabel
I0122 01:56:21.392213 27918 net.cpp:151] Setting up silent_ilabel
I0122 01:56:21.392217 27918 net.cpp:166] Memory required for data: 149263280
I0122 01:56:21.392220 27918 layer_factory.hpp:76] Creating layer conv1
I0122 01:56:21.392230 27918 net.cpp:107] Creating Layer conv1
I0122 01:56:21.392235 27918 net.cpp:455] conv1 <- image_images_0_split_0
I0122 01:56:21.392241 27918 net.cpp:412] conv1 -> conv1
I0122 01:56:21.457126 27918 net.cpp:151] Setting up conv1
I0122 01:56:21.457149 27918 net.cpp:158] Top shape: 2 96 173 173 (5746368)
I0122 01:56:21.457165 27918 net.cpp:166] Memory required for data: 172248752
I0122 01:56:21.457180 27918 layer_factory.hpp:76] Creating layer relu1
I0122 01:56:21.457187 27918 net.cpp:107] Creating Layer relu1
I0122 01:56:21.457191 27918 net.cpp:455] relu1 <- conv1
I0122 01:56:21.457197 27918 net.cpp:398] relu1 -> conv1 (in-place)
I0122 01:56:21.457321 27918 net.cpp:151] Setting up relu1
I0122 01:56:21.457329 27918 net.cpp:158] Top shape: 2 96 173 173 (5746368)
I0122 01:56:21.457330 27918 net.cpp:166] Memory required for data: 195234224
I0122 01:56:21.457334 27918 layer_factory.hpp:76] Creating layer pool1
I0122 01:56:21.457337 27918 net.cpp:107] Creating Layer pool1
I0122 01:56:21.457340 27918 net.cpp:455] pool1 <- conv1
I0122 01:56:21.457343 27918 net.cpp:412] pool1 -> pool1
I0122 01:56:21.457558 27918 net.cpp:151] Setting up pool1
I0122 01:56:21.457566 27918 net.cpp:158] Top shape: 2 96 86 86 (1420032)
I0122 01:56:21.457568 27918 net.cpp:166] Memory required for data: 200914352
I0122 01:56:21.457571 27918 layer_factory.hpp:76] Creating layer norm1
I0122 01:56:21.457577 27918 net.cpp:107] Creating Layer norm1
I0122 01:56:21.457581 27918 net.cpp:455] norm1 <- pool1
I0122 01:56:21.457583 27918 net.cpp:412] norm1 -> norm1
I0122 01:56:21.457834 27918 net.cpp:151] Setting up norm1
I0122 01:56:21.457840 27918 net.cpp:158] Top shape: 2 96 86 86 (1420032)
I0122 01:56:21.457857 27918 net.cpp:166] Memory required for data: 206594480
I0122 01:56:21.457859 27918 layer_factory.hpp:76] Creating layer conv2
I0122 01:56:21.457866 27918 net.cpp:107] Creating Layer conv2
I0122 01:56:21.457870 27918 net.cpp:455] conv2 <- norm1
I0122 01:56:21.457876 27918 net.cpp:412] conv2 -> conv2
I0122 01:56:21.464535 27918 cudnn_conv_layer.cpp:198] Reallocating workspace storage: 28800
I0122 01:56:21.464565 27918 net.cpp:151] Setting up conv2
I0122 01:56:21.464570 27918 net.cpp:158] Top shape: 2 256 86 86 (3786752)
I0122 01:56:21.464589 27918 net.cpp:166] Memory required for data: 221741488
I0122 01:56:21.464599 27918 layer_factory.hpp:76] Creating layer relu2
I0122 01:56:21.464607 27918 net.cpp:107] Creating Layer relu2
I0122 01:56:21.464612 27918 net.cpp:455] relu2 <- conv2
I0122 01:56:21.464617 27918 net.cpp:398] relu2 -> conv2 (in-place)
I0122 01:56:21.464851 27918 net.cpp:151] Setting up relu2
I0122 01:56:21.464859 27918 net.cpp:158] Top shape: 2 256 86 86 (3786752)
I0122 01:56:21.464875 27918 net.cpp:166] Memory required for data: 236888496
I0122 01:56:21.464877 27918 layer_factory.hpp:76] Creating layer pool2
I0122 01:56:21.464882 27918 net.cpp:107] Creating Layer pool2
I0122 01:56:21.464885 27918 net.cpp:455] pool2 <- conv2
I0122 01:56:21.464890 27918 net.cpp:412] pool2 -> pool2
I0122 01:56:21.465035 27918 net.cpp:151] Setting up pool2
I0122 01:56:21.465041 27918 net.cpp:158] Top shape: 2 256 43 43 (946688)
I0122 01:56:21.465044 27918 net.cpp:166] Memory required for data: 240675248
I0122 01:56:21.465060 27918 layer_factory.hpp:76] Creating layer norm2
I0122 01:56:21.465065 27918 net.cpp:107] Creating Layer norm2
I0122 01:56:21.465066 27918 net.cpp:455] norm2 <- pool2
I0122 01:56:21.465070 27918 net.cpp:412] norm2 -> norm2
I0122 01:56:21.465322 27918 net.cpp:151] Setting up norm2
I0122 01:56:21.465329 27918 net.cpp:158] Top shape: 2 256 43 43 (946688)
I0122 01:56:21.465345 27918 net.cpp:166] Memory required for data: 244462000
I0122 01:56:21.465348 27918 layer_factory.hpp:76] Creating layer conv3
I0122 01:56:21.465354 27918 net.cpp:107] Creating Layer conv3
I0122 01:56:21.465358 27918 net.cpp:455] conv3 <- norm2
I0122 01:56:21.465364 27918 net.cpp:412] conv3 -> conv3
I0122 01:56:21.482156 27918 cudnn_conv_layer.cpp:198] Reallocating workspace storage: 27648
I0122 01:56:21.482192 27918 net.cpp:151] Setting up conv3
I0122 01:56:21.482197 27918 net.cpp:158] Top shape: 2 384 43 43 (1420032)
I0122 01:56:21.482200 27918 net.cpp:166] Memory required for data: 250142128
I0122 01:56:21.482211 27918 layer_factory.hpp:76] Creating layer relu3
I0122 01:56:21.482220 27918 net.cpp:107] Creating Layer relu3
I0122 01:56:21.482225 27918 net.cpp:455] relu3 <- conv3
I0122 01:56:21.482231 27918 net.cpp:398] relu3 -> conv3 (in-place)
I0122 01:56:21.482374 27918 net.cpp:151] Setting up relu3
I0122 01:56:21.482380 27918 net.cpp:158] Top shape: 2 384 43 43 (1420032)
I0122 01:56:21.482398 27918 net.cpp:166] Memory required for data: 255822256
I0122 01:56:21.482399 27918 layer_factory.hpp:76] Creating layer conv4
I0122 01:56:21.482405 27918 net.cpp:107] Creating Layer conv4
I0122 01:56:21.482409 27918 net.cpp:455] conv4 <- conv3
I0122 01:56:21.482415 27918 net.cpp:412] conv4 -> conv4
I0122 01:56:21.495465 27918 net.cpp:151] Setting up conv4
I0122 01:56:21.495488 27918 net.cpp:158] Top shape: 2 384 43 43 (1420032)
I0122 01:56:21.495491 27918 net.cpp:166] Memory required for data: 261502384
I0122 01:56:21.495496 27918 layer_factory.hpp:76] Creating layer relu4
I0122 01:56:21.495499 27918 net.cpp:107] Creating Layer relu4
I0122 01:56:21.495502 27918 net.cpp:455] relu4 <- conv4
I0122 01:56:21.495509 27918 net.cpp:398] relu4 -> conv4 (in-place)
I0122 01:56:21.495662 27918 net.cpp:151] Setting up relu4
I0122 01:56:21.495668 27918 net.cpp:158] Top shape: 2 384 43 43 (1420032)
I0122 01:56:21.495671 27918 net.cpp:166] Memory required for data: 267182512
I0122 01:56:21.495673 27918 layer_factory.hpp:76] Creating layer conv5
I0122 01:56:21.495692 27918 net.cpp:107] Creating Layer conv5
I0122 01:56:21.495693 27918 net.cpp:455] conv5 <- conv4
I0122 01:56:21.495697 27918 net.cpp:412] conv5 -> conv5
I0122 01:56:21.504683 27918 net.cpp:151] Setting up conv5
I0122 01:56:21.504690 27918 net.cpp:158] Top shape: 2 256 43 43 (946688)
I0122 01:56:21.504708 27918 net.cpp:166] Memory required for data: 270969264
I0122 01:56:21.504715 27918 layer_factory.hpp:76] Creating layer relu5
I0122 01:56:21.504720 27918 net.cpp:107] Creating Layer relu5
I0122 01:56:21.504724 27918 net.cpp:455] relu5 <- conv5
I0122 01:56:21.504730 27918 net.cpp:398] relu5 -> conv5 (in-place)
I0122 01:56:21.504890 27918 net.cpp:151] Setting up relu5
I0122 01:56:21.504896 27918 net.cpp:158] Top shape: 2 256 43 43 (946688)
I0122 01:56:21.504899 27918 net.cpp:166] Memory required for data: 274756016
I0122 01:56:21.504901 27918 layer_factory.hpp:76] Creating layer pool5
I0122 01:56:21.504909 27918 net.cpp:107] Creating Layer pool5
I0122 01:56:21.504912 27918 net.cpp:455] pool5 <- conv5
I0122 01:56:21.504915 27918 net.cpp:412] pool5 -> pool5
I0122 01:56:21.505169 27918 net.cpp:151] Setting up pool5
I0122 01:56:21.505177 27918 net.cpp:158] Top shape: 2 256 21 21 (225792)
I0122 01:56:21.505193 27918 net.cpp:166] Memory required for data: 275659184
I0122 01:56:21.505195 27918 layer_factory.hpp:76] Creating layer fc6
I0122 01:56:21.505203 27918 net.cpp:107] Creating Layer fc6
I0122 01:56:21.505206 27918 net.cpp:455] fc6 <- pool5
I0122 01:56:21.505211 27918 net.cpp:412] fc6 -> fc6
I0122 01:56:22.174217 27918 cudnn_conv_layer.cpp:198] Reallocating workspace storage: 110592
I0122 01:56:22.174330 27918 net.cpp:151] Setting up fc6
I0122 01:56:22.174341 27918 net.cpp:158] Top shape: 2 4096 16 16 (2097152)
I0122 01:56:22.174343 27918 net.cpp:166] Memory required for data: 284047792
I0122 01:56:22.174350 27918 layer_factory.hpp:76] Creating layer relu6
I0122 01:56:22.174356 27918 net.cpp:107] Creating Layer relu6
I0122 01:56:22.174360 27918 net.cpp:455] relu6 <- fc6
I0122 01:56:22.174365 27918 net.cpp:398] relu6 -> fc6 (in-place)
I0122 01:56:22.174501 27918 net.cpp:151] Setting up relu6
I0122 01:56:22.174509 27918 net.cpp:158] Top shape: 2 4096 16 16 (2097152)
I0122 01:56:22.174510 27918 net.cpp:166] Memory required for data: 292436400
I0122 01:56:22.174512 27918 layer_factory.hpp:76] Creating layer fc7
I0122 01:56:22.174520 27918 net.cpp:107] Creating Layer fc7
I0122 01:56:22.174521 27918 net.cpp:455] fc7 <- fc6
I0122 01:56:22.174526 27918 net.cpp:412] fc7 -> fc7
I0122 01:56:22.475075 27918 cudnn_conv_layer.cpp:198] Reallocating workspace storage: 49152
I0122 01:56:22.475107 27918 net.cpp:151] Setting up fc7
I0122 01:56:22.475113 27918 net.cpp:158] Top shape: 2 4096 16 16 (2097152)
I0122 01:56:22.475116 27918 net.cpp:166] Memory required for data: 300825008
I0122 01:56:22.475123 27918 layer_factory.hpp:76] Creating layer relu7
I0122 01:56:22.475132 27918 net.cpp:107] Creating Layer relu7
I0122 01:56:22.475137 27918 net.cpp:455] relu7 <- fc7
I0122 01:56:22.475144 27918 net.cpp:398] relu7 -> fc7 (in-place)
I0122 01:56:22.475390 27918 net.cpp:151] Setting up relu7
I0122 01:56:22.475412 27918 net.cpp:158] Top shape: 2 4096 16 16 (2097152)
I0122 01:56:22.475414 27918 net.cpp:166] Memory required for data: 309213616
I0122 01:56:22.475417 27918 layer_factory.hpp:76] Creating layer deconv-1
I0122 01:56:22.475424 27918 net.cpp:107] Creating Layer deconv-1
I0122 01:56:22.475426 27918 net.cpp:455] deconv-1 <- fc7
I0122 01:56:22.475433 27918 net.cpp:412] deconv-1 -> up-fc7
I0122 01:56:22.756911 27918 net.cpp:151] Setting up deconv-1
I0122 01:56:22.756928 27918 net.cpp:158] Top shape: 2 256 543 543 (150962688)
I0122 01:56:22.756932 27918 net.cpp:166] Memory required for data: 913064368
I0122 01:56:22.756937 27918 layer_factory.hpp:76] Creating layer crop
I0122 01:56:22.756948 27918 net.cpp:107] Creating Layer crop
I0122 01:56:22.756952 27918 net.cpp:455] crop <- up-fc7
I0122 01:56:22.756955 27918 net.cpp:455] crop <- image_images_0_split_1
I0122 01:56:22.756959 27918 net.cpp:412] crop -> conv-feature
I0122 01:56:22.757021 27918 net.cpp:151] Setting up crop
I0122 01:56:22.757028 27918 net.cpp:158] Top shape: 2 256 500 500 (128000000)
I0122 01:56:22.757032 27918 net.cpp:166] Memory required for data: 1425064368
I0122 01:56:22.757035 27918 layer_factory.hpp:76] Creating layer spixel_pooling1
I0122 01:56:22.757042 27918 net.cpp:107] Creating Layer spixel_pooling1
I0122 01:56:22.757045 27918 net.cpp:455] spixel_pooling1 <- conv-feature
I0122 01:56:22.757050 27918 net.cpp:455] spixel_pooling1 <- spixel_data
I0122 01:56:22.757055 27918 net.cpp:455] spixel_pooling1 <- spixel_ptr
I0122 01:56:22.757058 27918 net.cpp:455] spixel_pooling1 <- spixel_num
I0122 01:56:22.757184 27918 net.cpp:455] spixel_pooling1 <- mask_size
I0122 01:56:22.757189 27918 net.cpp:412] spixel_pooling1 -> spixel_feature
I0122 01:56:22.757208 27918 net.cpp:151] Setting up spixel_pooling1
I0122 01:56:22.757212 27918 net.cpp:158] Top shape: 2 1 9777 256 (5005824)
I0122 01:56:22.757215 27918 net.cpp:166] Memory required for data: 1445087664
I0122 01:56:22.757216 27918 layer_factory.hpp:76] Creating layer rpixel_pooling1
I0122 01:56:22.757220 27918 net.cpp:107] Creating Layer rpixel_pooling1
I0122 01:56:22.757222 27918 net.cpp:455] rpixel_pooling1 <- spixel_feature
I0122 01:56:22.757225 27918 net.cpp:455] rpixel_pooling1 <- seg_data
I0122 01:56:22.757227 27918 net.cpp:455] rpixel_pooling1 <- seg_ptr
I0122 01:56:22.757230 27918 net.cpp:455] rpixel_pooling1 <- seg_num_data_7_split_0
I0122 01:56:22.757232 27918 net.cpp:455] rpixel_pooling1 <- seg_coef
I0122 01:56:22.757236 27918 net.cpp:412] rpixel_pooling1 -> seg_feature
I0122 01:56:22.757251 27918 net.cpp:151] Setting up rpixel_pooling1
I0122 01:56:22.757254 27918 net.cpp:158] Top shape: 2 1 1800 256 (921600)
I0122 01:56:22.757256 27918 net.cpp:166] Memory required for data: 1448774064
I0122 01:56:22.757258 27918 layer_factory.hpp:76] Creating layer tracker
I0122 01:56:22.757263 27918 net.cpp:107] Creating Layer tracker
I0122 01:56:22.757266 27918 net.cpp:455] tracker <- seg_feature
I0122 01:56:22.757268 27918 net.cpp:455] tracker <- overlaps_data_9_split_0
I0122 01:56:22.757272 27918 net.cpp:455] tracker <- seg_num_data_7_split_1
I0122 01:56:22.757273 27918 net.cpp:455] tracker <- cont
I0122 01:56:22.757277 27918 net.cpp:412] tracker -> v
I0122 01:56:22.757282 27918 net.cpp:412] tracker -> vtilde
I0122 01:56:22.757289 27918 recurrent_layer.cpp:42] Initializing recurrent layer: assuming input batch contains 2 timesteps of 1 independent streams.
I0122 01:56:22.757680 27918 net.cpp:49] Initializing net from parameters: 
input: "x"
input: "overlaps"
input: "seg_num"
input: "cont"
input: "c_0"
input: "h_0"
input: "s_0"
force_backward: true
input_shape {
  dim: 2
  dim: 1
  dim: 1800
  dim: 256
}
input_shape {
  dim: 2
  dim: 1
  dim: 1800
  dim: 1800
}
input_shape {
  dim: 2
  dim: 1
}
input_shape {
  dim: 2
  dim: 1
}
input_shape {
  dim: 1
  dim: 1
  dim: 1800
  dim: 256
}
input_shape {
  dim: 1
  dim: 1
  dim: 256
  dim: 256
}
input_shape {
  dim: 1
  dim: 1
  dim: 1
}
layer {
  name: "tracker_cont_slice"
  type: "Slice"
  bottom: "cont"
  top: "cont_1"
  top: "cont_2"
  slice_param {
    axis: 0
  }
}
layer {
  name: "tracker_x_slice"
  type: "Slice"
  bottom: "x"
  top: "x_1"
  top: "x_2"
  slice_param {
    axis: 0
  }
}
layer {
  name: "tracker_overlaps_slice"
  type: "Slice"
  bottom: "overlaps"
  top: "overlaps_1"
  top: "overlaps_2"
  slice_param {
    axis: 0
  }
}
layer {
  name: "tracker_seg_num_slice"
  type: "Slice"
  bottom: "seg_num"
  top: "nseg_1"
  top: "nseg_2"
  slice_param {
    axis: 0
  }
}
layer {
  name: "tracker_overlaps_split_1"
  type: "Split"
  bottom: "overlaps_1"
  top: "overlaps1_1"
  top: "overlaps2_1"
}
layer {
  name: "tracker_x_split_1"
  type: "Split"
  bottom: "x_1"
  top: "x1_1"
  top: "x2_1"
  top: "x3_1"
  top: "x4_1"
}
layer {
  name: "tracker_cont_split_1"
  type: "Split"
  bottom: "cont_1"
  top: "cont1_1"
  top: "cont2_1"
  top: "cont3_1"
  top: "cont4_1"
}
layer {
  name: "tracker_h_split_0"
  type: "Split"
  bottom: "h_0"
  top: "h1_0"
  top: "h2_0"
}
layer {
  name: "tracker_c_split_0"
  type: "Split"
  bottom: "c_0"
  top: "c1_0"
  top: "c2_0"
}
layer {
  name: "tracker_s_cont_0"
  type: "Scalar"
  bottom: "s_0"
  bottom: "cont4_1"
  top: "s_cont_0"
  scalar_param {
    axis: 0
  }
}
layer {
  name: "tracker_s_cont_split_0"
  type: "Split"
  bottom: "s_cont_0"
  top: "s1_cont_0"
  top: "s2_cont_0"
}
layer {
  name: "tracker_hm1_0"
  type: "MatInv"
  bottom: "h1_0"
  bottom: "s1_cont_0"
  top: "hm1_0"
  matinv_param {
    lambda: 10000
  }
}
layer {
  name: "tracker_w_0"
  type: "MatMult"
  bottom: "c1_0"
  bottom: "hm1_0"
  top: "w_0"
}
layer {
  name: "tracker_v_1"
  type: "MatMult"
  bottom: "w_0"
  bottom: "x_1"
  top: "v_1"
  matmult_param {
    transpose_b: true
  }
}
layer {
  name: "tracker_rename_overlaps_1"
  type: "Split"
  bottom: "overlaps1_1"
  top: "s_overlaps_1"
}
layer {
  name: "tracker_v_cont_1"
  type: "Switch"
  bottom: "s_overlaps_1"
  bottom: "v_1"
  bottom: "cont1_1"
  top: "v_cont_1"
  switch_param {
    axis: 2
  }
}
layer {
  name: "tracker_v_split_1"
  type: "Split"
  bottom: "v_cont_1"
  top: "v1_1"
  top: "v3_1"
  top: "v4_1"
  top: "v2_1"
}
layer {
  name: "tracker_vtilde_1"
  type: "TrackerMatching"
  bottom: "v4_1"
  bottom: "overlaps2_1"
  bottom: "nseg_1"
  top: "vtilde_1"
}
layer {
  name: "tracker_vtilde_split_1"
  type: "Split"
  bottom: "vtilde_1"
  top: "vtilde1_1"
}
layer {
  name: "tracker_reshape1_1"
  type: "Reshape"
  bottom: "v1_1"
  top: "vr_1"
  reshape_param {
    shape {
      dim: 1
      dim: 1
      dim: 1800
      dim: 1800
    }
  }
}
layer {
  name: "tracker_max_1"
  type: "Pooling"
  bottom: "vr_1"
  top: "mr_1"
  pooling_param {
    pool: MAX
    kernel_h: 1800
    kernel_w: 1
  }
}
layer {
  name: "tracker_reshape2_1"
  type: "Reshape"
  bottom: "mr_1"
  top: "m_1"
  reshape_param {
    shape {
      dim: 1
      dim: 1
      dim: 1800
    }
  }
}
layer {
  name: "tracker_m_split_1"
  type: "Split"
  bottom: "m_1"
  top: "m1_1"
  top: "m2_1"
}
layer {
  name: "tracker_concat_s_elemens_1"
  type: "Concat"
  bottom: "m2_1"
  bottom: "s2_cont_0"
  top: "s_elem_1"
  concat_param {
    axis: 2
  }
}
layer {
  name: "tracker_sum_s_elemens_1"
  type: "Reduction"
  bottom: "s_elem_1"
  top: "ns_1"
  concat_param {
    axis: 2
  }
}
layer {
  name: "tracker_s_reshape_1"
  type: "Reshape"
  bottom: "ns_1"
  top: "s_1"
  reshape_param {
    shape {
      dim: 1
      dim: 1
      dim: 1
    }
  }
}
layer {
  name: "tracker_mx_1"
  type: "MatMult"
  bottom: "m1_1"
  bottom: "x2_1"
  top: "mx_1"
  matmult_param {
    diagonal_input: true
  }
}
layer {
  name: "tracker_mx_split_1"
  type: "Split"
  bottom: "mx_1"
  top: "mx1_1"
  top: "mx2_1"
}
layer {
  name: "tracker_xmx_1"
  type: "MatMult"
  bottom: "x3_1"
  bottom: "mx1_1"
  top: "xmx_1"
  matmult_param {
    transpose_a: true
  }
}
layer {
  name: "tracker_h_cont_0"
  type: "Scalar"
  bottom: "h2_0"
  bottom: "cont2_1"
  top: "h_cont_0"
  scalar_param {
    axis: 0
  }
}
layer {
  name: "tracker_h_1"
  type: "Eltwise"
  bottom: "h_cont_0"
  bottom: "xmx_1"
  top: "h_1"
  eltwise_param {
    operation: SUM
  }
}
layer {
  name: "tracker_vmx_1"
  type: "MatMult"
  bottom: "v2_1"
  bottom: "mx2_1"
  top: "vmx_1"
}
layer {
  name: "tracker_c_cont_0"
  type: "Scalar"
  bottom: "c2_0"
  bottom: "cont3_1"
  top: "c_cont_0"
  scalar_param {
    axis: 0
  }
}
layer {
  name: "tracker_c_1"
  type: "Eltwise"
  bottom: "c_cont_0"
  bottom: "vmx_1"
  top: "c_1"
  eltwise_param {
    operation: SUM
  }
}
layer {
  name: "tracker_overlaps_split_2"
  type: "Split"
  bottom: "overlaps_2"
  top: "overlaps1_2"
  top: "overlaps2_2"
}
layer {
  name: "tracker_x_split_2"
  type: "Split"
  bottom: "x_2"
  top: "x1_2"
  top: "x2_2"
  top: "x3_2"
  top: "x4_2"
}
layer {
  name: "tracker_cont_split_2"
  type: "Split"
  bottom: "cont_2"
  top: "cont1_2"
  top: "cont2_2"
  top: "cont3_2"
  top: "cont4_2"
}
layer {
  name: "tracker_h_split_1"
  type: "Split"
  bottom: "h_1"
  top: "h1_1"
  top: "h2_1"
}
layer {
  name: "tracker_c_split_1"
  type: "Split"
  bottom: "c_1"
  top: "c1_1"
  top: "c2_1"
}
layer {
  name: "tracker_s_cont_1"
  type: "Scalar"
  bottom: "s_1"
  bottom: "cont4_2"
  top: "s_cont_1"
  scalar_param {
    axis: 0
  }
}
layer {
  name: "tracker_s_cont_split_1"
  type: "Split"
  bottom: "s_cont_1"
  top: "s1_cont_1"
  top: "s2_cont_1"
}
layer {
  name: "tracker_hm1_1"
  type: "MatInv"
  bottom: "h1_1"
  bottom: "s1_cont_1"
  top: "hm1_1"
  matinv_param {
    lambda: 10000
  }
}
layer {
  name: "tracker_w_1"
  type: "MatMult"
  bottom: "c1_1"
  bottom: "hm1_1"
  top: "w_1"
}
layer {
  name: "tracker_v_2"
  type: "MatMult"
  bottom: "w_1"
  bottom: "x_2"
  top: "v_2"
  matmult_param {
    transpose_b: true
  }
}
layer {
  name: "tracker_rename_overlaps_2"
  type: "Split"
  bottom: "overlaps1_2"
  top: "s_overlaps_2"
}
layer {
  name: "tracker_v_cont_2"
  type: "Switch"
  bottom: "s_overlaps_2"
  bottom: "v_2"
  bottom: "cont1_2"
  top: "v_cont_2"
  switch_param {
    axis: 2
  }
}
layer {
  name: "tracker_v_split_2"
  type: "Split"
  bottom: "v_cont_2"
  top: "v1_2"
  top: "v3_2"
  top: "v4_2"
  top: "v2_2"
}
layer {
  name: "tracker_vtilde_2"
  type: "TrackerMatching"
  bottom: "v4_2"
  bottom: "overlaps2_2"
  bottom: "nseg_2"
  top: "vtilde_2"
}
layer {
  name: "tracker_vtilde_split_2"
  type: "Split"
  bottom: "vtilde_2"
  top: "vtilde1_2"
}
layer {
  name: "tracker_reshape1_2"
  type: "Reshape"
  bottom: "v1_2"
  top: "vr_2"
  reshape_param {
    shape {
      dim: 1
      dim: 1
      dim: 1800
      dim: 1800
    }
  }
}
layer {
  name: "tracker_max_2"
  type: "Pooling"
  bottom: "vr_2"
  top: "mr_2"
  pooling_param {
    pool: MAX
    kernel_h: 1800
    kernel_w: 1
  }
}
layer {
  name: "tracker_reshape2_2"
  type: "Reshape"
  bottom: "mr_2"
  top: "m_2"
  reshape_param {
    shape {
      dim: 1
      dim: 1
      dim: 1800
    }
  }
}
layer {
  name: "tracker_m_split_2"
  type: "Split"
  bottom: "m_2"
  top: "m1_2"
  top: "m2_2"
}
layer {
  name: "tracker_concat_s_elemens_2"
  type: "Concat"
  bottom: "m2_2"
  bottom: "s2_cont_1"
  top: "s_elem_2"
  concat_param {
    axis: 2
  }
}
layer {
  name: "tracker_sum_s_elemens_2"
  type: "Reduction"
  bottom: "s_elem_2"
  top: "ns_2"
  concat_param {
    axis: 2
  }
}
layer {
  name: "tracker_s_reshape_2"
  type: "Reshape"
  bottom: "ns_2"
  top: "s_2"
  reshape_param {
    shape {
      dim: 1
      dim: 1
      dim: 1
    }
  }
}
layer {
  name: "tracker_mx_2"
  type: "MatMult"
  bottom: "m1_2"
  bottom: "x2_2"
  top: "mx_2"
  matmult_param {
    diagonal_input: true
  }
}
layer {
  name: "tracker_mx_split_2"
  type: "Split"
  bottom: "mx_2"
  top: "mx1_2"
  top: "mx2_2"
}
layer {
  name: "tracker_xmx_2"
  type: "MatMult"
  bottom: "x3_2"
  bottom: "mx1_2"
  top: "xmx_2"
  matmult_param {
    transpose_a: true
  }
}
layer {
  name: "tracker_h_cont_1"
  type: "Scalar"
  bottom: "h2_1"
  bottom: "cont2_2"
  top: "h_cont_1"
  scalar_param {
    axis: 0
  }
}
layer {
  name: "tracker_h_2"
  type: "Eltwise"
  bottom: "h_cont_1"
  bottom: "xmx_2"
  top: "h_2"
  eltwise_param {
    operation: SUM
  }
}
layer {
  name: "tracker_vmx_2"
  type: "MatMult"
  bottom: "v2_2"
  bottom: "mx2_2"
  top: "vmx_2"
}
layer {
  name: "tracker_c_cont_1"
  type: "Scalar"
  bottom: "c2_1"
  bottom: "cont3_2"
  top: "c_cont_1"
  scalar_param {
    axis: 0
  }
}
layer {
  name: "tracker_c_2"
  type: "Eltwise"
  bottom: "c_cont_1"
  bottom: "vmx_2"
  top: "c_2"
  eltwise_param {
    operation: SUM
  }
}
layer {
  name: "tracker_v_concat"
  type: "Concat"
  bottom: "v3_1"
  bottom: "v3_2"
  top: "v"
  concat_param {
    axis: 0
  }
}
layer {
  name: "tracker_vtilde_concat"
  type: "Concat"
  bottom: "vtilde1_1"
  bottom: "vtilde1_2"
  top: "vtilde"
  concat_param {
    axis: 0
  }
}
I0122 01:56:22.757900 27918 net.cpp:414] Input 0 -> x
I0122 01:56:22.757922 27918 net.cpp:414] Input 1 -> overlaps
I0122 01:56:22.757937 27918 net.cpp:414] Input 2 -> seg_num
I0122 01:56:22.757951 27918 net.cpp:414] Input 3 -> cont
I0122 01:56:22.757964 27918 net.cpp:414] Input 4 -> c_0
I0122 01:56:22.757977 27918 net.cpp:414] Input 5 -> h_0
I0122 01:56:22.757988 27918 net.cpp:414] Input 6 -> s_0
I0122 01:56:22.758004 27918 layer_factory.hpp:76] Creating layer tracker_cont_slice
I0122 01:56:22.758008 27918 net.cpp:107] Creating Layer tracker_cont_slice
I0122 01:56:22.758010 27918 net.cpp:455] tracker_cont_slice <- cont
I0122 01:56:22.758013 27918 net.cpp:412] tracker_cont_slice -> cont_1
I0122 01:56:22.758018 27918 net.cpp:412] tracker_cont_slice -> cont_2
I0122 01:56:22.758040 27918 net.cpp:151] Setting up tracker_cont_slice
I0122 01:56:22.758044 27918 net.cpp:158] Top shape: 1 1 (1)
I0122 01:56:22.758046 27918 net.cpp:158] Top shape: 1 1 (1)
I0122 01:56:22.758049 27918 net.cpp:166] Memory required for data: 8
I0122 01:56:22.758050 27918 layer_factory.hpp:76] Creating layer tracker_x_slice
I0122 01:56:22.758060 27918 net.cpp:107] Creating Layer tracker_x_slice
I0122 01:56:22.758062 27918 net.cpp:455] tracker_x_slice <- x
I0122 01:56:22.758065 27918 net.cpp:412] tracker_x_slice -> x_1
I0122 01:56:22.758070 27918 net.cpp:412] tracker_x_slice -> x_2
I0122 01:56:22.758091 27918 net.cpp:151] Setting up tracker_x_slice
I0122 01:56:22.758095 27918 net.cpp:158] Top shape: 1 1 1800 256 (460800)
I0122 01:56:22.758097 27918 net.cpp:158] Top shape: 1 1 1800 256 (460800)
I0122 01:56:22.758100 27918 net.cpp:166] Memory required for data: 3686408
I0122 01:56:22.758101 27918 layer_factory.hpp:76] Creating layer x_1_tracker_x_slice_0_split
I0122 01:56:22.758105 27918 net.cpp:107] Creating Layer x_1_tracker_x_slice_0_split
I0122 01:56:22.758107 27918 net.cpp:455] x_1_tracker_x_slice_0_split <- x_1
I0122 01:56:22.758111 27918 net.cpp:412] x_1_tracker_x_slice_0_split -> x_1_tracker_x_slice_0_split_0
I0122 01:56:22.758115 27918 net.cpp:412] x_1_tracker_x_slice_0_split -> x_1_tracker_x_slice_0_split_1
I0122 01:56:22.758136 27918 net.cpp:151] Setting up x_1_tracker_x_slice_0_split
I0122 01:56:22.758138 27918 net.cpp:158] Top shape: 1 1 1800 256 (460800)
I0122 01:56:22.758141 27918 net.cpp:158] Top shape: 1 1 1800 256 (460800)
I0122 01:56:22.758143 27918 net.cpp:166] Memory required for data: 7372808
I0122 01:56:22.758144 27918 layer_factory.hpp:76] Creating layer x_2_tracker_x_slice_1_split
I0122 01:56:22.758147 27918 net.cpp:107] Creating Layer x_2_tracker_x_slice_1_split
I0122 01:56:22.758149 27918 net.cpp:455] x_2_tracker_x_slice_1_split <- x_2
I0122 01:56:22.758152 27918 net.cpp:412] x_2_tracker_x_slice_1_split -> x_2_tracker_x_slice_1_split_0
I0122 01:56:22.758157 27918 net.cpp:412] x_2_tracker_x_slice_1_split -> x_2_tracker_x_slice_1_split_1
I0122 01:56:22.758180 27918 net.cpp:151] Setting up x_2_tracker_x_slice_1_split
I0122 01:56:22.758184 27918 net.cpp:158] Top shape: 1 1 1800 256 (460800)
I0122 01:56:22.758186 27918 net.cpp:158] Top shape: 1 1 1800 256 (460800)
I0122 01:56:22.758188 27918 net.cpp:166] Memory required for data: 11059208
I0122 01:56:22.758190 27918 layer_factory.hpp:76] Creating layer tracker_overlaps_slice
I0122 01:56:22.758194 27918 net.cpp:107] Creating Layer tracker_overlaps_slice
I0122 01:56:22.758196 27918 net.cpp:455] tracker_overlaps_slice <- overlaps
I0122 01:56:22.758199 27918 net.cpp:412] tracker_overlaps_slice -> overlaps_1
I0122 01:56:22.758203 27918 net.cpp:412] tracker_overlaps_slice -> overlaps_2
I0122 01:56:22.758224 27918 net.cpp:151] Setting up tracker_overlaps_slice
I0122 01:56:22.758227 27918 net.cpp:158] Top shape: 1 1 1800 1800 (3240000)
I0122 01:56:22.758231 27918 net.cpp:158] Top shape: 1 1 1800 1800 (3240000)
I0122 01:56:22.758234 27918 net.cpp:166] Memory required for data: 36979208
I0122 01:56:22.758235 27918 layer_factory.hpp:76] Creating layer tracker_seg_num_slice
I0122 01:56:22.758237 27918 net.cpp:107] Creating Layer tracker_seg_num_slice
I0122 01:56:22.758239 27918 net.cpp:455] tracker_seg_num_slice <- seg_num
I0122 01:56:22.758242 27918 net.cpp:412] tracker_seg_num_slice -> nseg_1
I0122 01:56:22.758246 27918 net.cpp:412] tracker_seg_num_slice -> nseg_2
I0122 01:56:22.758266 27918 net.cpp:151] Setting up tracker_seg_num_slice
I0122 01:56:22.758270 27918 net.cpp:158] Top shape: 1 1 (1)
I0122 01:56:22.758272 27918 net.cpp:158] Top shape: 1 1 (1)
I0122 01:56:22.758273 27918 net.cpp:166] Memory required for data: 36979216
I0122 01:56:22.758275 27918 layer_factory.hpp:76] Creating layer tracker_overlaps_split_1
I0122 01:56:22.758278 27918 net.cpp:107] Creating Layer tracker_overlaps_split_1
I0122 01:56:22.758280 27918 net.cpp:455] tracker_overlaps_split_1 <- overlaps_1
I0122 01:56:22.758285 27918 net.cpp:412] tracker_overlaps_split_1 -> overlaps1_1
I0122 01:56:22.758287 27918 net.cpp:412] tracker_overlaps_split_1 -> overlaps2_1
I0122 01:56:22.758307 27918 net.cpp:151] Setting up tracker_overlaps_split_1
I0122 01:56:22.758311 27918 net.cpp:158] Top shape: 1 1 1800 1800 (3240000)
I0122 01:56:22.758314 27918 net.cpp:158] Top shape: 1 1 1800 1800 (3240000)
I0122 01:56:22.758321 27918 net.cpp:166] Memory required for data: 62899216
I0122 01:56:22.758322 27918 layer_factory.hpp:76] Creating layer tracker_x_split_1
I0122 01:56:22.758325 27918 net.cpp:107] Creating Layer tracker_x_split_1
I0122 01:56:22.758327 27918 net.cpp:455] tracker_x_split_1 <- x_1_tracker_x_slice_0_split_0
I0122 01:56:22.758330 27918 net.cpp:412] tracker_x_split_1 -> x1_1
I0122 01:56:22.758333 27918 net.cpp:412] tracker_x_split_1 -> x2_1
I0122 01:56:22.758337 27918 net.cpp:412] tracker_x_split_1 -> x3_1
I0122 01:56:22.758340 27918 net.cpp:412] tracker_x_split_1 -> x4_1
I0122 01:56:22.758375 27918 net.cpp:151] Setting up tracker_x_split_1
I0122 01:56:22.758378 27918 net.cpp:158] Top shape: 1 1 1800 256 (460800)
I0122 01:56:22.758381 27918 net.cpp:158] Top shape: 1 1 1800 256 (460800)
I0122 01:56:22.758383 27918 net.cpp:158] Top shape: 1 1 1800 256 (460800)
I0122 01:56:22.758385 27918 net.cpp:158] Top shape: 1 1 1800 256 (460800)
I0122 01:56:22.758388 27918 net.cpp:166] Memory required for data: 70272016
I0122 01:56:22.758389 27918 layer_factory.hpp:76] Creating layer tracker_cont_split_1
I0122 01:56:22.758393 27918 net.cpp:107] Creating Layer tracker_cont_split_1
I0122 01:56:22.758394 27918 net.cpp:455] tracker_cont_split_1 <- cont_1
I0122 01:56:22.758397 27918 net.cpp:412] tracker_cont_split_1 -> cont1_1
I0122 01:56:22.758401 27918 net.cpp:412] tracker_cont_split_1 -> cont2_1
I0122 01:56:22.758405 27918 net.cpp:412] tracker_cont_split_1 -> cont3_1
I0122 01:56:22.758409 27918 net.cpp:412] tracker_cont_split_1 -> cont4_1
I0122 01:56:22.758443 27918 net.cpp:151] Setting up tracker_cont_split_1
I0122 01:56:22.758446 27918 net.cpp:158] Top shape: 1 1 (1)
I0122 01:56:22.758448 27918 net.cpp:158] Top shape: 1 1 (1)
I0122 01:56:22.758451 27918 net.cpp:158] Top shape: 1 1 (1)
I0122 01:56:22.758453 27918 net.cpp:158] Top shape: 1 1 (1)
I0122 01:56:22.758455 27918 net.cpp:166] Memory required for data: 70272032
I0122 01:56:22.758457 27918 layer_factory.hpp:76] Creating layer tracker_h_split_0
I0122 01:56:22.758460 27918 net.cpp:107] Creating Layer tracker_h_split_0
I0122 01:56:22.758462 27918 net.cpp:455] tracker_h_split_0 <- h_0
I0122 01:56:22.758466 27918 net.cpp:412] tracker_h_split_0 -> h1_0
I0122 01:56:22.758469 27918 net.cpp:412] tracker_h_split_0 -> h2_0
I0122 01:56:22.758491 27918 net.cpp:151] Setting up tracker_h_split_0
I0122 01:56:22.758493 27918 net.cpp:158] Top shape: 1 1 256 256 (65536)
I0122 01:56:22.758496 27918 net.cpp:158] Top shape: 1 1 256 256 (65536)
I0122 01:56:22.758497 27918 net.cpp:166] Memory required for data: 70796320
I0122 01:56:22.758501 27918 layer_factory.hpp:76] Creating layer tracker_c_split_0
I0122 01:56:22.758503 27918 net.cpp:107] Creating Layer tracker_c_split_0
I0122 01:56:22.758507 27918 net.cpp:455] tracker_c_split_0 <- c_0
I0122 01:56:22.758512 27918 net.cpp:412] tracker_c_split_0 -> c1_0
I0122 01:56:22.758517 27918 net.cpp:412] tracker_c_split_0 -> c2_0
I0122 01:56:22.758545 27918 net.cpp:151] Setting up tracker_c_split_0
I0122 01:56:22.758549 27918 net.cpp:158] Top shape: 1 1 1800 256 (460800)
I0122 01:56:22.758553 27918 net.cpp:158] Top shape: 1 1 1800 256 (460800)
I0122 01:56:22.758554 27918 net.cpp:166] Memory required for data: 74482720
I0122 01:56:22.758556 27918 layer_factory.hpp:76] Creating layer tracker_s_cont_0
I0122 01:56:22.758563 27918 net.cpp:107] Creating Layer tracker_s_cont_0
I0122 01:56:22.758565 27918 net.cpp:455] tracker_s_cont_0 <- s_0
I0122 01:56:22.758569 27918 net.cpp:455] tracker_s_cont_0 <- cont4_1
I0122 01:56:22.758572 27918 net.cpp:412] tracker_s_cont_0 -> s_cont_0
I0122 01:56:22.758611 27918 net.cpp:151] Setting up tracker_s_cont_0
I0122 01:56:22.758615 27918 net.cpp:158] Top shape: 1 1 1 (1)
I0122 01:56:22.758617 27918 net.cpp:166] Memory required for data: 74482724
I0122 01:56:22.758620 27918 layer_factory.hpp:76] Creating layer tracker_s_cont_split_0
I0122 01:56:22.758623 27918 net.cpp:107] Creating Layer tracker_s_cont_split_0
I0122 01:56:22.758625 27918 net.cpp:455] tracker_s_cont_split_0 <- s_cont_0
I0122 01:56:22.758633 27918 net.cpp:412] tracker_s_cont_split_0 -> s1_cont_0
I0122 01:56:22.758637 27918 net.cpp:412] tracker_s_cont_split_0 -> s2_cont_0
I0122 01:56:22.758657 27918 net.cpp:151] Setting up tracker_s_cont_split_0
I0122 01:56:22.758661 27918 net.cpp:158] Top shape: 1 1 1 (1)
I0122 01:56:22.758663 27918 net.cpp:158] Top shape: 1 1 1 (1)
I0122 01:56:22.758666 27918 net.cpp:166] Memory required for data: 74482732
I0122 01:56:22.758667 27918 layer_factory.hpp:76] Creating layer tracker_hm1_0
I0122 01:56:22.758671 27918 net.cpp:107] Creating Layer tracker_hm1_0
I0122 01:56:22.758672 27918 net.cpp:455] tracker_hm1_0 <- h1_0
I0122 01:56:22.758676 27918 net.cpp:455] tracker_hm1_0 <- s1_cont_0
I0122 01:56:22.758678 27918 net.cpp:412] tracker_hm1_0 -> hm1_0
I0122 01:56:22.758702 27918 net.cpp:151] Setting up tracker_hm1_0
I0122 01:56:22.758705 27918 net.cpp:158] Top shape: 1 1 256 256 (65536)
I0122 01:56:22.758708 27918 net.cpp:166] Memory required for data: 74744876
I0122 01:56:22.758709 27918 layer_factory.hpp:76] Creating layer tracker_w_0
I0122 01:56:22.758713 27918 net.cpp:107] Creating Layer tracker_w_0
I0122 01:56:22.758716 27918 net.cpp:455] tracker_w_0 <- c1_0
I0122 01:56:22.758718 27918 net.cpp:455] tracker_w_0 <- hm1_0
I0122 01:56:22.758721 27918 net.cpp:412] tracker_w_0 -> w_0
I0122 01:56:22.758738 27918 net.cpp:151] Setting up tracker_w_0
I0122 01:56:22.758741 27918 net.cpp:158] Top shape: 1 1 1800 256 (460800)
I0122 01:56:22.758743 27918 net.cpp:166] Memory required for data: 76588076
I0122 01:56:22.758744 27918 layer_factory.hpp:76] Creating layer tracker_v_1
I0122 01:56:22.758747 27918 net.cpp:107] Creating Layer tracker_v_1
I0122 01:56:22.758749 27918 net.cpp:455] tracker_v_1 <- w_0
I0122 01:56:22.758752 27918 net.cpp:455] tracker_v_1 <- x_1_tracker_x_slice_0_split_1
I0122 01:56:22.758755 27918 net.cpp:412] tracker_v_1 -> v_1
I0122 01:56:22.758769 27918 net.cpp:151] Setting up tracker_v_1
I0122 01:56:22.758772 27918 net.cpp:158] Top shape: 1 1 1800 1800 (3240000)
I0122 01:56:22.758774 27918 net.cpp:166] Memory required for data: 89548076
I0122 01:56:22.758775 27918 layer_factory.hpp:76] Creating layer tracker_rename_overlaps_1
I0122 01:56:22.758780 27918 net.cpp:107] Creating Layer tracker_rename_overlaps_1
I0122 01:56:22.758781 27918 net.cpp:455] tracker_rename_overlaps_1 <- overlaps1_1
I0122 01:56:22.758785 27918 net.cpp:412] tracker_rename_overlaps_1 -> s_overlaps_1
I0122 01:56:22.758796 27918 net.cpp:151] Setting up tracker_rename_overlaps_1
I0122 01:56:22.758800 27918 net.cpp:158] Top shape: 1 1 1800 1800 (3240000)
I0122 01:56:22.758802 27918 net.cpp:166] Memory required for data: 102508076
I0122 01:56:22.758805 27918 layer_factory.hpp:76] Creating layer tracker_v_cont_1
I0122 01:56:22.758807 27918 net.cpp:107] Creating Layer tracker_v_cont_1
I0122 01:56:22.758810 27918 net.cpp:455] tracker_v_cont_1 <- s_overlaps_1
I0122 01:56:22.758811 27918 net.cpp:455] tracker_v_cont_1 <- v_1
I0122 01:56:22.758815 27918 net.cpp:455] tracker_v_cont_1 <- cont1_1
I0122 01:56:22.758817 27918 net.cpp:412] tracker_v_cont_1 -> v_cont_1
I0122 01:56:22.758831 27918 net.cpp:151] Setting up tracker_v_cont_1
I0122 01:56:22.758833 27918 net.cpp:158] Top shape: 1 1 1800 1800 (3240000)
I0122 01:56:22.758836 27918 net.cpp:166] Memory required for data: 115468076
I0122 01:56:22.758837 27918 layer_factory.hpp:76] Creating layer tracker_v_split_1
I0122 01:56:22.758841 27918 net.cpp:107] Creating Layer tracker_v_split_1
I0122 01:56:22.758843 27918 net.cpp:455] tracker_v_split_1 <- v_cont_1
I0122 01:56:22.758846 27918 net.cpp:412] tracker_v_split_1 -> v1_1
I0122 01:56:22.758849 27918 net.cpp:412] tracker_v_split_1 -> v3_1
I0122 01:56:22.758853 27918 net.cpp:412] tracker_v_split_1 -> v4_1
I0122 01:56:22.758857 27918 net.cpp:412] tracker_v_split_1 -> v2_1
I0122 01:56:22.758891 27918 net.cpp:151] Setting up tracker_v_split_1
I0122 01:56:22.758894 27918 net.cpp:158] Top shape: 1 1 1800 1800 (3240000)
I0122 01:56:22.758898 27918 net.cpp:158] Top shape: 1 1 1800 1800 (3240000)
I0122 01:56:22.758899 27918 net.cpp:158] Top shape: 1 1 1800 1800 (3240000)
I0122 01:56:22.758906 27918 net.cpp:158] Top shape: 1 1 1800 1800 (3240000)
I0122 01:56:22.758908 27918 net.cpp:166] Memory required for data: 167308076
I0122 01:56:22.758910 27918 layer_factory.hpp:76] Creating layer tracker_vtilde_1
I0122 01:56:22.758913 27918 net.cpp:107] Creating Layer tracker_vtilde_1
I0122 01:56:22.758915 27918 net.cpp:455] tracker_vtilde_1 <- v4_1
I0122 01:56:22.758918 27918 net.cpp:455] tracker_vtilde_1 <- overlaps2_1
I0122 01:56:22.758920 27918 net.cpp:455] tracker_vtilde_1 <- nseg_1
I0122 01:56:22.758924 27918 net.cpp:412] tracker_vtilde_1 -> vtilde_1
I0122 01:56:22.758945 27918 net.cpp:151] Setting up tracker_vtilde_1
I0122 01:56:22.758949 27918 net.cpp:158] Top shape: 1 1 1800 1800 (3240000)
I0122 01:56:22.758950 27918 net.cpp:166] Memory required for data: 180268076
I0122 01:56:22.758952 27918 layer_factory.hpp:76] Creating layer tracker_vtilde_split_1
I0122 01:56:22.758955 27918 net.cpp:107] Creating Layer tracker_vtilde_split_1
I0122 01:56:22.758956 27918 net.cpp:455] tracker_vtilde_split_1 <- vtilde_1
I0122 01:56:22.758960 27918 net.cpp:412] tracker_vtilde_split_1 -> vtilde1_1
I0122 01:56:22.758972 27918 net.cpp:151] Setting up tracker_vtilde_split_1
I0122 01:56:22.758975 27918 net.cpp:158] Top shape: 1 1 1800 1800 (3240000)
I0122 01:56:22.758977 27918 net.cpp:166] Memory required for data: 193228076
I0122 01:56:22.758980 27918 layer_factory.hpp:76] Creating layer tracker_reshape1_1
I0122 01:56:22.758982 27918 net.cpp:107] Creating Layer tracker_reshape1_1
I0122 01:56:22.758985 27918 net.cpp:455] tracker_reshape1_1 <- v1_1
I0122 01:56:22.758987 27918 net.cpp:412] tracker_reshape1_1 -> vr_1
I0122 01:56:22.759004 27918 net.cpp:151] Setting up tracker_reshape1_1
I0122 01:56:22.759007 27918 net.cpp:158] Top shape: 1 1 1800 1800 (3240000)
I0122 01:56:22.759009 27918 net.cpp:166] Memory required for data: 206188076
I0122 01:56:22.759011 27918 layer_factory.hpp:76] Creating layer tracker_max_1
I0122 01:56:22.759014 27918 net.cpp:107] Creating Layer tracker_max_1
I0122 01:56:22.759016 27918 net.cpp:455] tracker_max_1 <- vr_1
I0122 01:56:22.759019 27918 net.cpp:412] tracker_max_1 -> mr_1
I0122 01:56:22.759177 27918 net.cpp:151] Setting up tracker_max_1
I0122 01:56:22.759183 27918 net.cpp:158] Top shape: 1 1 1 1800 (1800)
I0122 01:56:22.759186 27918 net.cpp:166] Memory required for data: 206195276
I0122 01:56:22.759187 27918 layer_factory.hpp:76] Creating layer tracker_reshape2_1
I0122 01:56:22.759191 27918 net.cpp:107] Creating Layer tracker_reshape2_1
I0122 01:56:22.759194 27918 net.cpp:455] tracker_reshape2_1 <- mr_1
I0122 01:56:22.759197 27918 net.cpp:412] tracker_reshape2_1 -> m_1
I0122 01:56:22.759212 27918 net.cpp:151] Setting up tracker_reshape2_1
I0122 01:56:22.759215 27918 net.cpp:158] Top shape: 1 1 1800 (1800)
I0122 01:56:22.759217 27918 net.cpp:166] Memory required for data: 206202476
I0122 01:56:22.759218 27918 layer_factory.hpp:76] Creating layer tracker_m_split_1
I0122 01:56:22.759222 27918 net.cpp:107] Creating Layer tracker_m_split_1
I0122 01:56:22.759223 27918 net.cpp:455] tracker_m_split_1 <- m_1
I0122 01:56:22.759227 27918 net.cpp:412] tracker_m_split_1 -> m1_1
I0122 01:56:22.759230 27918 net.cpp:412] tracker_m_split_1 -> m2_1
I0122 01:56:22.759253 27918 net.cpp:151] Setting up tracker_m_split_1
I0122 01:56:22.759255 27918 net.cpp:158] Top shape: 1 1 1800 (1800)
I0122 01:56:22.759258 27918 net.cpp:158] Top shape: 1 1 1800 (1800)
I0122 01:56:22.759260 27918 net.cpp:166] Memory required for data: 206216876
I0122 01:56:22.759263 27918 layer_factory.hpp:76] Creating layer tracker_concat_s_elemens_1
I0122 01:56:22.759266 27918 net.cpp:107] Creating Layer tracker_concat_s_elemens_1
I0122 01:56:22.759268 27918 net.cpp:455] tracker_concat_s_elemens_1 <- m2_1
I0122 01:56:22.759271 27918 net.cpp:455] tracker_concat_s_elemens_1 <- s2_cont_0
I0122 01:56:22.759274 27918 net.cpp:412] tracker_concat_s_elemens_1 -> s_elem_1
I0122 01:56:22.759289 27918 net.cpp:151] Setting up tracker_concat_s_elemens_1
I0122 01:56:22.759291 27918 net.cpp:158] Top shape: 1 1 1801 (1801)
I0122 01:56:22.759294 27918 net.cpp:166] Memory required for data: 206224080
I0122 01:56:22.759299 27918 layer_factory.hpp:76] Creating layer tracker_sum_s_elemens_1
I0122 01:56:22.759304 27918 net.cpp:107] Creating Layer tracker_sum_s_elemens_1
I0122 01:56:22.759305 27918 net.cpp:455] tracker_sum_s_elemens_1 <- s_elem_1
I0122 01:56:22.759309 27918 net.cpp:412] tracker_sum_s_elemens_1 -> ns_1
I0122 01:56:22.759330 27918 net.cpp:151] Setting up tracker_sum_s_elemens_1
I0122 01:56:22.759335 27918 net.cpp:158] Top shape: (1)
I0122 01:56:22.759336 27918 net.cpp:166] Memory required for data: 206224084
I0122 01:56:22.759338 27918 layer_factory.hpp:76] Creating layer tracker_s_reshape_1
I0122 01:56:22.759342 27918 net.cpp:107] Creating Layer tracker_s_reshape_1
I0122 01:56:22.759344 27918 net.cpp:455] tracker_s_reshape_1 <- ns_1
I0122 01:56:22.759348 27918 net.cpp:412] tracker_s_reshape_1 -> s_1
I0122 01:56:22.759361 27918 net.cpp:151] Setting up tracker_s_reshape_1
I0122 01:56:22.759366 27918 net.cpp:158] Top shape: 1 1 1 (1)
I0122 01:56:22.759367 27918 net.cpp:166] Memory required for data: 206224088
I0122 01:56:22.759369 27918 layer_factory.hpp:76] Creating layer tracker_mx_1
I0122 01:56:22.759373 27918 net.cpp:107] Creating Layer tracker_mx_1
I0122 01:56:22.759376 27918 net.cpp:455] tracker_mx_1 <- m1_1
I0122 01:56:22.759378 27918 net.cpp:455] tracker_mx_1 <- x2_1
I0122 01:56:22.759382 27918 net.cpp:412] tracker_mx_1 -> mx_1
I0122 01:56:22.759397 27918 net.cpp:151] Setting up tracker_mx_1
I0122 01:56:22.759400 27918 net.cpp:158] Top shape: 1 1 1800 256 (460800)
I0122 01:56:22.759402 27918 net.cpp:166] Memory required for data: 208067288
I0122 01:56:22.759404 27918 layer_factory.hpp:76] Creating layer tracker_mx_split_1
I0122 01:56:22.759407 27918 net.cpp:107] Creating Layer tracker_mx_split_1
I0122 01:56:22.759409 27918 net.cpp:455] tracker_mx_split_1 <- mx_1
I0122 01:56:22.759413 27918 net.cpp:412] tracker_mx_split_1 -> mx1_1
I0122 01:56:22.759416 27918 net.cpp:412] tracker_mx_split_1 -> mx2_1
I0122 01:56:22.759436 27918 net.cpp:151] Setting up tracker_mx_split_1
I0122 01:56:22.759439 27918 net.cpp:158] Top shape: 1 1 1800 256 (460800)
I0122 01:56:22.759443 27918 net.cpp:158] Top shape: 1 1 1800 256 (460800)
I0122 01:56:22.759444 27918 net.cpp:166] Memory required for data: 211753688
I0122 01:56:22.759446 27918 layer_factory.hpp:76] Creating layer tracker_xmx_1
I0122 01:56:22.759450 27918 net.cpp:107] Creating Layer tracker_xmx_1
I0122 01:56:22.759452 27918 net.cpp:455] tracker_xmx_1 <- x3_1
I0122 01:56:22.759455 27918 net.cpp:455] tracker_xmx_1 <- mx1_1
I0122 01:56:22.759459 27918 net.cpp:412] tracker_xmx_1 -> xmx_1
I0122 01:56:22.759471 27918 net.cpp:151] Setting up tracker_xmx_1
I0122 01:56:22.759474 27918 net.cpp:158] Top shape: 1 1 256 256 (65536)
I0122 01:56:22.759476 27918 net.cpp:166] Memory required for data: 212015832
I0122 01:56:22.759479 27918 layer_factory.hpp:76] Creating layer tracker_h_cont_0
I0122 01:56:22.759485 27918 net.cpp:107] Creating Layer tracker_h_cont_0
I0122 01:56:22.759486 27918 net.cpp:455] tracker_h_cont_0 <- h2_0
I0122 01:56:22.759488 27918 net.cpp:455] tracker_h_cont_0 <- cont2_1
I0122 01:56:22.759491 27918 net.cpp:412] tracker_h_cont_0 -> h_cont_0
I0122 01:56:22.759553 27918 net.cpp:151] Setting up tracker_h_cont_0
I0122 01:56:22.759558 27918 net.cpp:158] Top shape: 1 1 256 256 (65536)
I0122 01:56:22.759560 27918 net.cpp:166] Memory required for data: 212277976
I0122 01:56:22.759562 27918 layer_factory.hpp:76] Creating layer tracker_h_1
I0122 01:56:22.759567 27918 net.cpp:107] Creating Layer tracker_h_1
I0122 01:56:22.759570 27918 net.cpp:455] tracker_h_1 <- h_cont_0
I0122 01:56:22.759573 27918 net.cpp:455] tracker_h_1 <- xmx_1
I0122 01:56:22.759577 27918 net.cpp:412] tracker_h_1 -> h_1
I0122 01:56:22.759593 27918 net.cpp:151] Setting up tracker_h_1
I0122 01:56:22.759596 27918 net.cpp:158] Top shape: 1 1 256 256 (65536)
I0122 01:56:22.759598 27918 net.cpp:166] Memory required for data: 212540120
I0122 01:56:22.759600 27918 layer_factory.hpp:76] Creating layer tracker_vmx_1
I0122 01:56:22.759604 27918 net.cpp:107] Creating Layer tracker_vmx_1
I0122 01:56:22.759611 27918 net.cpp:455] tracker_vmx_1 <- v2_1
I0122 01:56:22.759614 27918 net.cpp:455] tracker_vmx_1 <- mx2_1
I0122 01:56:22.759618 27918 net.cpp:412] tracker_vmx_1 -> vmx_1
I0122 01:56:22.759632 27918 net.cpp:151] Setting up tracker_vmx_1
I0122 01:56:22.759636 27918 net.cpp:158] Top shape: 1 1 1800 256 (460800)
I0122 01:56:22.759639 27918 net.cpp:166] Memory required for data: 214383320
I0122 01:56:22.759640 27918 layer_factory.hpp:76] Creating layer tracker_c_cont_0
I0122 01:56:22.759644 27918 net.cpp:107] Creating Layer tracker_c_cont_0
I0122 01:56:22.759646 27918 net.cpp:455] tracker_c_cont_0 <- c2_0
I0122 01:56:22.759649 27918 net.cpp:455] tracker_c_cont_0 <- cont3_1
I0122 01:56:22.759651 27918 net.cpp:412] tracker_c_cont_0 -> c_cont_0
I0122 01:56:22.760190 27918 net.cpp:151] Setting up tracker_c_cont_0
I0122 01:56:22.760197 27918 net.cpp:158] Top shape: 1 1 1800 256 (460800)
I0122 01:56:22.760200 27918 net.cpp:166] Memory required for data: 216226520
I0122 01:56:22.760202 27918 layer_factory.hpp:76] Creating layer tracker_c_1
I0122 01:56:22.760206 27918 net.cpp:107] Creating Layer tracker_c_1
I0122 01:56:22.760208 27918 net.cpp:455] tracker_c_1 <- c_cont_0
I0122 01:56:22.760211 27918 net.cpp:455] tracker_c_1 <- vmx_1
I0122 01:56:22.760215 27918 net.cpp:412] tracker_c_1 -> c_1
I0122 01:56:22.760234 27918 net.cpp:151] Setting up tracker_c_1
I0122 01:56:22.760238 27918 net.cpp:158] Top shape: 1 1 1800 256 (460800)
I0122 01:56:22.760241 27918 net.cpp:166] Memory required for data: 218069720
I0122 01:56:22.760242 27918 layer_factory.hpp:76] Creating layer tracker_overlaps_split_2
I0122 01:56:22.760246 27918 net.cpp:107] Creating Layer tracker_overlaps_split_2
I0122 01:56:22.760247 27918 net.cpp:455] tracker_overlaps_split_2 <- overlaps_2
I0122 01:56:22.760251 27918 net.cpp:412] tracker_overlaps_split_2 -> overlaps1_2
I0122 01:56:22.760259 27918 net.cpp:412] tracker_overlaps_split_2 -> overlaps2_2
I0122 01:56:22.760282 27918 net.cpp:151] Setting up tracker_overlaps_split_2
I0122 01:56:22.760287 27918 net.cpp:158] Top shape: 1 1 1800 1800 (3240000)
I0122 01:56:22.760289 27918 net.cpp:158] Top shape: 1 1 1800 1800 (3240000)
I0122 01:56:22.760292 27918 net.cpp:166] Memory required for data: 243989720
I0122 01:56:22.760293 27918 layer_factory.hpp:76] Creating layer tracker_x_split_2
I0122 01:56:22.760298 27918 net.cpp:107] Creating Layer tracker_x_split_2
I0122 01:56:22.760299 27918 net.cpp:455] tracker_x_split_2 <- x_2_tracker_x_slice_1_split_0
I0122 01:56:22.760303 27918 net.cpp:412] tracker_x_split_2 -> x1_2
I0122 01:56:22.760306 27918 net.cpp:412] tracker_x_split_2 -> x2_2
I0122 01:56:22.760310 27918 net.cpp:412] tracker_x_split_2 -> x3_2
I0122 01:56:22.760313 27918 net.cpp:412] tracker_x_split_2 -> x4_2
I0122 01:56:22.760347 27918 net.cpp:151] Setting up tracker_x_split_2
I0122 01:56:22.760351 27918 net.cpp:158] Top shape: 1 1 1800 256 (460800)
I0122 01:56:22.760354 27918 net.cpp:158] Top shape: 1 1 1800 256 (460800)
I0122 01:56:22.760357 27918 net.cpp:158] Top shape: 1 1 1800 256 (460800)
I0122 01:56:22.760360 27918 net.cpp:158] Top shape: 1 1 1800 256 (460800)
I0122 01:56:22.760361 27918 net.cpp:166] Memory required for data: 251362520
I0122 01:56:22.760363 27918 layer_factory.hpp:76] Creating layer tracker_cont_split_2
I0122 01:56:22.760365 27918 net.cpp:107] Creating Layer tracker_cont_split_2
I0122 01:56:22.760367 27918 net.cpp:455] tracker_cont_split_2 <- cont_2
I0122 01:56:22.760370 27918 net.cpp:412] tracker_cont_split_2 -> cont1_2
I0122 01:56:22.760375 27918 net.cpp:412] tracker_cont_split_2 -> cont2_2
I0122 01:56:22.760378 27918 net.cpp:412] tracker_cont_split_2 -> cont3_2
I0122 01:56:22.760381 27918 net.cpp:412] tracker_cont_split_2 -> cont4_2
I0122 01:56:22.760417 27918 net.cpp:151] Setting up tracker_cont_split_2
I0122 01:56:22.760422 27918 net.cpp:158] Top shape: 1 1 (1)
I0122 01:56:22.760424 27918 net.cpp:158] Top shape: 1 1 (1)
I0122 01:56:22.760426 27918 net.cpp:158] Top shape: 1 1 (1)
I0122 01:56:22.760429 27918 net.cpp:158] Top shape: 1 1 (1)
I0122 01:56:22.760437 27918 net.cpp:166] Memory required for data: 251362536
I0122 01:56:22.760438 27918 layer_factory.hpp:76] Creating layer tracker_h_split_1
I0122 01:56:22.760442 27918 net.cpp:107] Creating Layer tracker_h_split_1
I0122 01:56:22.760443 27918 net.cpp:455] tracker_h_split_1 <- h_1
I0122 01:56:22.760447 27918 net.cpp:412] tracker_h_split_1 -> h1_1
I0122 01:56:22.760450 27918 net.cpp:412] tracker_h_split_1 -> h2_1
I0122 01:56:22.760470 27918 net.cpp:151] Setting up tracker_h_split_1
I0122 01:56:22.760474 27918 net.cpp:158] Top shape: 1 1 256 256 (65536)
I0122 01:56:22.760478 27918 net.cpp:158] Top shape: 1 1 256 256 (65536)
I0122 01:56:22.760479 27918 net.cpp:166] Memory required for data: 251886824
I0122 01:56:22.760480 27918 layer_factory.hpp:76] Creating layer tracker_c_split_1
I0122 01:56:22.760484 27918 net.cpp:107] Creating Layer tracker_c_split_1
I0122 01:56:22.760486 27918 net.cpp:455] tracker_c_split_1 <- c_1
I0122 01:56:22.760489 27918 net.cpp:412] tracker_c_split_1 -> c1_1
I0122 01:56:22.760493 27918 net.cpp:412] tracker_c_split_1 -> c2_1
I0122 01:56:22.760512 27918 net.cpp:151] Setting up tracker_c_split_1
I0122 01:56:22.760516 27918 net.cpp:158] Top shape: 1 1 1800 256 (460800)
I0122 01:56:22.760519 27918 net.cpp:158] Top shape: 1 1 1800 256 (460800)
I0122 01:56:22.760520 27918 net.cpp:166] Memory required for data: 255573224
I0122 01:56:22.760522 27918 layer_factory.hpp:76] Creating layer tracker_s_cont_1
I0122 01:56:22.760525 27918 net.cpp:107] Creating Layer tracker_s_cont_1
I0122 01:56:22.760527 27918 net.cpp:455] tracker_s_cont_1 <- s_1
I0122 01:56:22.760530 27918 net.cpp:455] tracker_s_cont_1 <- cont4_2
I0122 01:56:22.760534 27918 net.cpp:412] tracker_s_cont_1 -> s_cont_1
I0122 01:56:22.760570 27918 net.cpp:151] Setting up tracker_s_cont_1
I0122 01:56:22.760573 27918 net.cpp:158] Top shape: 1 1 1 (1)
I0122 01:56:22.760576 27918 net.cpp:166] Memory required for data: 255573228
I0122 01:56:22.760578 27918 layer_factory.hpp:76] Creating layer tracker_s_cont_split_1
I0122 01:56:22.760581 27918 net.cpp:107] Creating Layer tracker_s_cont_split_1
I0122 01:56:22.760582 27918 net.cpp:455] tracker_s_cont_split_1 <- s_cont_1
I0122 01:56:22.760586 27918 net.cpp:412] tracker_s_cont_split_1 -> s1_cont_1
I0122 01:56:22.760589 27918 net.cpp:412] tracker_s_cont_split_1 -> s2_cont_1
I0122 01:56:22.760610 27918 net.cpp:151] Setting up tracker_s_cont_split_1
I0122 01:56:22.760614 27918 net.cpp:158] Top shape: 1 1 1 (1)
I0122 01:56:22.760617 27918 net.cpp:158] Top shape: 1 1 1 (1)
I0122 01:56:22.760618 27918 net.cpp:166] Memory required for data: 255573236
I0122 01:56:22.760620 27918 layer_factory.hpp:76] Creating layer tracker_hm1_1
I0122 01:56:22.760623 27918 net.cpp:107] Creating Layer tracker_hm1_1
I0122 01:56:22.760625 27918 net.cpp:455] tracker_hm1_1 <- h1_1
I0122 01:56:22.760628 27918 net.cpp:455] tracker_hm1_1 <- s1_cont_1
I0122 01:56:22.760632 27918 net.cpp:412] tracker_hm1_1 -> hm1_1
I0122 01:56:22.760653 27918 net.cpp:151] Setting up tracker_hm1_1
I0122 01:56:22.760656 27918 net.cpp:158] Top shape: 1 1 256 256 (65536)
I0122 01:56:22.760658 27918 net.cpp:166] Memory required for data: 255835380
I0122 01:56:22.760660 27918 layer_factory.hpp:76] Creating layer tracker_w_1
I0122 01:56:22.760663 27918 net.cpp:107] Creating Layer tracker_w_1
I0122 01:56:22.760665 27918 net.cpp:455] tracker_w_1 <- c1_1
I0122 01:56:22.760668 27918 net.cpp:455] tracker_w_1 <- hm1_1
I0122 01:56:22.760671 27918 net.cpp:412] tracker_w_1 -> w_1
I0122 01:56:22.760684 27918 net.cpp:151] Setting up tracker_w_1
I0122 01:56:22.760689 27918 net.cpp:158] Top shape: 1 1 1800 256 (460800)
I0122 01:56:22.760690 27918 net.cpp:166] Memory required for data: 257678580
I0122 01:56:22.760691 27918 layer_factory.hpp:76] Creating layer tracker_v_2
I0122 01:56:22.760695 27918 net.cpp:107] Creating Layer tracker_v_2
I0122 01:56:22.760699 27918 net.cpp:455] tracker_v_2 <- w_1
I0122 01:56:22.760700 27918 net.cpp:455] tracker_v_2 <- x_2_tracker_x_slice_1_split_1
I0122 01:56:22.760704 27918 net.cpp:412] tracker_v_2 -> v_2
I0122 01:56:22.760716 27918 net.cpp:151] Setting up tracker_v_2
I0122 01:56:22.760725 27918 net.cpp:158] Top shape: 1 1 1800 1800 (3240000)
I0122 01:56:22.760727 27918 net.cpp:166] Memory required for data: 270638580
I0122 01:56:22.760730 27918 layer_factory.hpp:76] Creating layer tracker_rename_overlaps_2
I0122 01:56:22.760731 27918 net.cpp:107] Creating Layer tracker_rename_overlaps_2
I0122 01:56:22.760735 27918 net.cpp:455] tracker_rename_overlaps_2 <- overlaps1_2
I0122 01:56:22.760738 27918 net.cpp:412] tracker_rename_overlaps_2 -> s_overlaps_2
I0122 01:56:22.760751 27918 net.cpp:151] Setting up tracker_rename_overlaps_2
I0122 01:56:22.760754 27918 net.cpp:158] Top shape: 1 1 1800 1800 (3240000)
I0122 01:56:22.760756 27918 net.cpp:166] Memory required for data: 283598580
I0122 01:56:22.760758 27918 layer_factory.hpp:76] Creating layer tracker_v_cont_2
I0122 01:56:22.760761 27918 net.cpp:107] Creating Layer tracker_v_cont_2
I0122 01:56:22.760763 27918 net.cpp:455] tracker_v_cont_2 <- s_overlaps_2
I0122 01:56:22.760766 27918 net.cpp:455] tracker_v_cont_2 <- v_2
I0122 01:56:22.760769 27918 net.cpp:455] tracker_v_cont_2 <- cont1_2
I0122 01:56:22.760772 27918 net.cpp:412] tracker_v_cont_2 -> v_cont_2
I0122 01:56:22.760785 27918 net.cpp:151] Setting up tracker_v_cont_2
I0122 01:56:22.760789 27918 net.cpp:158] Top shape: 1 1 1800 1800 (3240000)
I0122 01:56:22.760792 27918 net.cpp:166] Memory required for data: 296558580
I0122 01:56:22.760793 27918 layer_factory.hpp:76] Creating layer tracker_v_split_2
I0122 01:56:22.760797 27918 net.cpp:107] Creating Layer tracker_v_split_2
I0122 01:56:22.760799 27918 net.cpp:455] tracker_v_split_2 <- v_cont_2
I0122 01:56:22.760802 27918 net.cpp:412] tracker_v_split_2 -> v1_2
I0122 01:56:22.760805 27918 net.cpp:412] tracker_v_split_2 -> v3_2
I0122 01:56:22.760809 27918 net.cpp:412] tracker_v_split_2 -> v4_2
I0122 01:56:22.760812 27918 net.cpp:412] tracker_v_split_2 -> v2_2
I0122 01:56:22.760846 27918 net.cpp:151] Setting up tracker_v_split_2
I0122 01:56:22.760850 27918 net.cpp:158] Top shape: 1 1 1800 1800 (3240000)
I0122 01:56:22.760853 27918 net.cpp:158] Top shape: 1 1 1800 1800 (3240000)
I0122 01:56:22.760855 27918 net.cpp:158] Top shape: 1 1 1800 1800 (3240000)
I0122 01:56:22.760857 27918 net.cpp:158] Top shape: 1 1 1800 1800 (3240000)
I0122 01:56:22.760859 27918 net.cpp:166] Memory required for data: 348398580
I0122 01:56:22.760861 27918 layer_factory.hpp:76] Creating layer tracker_vtilde_2
I0122 01:56:22.760864 27918 net.cpp:107] Creating Layer tracker_vtilde_2
I0122 01:56:22.760866 27918 net.cpp:455] tracker_vtilde_2 <- v4_2
I0122 01:56:22.760869 27918 net.cpp:455] tracker_vtilde_2 <- overlaps2_2
I0122 01:56:22.760871 27918 net.cpp:455] tracker_vtilde_2 <- nseg_2
I0122 01:56:22.760875 27918 net.cpp:412] tracker_vtilde_2 -> vtilde_2
I0122 01:56:22.760895 27918 net.cpp:151] Setting up tracker_vtilde_2
I0122 01:56:22.760900 27918 net.cpp:158] Top shape: 1 1 1800 1800 (3240000)
I0122 01:56:22.760901 27918 net.cpp:166] Memory required for data: 361358580
I0122 01:56:22.760903 27918 layer_factory.hpp:76] Creating layer tracker_vtilde_split_2
I0122 01:56:22.760906 27918 net.cpp:107] Creating Layer tracker_vtilde_split_2
I0122 01:56:22.760908 27918 net.cpp:455] tracker_vtilde_split_2 <- vtilde_2
I0122 01:56:22.760911 27918 net.cpp:412] tracker_vtilde_split_2 -> vtilde1_2
I0122 01:56:22.760923 27918 net.cpp:151] Setting up tracker_vtilde_split_2
I0122 01:56:22.760927 27918 net.cpp:158] Top shape: 1 1 1800 1800 (3240000)
I0122 01:56:22.760929 27918 net.cpp:166] Memory required for data: 374318580
I0122 01:56:22.760931 27918 layer_factory.hpp:76] Creating layer tracker_reshape1_2
I0122 01:56:22.760934 27918 net.cpp:107] Creating Layer tracker_reshape1_2
I0122 01:56:22.760936 27918 net.cpp:455] tracker_reshape1_2 <- v1_2
I0122 01:56:22.760941 27918 net.cpp:412] tracker_reshape1_2 -> vr_2
I0122 01:56:22.760953 27918 net.cpp:151] Setting up tracker_reshape1_2
I0122 01:56:22.760957 27918 net.cpp:158] Top shape: 1 1 1800 1800 (3240000)
I0122 01:56:22.760959 27918 net.cpp:166] Memory required for data: 387278580
I0122 01:56:22.760960 27918 layer_factory.hpp:76] Creating layer tracker_max_2
I0122 01:56:22.760968 27918 net.cpp:107] Creating Layer tracker_max_2
I0122 01:56:22.760972 27918 net.cpp:455] tracker_max_2 <- vr_2
I0122 01:56:22.760975 27918 net.cpp:412] tracker_max_2 -> mr_2
I0122 01:56:22.761221 27918 net.cpp:151] Setting up tracker_max_2
I0122 01:56:22.761229 27918 net.cpp:158] Top shape: 1 1 1 1800 (1800)
I0122 01:56:22.761231 27918 net.cpp:166] Memory required for data: 387285780
I0122 01:56:22.761234 27918 layer_factory.hpp:76] Creating layer tracker_reshape2_2
I0122 01:56:22.761237 27918 net.cpp:107] Creating Layer tracker_reshape2_2
I0122 01:56:22.761240 27918 net.cpp:455] tracker_reshape2_2 <- mr_2
I0122 01:56:22.761245 27918 net.cpp:412] tracker_reshape2_2 -> m_2
I0122 01:56:22.761261 27918 net.cpp:151] Setting up tracker_reshape2_2
I0122 01:56:22.761265 27918 net.cpp:158] Top shape: 1 1 1800 (1800)
I0122 01:56:22.761267 27918 net.cpp:166] Memory required for data: 387292980
I0122 01:56:22.761270 27918 layer_factory.hpp:76] Creating layer tracker_m_split_2
I0122 01:56:22.761272 27918 net.cpp:107] Creating Layer tracker_m_split_2
I0122 01:56:22.761275 27918 net.cpp:455] tracker_m_split_2 <- m_2
I0122 01:56:22.761277 27918 net.cpp:412] tracker_m_split_2 -> m1_2
I0122 01:56:22.761281 27918 net.cpp:412] tracker_m_split_2 -> m2_2
I0122 01:56:22.761303 27918 net.cpp:151] Setting up tracker_m_split_2
I0122 01:56:22.761307 27918 net.cpp:158] Top shape: 1 1 1800 (1800)
I0122 01:56:22.761310 27918 net.cpp:158] Top shape: 1 1 1800 (1800)
I0122 01:56:22.761312 27918 net.cpp:166] Memory required for data: 387307380
I0122 01:56:22.761313 27918 layer_factory.hpp:76] Creating layer tracker_concat_s_elemens_2
I0122 01:56:22.761317 27918 net.cpp:107] Creating Layer tracker_concat_s_elemens_2
I0122 01:56:22.761320 27918 net.cpp:455] tracker_concat_s_elemens_2 <- m2_2
I0122 01:56:22.761322 27918 net.cpp:455] tracker_concat_s_elemens_2 <- s2_cont_1
I0122 01:56:22.761327 27918 net.cpp:412] tracker_concat_s_elemens_2 -> s_elem_2
I0122 01:56:22.761339 27918 net.cpp:151] Setting up tracker_concat_s_elemens_2
I0122 01:56:22.761343 27918 net.cpp:158] Top shape: 1 1 1801 (1801)
I0122 01:56:22.761345 27918 net.cpp:166] Memory required for data: 387314584
I0122 01:56:22.761348 27918 layer_factory.hpp:76] Creating layer tracker_sum_s_elemens_2
I0122 01:56:22.761350 27918 net.cpp:107] Creating Layer tracker_sum_s_elemens_2
I0122 01:56:22.761353 27918 net.cpp:455] tracker_sum_s_elemens_2 <- s_elem_2
I0122 01:56:22.761356 27918 net.cpp:412] tracker_sum_s_elemens_2 -> ns_2
I0122 01:56:22.761380 27918 net.cpp:151] Setting up tracker_sum_s_elemens_2
I0122 01:56:22.761384 27918 net.cpp:158] Top shape: (1)
I0122 01:56:22.761386 27918 net.cpp:166] Memory required for data: 387314588
I0122 01:56:22.761389 27918 layer_factory.hpp:76] Creating layer tracker_s_reshape_2
I0122 01:56:22.761392 27918 net.cpp:107] Creating Layer tracker_s_reshape_2
I0122 01:56:22.761394 27918 net.cpp:455] tracker_s_reshape_2 <- ns_2
I0122 01:56:22.761397 27918 net.cpp:412] tracker_s_reshape_2 -> s_2
I0122 01:56:22.761412 27918 net.cpp:151] Setting up tracker_s_reshape_2
I0122 01:56:22.761416 27918 net.cpp:158] Top shape: 1 1 1 (1)
I0122 01:56:22.761418 27918 net.cpp:166] Memory required for data: 387314592
I0122 01:56:22.761420 27918 layer_factory.hpp:76] Creating layer tracker_mx_2
I0122 01:56:22.761423 27918 net.cpp:107] Creating Layer tracker_mx_2
I0122 01:56:22.761425 27918 net.cpp:455] tracker_mx_2 <- m1_2
I0122 01:56:22.761428 27918 net.cpp:455] tracker_mx_2 <- x2_2
I0122 01:56:22.761432 27918 net.cpp:412] tracker_mx_2 -> mx_2
I0122 01:56:22.761446 27918 net.cpp:151] Setting up tracker_mx_2
I0122 01:56:22.761451 27918 net.cpp:158] Top shape: 1 1 1800 256 (460800)
I0122 01:56:22.761452 27918 net.cpp:166] Memory required for data: 389157792
I0122 01:56:22.761454 27918 layer_factory.hpp:76] Creating layer tracker_mx_split_2
I0122 01:56:22.761457 27918 net.cpp:107] Creating Layer tracker_mx_split_2
I0122 01:56:22.761459 27918 net.cpp:455] tracker_mx_split_2 <- mx_2
I0122 01:56:22.761463 27918 net.cpp:412] tracker_mx_split_2 -> mx1_2
I0122 01:56:22.761472 27918 net.cpp:412] tracker_mx_split_2 -> mx2_2
I0122 01:56:22.761493 27918 net.cpp:151] Setting up tracker_mx_split_2
I0122 01:56:22.761497 27918 net.cpp:158] Top shape: 1 1 1800 256 (460800)
I0122 01:56:22.761500 27918 net.cpp:158] Top shape: 1 1 1800 256 (460800)
I0122 01:56:22.761502 27918 net.cpp:166] Memory required for data: 392844192
I0122 01:56:22.761503 27918 layer_factory.hpp:76] Creating layer tracker_xmx_2
I0122 01:56:22.761507 27918 net.cpp:107] Creating Layer tracker_xmx_2
I0122 01:56:22.761510 27918 net.cpp:455] tracker_xmx_2 <- x3_2
I0122 01:56:22.761512 27918 net.cpp:455] tracker_xmx_2 <- mx1_2
I0122 01:56:22.761515 27918 net.cpp:412] tracker_xmx_2 -> xmx_2
I0122 01:56:22.761528 27918 net.cpp:151] Setting up tracker_xmx_2
I0122 01:56:22.761533 27918 net.cpp:158] Top shape: 1 1 256 256 (65536)
I0122 01:56:22.761534 27918 net.cpp:166] Memory required for data: 393106336
I0122 01:56:22.761536 27918 layer_factory.hpp:76] Creating layer tracker_h_cont_1
I0122 01:56:22.761540 27918 net.cpp:107] Creating Layer tracker_h_cont_1
I0122 01:56:22.761543 27918 net.cpp:455] tracker_h_cont_1 <- h2_1
I0122 01:56:22.761545 27918 net.cpp:455] tracker_h_cont_1 <- cont2_2
I0122 01:56:22.761548 27918 net.cpp:412] tracker_h_cont_1 -> h_cont_1
I0122 01:56:22.761605 27918 net.cpp:151] Setting up tracker_h_cont_1
I0122 01:56:22.761610 27918 net.cpp:158] Top shape: 1 1 256 256 (65536)
I0122 01:56:22.761611 27918 net.cpp:166] Memory required for data: 393368480
I0122 01:56:22.761613 27918 layer_factory.hpp:76] Creating layer tracker_h_2
I0122 01:56:22.761616 27918 net.cpp:107] Creating Layer tracker_h_2
I0122 01:56:22.761618 27918 net.cpp:455] tracker_h_2 <- h_cont_1
I0122 01:56:22.761621 27918 net.cpp:455] tracker_h_2 <- xmx_2
I0122 01:56:22.761625 27918 net.cpp:412] tracker_h_2 -> h_2
I0122 01:56:22.761638 27918 net.cpp:151] Setting up tracker_h_2
I0122 01:56:22.761642 27918 net.cpp:158] Top shape: 1 1 256 256 (65536)
I0122 01:56:22.761644 27918 net.cpp:166] Memory required for data: 393630624
I0122 01:56:22.761646 27918 layer_factory.hpp:76] Creating layer tracker_vmx_2
I0122 01:56:22.761648 27918 net.cpp:107] Creating Layer tracker_vmx_2
I0122 01:56:22.761651 27918 net.cpp:455] tracker_vmx_2 <- v2_2
I0122 01:56:22.761653 27918 net.cpp:455] tracker_vmx_2 <- mx2_2
I0122 01:56:22.761657 27918 net.cpp:412] tracker_vmx_2 -> vmx_2
I0122 01:56:22.761670 27918 net.cpp:151] Setting up tracker_vmx_2
I0122 01:56:22.761674 27918 net.cpp:158] Top shape: 1 1 1800 256 (460800)
I0122 01:56:22.761677 27918 net.cpp:166] Memory required for data: 395473824
I0122 01:56:22.761678 27918 layer_factory.hpp:76] Creating layer tracker_c_cont_1
I0122 01:56:22.761684 27918 net.cpp:107] Creating Layer tracker_c_cont_1
I0122 01:56:22.761687 27918 net.cpp:455] tracker_c_cont_1 <- c2_1
I0122 01:56:22.761690 27918 net.cpp:455] tracker_c_cont_1 <- cont3_2
I0122 01:56:22.761693 27918 net.cpp:412] tracker_c_cont_1 -> c_cont_1
I0122 01:56:22.762192 27918 net.cpp:151] Setting up tracker_c_cont_1
I0122 01:56:22.762199 27918 net.cpp:158] Top shape: 1 1 1800 256 (460800)
I0122 01:56:22.762202 27918 net.cpp:166] Memory required for data: 397317024
I0122 01:56:22.762204 27918 layer_factory.hpp:76] Creating layer tracker_c_2
I0122 01:56:22.762207 27918 net.cpp:107] Creating Layer tracker_c_2
I0122 01:56:22.762210 27918 net.cpp:455] tracker_c_2 <- c_cont_1
I0122 01:56:22.762213 27918 net.cpp:455] tracker_c_2 <- vmx_2
I0122 01:56:22.762217 27918 net.cpp:412] tracker_c_2 -> c_2
I0122 01:56:22.762235 27918 net.cpp:151] Setting up tracker_c_2
I0122 01:56:22.762239 27918 net.cpp:158] Top shape: 1 1 1800 256 (460800)
I0122 01:56:22.762241 27918 net.cpp:166] Memory required for data: 399160224
I0122 01:56:22.762243 27918 layer_factory.hpp:76] Creating layer tracker_v_concat
I0122 01:56:22.762246 27918 net.cpp:107] Creating Layer tracker_v_concat
I0122 01:56:22.762248 27918 net.cpp:455] tracker_v_concat <- v3_1
I0122 01:56:22.762251 27918 net.cpp:455] tracker_v_concat <- v3_2
I0122 01:56:22.762254 27918 net.cpp:412] tracker_v_concat -> v
I0122 01:56:22.762274 27918 net.cpp:151] Setting up tracker_v_concat
I0122 01:56:22.762279 27918 net.cpp:158] Top shape: 2 1 1800 1800 (6480000)
I0122 01:56:22.762281 27918 net.cpp:166] Memory required for data: 425080224
I0122 01:56:22.762284 27918 layer_factory.hpp:76] Creating layer tracker_vtilde_concat
I0122 01:56:22.762287 27918 net.cpp:107] Creating Layer tracker_vtilde_concat
I0122 01:56:22.762290 27918 net.cpp:455] tracker_vtilde_concat <- vtilde1_1
I0122 01:56:22.762292 27918 net.cpp:455] tracker_vtilde_concat <- vtilde1_2
I0122 01:56:22.762295 27918 net.cpp:412] tracker_vtilde_concat -> vtilde
I0122 01:56:22.762308 27918 net.cpp:151] Setting up tracker_vtilde_concat
I0122 01:56:22.762312 27918 net.cpp:158] Top shape: 2 1 1800 1800 (6480000)
I0122 01:56:22.762315 27918 net.cpp:166] Memory required for data: 451000224
I0122 01:56:22.762316 27918 net.cpp:229] tracker_vtilde_concat does not need backward computation.
I0122 01:56:22.762318 27918 net.cpp:229] tracker_v_concat does not need backward computation.
I0122 01:56:22.762320 27918 net.cpp:229] tracker_c_2 does not need backward computation.
I0122 01:56:22.762322 27918 net.cpp:229] tracker_c_cont_1 does not need backward computation.
…
    mean_value: 122.67892
  }
  image_data_param {
    source: "./tracker_model/data/SegTrackv2_hdf5_t4/images.txt"
    batch_size: 4
    shuffle: false
  }
}
layer {
  name: "data"
  type: "HDF5Data"
  top: "cont"
  top: "mask_size"
  top: "spixel_data"
  top: "spixel_ptr"
  top: "spixel_num"
  top: "seg_data"
  top: "seg_ptr"
  top: "seg_num"
  top: "seg_coef"
  top: "overlaps"
  top: "gt_num"
  top: "gt_overlaps"
  include {
    phase: TEST
  }
  hdf5_data_param {
    source: "./tracker_model/data/SegTrackv2_hdf5_t4/seq_data.txt"
    batch_size: 4
  }
}
layer {
  name: "silent_ilabel"
  type: "Silence"
  bottom: "ilabel"
}
layer {
  name: "conv1"
  type: "Convolution"
  bottom: "image"
  top: "conv1"
  param {
    lr_mult: 1
    decay_mult: 1
  }
  param {
    lr_mult: 2
    decay_mult: 0
  }
  convolution_param {
    num_output: 96
    pad: 100
    kernel_size: 11
    stride: 4
    weight_filler {
      type: "gaussian"
      std: 0.01
    }
    bias_filler {
      type: "constant"
      value: 0
    }
  }
}
layer {
  name: "relu1"
  type: "ReLU"
  bottom: "conv1"
  top: "conv1"
}
layer {
  name: "pool1"
  type: "Pooling"
  bottom: "conv1"
  top: "pool1"
  pooling_param {
    pool: MAX
    kernel_size: 3
    stride: 2
  }
}
layer {
  name: "norm1"
  type: "LRN"
  bottom: "pool1"
  top: "norm1"
  lrn_param {
    local_size: 5
    alpha: 0.0001
    beta: 0.75
  }
}
layer {
  name: "conv2"
  type: "Convolution"
  bottom: "norm1"
  top: "conv2"
  param {
    lr_mult: 1
    decay_mult: 1
  }
  param {
    lr_mult: 2
    decay_mult: 0
  }
  convolution_param {
    num_output: 256
    pad: 2
    kernel_size: 5
    group: 2
    weight_filler {
      type: "gaussian"
      std: 0.01
    }
    bias_filler {
      type: "constant"
      value: 1
    }
  }
}
layer {
  name: "relu2"
  type: "ReLU"
  bottom: "conv2"
  top: "conv2"
}
layer {
  name: "pool2"
  type: "Pooling"
  bottom: "conv2"
  top: "pool2"
  pooling_param {
    pool: MAX
    kernel_size: 3
    stride: 2
  }
}
layer {
  name: "norm2"
  type: "LRN"
  bottom: "pool2"
  top: "norm2"
  lrn_param {
    local_size: 5
    alpha: 0.0001
    beta: 0.75
  }
}
layer {
  name: "conv3"
  type: "Convolution"
  bottom: "norm2"
  top: "conv3"
  param {
    lr_mult: 1
    decay_mult: 1
  }
  param {
    lr_mult: 2
    decay_mult: 0
  }
  convolution_param {
    num_output: 384
    pad: 1
    kernel_size: 3
    weight_filler {
      type: "gaussian"
      std: 0.01
    }
    bias_filler {
      type: "constant"
      value: 0
    }
  }
}
layer {
  name: "relu3"
  type: "ReLU"
  bottom: "conv3"
  top: "conv3"
}
layer {
  name: "conv4"
  type: "Convolution"
  bottom: "conv3"
  top: "conv4"
  param {
    lr_mult: 1
    decay_mult: 1
  }
  param {
    lr_mult: 2
    decay_mult: 0
  }
  convolution_param {
    num_output: 384
    pad: 1
    kernel_size: 3
    group: 2
    weight_filler {
      type: "gaussian"
      std: 0.01
    }
    bias_filler {
      type: "constant"
      value: 1
    }
  }
}
layer {
  name: "relu4"
  type: "ReLU"
  bottom: "conv4"
  top: "conv4"
}
layer {
  name: "conv5"
  type: "Convolution"
  bottom: "conv4"
  top: "conv5"
  param {
    lr_mult: 1
    decay_mult: 1
  }
  param {
    lr_mult: 2
    decay_mult: 0
  }
  convolution_param {
    num_output: 256
    pad: 1
    kernel_size: 3
    group: 2
    weight_filler {
      type: "gaussian"
      std: 0.01
    }
    bias_filler {
      type: "constant"
      value: 1
    }
  }
}
layer {
  name: "relu5"
  type: "ReLU"
  bottom: "conv5"
  top: "conv5"
}
layer {
  name: "pool5"
  type: "Pooling"
  bottom: "conv5"
  top: "pool5"
  pooling_param {
    pool: MAX
    kernel_size: 3
    stride: 2
  }
}
layer {
  name: "fc6"
  type: "Convolution"
  bottom: "pool5"
  top: "fc6"
  param {
    lr_mult: 1
    decay_mult: 1
  }
  param {
    lr_mult: 2
    decay_mult: 0
  }
  convolution_param {
    num_output: 4096
    kernel_size: 6
    weight_filler {
      type: "gaussian"
      std: 0.005
    }
    bias_filler {
      type: "constant"
      value: 1
    }
  }
}
layer {
  name: "relu6"
  type: "ReLU"
  bottom: "fc6"
  top: "fc6"
}
layer {
  name: "fc7"
  type: "Convolution"
  bottom: "fc6"
  top: "fc7"
  param {
    lr_mult: 1
    decay_mult: 1
  }
  param {
    lr_mult: 2
    decay_mult: 0
  }
  convolution_param {
    num_output: 4096
    kernel_size: 1
    weight_filler {
      type: "gaussian"
      std: 0.005
    }
    bias_filler {
      type: "constant"
      value: 1
    }
  }
}
layer {
  name: "relu7"
  type: "ReLU"
  bottom: "fc7"
  top: "fc7"
}
layer {
  name: "deconv-1"
  type: "Deconvolution"
  bottom: "fc7"
  top: "up-fc7"
  param {
    lr_mult: 0
    decay_mult: 0
  }
  convolution_param {
    num_output: 256
    bias_term: false
    kernel_size: 63
    group: 256
    stride: 32
    weight_filler {
      type: "bilinear"
    }
  }
}
layer {
  name: "crop"
  type: "Crop"
  bottom: "up-fc7"
  bottom: "image"
  top: "conv-feature"
}
layer {
  name: "spixel_pooling1"
  type: "SuperpixelPooling"
  bottom: "conv-feature"
  bottom: "spixel_data"
  bottom: "spixel_ptr"
  bottom: "spixel_num"
  bottom: "mask_size"
  top: "spixel_feature"
}
layer {
  name: "rpixel_pooling1"
  type: "RowPooling"
  bottom: "spixel_feature"
  bottom: "seg_data"
  bottom: "seg_ptr"
  bottom: "seg_num"
  bottom: "seg_coef"
  top: "seg_feature"
}
layer {
  name: "tracker"
  type: "Tracker"
  bottom: "seg_feature"
  bottom: "overlaps"
  bottom: "seg_num"
  bottom: "cont"
  top: "v"
  top: "vtilde"
  tracker_param {
    num_track: 1800
    feature_dim: 256
    lambda: 10000
    use_softmax: false
    use_vtilde_in_c: false
  }
}
layer {
  name: "trackerLoss"
  type: "TrackerLoss"
  bottom: "v"
  bottom: "gt_overlaps"
  bottom: "gt_num"
  bottom: "cont"
  top: "supervised_loss"
  include {
    phase: TEST
  }
  tracker_loss_param {
    object_num: 6
  }
}
layer {
  name: "trackerLoss_refined"
  type: "TrackerLoss"
  bottom: "vtilde"
  bottom: "gt_overlaps"
  bottom: "gt_num"
  bottom: "cont"
  top: "supervised_loss_refined"
  include {
    phase: TEST
  }
  tracker_loss_param {
    object_num: 6
  }
}
I0122 01:56:22.764708 27918 layer_factory.hpp:76] Creating layer images
I0122 01:56:22.764715 27918 net.cpp:107] Creating Layer images
I0122 01:56:22.764719 27918 net.cpp:412] images -> image
I0122 01:56:22.764724 27918 net.cpp:412] images -> ilabel
I0122 01:56:22.764730 27918 image_data_layer.cpp:37] Opening file ./tracker_model/data/SegTrackv2_hdf5_t4/images.txt
I0122 01:56:22.764847 27918 image_data_layer.cpp:52] A total of 316 images.
I0122 01:56:22.768627 27918 image_data_layer.cpp:79] output data size: 4,3,500,500
I0122 01:56:22.780257 27918 net.cpp:151] Setting up images
I0122 01:56:22.780275 27918 net.cpp:158] Top shape: 4 3 500 500 (3000000)
I0122 01:56:22.780279 27918 net.cpp:158] Top shape: 4 (4)
I0122 01:56:22.780282 27918 net.cpp:166] Memory required for data: 12000016
I0122 01:56:22.780287 27918 layer_factory.hpp:76] Creating layer image_images_0_split
I0122 01:56:22.780294 27918 net.cpp:107] Creating Layer image_images_0_split
I0122 01:56:22.780297 27918 net.cpp:455] image_images_0_split <- image
I0122 01:56:22.780303 27918 net.cpp:412] image_images_0_split -> image_images_0_split_0
I0122 01:56:22.780308 27918 net.cpp:412] image_images_0_split -> image_images_0_split_1
I0122 01:56:22.780407 27918 net.cpp:151] Setting up image_images_0_split
I0122 01:56:22.780418 27918 net.cpp:158] Top shape: 4 3 500 500 (3000000)
I0122 01:56:22.780421 27918 net.cpp:158] Top shape: 4 3 500 500 (3000000)
I0122 01:56:22.780423 27918 net.cpp:166] Memory required for data: 36000016
I0122 01:56:22.780426 27918 layer_factory.hpp:76] Creating layer data
I0122 01:56:22.780434 27918 net.cpp:107] Creating Layer data
I0122 01:56:22.780437 27918 net.cpp:412] data -> cont
I0122 01:56:22.780443 27918 net.cpp:412] data -> mask_size
I0122 01:56:22.780448 27918 net.cpp:412] data -> spixel_data
I0122 01:56:22.780452 27918 net.cpp:412] data -> spixel_ptr
I0122 01:56:22.780457 27918 net.cpp:412] data -> spixel_num
I0122 01:56:22.780462 27918 net.cpp:412] data -> seg_data
I0122 01:56:22.780467 27918 net.cpp:412] data -> seg_ptr
I0122 01:56:22.780470 27918 net.cpp:412] data -> seg_num
I0122 01:56:22.780474 27918 net.cpp:412] data -> seg_coef
I0122 01:56:22.780479 27918 net.cpp:412] data -> overlaps
I0122 01:56:22.780483 27918 net.cpp:412] data -> gt_num
I0122 01:56:22.780488 27918 net.cpp:412] data -> gt_overlaps
I0122 01:56:22.780493 27918 hdf5_data_layer.cpp:80] Loading list of HDF5 filenames from: ./tracker_model/data/SegTrackv2_hdf5_t4/seq_data.txt
I0122 01:56:22.780515 27918 hdf5_data_layer.cpp:94] Number of HDF5 files: 20
I0122 01:56:23.045387 27918 net.cpp:151] Setting up data
I0122 01:56:23.045419 27918 net.cpp:158] Top shape: 4 1 (4)
I0122 01:56:23.045423 27918 net.cpp:158] Top shape: 4 1 2 (8)
I0122 01:56:23.045425 27918 net.cpp:158] Top shape: 4 1 230400 2 (1843200)
I0122 01:56:23.045428 27918 net.cpp:158] Top shape: 4 1 9778 (39112)
I0122 01:56:23.045431 27918 net.cpp:158] Top shape: 4 1 (4)
I0122 01:56:23.045434 27918 net.cpp:158] Top shape: 4 1 3102361 (12409444)
I0122 01:56:23.045436 27918 net.cpp:158] Top shape: 4 1 1801 (7204)
I0122 01:56:23.045439 27918 net.cpp:158] Top shape: 4 1 (4)
I0122 01:56:23.045441 27918 net.cpp:158] Top shape: 4 1 3102361 (12409444)
I0122 01:56:23.045444 27918 net.cpp:158] Top shape: 4 1 1800 1800 (12960000)
I0122 01:56:23.045446 27918 net.cpp:158] Top shape: 4 1 (4)
I0122 01:56:23.045449 27918 net.cpp:158] Top shape: 4 1 6 1800 (43200)
I0122 01:56:23.045450 27918 net.cpp:166] Memory required for data: 194846528
I0122 01:56:23.045454 27918 layer_factory.hpp:76] Creating layer cont_data_0_split
I0122 01:56:23.045474 27918 net.cpp:107] Creating Layer cont_data_0_split
I0122 01:56:23.045476 27918 net.cpp:455] cont_data_0_split <- cont
I0122 01:56:23.045482 27918 net.cpp:412] cont_data_0_split -> cont_data_0_split_0
I0122 01:56:23.045490 27918 net.cpp:412] cont_data_0_split -> cont_data_0_split_1
I0122 01:56:23.045500 27918 net.cpp:412] cont_data_0_split -> cont_data_0_split_2
I0122 01:56:23.045531 27918 net.cpp:151] Setting up cont_data_0_split
I0122 01:56:23.045534 27918 net.cpp:158] Top shape: 4 1 (4)
I0122 01:56:23.045537 27918 net.cpp:158] Top shape: 4 1 (4)
I0122 01:56:23.045539 27918 net.cpp:158] Top shape: 4 1 (4)
I0122 01:56:23.045542 27918 net.cpp:166] Memory required for data: 194846576
I0122 01:56:23.045543 27918 layer_factory.hpp:76] Creating layer seg_num_data_7_split
I0122 01:56:23.045547 27918 net.cpp:107] Creating Layer seg_num_data_7_split
I0122 01:56:23.045549 27918 net.cpp:455] seg_num_data_7_split <- seg_num
I0122 01:56:23.045552 27918 net.cpp:412] seg_num_data_7_split -> seg_num_data_7_split_0
I0122 01:56:23.045557 27918 net.cpp:412] seg_num_data_7_split -> seg_num_data_7_split_1
I0122 01:56:23.045578 27918 net.cpp:151] Setting up seg_num_data_7_split
I0122 01:56:23.045580 27918 net.cpp:158] Top shape: 4 1 (4)
I0122 01:56:23.045583 27918 net.cpp:158] Top shape: 4 1 (4)
I0122 01:56:23.045584 27918 net.cpp:166] Memory required for data: 194846608
I0122 01:56:23.045586 27918 layer_factory.hpp:76] Creating layer gt_num_data_10_split
I0122 01:56:23.045589 27918 net.cpp:107] Creating Layer gt_num_data_10_split
I0122 01:56:23.045591 27918 net.cpp:455] gt_num_data_10_split <- gt_num
I0122 01:56:23.045594 27918 net.cpp:412] gt_num_data_10_split -> gt_num_data_10_split_0
I0122 01:56:23.045598 27918 net.cpp:412] gt_num_data_10_split -> gt_num_data_10_split_1
I0122 01:56:23.045619 27918 net.cpp:151] Setting up gt_num_data_10_split
I0122 01:56:23.045622 27918 net.cpp:158] Top shape: 4 1 (4)
I0122 01:56:23.045624 27918 net.cpp:158] Top shape: 4 1 (4)
I0122 01:56:23.045626 27918 net.cpp:166] Memory required for data: 194846640
I0122 01:56:23.045629 27918 layer_factory.hpp:76] Creating layer gt_overlaps_data_11_split
I0122 01:56:23.045631 27918 net.cpp:107] Creating Layer gt_overlaps_data_11_split
I0122 01:56:23.045634 27918 net.cpp:455] gt_overlaps_data_11_split <- gt_overlaps
I0122 01:56:23.045636 27918 net.cpp:412] gt_overlaps_data_11_split -> gt_overlaps_data_11_split_0
I0122 01:56:23.045640 27918 net.cpp:412] gt_overlaps_data_11_split -> gt_overlaps_data_11_split_1
I0122 01:56:23.045660 27918 net.cpp:151] Setting up gt_overlaps_data_11_split
I0122 01:56:23.045663 27918 net.cpp:158] Top shape: 4 1 6 1800 (43200)
I0122 01:56:23.045666 27918 net.cpp:158] Top shape: 4 1 6 1800 (43200)
I0122 01:56:23.045668 27918 net.cpp:166] Memory required for data: 195192240
I0122 01:56:23.045670 27918 layer_factory.hpp:76] Creating layer silent_ilabel
I0122 01:56:23.045673 27918 net.cpp:107] Creating Layer silent_ilabel
I0122 01:56:23.045675 27918 net.cpp:455] silent_ilabel <- ilabel
I0122 01:56:23.045678 27918 net.cpp:151] Setting up silent_ilabel
I0122 01:56:23.045680 27918 net.cpp:166] Memory required for data: 195192240
I0122 01:56:23.045682 27918 layer_factory.hpp:76] Creating layer conv1
I0122 01:56:23.045688 27918 net.cpp:107] Creating Layer conv1
I0122 01:56:23.045691 27918 net.cpp:455] conv1 <- image_images_0_split_0
I0122 01:56:23.045694 27918 net.cpp:412] conv1 -> conv1
I0122 01:56:23.046932 27918 net.cpp:151] Setting up conv1
I0122 01:56:23.046941 27918 net.cpp:158] Top shape: 4 96 173 173 (11492736)
I0122 01:56:23.046957 27918 net.cpp:166] Memory required for data: 241163184
I0122 01:56:23.046965 27918 layer_factory.hpp:76] Creating layer relu1
I0122 01:56:23.046969 27918 net.cpp:107] Creating Layer relu1
I0122 01:56:23.046972 27918 net.cpp:455] relu1 <- conv1
I0122 01:56:23.046975 27918 net.cpp:398] relu1 -> conv1 (in-place)
I0122 01:56:23.047169 27918 net.cpp:151] Setting up relu1
I0122 01:56:23.047176 27918 net.cpp:158] Top shape: 4 96 173 173 (11492736)
I0122 01:56:23.047193 27918 net.cpp:166] Memory required for data: 287134128
I0122 01:56:23.047201 27918 layer_factory.hpp:76] Creating layer pool1
I0122 01:56:23.047206 27918 net.cpp:107] Creating Layer pool1
I0122 01:56:23.047209 27918 net.cpp:455] pool1 <- conv1
I0122 01:56:23.047212 27918 net.cpp:412] pool1 -> pool1
I0122 01:56:23.047425 27918 net.cpp:151] Setting up pool1
I0122 01:56:23.047431 27918 net.cpp:158] Top shape: 4 96 86 86 (2840064)
I0122 01:56:23.047448 27918 net.cpp:166] Memory required for data: 298494384
I0122 01:56:23.047451 27918 layer_factory.hpp:76] Creating layer norm1
I0122 01:56:23.047456 27918 net.cpp:107] Creating Layer norm1
I0122 01:56:23.047457 27918 net.cpp:455] norm1 <- pool1
I0122 01:56:23.047461 27918 net.cpp:412] norm1 -> norm1
I0122 01:56:23.047577 27918 net.cpp:151] Setting up norm1
I0122 01:56:23.047582 27918 net.cpp:158] Top shape: 4 96 86 86 (2840064)
I0122 01:56:23.047585 27918 net.cpp:166] Memory required for data: 309854640
I0122 01:56:23.047587 27918 layer_factory.hpp:76] Creating layer conv2
I0122 01:56:23.047603 27918 net.cpp:107] Creating Layer conv2
I0122 01:56:23.047606 27918 net.cpp:455] conv2 <- norm1
I0122 01:56:23.047610 27918 net.cpp:412] conv2 -> conv2
I0122 01:56:23.054179 27918 cudnn_conv_layer.cpp:198] Reallocating workspace storage: 28800
I0122 01:56:23.054208 27918 net.cpp:151] Setting up conv2
I0122 01:56:23.054211 27918 net.cpp:158] Top shape: 4 256 86 86 (7573504)
I0122 01:56:23.054214 27918 net.cpp:166] Memory required for data: 340148656
I0122 01:56:23.054219 27918 layer_factory.hpp:76] Creating layer relu2
I0122 01:56:23.054224 27918 net.cpp:107] Creating Layer relu2
I0122 01:56:23.054226 27918 net.cpp:455] relu2 <- conv2
I0122 01:56:23.054229 27918 net.cpp:398] relu2 -> conv2 (in-place)
I0122 01:56:23.054425 27918 net.cpp:151] Setting up relu2
I0122 01:56:23.054431 27918 net.cpp:158] Top shape: 4 256 86 86 (7573504)
I0122 01:56:23.054448 27918 net.cpp:166] Memory required for data: 370442672
I0122 01:56:23.054450 27918 layer_factory.hpp:76] Creating layer pool2
I0122 01:56:23.054455 27918 net.cpp:107] Creating Layer pool2
I0122 01:56:23.054456 27918 net.cpp:455] pool2 <- conv2
I0122 01:56:23.054460 27918 net.cpp:412] pool2 -> pool2
I0122 01:56:23.054671 27918 net.cpp:151] Setting up pool2
I0122 01:56:23.054677 27918 net.cpp:158] Top shape: 4 256 43 43 (1893376)
I0122 01:56:23.054692 27918 net.cpp:166] Memory required for data: 378016176
I0122 01:56:23.054694 27918 layer_factory.hpp:76] Creating layer norm2
I0122 01:56:23.054698 27918 net.cpp:107] Creating Layer norm2
I0122 01:56:23.054700 27918 net.cpp:455] norm2 <- pool2
I0122 01:56:23.054704 27918 net.cpp:412] norm2 -> norm2
I0122 01:56:23.054842 27918 net.cpp:151] Setting up norm2
I0122 01:56:23.054847 27918 net.cpp:158] Top shape: 4 256 43 43 (1893376)
I0122 01:56:23.054863 27918 net.cpp:166] Memory required for data: 385589680
I0122 01:56:23.054865 27918 layer_factory.hpp:76] Creating layer conv3
I0122 01:56:23.054872 27918 net.cpp:107] Creating Layer conv3
I0122 01:56:23.054873 27918 net.cpp:455] conv3 <- norm2
I0122 01:56:23.054877 27918 net.cpp:412] conv3 -> conv3
I0122 01:56:23.071104 27918 cudnn_conv_layer.cpp:198] Reallocating workspace storage: 27648
I0122 01:56:23.071131 27918 net.cpp:151] Setting up conv3
I0122 01:56:23.071136 27918 net.cpp:158] Top shape: 4 384 43 43 (2840064)
I0122 01:56:23.071138 27918 net.cpp:166] Memory required for data: 396949936
I0122 01:56:23.071144 27918 layer_factory.hpp:76] Creating layer relu3
I0122 01:56:23.071151 27918 net.cpp:107] Creating Layer relu3
I0122 01:56:23.071152 27918 net.cpp:455] relu3 <- conv3
I0122 01:56:23.071156 27918 net.cpp:398] relu3 -> conv3 (in-place)
I0122 01:56:23.071352 27918 net.cpp:151] Setting up relu3
I0122 01:56:23.071359 27918 net.cpp:158] Top shape: 4 384 43 43 (2840064)
I0122 01:56:23.071375 27918 net.cpp:166] Memory required for data: 408310192
I0122 01:56:23.071377 27918 layer_factory.hpp:76] Creating layer conv4
I0122 01:56:23.071383 27918 net.cpp:107] Creating Layer conv4
I0122 01:56:23.071387 27918 net.cpp:455] conv4 <- conv3
I0122 01:56:23.071398 27918 net.cpp:412] conv4 -> conv4
I0122 01:56:23.084262 27918 net.cpp:151] Setting up conv4
I0122 01:56:23.084285 27918 net.cpp:158] Top shape: 4 384 43 43 (2840064)
I0122 01:56:23.084288 27918 net.cpp:166] Memory required for data: 419670448
I0122 01:56:23.084292 27918 layer_factory.hpp:76] Creating layer relu4
I0122 01:56:23.084297 27918 net.cpp:107] Creating Layer relu4
I0122 01:56:23.084300 27918 net.cpp:455] relu4 <- conv4
I0122 01:56:23.084303 27918 net.cpp:398] relu4 -> conv4 (in-place)
I0122 01:56:23.084503 27918 net.cpp:151] Setting up relu4
I0122 01:56:23.084524 27918 net.cpp:158] Top shape: 4 384 43 43 (2840064)
I0122 01:56:23.084527 27918 net.cpp:166] Memory required for data: 431030704
I0122 01:56:23.084529 27918 layer_factory.hpp:76] Creating layer conv5
I0122 01:56:23.084535 27918 net.cpp:107] Creating Layer conv5
I0122 01:56:23.084537 27918 net.cpp:455] conv5 <- conv4
I0122 01:56:23.084542 27918 net.cpp:412] conv5 -> conv5
I0122 01:56:23.093374 27918 net.cpp:151] Setting up conv5
I0122 01:56:23.093396 27918 net.cpp:158] Top shape: 4 256 43 43 (1893376)
I0122 01:56:23.093399 27918 net.cpp:166] Memory required for data: 438604208
I0122 01:56:23.093405 27918 layer_factory.hpp:76] Creating layer relu5
I0122 01:56:23.093410 27918 net.cpp:107] Creating Layer relu5
I0122 01:56:23.093413 27918 net.cpp:455] relu5 <- conv5
I0122 01:56:23.093416 27918 net.cpp:398] relu5 -> conv5 (in-place)
I0122 01:56:23.093621 27918 net.cpp:151] Setting up relu5
I0122 01:56:23.093627 27918 net.cpp:158] Top shape: 4 256 43 43 (1893376)
I0122 01:56:23.093643 27918 net.cpp:166] Memory required for data: 446177712
I0122 01:56:23.093646 27918 layer_factory.hpp:76] Creating layer pool5
I0122 01:56:23.093652 27918 net.cpp:107] Creating Layer pool5
I0122 01:56:23.093653 27918 net.cpp:455] pool5 <- conv5
I0122 01:56:23.093657 27918 net.cpp:412] pool5 -> pool5
I0122 01:56:23.093799 27918 net.cpp:151] Setting up pool5
I0122 01:56:23.093806 27918 net.cpp:158] Top shape: 4 256 21 21 (451584)
I0122 01:56:23.093822 27918 net.cpp:166] Memory required for data: 447984048
I0122 01:56:23.093823 27918 layer_factory.hpp:76] Creating layer fc6
I0122 01:56:23.093828 27918 net.cpp:107] Creating Layer fc6
I0122 01:56:23.093832 27918 net.cpp:455] fc6 <- pool5
I0122 01:56:23.093835 27918 net.cpp:412] fc6 -> fc6
I0122 01:56:23.770367 27918 cudnn_conv_layer.cpp:198] Reallocating workspace storage: 110592
I0122 01:56:23.770404 27918 net.cpp:151] Setting up fc6
I0122 01:56:23.770412 27918 net.cpp:158] Top shape: 4 4096 16 16 (4194304)
I0122 01:56:23.770414 27918 net.cpp:166] Memory required for data: 464761264
I0122 01:56:23.770421 27918 layer_factory.hpp:76] Creating layer relu6
I0122 01:56:23.770426 27918 net.cpp:107] Creating Layer relu6
I0122 01:56:23.770431 27918 net.cpp:455] relu6 <- fc6
I0122 01:56:23.770434 27918 net.cpp:398] relu6 -> fc6 (in-place)
I0122 01:56:23.770640 27918 net.cpp:151] Setting up relu6
I0122 01:56:23.770663 27918 net.cpp:158] Top shape: 4 4096 16 16 (4194304)
I0122 01:56:23.770665 27918 net.cpp:166] Memory required for data: 481538480
I0122 01:56:23.770668 27918 layer_factory.hpp:76] Creating layer fc7
I0122 01:56:23.770673 27918 net.cpp:107] Creating Layer fc7
I0122 01:56:23.770675 27918 net.cpp:455] fc7 <- fc6
I0122 01:56:23.770680 27918 net.cpp:412] fc7 -> fc7
I0122 01:56:24.066702 27918 cudnn_conv_layer.cpp:198] Reallocating workspace storage: 49152
I0122 01:56:24.066737 27918 net.cpp:151] Setting up fc7
I0122 01:56:24.066743 27918 net.cpp:158] Top shape: 4 4096 16 16 (4194304)
I0122 01:56:24.066746 27918 net.cpp:166] Memory required for data: 498315696
I0122 01:56:24.066751 27918 layer_factory.hpp:76] Creating layer relu7
I0122 01:56:24.066759 27918 net.cpp:107] Creating Layer relu7
I0122 01:56:24.066763 27918 net.cpp:455] relu7 <- fc7
I0122 01:56:24.066767 27918 net.cpp:398] relu7 -> fc7 (in-place)
I0122 01:56:24.066988 27918 net.cpp:151] Setting up relu7
I0122 01:56:24.066995 27918 net.cpp:158] Top shape: 4 4096 16 16 (4194304)
I0122 01:56:24.067011 27918 net.cpp:166] Memory required for data: 515092912
I0122 01:56:24.067023 27918 layer_factory.hpp:76] Creating layer deconv-1
I0122 01:56:24.067030 27918 net.cpp:107] Creating Layer deconv-1
I0122 01:56:24.067033 27918 net.cpp:455] deconv-1 <- fc7
I0122 01:56:24.067036 27918 net.cpp:412] deconv-1 -> up-fc7
I0122 01:56:24.341475 27918 net.cpp:151] Setting up deconv-1
I0122 01:56:24.341506 27918 net.cpp:158] Top shape: 4 256 543 543 (301925376)
I0122 01:56:24.341508 27918 net.cpp:166] Memory required for data: 1722794416
I0122 01:56:24.341513 27918 layer_factory.hpp:76] Creating layer crop
I0122 01:56:24.341521 27918 net.cpp:107] Creating Layer crop
I0122 01:56:24.341524 27918 net.cpp:455] crop <- up-fc7
I0122 01:56:24.341529 27918 net.cpp:455] crop <- image_images_0_split_1
I0122 01:56:24.341533 27918 net.cpp:412] crop -> conv-feature
I0122 01:56:24.341569 27918 net.cpp:151] Setting up crop
I0122 01:56:24.341574 27918 net.cpp:158] Top shape: 4 256 500 500 (256000000)
I0122 01:56:24.341577 27918 net.cpp:166] Memory required for data: 2746794416
I0122 01:56:24.341578 27918 layer_factory.hpp:76] Creating layer spixel_pooling1
I0122 01:56:24.341583 27918 net.cpp:107] Creating Layer spixel_pooling1
I0122 01:56:24.341584 27918 net.cpp:455] spixel_pooling1 <- conv-feature
I0122 01:56:24.341588 27918 net.cpp:455] spixel_pooling1 <- spixel_data
I0122 01:56:24.341590 27918 net.cpp:455] spixel_pooling1 <- spixel_ptr
I0122 01:56:24.341593 27918 net.cpp:455] spixel_pooling1 <- spixel_num
I0122 01:56:24.341595 27918 net.cpp:455] spixel_pooling1 <- mask_size
I0122 01:56:24.341598 27918 net.cpp:412] spixel_pooling1 -> spixel_feature
I0122 01:56:24.341614 27918 net.cpp:151] Setting up spixel_pooling1
I0122 01:56:24.341619 27918 net.cpp:158] Top shape: 4 1 9777 256 (10011648)
I0122 01:56:24.341620 27918 net.cpp:166] Memory required for data: 2786841008
I0122 01:56:24.341622 27918 layer_factory.hpp:76] Creating layer rpixel_pooling1
I0122 01:56:24.341626 27918 net.cpp:107] Creating Layer rpixel_pooling1
I0122 01:56:24.341629 27918 net.cpp:455] rpixel_pooling1 <- spixel_feature
I0122 01:56:24.341631 27918 net.cpp:455] rpixel_pooling1 <- seg_data
I0122 01:56:24.341634 27918 net.cpp:455] rpixel_pooling1 <- seg_ptr
I0122 01:56:24.341636 27918 net.cpp:455] rpixel_pooling1 <- seg_num_data_7_split_0
I0122 01:56:24.341639 27918 net.cpp:455] rpixel_pooling1 <- seg_coef
I0122 01:56:24.341644 27918 net.cpp:412] rpixel_pooling1 -> seg_feature
I0122 01:56:24.341658 27918 net.cpp:151] Setting up rpixel_pooling1
I0122 01:56:24.341662 27918 net.cpp:158] Top shape: 4 1 1800 256 (1843200)
I0122 01:56:24.341665 27918 net.cpp:166] Memory required for data: 2794213808
I0122 01:56:24.341666 27918 layer_factory.hpp:76] Creating layer tracker
I0122 01:56:24.341671 27918 net.cpp:107] Creating Layer tracker
I0122 01:56:24.341673 27918 net.cpp:455] tracker <- seg_feature
I0122 01:56:24.341676 27918 net.cpp:455] tracker <- overlaps
I0122 01:56:24.341680 27918 net.cpp:455] tracker <- seg_num_data_7_split_1
I0122 01:56:24.341681 27918 net.cpp:455] tracker <- cont_data_0_split_0
I0122 01:56:24.341684 27918 net.cpp:412] tracker -> v
I0122 01:56:24.341688 27918 net.cpp:412] tracker -> vtilde
I0122 01:56:24.341693 27918 recurrent_layer.cpp:42] Initializing recurrent layer: assuming input batch contains 4 timesteps of 1 independent streams.
I0122 01:56:24.342342 27918 net.cpp:49] Initializing net from parameters: 
input: "x"
input: "overlaps"
input: "seg_num"
input: "cont"
input: "c_0"
input: "h_0"
input: "s_0"
force_backward: true
input_shape {
  dim: 4
  dim: 1
  dim: 1800
  dim: 256
}
input_shape {
  dim: 4
  dim: 1
  dim: 1800
  dim: 1800
}
input_shape {
  dim: 4
  dim: 1
}
input_shape {
  dim: 4
  dim: 1
}
input_shape {
  dim: 1
  dim: 1
  dim: 1800
  dim: 256
}
input_shape {
  dim: 1
  dim: 1
  dim: 256
  dim: 256
}
input_shape {
  dim: 1
  dim: 1
  dim: 1
}
layer {
  name: "tracker_cont_slice"
  type: "Slice"
  bottom: "cont"
  top: "cont_1"
  top: "cont_2"
  top: "cont_3"
  top: "cont_4"
  slice_param {
    axis: 0
  }
}
layer {
  name: "tracker_x_slice"
  type: "Slice"
  bottom: "x"
  top: "x_1"
  top: "x_2"
  top: "x_3"
  top: "x_4"
  slice_param {
    axis: 0
  }
}
layer {
  name: "tracker_overlaps_slice"
  type: "Slice"
  bottom: "overlaps"
  top: "overlaps_1"
  top: "overlaps_2"
  top: "overlaps_3"
  top: "overlaps_4"
  slice_param {
    axis: 0
  }
}
layer {
  name: "tracker_seg_num_slice"
  type: "Slice"
  bottom: "seg_num"
  top: "nseg_1"
  top: "nseg_2"
  top: "nseg_3"
  top: "nseg_4"
  slice_param {
    axis: 0
  }
}
layer {
  name: "tracker_overlaps_split_1"
  type: "Split"
  bottom: "overlaps_1"
  top: "overlaps1_1"
  top: "overlaps2_1"
}
layer {
  name: "tracker_x_split_1"
  type: "Split"
  bottom: "x_1"
  top: "x1_1"
  top: "x2_1"
  top: "x3_1"
  top: "x4_1"
}
layer {
  name: "tracker_cont_split_1"
  type: "Split"
  bottom: "cont_1"
  top: "cont1_1"
  top: "cont2_1"
  top: "cont3_1"
  top: "cont4_1"
}
layer {
  name: "tracker_h_split_0"
  type: "Split"
  bottom: "h_0"
  top: "h1_0"
  top: "h2_0"
}
layer {
  name: "tracker_c_split_0"
  type: "Split"
  bottom: "c_0"
  top: "c1_0"
  top: "c2_0"
}
layer {
  name: "tracker_s_cont_0"
  type: "Scalar"
  bottom: "s_0"
  bottom: "cont4_1"
  top: "s_cont_0"
  scalar_param {
    axis: 0
  }
}
layer {
  name: "tracker_s_cont_split_0"
  type: "Split"
  bottom: "s_cont_0"
  top: "s1_cont_0"
  top: "s2_cont_0"
}
layer {
  name: "tracker_hm1_0"
  type: "MatInv"
  bottom: "h1_0"
  bottom: "s1_cont_0"
  top: "hm1_0"
  matinv_param {
    lambda: 10000
  }
}
layer {
  name: "tracker_w_0"
  type: "MatMult"
  bottom: "c1_0"
  bottom: "hm1_0"
  top: "w_0"
}
layer {
  name: "tracker_v_1"
  type: "MatMult"
  bottom: "w_0"
  bottom: "x_1"
  top: "v_1"
  matmult_param {
    transpose_b: true
  }
}
layer {
  name: "tracker_rename_overlaps_1"
  type: "Split"
  bottom: "overlaps1_1"
  top: "s_overlaps_1"
}
layer {
  name: "tracker_v_cont_1"
  type: "Switch"
  bottom: "s_overlaps_1"
  bottom: "v_1"
  bottom: "cont1_1"
  top: "v_cont_1"
  switch_param {
    axis: 2
  }
}
layer {
  name: "tracker_v_split_1"
  type: "Split"
  bottom: "v_cont_1"
  top: "v1_1"
  top: "v3_1"
  top: "v4_1"
  top: "v2_1"
}
layer {
  name: "tracker_vtilde_1"
  type: "TrackerMatching"
  bottom: "v4_1"
  bottom: "overlaps2_1"
  bottom: "nseg_1"
  top: "vtilde_1"
}
layer {
  name: "tracker_vtilde_split_1"
  type: "Split"
  bottom: "vtilde_1"
  top: "vtilde1_1"
}
layer {
  name: "tracker_reshape1_1"
  type: "Reshape"
  bottom: "v1_1"
  top: "vr_1"
  reshape_param {
    shape {
      dim: 1
      dim: 1
      dim: 1800
      dim: 1800
    }
  }
}
layer {
  name: "tracker_max_1"
  type: "Pooling"
  bottom: "vr_1"
  top: "mr_1"
  pooling_param {
    pool: MAX
    kernel_h: 1800
    kernel_w: 1
  }
}
layer {
  name: "tracker_reshape2_1"
  type: "Reshape"
  bottom: "mr_1"
  top: "m_1"
  reshape_param {
    shape {
      dim: 1
      dim: 1
      dim: 1800
    }
  }
}
layer {
  name: "tracker_m_split_1"
  type: "Split"
  bottom: "m_1"
  top: "m1_1"
  top: "m2_1"
}
layer {
  name: "tracker_concat_s_elemens_1"
  type: "Concat"
  bottom: "m2_1"
  bottom: "s2_cont_0"
  top: "s_elem_1"
  concat_param {
    axis: 2
  }
}
layer {
  name: "tracker_sum_s_elemens_1"
  type: "Reduction"
  bottom: "s_elem_1"
  top: "ns_1"
  concat_param {
    axis: 2
  }
}
layer {
  name: "tracker_s_reshape_1"
  type: "Reshape"
  bottom: "ns_1"
  top: "s_1"
  reshape_param {
    shape {
      dim: 1
      dim: 1
      dim: 1
    }
  }
}
layer {
  name: "tracker_mx_1"
  type: "MatMult"
  bottom: "m1_1"
  bottom: "x2_1"
  top: "mx_1"
  matmult_param {
    diagonal_input: true
  }
}
layer {
  name: "tracker_mx_split_1"
  type: "Split"
  bottom: "mx_1"
  top: "mx1_1"
  top: "mx2_1"
}
layer {
  name: "tracker_xmx_1"
  type: "MatMult"
  bottom: "x3_1"
  bottom: "mx1_1"
  top: "xmx_1"
  matmult_param {
    transpose_a: true
  }
}
layer {
  name: "tracker_h_cont_0"
  type: "Scalar"
  bottom: "h2_0"
  bottom: "cont2_1"
  top: "h_cont_0"
  scalar_param {
    axis: 0
  }
}
layer {
  name: "tracker_h_1"
  type: "Eltwise"
  bottom: "h_cont_0"
  bottom: "xmx_1"
  top: "h_1"
  eltwise_param {
    operation: SUM
  }
}
layer {
  name: "tracker_vmx_1"
  type: "MatMult"
  bottom: "v2_1"
  bottom: "mx2_1"
  top: "vmx_1"
}
layer {
  name: "tracker_c_cont_0"
  type: "Scalar"
  bottom: "c2_0"
  bottom: "cont3_1"
  top: "c_cont_0"
  scalar_param {
    axis: 0
  }
}
layer {
  name: "tracker_c_1"
  type: "Eltwise"
  bottom: "c_cont_0"
  bottom: "vmx_1"
  top: "c_1"
  eltwise_param {
    operation: SUM
  }
}
layer {
  name: "tracker_overlaps_split_2"
  type: "Split"
  bottom: "overlaps_2"
  top: "overlaps1_2"
  top: "overlaps2_2"
}
layer {
  name: "tracker_x_split_2"
  type: "Split"
  bottom: "x_2"
  top: "x1_2"
  top: "x2_2"
  top: "x3_2"
  top: "x4_2"
}
layer {
  name: "tracker_cont_split_2"
  type: "Split"
  bottom: "cont_2"
  top: "cont1_2"
  top: "cont2_2"
  top: "cont3_2"
  top: "cont4_2"
}
layer {
  name: "tracker_h_split_1"
  type: "Split"
  bottom: "h_1"
  top: "h1_1"
  top: "h2_1"
}
layer {
  name: "tracker_c_split_1"
  type: "Split"
  bottom: "c_1"
  top: "c1_1"
  top: "c2_1"
}
layer {
  name: "tracker_s_cont_1"
  type: "Scalar"
  bottom: "s_1"
  bottom: "cont4_2"
  top: "s_cont_1"
  scalar_param {
    axis: 0
  }
}
layer {
  name: "tracker_s_cont_split_1"
  type: "Split"
  bottom: "s_cont_1"
  top: "s1_cont_1"
  top: "s2_cont_1"
}
layer {
  name: "tracker_hm1_1"
  type: "MatInv"
  bottom: "h1_1"
  bottom: "s1_cont_1"
  top: "hm1_1"
  matinv_param {
    lambda: 10000
  }
}
layer {
  name: "tracker_w_1"
  type: "MatMult"
  bottom: "c1_1"
  bottom: "hm1_1"
  top: "w_1"
}
layer {
  name: "tracker_v_2"
  type: "MatMult"
  bottom: "w_1"
  bottom: "x_2"
  top: "v_2"
  matmult_param {
    transpose_b: true
  }
}
layer {
  name: "tracker_rename_overlaps_2"
  type: "Split"
  bottom: "overlaps1_2"
  top: "s_overlaps_2"
}
layer {
  name: "tracker_v_cont_2"
  type: "Switch"
  bottom: "s_overlaps_2"
  bottom: "v_2"
  bottom: "cont1_2"
  top: "v_cont_2"
  switch_param {
    axis: 2
  }
}
layer {
  name: "tracker_v_split_2"
  type: "Split"
  bottom: "v_cont_2"
  top: "v1_2"
  top: "v3_2"
  top: "v4_2"
  top: "v2_2"
}
layer {
  name: "tracker_vtilde_2"
  type: "TrackerMatching"
  bottom: "v4_2"
  bottom: "overlaps2_2"
  bottom: "nseg_2"
  top: "vtilde_2"
}
layer {
  name: "tracker_vtilde_split_2"
  type: "Split"
  bottom: "vtilde_2"
  top: "vtilde1_2"
}
layer {
  name: "tracker_reshape1_2"
  type: "Reshape"
  bottom: "v1_2"
  top: "vr_2"
  reshape_param {
    shape {
      dim: 1
      dim: 1
      dim: 1800
      dim: 1800
    }
  }
}
layer {
  name: "tracker_max_2"
  type: "Pooling"
  bottom: "vr_2"
  top: "mr_2"
  pooling_param {
    pool: MAX
    kernel_h: 1800
    kernel_w: 1
  }
}
layer {
  name: "tracker_reshape2_2"
  type: "Reshape"
  bottom: "mr_2"
  top: "m_2"
  reshape_param {
    shape {
      dim: 1
      dim: 1
      dim: 1800
    }
  }
}
layer {
  name: "tracker_m_split_2"
  type: "Split"
  bottom: "m_2"
  top: "m1_2"
  top: "m2_2"
}
layer {
  name: "tracker_concat_s_elemens_2"
  type: "Concat"
  bottom: "m2_2"
  bottom: "s2_cont_1"
  top: "s_elem_2"
  concat_param {
    axis: 2
  }
}
layer {
  name: "tracker_sum_s_elemens_2"
  type: "Reduction"
  bottom: "s_elem_2"
  top: "ns_2"
  concat_param {
    axis: 2
  }
}
layer {
  name: "tracker_s_reshape_2"
  type: "Reshape"
  bottom: "ns_2"
  top: "s_2"
  reshape_param {
    shape {
      dim: 1
      dim: 1
      dim: 1
    }
  }
}
layer {
  name: "tracker_mx_2"
  type: "MatMult"
  bottom: "m1_2"
  bottom: "x2_2"
  top: "mx_2"
  matmult_param {
    diagonal_input: true
  }
}
layer {
  name: "tracker_mx_split_2"
  type: "Split"
  bottom: "mx_2"
  top: "mx1_2"
  top: "mx2_2"
}
layer {
  name: "tracker_xmx_2"
  type: "MatMult"
  bottom: "x3_2"
  bottom: "mx1_2"
  top: "xmx_2"
  matmult_param {
    transpose_a: true
  }
}
layer {
  name: "tracker_h_cont_1"
  type: "Scalar"
  bottom: "h2_1"
  bottom: "cont2_2"
  top: "h_cont_1"
  scalar_param {
    axis: 0
  }
}
layer {
  name: "tracker_h_2"
  type: "Eltwise"
  bottom: "h_cont_1"
  bottom: "xmx_2"
  top: "h_2"
  eltwise_param {
    operation: SUM
  }
}
layer {
  name: "tracker_vmx_2"
  type: "MatMult"
  bottom: "v2_2"
  bottom: "mx2_2"
  top: "vmx_2"
}
layer {
  name: "tracker_c_cont_1"
  type: "Scalar"
  bottom: "c2_1"
  bottom: "cont3_2"
  top: "c_cont_1"
  scalar_param {
    axis: 0
  }
}
layer {
  name: "tracker_c_2"
  type: "Eltwise"
  bottom: "c_cont_1"
  bottom: "vmx_2"
  top: "c_2"
  eltwise_param {
    operation: SUM
  }
}
layer {
  name: "tracker_overlaps_split_3"
  type: "Split"
  bottom: "overlaps_3"
  top: "overlaps1_3"
  top: "overlaps2_3"
}
layer {
  name: "tracker_x_split_3"
  type: "Split"
  bottom: "x_3"
  top: "x1_3"
  top: "x2_3"
  top: "x3_3"
  top: "x4_3"
}
layer {
  name: "tracker_cont_split_3"
  type: "Split"
  bottom: "cont_3"
  top: "cont1_3"
  top: "cont2_3"
  top: "cont3_3"
  top: "cont4_3"
}
layer {
  name: "tracker_h_split_2"
  type: "Split"
  bottom: "h_2"
  top: "h1_2"
  top: "h2_2"
}
layer {
  name: "tracker_c_split_2"
  type: "Split"
  bottom: "c_2"
  top: "c1_2"
  top: "c2_2"
}
layer {
  name: "tracker_s_cont_2"
  type: "Scalar"
  bottom: "s_2"
  bottom: "cont4_3"
  top: "s_cont_2"
  scalar_param {
    axis: 0
  }
}
layer {
  name: "tracker_s_cont_split_2"
  type: "Split"
  bottom: "s_cont_2"
  top: "s1_cont_2"
  top: "s2_cont_2"
}
layer {
  name: "tracker_hm1_2"
  type: "MatInv"
  bottom: "h1_2"
  bottom: "s1_cont_2"
  top: "hm1_2"
  matinv_param {
    lambda: 10000
  }
}
layer {
  name: "tracker_w_2"
  type: "MatMult"
  bottom: "c1_2"
  bottom: "hm1_2"
  top: "w_2"
}
layer {
  name: "tracker_v_3"
  type: "MatMult"
  bottom: "w_2"
  bottom: "x_3"
  top: "v_3"
  matmult_param {
    transpose_b: true
  }
}
layer {
  name: "tracker_rename_overlaps_3"
  type: "Split"
  bottom: "overlaps1_3"
  top: "s_overlaps_3"
}
layer {
  name: "tracker_v_cont_3"
  type: "Switch"
  bottom: "s_overlaps_3"
  bottom: "v_3"
  bottom: "cont1_3"
  top: "v_cont_3"
  switch_param {
    axis: 2
  }
}
layer {
  name: "tracker_v_split_3"
  type: "Split"
  bottom: "v_cont_3"
  top: "v1_3"
  top: "v3_3"
  top: "v4_3"
  top: "v2_3"
}
layer {
  name: "tracker_vtilde_3"
  type: "TrackerMatching"
  bottom: "v4_3"
  bottom: "overlaps2_3"
  bottom: "nseg_3"
  top: "vtilde_3"
}
layer {
  name: "tracker_vtilde_split_3"
  type: "Split"
  bottom: "vtilde_3"
  top: "vtilde1_3"
}
layer {
  name: "tracker_reshape1_3"
  type: "Reshape"
  bottom: "v1_3"
  top: "vr_3"
  reshape_param {
    shape {
      dim: 1
      dim: 1
      dim: 1800
      dim: 1800
    }
  }
}
layer {
  name: "tracker_max_3"
  type: "Pooling"
  bottom: "vr_3"
  top: "mr_3"
  pooling_param {
    pool: MAX
    kernel_h: 1800
    kernel_w: 1
  }
}
layer {
  name: "tracker_reshape2_3"
  type: "Reshape"
  bottom: "mr_3"
  top: "m_3"
  reshape_param {
    shape {
      dim: 1
      dim: 1
      dim: 1800
    }
  }
}
layer {
  name: "tracker_m_split_3"
  type: "Split"
  bottom: "m_3"
  top: "m1_3"
  top: "m2_3"
}
layer {
  name: "tracker_concat_s_elemens_3"
  type: "Concat"
  bottom: "m2_3"
  bottom: "s2_cont_2"
  top: "s_elem_3"
  concat_param {
    axis: 2
  }
}
layer {
  name: "tracker_sum_s_elemens_3"
  type: "Reduction"
  bottom: "s_elem_3"
  top: "ns_3"
  concat_param {
    axis: 2
  }
}
layer {
  name: "tracker_s_reshape_3"
  type: "Reshape"
  bottom: "ns_3"
  top: "s_3"
  reshape_param {
    shape {
      dim: 1
      dim: 1
      dim: 1
    }
  }
}
layer {
  name: "tracker_mx_3"
  type: "MatMult"
  bottom: "m1_3"
  bottom: "x2_3"
  top: "mx_3"
  matmult_param {
    diagonal_input: true
  }
}
layer {
  name: "tracker_mx_split_3"
  type: "Split"
  bottom: "mx_3"
  top: "mx1_3"
  top: "mx2_3"
}
layer {
  name: "tracker_xmx_3"
  type: "MatMult"
  bottom: "x3_3"
  bottom: "mx1_3"
  top: "xmx_3"
  matmult_param {
    transpose_a: true
  }
}
layer {
  name: "tracker_h_cont_2"
  type: "Scalar"
  bottom: "h2_2"
  bottom: "cont2_3"
  top: "h_cont_2"
  scalar_param {
    axis: 0
  }
}
layer {
  name: "tracker_h_3"
  type: "Eltwise"
  bottom: "h_cont_2"
  bottom: "xmx_3"
  top: "h_3"
  eltwise_param {
    operation: SUM
  }
}
layer {
  name: "tracker_vmx_3"
  type: "MatMult"
  bottom: "v2_3"
  bottom: "mx2_3"
  top: "vmx_3"
}
layer {
  name: "tracker_c_cont_2"
  type: "Scalar"
  bottom: "c2_2"
  bottom: "cont3_3"
  top: "c_cont_2"
  scalar_param {
    axis: 0
  }
}
layer {
  name: "tracker_c_3"
  type: "Eltwise"
  bottom: "c_cont_2"
  bottom: "vmx_3"
  top: "c_3"
  eltwise_param {
    operation: SUM
  }
}
layer {
  name: "tracker_overlaps_split_4"
  type: "Split"
  bottom: "overlaps_4"
  top: "overlaps1_4"
  top: "overlaps2_4"
}
layer {
  name: "tracker_x_split_4"
  type: "Split"
  bottom: "x_4"
  top: "x1_4"
  top: "x2_4"
  top: "x3_4"
  top: "x4_4"
}
layer {
  name: "tracker_cont_split_4"
  type: "Split"
  bottom: "cont_4"
  top: "cont1_4"
  top: "cont2_4"
  top: "cont3_4"
  top: "cont4_4"
}
layer {
  name: "tracker_h_split_3"
  type: "Split"
  bottom: "h_3"
  top: "h1_3"
  top: "h2_3"
}
layer {
  name: "tracker_c_split_3"
  type: "Split"
  bottom: "c_3"
  top: "c1_3"
  top: "c2_3"
}
layer {
  name: "tracker_s_cont_3"
  type: "Scalar"
  bottom: "s_3"
  bottom: "cont4_4"
  top: "s_cont_3"
  scalar_param {
    axis: 0
  }
}
layer {
  name: "tracker_s_cont_split_3"
  type: "Split"
  bottom: "s_cont_3"
  top: "s1_cont_3"
  top: "s2_cont_3"
}
layer {
  name: "tracker_hm1_3"
  type: "MatInv"
  bottom: "h1_3"
  bottom: "s1_cont_3"
  top: "hm1_3"
  matinv_param {
    lambda: 10000
  }
}
layer {
  name: "tracker_w_3"
  type: "MatMult"
  bottom: "c1_3"
  bottom: "hm1_3"
  top: "w_3"
}
layer {
  name: "tracker_v_4"
  type: "MatMult"
  bottom: "w_3"
  bottom: "x_4"
  top: "v_4"
  matmult_param {
    transpose_b: true
  }
}
layer {
  name: "tracker_rename_overlaps_4"
  type: "Split"
  bottom: "overlaps1_4"
  top: "s_overlaps_4"
}
layer {
  name: "tracker_v_cont_4"
  type: "Switch"
  bottom: "s_overlaps_4"
  bottom: "v_4"
  bottom: "cont1_4"
  top: "v_cont_4"
  switch_param {
    axis: 2
  }
}
layer {
  name: "tracker_v_split_4"
  type: "Split"
  bottom: "v_cont_4"
  top: "v1_4"
  top: "v3_4"
  top: "v4_4"
  top: "v2_4"
}
layer {
  name: "tracker_vtilde_4"
  type: "TrackerMatching"
  bottom: "v4_4"
  bottom: "overlaps2_4"
  bottom: "nseg_4"
  top: "vtilde_4"
}
layer {
  name: "tracker_vtilde_split_4"
  type: "Split"
  bottom: "vtilde_4"
  top: "vtilde1_4"
}
layer {
  name: "tracker_reshape1_4"
  type: "Reshape"
  bottom: "v1_4"
  top: "vr_4"
  reshape_param {
    shape {
      dim: 1
      dim: 1
      dim: 1800
      dim: 1800
    }
  }
}
layer {
  name: "tracker_max_4"
  type: "Pooling"
  bottom: "vr_4"
  top: "mr_4"
  pooling_param {
    pool: MAX
    kernel_h: 1800
    kernel_w: 1
  }
}
layer {
  name: "tracker_reshape2_4"
  type: "Reshape"
  bottom: "mr_4"
  top: "m_4"
  reshape_param {
    shape {
      dim: 1
      dim: 1
      dim: 1800
    }
  }
}
layer {
  name: "tracker_m_split_4"
  type: "Split"
  bottom: "m_4"
  top: "m1_4"
  top: "m2_4"
}
layer {
  name: "tracker_concat_s_elemens_4"
  type: "Concat"
  bottom: "m2_4"
  bottom: "s2_cont_3"
  top: "s_elem_4"
  concat_param {
    axis: 2
  }
}
layer {
  name: "tracker_sum_s_elemens_4"
  type: "Reduction"
  bottom: "s_elem_4"
  top: "ns_4"
  concat_param {
    axis: 2
  }
}
layer {
  name: "tracker_s_reshape_4"
  type: "Reshape"
  bottom: "ns_4"
  top: "s_4"
  reshape_param {
    shape {
      dim: 1
      dim: 1
      dim: 1
    }
  }
}
layer {
  name: "tracker_mx_4"
  type: "MatMult"
  bottom: "m1_4"
  bottom: "x2_4"
  top: "mx_4"
  matmult_param {
    diagonal_input: true
  }
}
layer {
  name: "tracker_mx_split_4"
  type: "Split"
  bottom: "mx_4"
  top: "mx1_4"
  top: "mx2_4"
}
layer {
  name: "tracker_xmx_4"
  type: "MatMult"
  bottom: "x3_4"
  bottom: "mx1_4"
  top: "xmx_4"
  matmult_param {
    transpose_a: true
  }
}
layer {
  name: "tracker_h_cont_3"
  type: "Scalar"
  bottom: "h2_3"
  bottom: "cont2_4"
  top: "h_cont_3"
  scalar_param {
    axis: 0
  }
}
layer {
  name: "tracker_h_4"
  type: "Eltwise"
  bottom: "h_cont_3"
  bottom: "xmx_4"
  top: "h_4"
  eltwise_param {
    operation: SUM
  }
}
layer {
  name: "tracker_vmx_4"
  type: "MatMult"
  bottom: "v2_4"
  bottom: "mx2_4"
  top: "vmx_4"
}
layer {
  name: "tracker_c_cont_3"
  type: "Scalar"
  bottom: "c2_3"
  bottom: "cont3_4"
  top: "c_cont_3"
  scalar_param {
    axis: 0
  }
}
layer {
  name: "tracker_c_4"
  type: "Eltwise"
  bottom: "c_cont_3"
  bottom: "vmx_4"
  top: "c_4"
  eltwise_param {
    operation: SUM
  }
}
layer {
  name: "tracker_v_concat"
  type: "Concat"
  bottom: "v3_1"
  bottom: "v3_2"
  bottom: "v3_3"
  bottom: "v3_4"
  top: "v"
  concat_param {
    axis: 0
  }
}
layer {
  name: "tracker_vtilde_concat"
  type: "Concat"
  bottom: "vtilde1_1"
  bottom: "vtilde1_2"
  bottom: "vtilde1_3"
  bottom: "vtilde1_4"
  top: "vtilde"
  concat_param {
    axis: 0
  }
}
I0122 01:56:24.342739 27918 net.cpp:414] Input 0 -> x
I0122 01:56:24.342764 27918 net.cpp:414] Input 1 -> overlaps
I0122 01:56:24.342780 27918 net.cpp:414] Input 2 -> seg_num
I0122 01:56:24.342795 27918 net.cpp:414] Input 3 -> cont
I0122 01:56:24.342813 27918 net.cpp:414] Input 4 -> c_0
I0122 01:56:24.342826 27918 net.cpp:414] Input 5 -> h_0
I0122 01:56:24.342839 27918 net.cpp:414] Input 6 -> s_0
I0122 01:56:24.342864 27918 layer_factory.hpp:76] Creating layer tracker_cont_slice
I0122 01:56:24.342869 27918 net.cpp:107] Creating Layer tracker_cont_slice
I0122 01:56:24.342871 27918 net.cpp:455] tracker_cont_slice <- cont
I0122 01:56:24.342875 27918 net.cpp:412] tracker_cont_slice -> cont_1
I0122 01:56:24.342880 27918 net.cpp:412] tracker_cont_slice -> cont_2
I0122 01:56:24.342885 27918 net.cpp:412] tracker_cont_slice -> cont_3
I0122 01:56:24.342887 27918 net.cpp:412] tracker_cont_slice -> cont_4
I0122 01:56:24.342929 27918 net.cpp:151] Setting up tracker_cont_slice
I0122 01:56:24.342933 27918 net.cpp:158] Top shape: 1 1 (1)
I0122 01:56:24.342936 27918 net.cpp:158] Top shape: 1 1 (1)
I0122 01:56:24.342938 27918 net.cpp:158] Top shape: 1 1 (1)
I0122 01:56:24.342941 27918 net.cpp:158] Top shape: 1 1 (1)
I0122 01:56:24.342942 27918 net.cpp:166] Memory required for data: 16
I0122 01:56:24.342944 27918 layer_factory.hpp:76] Creating layer tracker_x_slice
I0122 01:56:24.342948 27918 net.cpp:107] Creating Layer tracker_x_slice
I0122 01:56:24.342950 27918 net.cpp:455] tracker_x_slice <- x
I0122 01:56:24.342953 27918 net.cpp:412] tracker_x_slice -> x_1
I0122 01:56:24.342957 27918 net.cpp:412] tracker_x_slice -> x_2
I0122 01:56:24.342960 27918 net.cpp:412] tracker_x_slice -> x_3
I0122 01:56:24.342964 27918 net.cpp:412] tracker_x_slice -> x_4
I0122 01:56:24.343003 27918 net.cpp:151] Setting up tracker_x_slice
I0122 01:56:24.343008 27918 net.cpp:158] Top shape: 1 1 1800 256 (460800)
I0122 01:56:24.343009 27918 net.cpp:158] Top shape: 1 1 1800 256 (460800)
I0122 01:56:24.343013 27918 net.cpp:158] Top shape: 1 1 1800 256 (460800)
I0122 01:56:24.343014 27918 net.cpp:158] Top shape: 1 1 1800 256 (460800)
I0122 01:56:24.343016 27918 net.cpp:166] Memory required for data: 7372816
I0122 01:56:24.343019 27918 layer_factory.hpp:76] Creating layer x_1_tracker_x_slice_0_split
I0122 01:56:24.343021 27918 net.cpp:107] Creating Layer x_1_tracker_x_slice_0_split
I0122 01:56:24.343024 27918 net.cpp:455] x_1_tracker_x_slice_0_split <- x_1
I0122 01:56:24.343026 27918 net.cpp:412] x_1_tracker_x_slice_0_split -> x_1_tracker_x_slice_0_split_0
I0122 01:56:24.343030 27918 net.cpp:412] x_1_tracker_x_slice_0_split -> x_1_tracker_x_slice_0_split_1
I0122 01:56:24.343053 27918 net.cpp:151] Setting up x_1_tracker_x_slice_0_split
I0122 01:56:24.343056 27918 net.cpp:158] Top shape: 1 1 1800 256 (460800)
I0122 01:56:24.343060 27918 net.cpp:158] Top shape: 1 1 1800 256 (460800)
I0122 01:56:24.343061 27918 net.cpp:166] Memory required for data: 11059216
I0122 01:56:24.343063 27918 layer_factory.hpp:76] Creating layer x_2_tracker_x_slice_1_split
I0122 01:56:24.343066 27918 net.cpp:107] Creating Layer x_2_tracker_x_slice_1_split
I0122 01:56:24.343068 27918 net.cpp:455] x_2_tracker_x_slice_1_split <- x_2
I0122 01:56:24.343071 27918 net.cpp:412] x_2_tracker_x_slice_1_split -> x_2_tracker_x_slice_1_split_0
I0122 01:56:24.343075 27918 net.cpp:412] x_2_tracker_x_slice_1_split -> x_2_tracker_x_slice_1_split_1
I0122 01:56:24.343101 27918 net.cpp:151] Setting up x_2_tracker_x_slice_1_split
I0122 01:56:24.343103 27918 net.cpp:158] Top shape: 1 1 1800 256 (460800)
I0122 01:56:24.343106 27918 net.cpp:158] Top shape: 1 1 1800 256 (460800)
I0122 01:56:24.343107 27918 net.cpp:166] Memory required for data: 14745616
I0122 01:56:24.343114 27918 layer_factory.hpp:76] Creating layer x_3_tracker_x_slice_2_split
I0122 01:56:24.343117 27918 net.cpp:107] Creating Layer x_3_tracker_x_slice_2_split
I0122 01:56:24.343121 27918 net.cpp:455] x_3_tracker_x_slice_2_split <- x_3
I0122 01:56:24.343123 27918 net.cpp:412] x_3_tracker_x_slice_2_split -> x_3_tracker_x_slice_2_split_0
I0122 01:56:24.343127 27918 net.cpp:412] x_3_tracker_x_slice_2_split -> x_3_tracker_x_slice_2_split_1
I0122 01:56:24.343152 27918 net.cpp:151] Setting up x_3_tracker_x_slice_2_split
I0122 01:56:24.343155 27918 net.cpp:158] Top shape: 1 1 1800 256 (460800)
I0122 01:56:24.343158 27918 net.cpp:158] Top shape: 1 1 1800 256 (460800)
I0122 01:56:24.343159 27918 net.cpp:166] Memory required for data: 18432016
I0122 01:56:24.343161 27918 layer_factory.hpp:76] Creating layer x_4_tracker_x_slice_3_split
I0122 01:56:24.343164 27918 net.cpp:107] Creating Layer x_4_tracker_x_slice_3_split
I0122 01:56:24.343166 27918 net.cpp:455] x_4_tracker_x_slice_3_split <- x_4
I0122 01:56:24.343168 27918 net.cpp:412] x_4_tracker_x_slice_3_split -> x_4_tracker_x_slice_3_split_0
I0122 01:56:24.343173 27918 net.cpp:412] x_4_tracker_x_slice_3_split -> x_4_tracker_x_slice_3_split_1
I0122 01:56:24.343196 27918 net.cpp:151] Setting up x_4_tracker_x_slice_3_split
I0122 01:56:24.343199 27918 net.cpp:158] Top shape: 1 1 1800 256 (460800)
I0122 01:56:24.343202 27918 net.cpp:158] Top shape: 1 1 1800 256 (460800)
I0122 01:56:24.343204 27918 net.cpp:166] Memory required for data: 22118416
I0122 01:56:24.343205 27918 layer_factory.hpp:76] Creating layer tracker_overlaps_slice
I0122 01:56:24.343209 27918 net.cpp:107] Creating Layer tracker_overlaps_slice
I0122 01:56:24.343211 27918 net.cpp:455] tracker_overlaps_slice <- overlaps
I0122 01:56:24.343214 27918 net.cpp:412] tracker_overlaps_slice -> overlaps_1
I0122 01:56:24.343219 27918 net.cpp:412] tracker_overlaps_slice -> overlaps_2
I0122 01:56:24.343222 27918 net.cpp:412] tracker_overlaps_slice -> overlaps_3
I0122 01:56:24.343226 27918 net.cpp:412] tracker_overlaps_slice -> overlaps_4
I0122 01:56:24.343267 27918 net.cpp:151] Setting up tracker_overlaps_slice
I0122 01:56:24.343271 27918 net.cpp:158] Top shape: 1 1 1800 1800 (3240000)
I0122 01:56:24.343273 27918 net.cpp:158] Top shape: 1 1 1800 1800 (3240000)
I0122 01:56:24.343276 27918 net.cpp:158] Top shape: 1 1 1800 1800 (3240000)
I0122 01:56:24.343277 27918 net.cpp:158] Top shape: 1 1 1800 1800 (3240000)
I0122 01:56:24.343279 27918 net.cpp:166] Memory required for data: 73958416
I0122 01:56:24.343281 27918 layer_factory.hpp:76] Creating layer tracker_seg_num_slice
I0122 01:56:24.343284 27918 net.cpp:107] Creating Layer tracker_seg_num_slice
I0122 01:56:24.343287 27918 net.cpp:455] tracker_seg_num_slice <- seg_num
I0122 01:56:24.343291 27918 net.cpp:412] tracker_seg_num_slice -> nseg_1
I0122 01:56:24.343293 27918 net.cpp:412] tracker_seg_num_slice -> nseg_2
I0122 01:56:24.343297 27918 net.cpp:412] tracker_seg_num_slice -> nseg_3
I0122 01:56:24.343302 27918 net.cpp:412] tracker_seg_num_slice -> nseg_4
I0122 01:56:24.343341 27918 net.cpp:151] Setting up tracker_seg_num_slice
I0122 01:56:24.343344 27918 net.cpp:158] Top shape: 1 1 (1)
I0122 01:56:24.343348 27918 net.cpp:158] Top shape: 1 1 (1)
I0122 01:56:24.343349 27918 net.cpp:158] Top shape: 1 1 (1)
I0122 01:56:24.343353 27918 net.cpp:158] Top shape: 1 1 (1)
I0122 01:56:24.343354 27918 net.cpp:166] Memory required for data: 73958432
I0122 01:56:24.343355 27918 layer_factory.hpp:76] Creating layer tracker_overlaps_split_1
I0122 01:56:24.343359 27918 net.cpp:107] Creating Layer tracker_overlaps_split_1
I0122 01:56:24.343361 27918 net.cpp:455] tracker_overlaps_split_1 <- overlaps_1
I0122 01:56:24.343365 27918 net.cpp:412] tracker_overlaps_split_1 -> overlaps1_1
I0122 01:56:24.343369 27918 net.cpp:412] tracker_overlaps_split_1 -> overlaps2_1
I0122 01:56:24.343394 27918 net.cpp:151] Setting up tracker_overlaps_split_1
I0122 01:56:24.343397 27918 net.cpp:158] Top shape: 1 1 1800 1800 (3240000)
I0122 01:56:24.343400 27918 net.cpp:158] Top shape: 1 1 1800 1800 (3240000)
I0122 01:56:24.343407 27918 net.cpp:166] Memory required for data: 99878432
I0122 01:56:24.343410 27918 layer_factory.hpp:76] Creating layer tracker_x_split_1
I0122 01:56:24.343412 27918 net.cpp:107] Creating Layer tracker_x_split_1
I0122 01:56:24.343415 27918 net.cpp:455] tracker_x_split_1 <- x_1_tracker_x_slice_0_split_0
I0122 01:56:24.343417 27918 net.cpp:412] tracker_x_split_1 -> x1_1
I0122 01:56:24.343421 27918 net.cpp:412] tracker_x_split_1 -> x2_1
I0122 01:56:24.343425 27918 net.cpp:412] tracker_x_split_1 -> x3_1
I0122 01:56:24.343428 27918 net.cpp:412] tracker_x_split_1 -> x4_1
I0122 01:56:24.343468 27918 net.cpp:151] Setting up tracker_x_split_1
I0122 01:56:24.343472 27918 net.cpp:158] Top shape: 1 1 1800 256 (460800)
I0122 01:56:24.343474 27918 net.cpp:158] Top shape: 1 1 1800 256 (460800)
I0122 01:56:24.343477 27918 net.cpp:158] Top shape: 1 1 1800 256 (460800)
I0122 01:56:24.343479 27918 net.cpp:158] Top shape: 1 1 1800 256 (460800)
I0122 01:56:24.343482 27918 net.cpp:166] Memory required for data: 107251232
I0122 01:56:24.343482 27918 layer_factory.hpp:76] Creating layer tracker_cont_split_1
I0122 01:56:24.343485 27918 net.cpp:107] Creating Layer tracker_cont_split_1
I0122 01:56:24.343487 27918 net.cpp:455] tracker_cont_split_1 <- cont_1
I0122 01:56:24.343492 27918 net.cpp:412] tracker_cont_split_1 -> cont1_1
I0122 01:56:24.343495 27918 net.cpp:412] tracker_cont_split_1 -> cont2_1
I0122 01:56:24.343498 27918 net.cpp:412] tracker_cont_split_1 -> cont3_1
I0122 01:56:24.343502 27918 net.cpp:412] tracker_cont_split_1 -> cont4_1
I0122 01:56:24.343543 27918 net.cpp:151] Setting up tracker_cont_split_1
I0122 01:56:24.343545 27918 net.cpp:158] Top shape: 1 1 (1)
I0122 01:56:24.343549 27918 net.cpp:158] Top shape: 1 1 (1)
I0122 01:56:24.343550 27918 net.cpp:158] Top shape: 1 1 (1)
I0122 01:56:24.343552 27918 net.cpp:158] Top shape: 1 1 (1)
I0122 01:56:24.343554 27918 net.cpp:166] Memory required for data: 107251248
I0122 01:56:24.343556 27918 layer_factory.hpp:76] Creating layer tracker_h_split_0
I0122 01:56:24.343559 27918 net.cpp:107] Creating Layer tracker_h_split_0
I0122 01:56:24.343561 27918 net.cpp:455] tracker_h_split_0 <- h_0
I0122 01:56:24.343564 27918 net.cpp:412] tracker_h_split_0 -> h1_0
I0122 01:56:24.343567 27918 net.cpp:412] tracker_h_split_0 -> h2_0
I0122 01:56:24.343591 27918 net.cpp:151] Setting up tracker_h_split_0
I0122 01:56:24.343595 27918 net.cpp:158] Top shape: 1 1 256 256 (65536)
I0122 01:56:24.343596 27918 net.cpp:158] Top shape: 1 1 256 256 (65536)
I0122 01:56:24.343598 27918 net.cpp:166] Memory required for data: 107775536
I0122 01:56:24.343600 27918 layer_factory.hpp:76] Creating layer tracker_c_split_0
I0122 01:56:24.343602 27918 net.cpp:107] Creating Layer tracker_c_split_0
I0122 01:56:24.343605 27918 net.cpp:455] tracker_c_split_0 <- c_0
I0122 01:56:24.343607 27918 net.cpp:412] tracker_c_split_0 -> c1_0
I0122 01:56:24.343611 27918 net.cpp:412] tracker_c_split_0 -> c2_0
I0122 01:56:24.343633 27918 net.cpp:151] Setting up tracker_c_split_0
I0122 01:56:24.343637 27918 net.cpp:158] Top shape: 1 1 1800 256 (460800)
I0122 01:56:24.343639 27918 net.cpp:158] Top shape: 1 1 1800 256 (460800)
I0122 01:56:24.343641 27918 net.cpp:166] Memory required for data: 111461936
I0122 01:56:24.343643 27918 layer_factory.hpp:76] Creating layer tracker_s_cont_0
I0122 01:56:24.343647 27918 net.cpp:107] Creating Layer tracker_s_cont_0
I0122 01:56:24.343648 27918 net.cpp:455] tracker_s_cont_0 <- s_0
I0122 01:56:24.343652 27918 net.cpp:455] tracker_s_cont_0 <- cont4_1
I0122 01:56:24.343655 27918 net.cpp:412] tracker_s_cont_0 -> s_cont_0
I0122 01:56:24.343699 27918 net.cpp:151] Setting up tracker_s_cont_0
I0122 01:56:24.343703 27918 net.cpp:158] Top shape: 1 1 1 (1)
I0122 01:56:24.343704 27918 net.cpp:166] Memory required for data: 111461940
I0122 01:56:24.343706 27918 layer_factory.hpp:76] Creating layer tracker_s_cont_split_0
I0122 01:56:24.343708 27918 net.cpp:107] Creating Layer tracker_s_cont_split_0
I0122 01:56:24.343710 27918 net.cpp:455] tracker_s_cont_split_0 <- s_cont_0
I0122 01:56:24.343719 27918 net.cpp:412] tracker_s_cont_split_0 -> s1_cont_0
I0122 01:56:24.343724 27918 net.cpp:412] tracker_s_cont_split_0 -> s2_cont_0
I0122 01:56:24.343746 27918 net.cpp:151] Setting up tracker_s_cont_split_0
I0122 01:56:24.343750 27918 net.cpp:158] Top shape: 1 1 1 (1)
I0122 01:56:24.343751 27918 net.cpp:158] Top shape: 1 1 1 (1)
I0122 01:56:24.343754 27918 net.cpp:166] Memory required for data: 111461948
I0122 01:56:24.343755 27918 layer_factory.hpp:76] Creating layer tracker_hm1_0
I0122 01:56:24.343760 27918 net.cpp:107] Creating Layer tracker_hm1_0
I0122 01:56:24.343762 27918 net.cpp:455] tracker_hm1_0 <- h1_0
I0122 01:56:24.343765 27918 net.cpp:455] tracker_hm1_0 <- s1_cont_0
I0122 01:56:24.343767 27918 net.cpp:412] tracker_hm1_0 -> hm1_0
I0122 01:56:24.343792 27918 net.cpp:151] Setting up tracker_hm1_0
I0122 01:56:24.343796 27918 net.cpp:158] Top shape: 1 1 256 256 (65536)
I0122 01:56:24.343797 27918 net.cpp:166] Memory required for data: 111724092
I0122 01:56:24.343799 27918 layer_factory.hpp:76] Creating layer tracker_w_0
I0122 01:56:24.343803 27918 net.cpp:107] Creating Layer tracker_w_0
I0122 01:56:24.343806 27918 net.cpp:455] tracker_w_0 <- c1_0
I0122 01:56:24.343808 27918 net.cpp:455] tracker_w_0 <- hm1_0
I0122 01:56:24.343811 27918 net.cpp:412] tracker_w_0 -> w_0
I0122 01:56:24.343829 27918 net.cpp:151] Setting up tracker_w_0
I0122 01:56:24.343832 27918 net.cpp:158] Top shape: 1 1 1800 256 (460800)
I0122 01:56:24.343834 27918 net.cpp:166] Memory required for data: 113567292
I0122 01:56:24.343837 27918 layer_factory.hpp:76] Creating layer tracker_v_1
I0122 01:56:24.343838 27918 net.cpp:107] Creating Layer tracker_v_1
I0122 01:56:24.343842 27918 net.cpp:455] tracker_v_1 <- w_0
I0122 01:56:24.343843 27918 net.cpp:455] tracker_v_1 <- x_1_tracker_x_slice_0_split_1
I0122 01:56:24.343847 27918 net.cpp:412] tracker_v_1 -> v_1
I0122 01:56:24.343863 27918 net.cpp:151] Setting up tracker_v_1
I0122 01:56:24.343865 27918 net.cpp:158] Top shape: 1 1 1800 1800 (3240000)
I0122 01:56:24.343868 27918 net.cpp:166] Memory required for data: 126527292
I0122 01:56:24.343868 27918 layer_factory.hpp:76] Creating layer tracker_rename_overlaps_1
I0122 01:56:24.343871 27918 net.cpp:107] Creating Layer tracker_rename_overlaps_1
I0122 01:56:24.343873 27918 net.cpp:455] tracker_rename_overlaps_1 <- overlaps1_1
I0122 01:56:24.343876 27918 net.cpp:412] tracker_rename_overlaps_1 -> s_overlaps_1
I0122 01:56:24.343890 27918 net.cpp:151] Setting up tracker_rename_overlaps_1
I0122 01:56:24.343894 27918 net.cpp:158] Top shape: 1 1 1800 1800 (3240000)
I0122 01:56:24.343895 27918 net.cpp:166] Memory required for data: 139487292
I0122 01:56:24.343896 27918 layer_factory.hpp:76] Creating layer tracker_v_cont_1
I0122 01:56:24.343901 27918 net.cpp:107] Creating Layer tracker_v_cont_1
I0122 01:56:24.343904 27918 net.cpp:455] tracker_v_cont_1 <- s_overlaps_1
I0122 01:56:24.343905 27918 net.cpp:455] tracker_v_cont_1 <- v_1
I0122 01:56:24.343909 27918 net.cpp:455] tracker_v_cont_1 <- cont1_1
I0122 01:56:24.343911 27918 net.cpp:412] tracker_v_cont_1 -> v_cont_1
I0122 01:56:24.343925 27918 net.cpp:151] Setting up tracker_v_cont_1
I0122 01:56:24.343930 27918 net.cpp:158] Top shape: 1 1 1800 1800 (3240000)
I0122 01:56:24.343930 27918 net.cpp:166] Memory required for data: 152447292
I0122 01:56:24.343932 27918 layer_factory.hpp:76] Creating layer tracker_v_split_1
I0122 01:56:24.343935 27918 net.cpp:107] Creating Layer tracker_v_split_1
I0122 01:56:24.343937 27918 net.cpp:455] tracker_v_split_1 <- v_cont_1
I0122 01:56:24.343941 27918 net.cpp:412] tracker_v_split_1 -> v1_1
I0122 01:56:24.343945 27918 net.cpp:412] tracker_v_split_1 -> v3_1
I0122 01:56:24.343950 27918 net.cpp:412] tracker_v_split_1 -> v4_1
I0122 01:56:24.343952 27918 net.cpp:412] tracker_v_split_1 -> v2_1
I0122 01:56:24.343992 27918 net.cpp:151] Setting up tracker_v_split_1
I0122 01:56:24.343997 27918 net.cpp:158] Top shape: 1 1 1800 1800 (3240000)
I0122 01:56:24.343998 27918 net.cpp:158] Top shape: 1 1 1800 1800 (3240000)
I0122 01:56:24.344000 27918 net.cpp:158] Top shape: 1 1 1800 1800 (3240000)
I0122 01:56:24.344007 27918 net.cpp:158] Top shape: 1 1 1800 1800 (3240000)
I0122 01:56:24.344009 27918 net.cpp:166] Memory required for data: 204287292
I0122 01:56:24.344012 27918 layer_factory.hpp:76] Creating layer tracker_vtilde_1
I0122 01:56:24.344014 27918 net.cpp:107] Creating Layer tracker_vtilde_1
I0122 01:56:24.344017 27918 net.cpp:455] tracker_vtilde_1 <- v4_1
I0122 01:56:24.344018 27918 net.cpp:455] tracker_vtilde_1 <- overlaps2_1
I0122 01:56:24.344022 27918 net.cpp:455] tracker_vtilde_1 <- nseg_1
I0122 01:56:24.344024 27918 net.cpp:412] tracker_vtilde_1 -> vtilde_1
I0122 01:56:24.344049 27918 net.cpp:151] Setting up tracker_vtilde_1
I0122 01:56:24.344053 27918 net.cpp:158] Top shape: 1 1 1800 1800 (3240000)
I0122 01:56:24.344054 27918 net.cpp:166] Memory required for data: 217247292
I0122 01:56:24.344056 27918 layer_factory.hpp:76] Creating layer tracker_vtilde_split_1
I0122 01:56:24.344058 27918 net.cpp:107] Creating Layer tracker_vtilde_split_1
I0122 01:56:24.344060 27918 net.cpp:455] tracker_vtilde_split_1 <- vtilde_1
I0122 01:56:24.344063 27918 net.cpp:412] tracker_vtilde_split_1 -> vtilde1_1
I0122 01:56:24.344079 27918 net.cpp:151] Setting up tracker_vtilde_split_1
I0122 01:56:24.344081 27918 net.cpp:158] Top shape: 1 1 1800 1800 (3240000)
I0122 01:56:24.344084 27918 net.cpp:166] Memory required for data: 230207292
I0122 01:56:24.344084 27918 layer_factory.hpp:76] Creating layer tracker_reshape1_1
I0122 01:56:24.344089 27918 net.cpp:107] Creating Layer tracker_reshape1_1
I0122 01:56:24.344090 27918 net.cpp:455] tracker_reshape1_1 <- v1_1
I0122 01:56:24.344094 27918 net.cpp:412] tracker_reshape1_1 -> vr_1
I0122 01:56:24.344108 27918 net.cpp:151] Setting up tracker_reshape1_1
I0122 01:56:24.344112 27918 net.cpp:158] Top shape: 1 1 1800 1800 (3240000)
I0122 01:56:24.344113 27918 net.cpp:166] Memory required for data: 243167292
I0122 01:56:24.344115 27918 layer_factory.hpp:76] Creating layer tracker_max_1
I0122 01:56:24.344120 27918 net.cpp:107] Creating Layer tracker_max_1
I0122 01:56:24.344122 27918 net.cpp:455] tracker_max_1 <- vr_1
I0122 01:56:24.344125 27918 net.cpp:412] tracker_max_1 -> mr_1
I0122 01:56:24.344422 27918 net.cpp:151] Setting up tracker_max_1
I0122 01:56:24.344429 27918 net.cpp:158] Top shape: 1 1 1 1800 (1800)
I0122 01:56:24.344430 27918 net.cpp:166] Memory required for data: 243174492
I0122 01:56:24.344434 27918 layer_factory.hpp:76] Creating layer tracker_reshape2_1
I0122 01:56:24.344436 27918 net.cpp:107] Creating Layer tracker_reshape2_1
I0122 01:56:24.344439 27918 net.cpp:455] tracker_reshape2_1 <- mr_1
I0122 01:56:24.344444 27918 net.cpp:412] tracker_reshape2_1 -> m_1
I0122 01:56:24.344460 27918 net.cpp:151] Setting up tracker_reshape2_1
I0122 01:56:24.344465 27918 net.cpp:158] Top shape: 1 1 1800 (1800)
I0122 01:56:24.344466 27918 net.cpp:166] Memory required for data: 243181692
I0122 01:56:24.344467 27918 layer_factory.hpp:76] Creating layer tracker_m_split_1
I0122 01:56:24.344471 27918 net.cpp:107] Creating Layer tracker_m_split_1
I0122 01:56:24.344475 27918 net.cpp:455] tracker_m_split_1 <- m_1
I0122 01:56:24.344476 27918 net.cpp:412] tracker_m_split_1 -> m1_1
I0122 01:56:24.344480 27918 net.cpp:412] tracker_m_split_1 -> m2_1
I0122 01:56:24.344506 27918 net.cpp:151] Setting up tracker_m_split_1
I0122 01:56:24.344509 27918 net.cpp:158] Top shape: 1 1 1800 (1800)
I0122 01:56:24.344511 27918 net.cpp:158] Top shape: 1 1 1800 (1800)
I0122 01:56:24.344513 27918 net.cpp:166] Memory required for data: 243196092
I0122 01:56:24.344516 27918 layer_factory.hpp:76] Creating layer tracker_concat_s_elemens_1
I0122 01:56:24.344519 27918 net.cpp:107] Creating Layer tracker_concat_s_elemens_1
I0122 01:56:24.344521 27918 net.cpp:455] tracker_concat_s_elemens_1 <- m2_1
I0122 01:56:24.344524 27918 net.cpp:455] tracker_concat_s_elemens_1 <- s2_cont_0
I0122 01:56:24.344527 27918 net.cpp:412] tracker_concat_s_elemens_1 -> s_elem_1
I0122 01:56:24.344547 27918 net.cpp:151] Setting up tracker_concat_s_elemens_1
I0122 01:56:24.344550 27918 net.cpp:158] Top shape: 1 1 1801 (1801)
I0122 01:56:24.344552 27918 net.cpp:166] Memory required for data: 243203296
I0122 01:56:24.344559 27918 layer_factory.hpp:76] Creating layer tracker_sum_s_elemens_1
I0122 01:56:24.344563 27918 net.cpp:107] Creating Layer tracker_sum_s_elemens_1
I0122 01:56:24.344565 27918 net.cpp:455] tracker_sum_s_elemens_1 <- s_elem_1
I0122 01:56:24.344568 27918 net.cpp:412] tracker_sum_s_elemens_1 -> ns_1
I0122 01:56:24.344596 27918 net.cpp:151] Setting up tracker_sum_s_elemens_1
I0122 01:56:24.344599 27918 net.cpp:158] Top shape: (1)
I0122 01:56:24.344601 27918 net.cpp:166] Memory required for data: 243203300
I0122 01:56:24.344604 27918 layer_factory.hpp:76] Creating layer tracker_s_reshape_1
I0122 01:56:24.344606 27918 net.cpp:107] Creating Layer tracker_s_reshape_1
I0122 01:56:24.344609 27918 net.cpp:455] tracker_s_reshape_1 <- ns_1
I0122 01:56:24.344612 27918 net.cpp:412] tracker_s_reshape_1 -> s_1
I0122 01:56:24.344629 27918 net.cpp:151] Setting up tracker_s_reshape_1
I0122 01:56:24.344632 27918 net.cpp:158] Top shape: 1 1 1 (1)
I0122 01:56:24.344635 27918 net.cpp:166] Memory required for data: 243203304
I0122 01:56:24.344635 27918 layer_factory.hpp:76] Creating layer tracker_mx_1
I0122 01:56:24.344638 27918 net.cpp:107] Creating Layer tracker_mx_1
I0122 01:56:24.344641 27918 net.cpp:455] tracker_mx_1 <- m1_1
I0122 01:56:24.344643 27918 net.cpp:455] tracker_mx_1 <- x2_1
I0122 01:56:24.344646 27918 net.cpp:412] tracker_mx_1 -> mx_1
I0122 01:56:24.344662 27918 net.cpp:151] Setting up tracker_mx_1
I0122 01:56:24.344666 27918 net.cpp:158] Top shape: 1 1 1800 256 (460800)
I0122 01:56:24.344667 27918 net.cpp:166] Memory required for data: 245046504
I0122 01:56:24.344669 27918 layer_factory.hpp:76] Creating layer tracker_mx_split_1
I0122 01:56:24.344672 27918 net.cpp:107] Creating Layer tracker_mx_split_1
I0122 01:56:24.344674 27918 net.cpp:455] tracker_mx_split_1 <- mx_1
I0122 01:56:24.344677 27918 net.cpp:412] tracker_mx_split_1 -> mx1_1
I0122 01:56:24.344681 27918 net.cpp:412] tracker_mx_split_1 -> mx2_1
I0122 01:56:24.344705 27918 net.cpp:151] Setting up tracker_mx_split_1
I0122 01:56:24.344708 27918 net.cpp:158] Top shape: 1 1 1800 256 (460800)
I0122 01:56:24.344710 27918 net.cpp:158] Top shape: 1 1 1800 256 (460800)
I0122 01:56:24.344712 27918 net.cpp:166] Memory required for data: 248732904
I0122 01:56:24.344714 27918 layer_factory.hpp:76] Creating layer tracker_xmx_1
I0122 01:56:24.344719 27918 net.cpp:107] Creating Layer tracker_xmx_1
I0122 01:56:24.344722 27918 net.cpp:455] tracker_xmx_1 <- x3_1
I0122 01:56:24.344724 27918 net.cpp:455] tracker_xmx_1 <- mx1_1
I0122 01:56:24.344727 27918 net.cpp:412] tracker_xmx_1 -> xmx_1
I0122 01:56:24.344743 27918 net.cpp:151] Setting up tracker_xmx_1
I0122 01:56:24.344745 27918 net.cpp:158] Top shape: 1 1 256 256 (65536)
I0122 01:56:24.344748 27918 net.cpp:166] Memory required for data: 248995048
I0122 01:56:24.344749 27918 layer_factory.hpp:76] Creating layer tracker_h_cont_0
I0122 01:56:24.344753 27918 net.cpp:107] Creating Layer tracker_h_cont_0
I0122 01:56:24.344754 27918 net.cpp:455] tracker_h_cont_0 <- h2_0
I0122 01:56:24.344756 27918 net.cpp:455] tracker_h_cont_0 <- cont2_1
I0122 01:56:24.344760 27918 net.cpp:412] tracker_h_cont_0 -> h_cont_0
I0122 01:56:24.344830 27918 net.cpp:151] Setting up tracker_h_cont_0
I0122 01:56:24.344833 27918 net.cpp:158] Top shape: 1 1 256 256 (65536)
I0122 01:56:24.344835 27918 net.cpp:166] Memory required for data: 249257192
I0122 01:56:24.344837 27918 layer_factory.hpp:76] Creating layer tracker_h_1
I0122 01:56:24.344841 27918 net.cpp:107] Creating Layer tracker_h_1
I0122 01:56:24.344843 27918 net.cpp:455] tracker_h_1 <- h_cont_0
I0122 01:56:24.344846 27918 net.cpp:455] tracker_h_1 <- xmx_1
I0122 01:56:24.344849 27918 net.cpp:412] tracker_h_1 -> h_1
I0122 01:56:24.344866 27918 net.cpp:151] Setting up tracker_h_1
I0122 01:56:24.344869 27918 net.cpp:158] Top shape: 1 1 256 256 (65536)
I0122 01:56:24.344871 27918 net.cpp:166] Memory required for data: 249519336
I0122 01:56:24.344872 27918 layer_factory.hpp:76] Creating layer tracker_vmx_1
I0122 01:56:24.344876 27918 net.cpp:107] Creating Layer tracker_vmx_1
I0122 01:56:24.344882 27918 net.cpp:455] tracker_vmx_1 <- v2_1
I0122 01:56:24.344884 27918 net.cpp:455] tracker_vmx_1 <- mx2_1
I0122 01:56:24.344888 27918 net.cpp:412] tracker_vmx_1 -> vmx_1
I0122 01:56:24.344904 27918 net.cpp:151] Setting up tracker_vmx_1
I0122 01:56:24.344908 27918 net.cpp:158] Top shape: 1 1 1800 256 (460800)
I0122 01:56:24.344910 27918 net.cpp:166] Memory required for data: 251362536
I0122 01:56:24.344913 27918 layer_factory.hpp:76] Creating layer tracker_c_cont_0
I0122 01:56:24.344914 27918 net.cpp:107] Creating Layer tracker_c_cont_0
I0122 01:56:24.344916 27918 net.cpp:455] tracker_c_cont_0 <- c2_0
I0122 01:56:24.344919 27918 net.cpp:455] tracker_c_cont_0 <- cont3_1
I0122 01:56:24.344923 27918 net.cpp:412] tracker_c_cont_0 -> c_cont_0
I0122 01:56:24.345437 27918 net.cpp:151] Setting up tracker_c_cont_0
I0122 01:56:24.345443 27918 net.cpp:158] Top shape: 1 1 1800 256 (460800)
I0122 01:56:24.345445 27918 net.cpp:166] Memory required for data: 253205736
I0122 01:56:24.345448 27918 layer_factory.hpp:76] Creating layer tracker_c_1
I0122 01:56:24.345451 27918 net.cpp:107] Creating Layer tracker_c_1
I0122 01:56:24.345454 27918 net.cpp:455] tracker_c_1 <- c_cont_0
I0122 01:56:24.345458 27918 net.cpp:455] tracker_c_1 <- vmx_1
I0122 01:56:24.345460 27918 net.cpp:412] tracker_c_1 -> c_1
I0122 01:56:24.345481 27918 net.cpp:151] Setting up tracker_c_1
I0122 01:56:24.345484 27918 net.cpp:158] Top shape: 1 1 1800 256 (460800)
I0122 01:56:24.345486 27918 net.cpp:166] Memory required for data: 255048936
I0122 01:56:24.345489 27918 layer_factory.hpp:76] Creating layer tracker_overlaps_split_2
I0122 01:56:24.345490 27918 net.cpp:107] Creating Layer tracker_overlaps_split_2
I0122 01:56:24.345494 27918 net.cpp:455] tracker_overlaps_split_2 <- overlaps_2
I0122 01:56:24.345497 27918 net.cpp:412] tracker_overlaps_split_2 -> overlaps1_2
I0122 01:56:24.345501 27918 net.cpp:412] tracker_overlaps_split_2 -> overlaps2_2
I0122 01:56:24.345526 27918 net.cpp:151] Setting up tracker_overlaps_split_2
I0122 01:56:24.345530 27918 net.cpp:158] Top shape: 1 1 1800 1800 (3240000)
I0122 01:56:24.345532 27918 net.cpp:158] Top shape: 1 1 1800 1800 (3240000)
I0122 01:56:24.345535 27918 net.cpp:166] Memory required for data: 280968936
I0122 01:56:24.345536 27918 layer_factory.hpp:76] Creating layer tracker_x_split_2
I0122 01:56:24.345538 27918 net.cpp:107] Creating Layer tracker_x_split_2
I0122 01:56:24.345541 27918 net.cpp:455] tracker_x_split_2 <- x_2_tracker_x_slice_1_split_0
I0122 01:56:24.345544 27918 net.cpp:412] tracker_x_split_2 -> x1_2
I0122 01:56:24.345547 27918 net.cpp:412] tracker_x_split_2 -> x2_2
I0122 01:56:24.345551 27918 net.cpp:412] tracker_x_split_2 -> x3_2
I0122 01:56:24.345556 27918 net.cpp:412] tracker_x_split_2 -> x4_2
I0122 01:56:24.345597 27918 net.cpp:151] Setting up tracker_x_split_2
I0122 01:56:24.345599 27918 net.cpp:158] Top shape: 1 1 1800 256 (460800)
I0122 01:56:24.345602 27918 net.cpp:158] Top shape: 1 1 1800 256 (460800)
I0122 01:56:24.345604 27918 net.cpp:158] Top shape: 1 1 1800 256 (460800)
I0122 01:56:24.345607 27918 net.cpp:158] Top shape: 1 1 1800 256 (460800)
I0122 01:56:24.345608 27918 net.cpp:166] Memory required for data: 288341736
I0122 01:56:24.345610 27918 layer_factory.hpp:76] Creating layer tracker_cont_split_2
I0122 01:56:24.345613 27918 net.cpp:107] Creating Layer tracker_cont_split_2
I0122 01:56:24.345615 27918 net.cpp:455] tracker_cont_split_2 <- cont_2
I0122 01:56:24.345618 27918 net.cpp:412] tracker_cont_split_2 -> cont1_2
I0122 01:56:24.345621 27918 net.cpp:412] tracker_cont_split_2 -> cont2_2
I0122 01:56:24.345626 27918 net.cpp:412] tracker_cont_split_2 -> cont3_2
I0122 01:56:24.345630 27918 net.cpp:412] tracker_cont_split_2 -> cont4_2
I0122 01:56:24.345672 27918 net.cpp:151] Setting up tracker_cont_split_2
I0122 01:56:24.345675 27918 net.cpp:158] Top shape: 1 1 (1)
I0122 01:56:24.345679 27918 net.cpp:158] Top shape: 1 1 (1)
I0122 01:56:24.345680 27918 net.cpp:158] Top shape: 1 1 (1)
I0122 01:56:24.345682 27918 net.cpp:158] Top shape: 1 1 (1)
I0122 01:56:24.345690 27918 net.cpp:166] Memory required for data: 288341752
I0122 01:56:24.345691 27918 layer_factory.hpp:76] Creating layer tracker_h_split_1
I0122 01:56:24.345695 27918 net.cpp:107] Creating Layer tracker_h_split_1
I0122 01:56:24.345697 27918 net.cpp:455] tracker_h_split_1 <- h_1
I0122 01:56:24.345700 27918 net.cpp:412] tracker_h_split_1 -> h1_1
I0122 01:56:24.345705 27918 net.cpp:412] tracker_h_split_1 -> h2_1
I0122 01:56:24.345729 27918 net.cpp:151] Setting up tracker_h_split_1
I0122 01:56:24.345732 27918 net.cpp:158] Top shape: 1 1 256 256 (65536)
I0122 01:56:24.345734 27918 net.cpp:158] Top shape: 1 1 256 256 (65536)
I0122 01:56:24.345736 27918 net.cpp:166] Memory required for data: 288866040
I0122 01:56:24.345738 27918 layer_factory.hpp:76] Creating layer tracker_c_split_1
I0122 01:56:24.345741 27918 net.cpp:107] Creating Layer tracker_c_split_1
I0122 01:56:24.345743 27918 net.cpp:455] tracker_c_split_1 <- c_1
I0122 01:56:24.345746 27918 net.cpp:412] tracker_c_split_1 -> c1_1
I0122 01:56:24.345749 27918 net.cpp:412] tracker_c_split_1 -> c2_1
I0122 01:56:24.345772 27918 net.cpp:151] Setting up tracker_c_split_1
I0122 01:56:24.345777 27918 net.cpp:158] Top shape: 1 1 1800 256 (460800)
I0122 01:56:24.345778 27918 net.cpp:158] Top shape: 1 1 1800 256 (460800)
I0122 01:56:24.345780 27918 net.cpp:166] Memory required for data: 292552440
I0122 01:56:24.345782 27918 layer_factory.hpp:76] Creating layer tracker_s_cont_1
I0122 01:56:24.345784 27918 net.cpp:107] Creating Layer tracker_s_cont_1
I0122 01:56:24.345788 27918 net.cpp:455] tracker_s_cont_1 <- s_1
I0122 01:56:24.345789 27918 net.cpp:455] tracker_s_cont_1 <- cont4_2
I0122 01:56:24.345793 27918 net.cpp:412] tracker_s_cont_1 -> s_cont_1
…
I0122 01:56:24.350457 27918 net.cpp:455] tracker_v_split_4 <- v_cont_4
I0122 01:56:24.350461 27918 net.cpp:412] tracker_v_split_4 -> v1_4
I0122 01:56:24.350464 27918 net.cpp:412] tracker_v_split_4 -> v3_4
I0122 01:56:24.350468 27918 net.cpp:412] tracker_v_split_4 -> v4_4
I0122 01:56:24.350471 27918 net.cpp:412] tracker_v_split_4 -> v2_4
I0122 01:56:24.350515 27918 net.cpp:151] Setting up tracker_v_split_4
I0122 01:56:24.350519 27918 net.cpp:158] Top shape: 1 1 1800 1800 (3240000)
I0122 01:56:24.350522 27918 net.cpp:158] Top shape: 1 1 1800 1800 (3240000)
I0122 01:56:24.350524 27918 net.cpp:158] Top shape: 1 1 1800 1800 (3240000)
I0122 01:56:24.350527 27918 net.cpp:158] Top shape: 1 1 1800 1800 (3240000)
I0122 01:56:24.350528 27918 net.cpp:166] Memory required for data: 747558804
I0122 01:56:24.350530 27918 layer_factory.hpp:76] Creating layer tracker_vtilde_4
I0122 01:56:24.350533 27918 net.cpp:107] Creating Layer tracker_vtilde_4
I0122 01:56:24.350535 27918 net.cpp:455] tracker_vtilde_4 <- v4_4
I0122 01:56:24.350538 27918 net.cpp:455] tracker_vtilde_4 <- overlaps2_4
I0122 01:56:24.350540 27918 net.cpp:455] tracker_vtilde_4 <- nseg_4
I0122 01:56:24.350544 27918 net.cpp:412] tracker_vtilde_4 -> vtilde_4
I0122 01:56:24.350569 27918 net.cpp:151] Setting up tracker_vtilde_4
I0122 01:56:24.350574 27918 net.cpp:158] Top shape: 1 1 1800 1800 (3240000)
I0122 01:56:24.350575 27918 net.cpp:166] Memory required for data: 760518804
I0122 01:56:24.350577 27918 layer_factory.hpp:76] Creating layer tracker_vtilde_split_4
I0122 01:56:24.350581 27918 net.cpp:107] Creating Layer tracker_vtilde_split_4
I0122 01:56:24.350584 27918 net.cpp:455] tracker_vtilde_split_4 <- vtilde_4
I0122 01:56:24.350586 27918 net.cpp:412] tracker_vtilde_split_4 -> vtilde1_4
I0122 01:56:24.350600 27918 net.cpp:151] Setting up tracker_vtilde_split_4
I0122 01:56:24.350605 27918 net.cpp:158] Top shape: 1 1 1800 1800 (3240000)
I0122 01:56:24.350606 27918 net.cpp:166] Memory required for data: 773478804
I0122 01:56:24.350608 27918 layer_factory.hpp:76] Creating layer tracker_reshape1_4
I0122 01:56:24.350611 27918 net.cpp:107] Creating Layer tracker_reshape1_4
I0122 01:56:24.350613 27918 net.cpp:455] tracker_reshape1_4 <- v1_4
I0122 01:56:24.350622 27918 net.cpp:412] tracker_reshape1_4 -> vr_4
I0122 01:56:24.350639 27918 net.cpp:151] Setting up tracker_reshape1_4
I0122 01:56:24.350642 27918 net.cpp:158] Top shape: 1 1 1800 1800 (3240000)
I0122 01:56:24.350644 27918 net.cpp:166] Memory required for data: 786438804
I0122 01:56:24.350646 27918 layer_factory.hpp:76] Creating layer tracker_max_4
I0122 01:56:24.350651 27918 net.cpp:107] Creating Layer tracker_max_4
I0122 01:56:24.350652 27918 net.cpp:455] tracker_max_4 <- vr_4
I0122 01:56:24.350656 27918 net.cpp:412] tracker_max_4 -> mr_4
I0122 01:56:24.350797 27918 net.cpp:151] Setting up tracker_max_4
I0122 01:56:24.350803 27918 net.cpp:158] Top shape: 1 1 1 1800 (1800)
I0122 01:56:24.350805 27918 net.cpp:166] Memory required for data: 786446004
I0122 01:56:24.350807 27918 layer_factory.hpp:76] Creating layer tracker_reshape2_4
I0122 01:56:24.350811 27918 net.cpp:107] Creating Layer tracker_reshape2_4
I0122 01:56:24.350814 27918 net.cpp:455] tracker_reshape2_4 <- mr_4
I0122 01:56:24.350817 27918 net.cpp:412] tracker_reshape2_4 -> m_4
I0122 01:56:24.350834 27918 net.cpp:151] Setting up tracker_reshape2_4
I0122 01:56:24.350838 27918 net.cpp:158] Top shape: 1 1 1800 (1800)
I0122 01:56:24.350841 27918 net.cpp:166] Memory required for data: 786453204
I0122 01:56:24.350842 27918 layer_factory.hpp:76] Creating layer tracker_m_split_4
I0122 01:56:24.350846 27918 net.cpp:107] Creating Layer tracker_m_split_4
I0122 01:56:24.350847 27918 net.cpp:455] tracker_m_split_4 <- m_4
I0122 01:56:24.350852 27918 net.cpp:412] tracker_m_split_4 -> m1_4
I0122 01:56:24.350855 27918 net.cpp:412] tracker_m_split_4 -> m2_4
I0122 01:56:24.350880 27918 net.cpp:151] Setting up tracker_m_split_4
I0122 01:56:24.350886 27918 net.cpp:158] Top shape: 1 1 1800 (1800)
I0122 01:56:24.350889 27918 net.cpp:158] Top shape: 1 1 1800 (1800)
I0122 01:56:24.350890 27918 net.cpp:166] Memory required for data: 786467604
I0122 01:56:24.350893 27918 layer_factory.hpp:76] Creating layer tracker_concat_s_elemens_4
I0122 01:56:24.350895 27918 net.cpp:107] Creating Layer tracker_concat_s_elemens_4
I0122 01:56:24.350898 27918 net.cpp:455] tracker_concat_s_elemens_4 <- m2_4
I0122 01:56:24.350900 27918 net.cpp:455] tracker_concat_s_elemens_4 <- s2_cont_3
I0122 01:56:24.350903 27918 net.cpp:412] tracker_concat_s_elemens_4 -> s_elem_4
I0122 01:56:24.350920 27918 net.cpp:151] Setting up tracker_concat_s_elemens_4
I0122 01:56:24.350924 27918 net.cpp:158] Top shape: 1 1 1801 (1801)
I0122 01:56:24.350925 27918 net.cpp:166] Memory required for data: 786474808
I0122 01:56:24.350927 27918 layer_factory.hpp:76] Creating layer tracker_sum_s_elemens_4
I0122 01:56:24.350931 27918 net.cpp:107] Creating Layer tracker_sum_s_elemens_4
I0122 01:56:24.350934 27918 net.cpp:455] tracker_sum_s_elemens_4 <- s_elem_4
I0122 01:56:24.350936 27918 net.cpp:412] tracker_sum_s_elemens_4 -> ns_4
I0122 01:56:24.350965 27918 net.cpp:151] Setting up tracker_sum_s_elemens_4
I0122 01:56:24.350970 27918 net.cpp:158] Top shape: (1)
I0122 01:56:24.350971 27918 net.cpp:166] Memory required for data: 786474812
I0122 01:56:24.350973 27918 layer_factory.hpp:76] Creating layer tracker_s_reshape_4
I0122 01:56:24.350976 27918 net.cpp:107] Creating Layer tracker_s_reshape_4
I0122 01:56:24.350978 27918 net.cpp:455] tracker_s_reshape_4 <- ns_4
I0122 01:56:24.350982 27918 net.cpp:412] tracker_s_reshape_4 -> s_4
I0122 01:56:24.350998 27918 net.cpp:151] Setting up tracker_s_reshape_4
I0122 01:56:24.351003 27918 net.cpp:158] Top shape: 1 1 1 (1)
I0122 01:56:24.351006 27918 net.cpp:166] Memory required for data: 786474816
I0122 01:56:24.351007 27918 layer_factory.hpp:76] Creating layer tracker_mx_4
I0122 01:56:24.351011 27918 net.cpp:107] Creating Layer tracker_mx_4
I0122 01:56:24.351012 27918 net.cpp:455] tracker_mx_4 <- m1_4
I0122 01:56:24.351016 27918 net.cpp:455] tracker_mx_4 <- x2_4
I0122 01:56:24.351018 27918 net.cpp:412] tracker_mx_4 -> mx_4
I0122 01:56:24.351035 27918 net.cpp:151] Setting up tracker_mx_4
I0122 01:56:24.351039 27918 net.cpp:158] Top shape: 1 1 1800 256 (460800)
I0122 01:56:24.351042 27918 net.cpp:166] Memory required for data: 788318016
I0122 01:56:24.351048 27918 layer_factory.hpp:76] Creating layer tracker_mx_split_4
I0122 01:56:24.351052 27918 net.cpp:107] Creating Layer tracker_mx_split_4
I0122 01:56:24.351053 27918 net.cpp:455] tracker_mx_split_4 <- mx_4
I0122 01:56:24.351058 27918 net.cpp:412] tracker_mx_split_4 -> mx1_4
I0122 01:56:24.351060 27918 net.cpp:412] tracker_mx_split_4 -> mx2_4
I0122 01:56:24.351086 27918 net.cpp:151] Setting up tracker_mx_split_4
I0122 01:56:24.351090 27918 net.cpp:158] Top shape: 1 1 1800 256 (460800)
I0122 01:56:24.351094 27918 net.cpp:158] Top shape: 1 1 1800 256 (460800)
I0122 01:56:24.351095 27918 net.cpp:166] Memory required for data: 792004416
I0122 01:56:24.351097 27918 layer_factory.hpp:76] Creating layer tracker_xmx_4
I0122 01:56:24.351100 27918 net.cpp:107] Creating Layer tracker_xmx_4
I0122 01:56:24.351102 27918 net.cpp:455] tracker_xmx_4 <- x3_4
I0122 01:56:24.351105 27918 net.cpp:455] tracker_xmx_4 <- mx1_4
I0122 01:56:24.351109 27918 net.cpp:412] tracker_xmx_4 -> xmx_4
I0122 01:56:24.351125 27918 net.cpp:151] Setting up tracker_xmx_4
I0122 01:56:24.351128 27918 net.cpp:158] Top shape: 1 1 256 256 (65536)
I0122 01:56:24.351130 27918 net.cpp:166] Memory required for data: 792266560
I0122 01:56:24.351132 27918 layer_factory.hpp:76] Creating layer tracker_h_cont_3
I0122 01:56:24.351135 27918 net.cpp:107] Creating Layer tracker_h_cont_3
I0122 01:56:24.351137 27918 net.cpp:455] tracker_h_cont_3 <- h2_3
I0122 01:56:24.351140 27918 net.cpp:455] tracker_h_cont_3 <- cont2_4
I0122 01:56:24.351143 27918 net.cpp:412] tracker_h_cont_3 -> h_cont_3
I0122 01:56:24.351202 27918 net.cpp:151] Setting up tracker_h_cont_3
I0122 01:56:24.351207 27918 net.cpp:158] Top shape: 1 1 256 256 (65536)
I0122 01:56:24.351208 27918 net.cpp:166] Memory required for data: 792528704
I0122 01:56:24.351210 27918 layer_factory.hpp:76] Creating layer tracker_h_4
I0122 01:56:24.351213 27918 net.cpp:107] Creating Layer tracker_h_4
I0122 01:56:24.351217 27918 net.cpp:455] tracker_h_4 <- h_cont_3
I0122 01:56:24.351218 27918 net.cpp:455] tracker_h_4 <- xmx_4
I0122 01:56:24.351222 27918 net.cpp:412] tracker_h_4 -> h_4
I0122 01:56:24.351240 27918 net.cpp:151] Setting up tracker_h_4
I0122 01:56:24.351244 27918 net.cpp:158] Top shape: 1 1 256 256 (65536)
I0122 01:56:24.351246 27918 net.cpp:166] Memory required for data: 792790848
I0122 01:56:24.351248 27918 layer_factory.hpp:76] Creating layer tracker_vmx_4
I0122 01:56:24.351250 27918 net.cpp:107] Creating Layer tracker_vmx_4
I0122 01:56:24.351253 27918 net.cpp:455] tracker_vmx_4 <- v2_4
I0122 01:56:24.351255 27918 net.cpp:455] tracker_vmx_4 <- mx2_4
I0122 01:56:24.351258 27918 net.cpp:412] tracker_vmx_4 -> vmx_4
I0122 01:56:24.351275 27918 net.cpp:151] Setting up tracker_vmx_4
I0122 01:56:24.351279 27918 net.cpp:158] Top shape: 1 1 1800 256 (460800)
I0122 01:56:24.351281 27918 net.cpp:166] Memory required for data: 794634048
I0122 01:56:24.351284 27918 layer_factory.hpp:76] Creating layer tracker_c_cont_3
I0122 01:56:24.351286 27918 net.cpp:107] Creating Layer tracker_c_cont_3
I0122 01:56:24.351289 27918 net.cpp:455] tracker_c_cont_3 <- c2_3
I0122 01:56:24.351291 27918 net.cpp:455] tracker_c_cont_3 <- cont3_4
I0122 01:56:24.351294 27918 net.cpp:412] tracker_c_cont_3 -> c_cont_3
I0122 01:56:24.351789 27918 net.cpp:151] Setting up tracker_c_cont_3
I0122 01:56:24.351796 27918 net.cpp:158] Top shape: 1 1 1800 256 (460800)
I0122 01:56:24.351799 27918 net.cpp:166] Memory required for data: 796477248
I0122 01:56:24.351801 27918 layer_factory.hpp:76] Creating layer tracker_c_4
I0122 01:56:24.351805 27918 net.cpp:107] Creating Layer tracker_c_4
I0122 01:56:24.351807 27918 net.cpp:455] tracker_c_4 <- c_cont_3
I0122 01:56:24.351810 27918 net.cpp:455] tracker_c_4 <- vmx_4
I0122 01:56:24.351814 27918 net.cpp:412] tracker_c_4 -> c_4
I0122 01:56:24.351835 27918 net.cpp:151] Setting up tracker_c_4
I0122 01:56:24.351840 27918 net.cpp:158] Top shape: 1 1 1800 256 (460800)
I0122 01:56:24.351841 27918 net.cpp:166] Memory required for data: 798320448
I0122 01:56:24.351843 27918 layer_factory.hpp:76] Creating layer tracker_v_concat
I0122 01:56:24.351860 27918 net.cpp:107] Creating Layer tracker_v_concat
I0122 01:56:24.351863 27918 net.cpp:455] tracker_v_concat <- v3_1
I0122 01:56:24.351866 27918 net.cpp:455] tracker_v_concat <- v3_2
I0122 01:56:24.351869 27918 net.cpp:455] tracker_v_concat <- v3_3
I0122 01:56:24.351871 27918 net.cpp:455] tracker_v_concat <- v3_4
I0122 01:56:24.351874 27918 net.cpp:412] tracker_v_concat -> v
I0122 01:56:24.351892 27918 net.cpp:151] Setting up tracker_v_concat
I0122 01:56:24.351897 27918 net.cpp:158] Top shape: 4 1 1800 1800 (12960000)
I0122 01:56:24.351898 27918 net.cpp:166] Memory required for data: 850160448
I0122 01:56:24.351900 27918 layer_factory.hpp:76] Creating layer tracker_vtilde_concat
I0122 01:56:24.351904 27918 net.cpp:107] Creating Layer tracker_vtilde_concat
I0122 01:56:24.351907 27918 net.cpp:455] tracker_vtilde_concat <- vtilde1_1
I0122 01:56:24.351909 27918 net.cpp:455] tracker_vtilde_concat <- vtilde1_2
I0122 01:56:24.351912 27918 net.cpp:455] tracker_vtilde_concat <- vtilde1_3
I0122 01:56:24.351914 27918 net.cpp:455] tracker_vtilde_concat <- vtilde1_4
I0122 01:56:24.351917 27918 net.cpp:412] tracker_vtilde_concat -> vtilde
I0122 01:56:24.351933 27918 net.cpp:151] Setting up tracker_vtilde_concat
I0122 01:56:24.351936 27918 net.cpp:158] Top shape: 4 1 1800 1800 (12960000)
I0122 01:56:24.351938 27918 net.cpp:166] Memory required for data: 902000448
I0122 01:56:24.351940 27918 net.cpp:229] tracker_vtilde_concat does not need backward computation.
I0122 01:56:24.351943 27918 net.cpp:229] tracker_v_concat does not need backward computation.
I0122 01:56:24.351945 27918 net.cpp:229] tracker_c_4 does not need backward computation.
I0122 01:56:24.351948 27918 net.cpp:229] tracker_c_cont_3 does not need backward computation.
…
I0122 01:56:24.352269 27918 net.cpp:271] This network produces output x1_3
I0122 01:56:24.352272 27918 net.cpp:271] This network produces output x1_4
I0122 01:56:24.352273 27918 net.cpp:271] This network produces output x4_1
I0122 01:56:24.352275 27918 net.cpp:271] This network produces output x4_2
I0122 01:56:24.352277 27918 net.cpp:271] This network produces output x4_3
I0122 01:56:24.352279 27918 net.cpp:271] This network produces output x4_4
I0122 01:56:24.352356 27918 net.cpp:284] Network initialization done.
I0122 01:56:24.353176 27918 net.cpp:151] Setting up tracker
I0122 01:56:24.353188 27918 net.cpp:158] Top shape: 4 1 1800 1800 (12960000)
I0122 01:56:24.353193 27918 net.cpp:158] Top shape: 4 1 1800 1800 (12960000)
I0122 01:56:24.353195 27918 net.cpp:166] Memory required for data: 2897893808
I0122 01:56:24.353199 27918 layer_factory.hpp:76] Creating layer trackerLoss
I0122 01:56:24.353210 27918 net.cpp:107] Creating Layer trackerLoss
I0122 01:56:24.353215 27918 net.cpp:455] trackerLoss <- v
I0122 01:56:24.353221 27918 net.cpp:455] trackerLoss <- gt_overlaps_data_11_split_0
I0122 01:56:24.353226 27918 net.cpp:455] trackerLoss <- gt_num_data_10_split_0
I0122 01:56:24.353232 27918 net.cpp:455] trackerLoss <- cont_data_0_split_1
I0122 01:56:24.353236 27918 net.cpp:412] trackerLoss -> supervised_loss
I0122 01:56:24.353242 27918 recurrent_layer.cpp:42] Initializing recurrent layer: assuming input batch contains 4 timesteps of 1 independent streams.
I0122 01:56:24.353373 27918 net.cpp:49] Initializing net from parameters: 
input: "v"
input: "gt_overlaps"
input: "gt_num"
input: "cont"
input: "o_0"
force_backward: true
input_shape {
  dim: 4
  dim: 1
  dim: 1800
  dim: 1800
}
input_shape {
  dim: 4
  dim: 1
  dim: 6
  dim: 1800
}
input_shape {
  dim: 4
  dim: 1
}
input_shape {
  dim: 4
  dim: 1
}
input_shape {
  dim: 1
  dim: 1
  dim: 6
  dim: 1
}
layer {
  name: "trackerLoss_gt_overlaps_split"
  type: "Split"
  bottom: "gt_overlaps"
  top: "gt1_overlaps"
  top: "gt2_overlaps"
}
layer {
  name: "trackerLoss_reshape0"
  type: "Reshape"
  bottom: "gt1_overlaps"
  top: "rgt1_overlaps"
  reshape_param {
    shape {
      dim: 4
      dim: 6
      dim: 1
      dim: 1800
    }
  }
}
layer {
  name: "trackerLoss_best_seg_match"
  type: "Pooling"
  bottom: "rgt1_overlaps"
  top: "tmp"
  top: "rbest_track"
  pooling_param {
    pool: MAX
    global_pooling: true
  }
}
layer {
  name: "trackerLoss_silent_tmp"
  type: "Silence"
  bottom: "tmp"
}
layer {
  name: "trackerLoss_reshape_best_track"
  type: "Reshape"
  bottom: "rbest_track"
  top: "best_track"
  reshape_param {
    shape {
      dim: 4
      dim: 1
      dim: 6
      dim: 1
    }
  }
}
layer {
  name: "trackerLoss_cont_slice"
  type: "Slice"
  bottom: "cont"
  top: "cont_1"
  top: "cont_2"
  top: "cont_3"
  top: "cont_4"
  slice_param {
    axis: 0
  }
}
layer {
  name: "trackerLoss_best_track_slice"
  type: "Slice"
  bottom: "best_track"
  top: "bt_1"
  top: "bt_2"
  top: "bt_3"
  top: "bt_4"
  slice_param {
    axis: 0
  }
}
layer {
  name: "trackerLoss_o_cont_0"
  type: "Switch"
  bottom: "bt_1"
  bottom: "o_0"
  bottom: "cont_1"
  top: "new_o_1"
  switch_param {
    axis: 2
  }
}
layer {
  name: "trackerLoss_o_split_1"
  type: "Split"
  bottom: "new_o_1"
  top: "o_1"
  top: "track_1"
}
layer {
  name: "trackerLoss_o_cont_1"
  type: "Switch"
  bottom: "bt_2"
  bottom: "o_1"
  bottom: "cont_2"
  top: "new_o_2"
  switch_param {
    axis: 2
  }
}
layer {
  name: "trackerLoss_o_split_2"
  type: "Split"
  bottom: "new_o_2"
  top: "o_2"
  top: "track_2"
}
layer {
  name: "trackerLoss_o_cont_2"
  type: "Switch"
  bottom: "bt_3"
  bottom: "o_2"
  bottom: "cont_3"
  top: "new_o_3"
  switch_param {
    axis: 2
  }
}
layer {
  name: "trackerLoss_o_split_3"
  type: "Split"
  bottom: "new_o_3"
  top: "o_3"
  top: "track_3"
}
layer {
  name: "trackerLoss_o_cont_3"
  type: "Switch"
  bottom: "bt_4"
  bottom: "o_3"
  bottom: "cont_4"
  top: "new_o_4"
  switch_param {
    axis: 2
  }
}
layer {
  name: "trackerLoss_o_split_4"
  type: "Split"
  bottom: "new_o_4"
  top: "o_4"
  top: "track_4"
}
layer {
  name: "trackerLoss_ob_concat"
  type: "Concat"
  bottom: "track_1"
  bottom: "track_2"
  bottom: "track_3"
  bottom: "track_4"
  top: "O"
  concat_param {
    axis: 0
  }
}
layer {
  name: "trackerLoss_reshape1"
  type: "Reshape"
  bottom: "O"
  top: "rO"
  reshape_param {
    shape {
      dim: 4
      dim: 1
      dim: 6
    }
  }
}
layer {
  name: "trackerLoss_hotmult"
  type: "HotMult"
  bottom: "rO"
  bottom: "v"
  bottom: "gt_num"
  top: "gt_bar"
  hotmult_param {
    mode: "ROW"
  }
}
layer {
  name: "trackerLoss_reshape2"
  type: "Reshape"
  bottom: "gt_bar"
  top: "rgt_bar"
  reshape_param {
    shape {
      dim: -1
      dim: 1
      dim: 1
      dim: 1
    }
  }
}
layer {
  name: "trackerLoss_reshape3"
  type: "Reshape"
  bottom: "gt2_overlaps"
  top: "rgt2_overlaps"
  reshape_param {
    shape {
      dim: -1
      dim: 1
      dim: 1
      dim: 1
    }
  }
}
layer {
  name: "trackerLoss_loss"
  type: "EuclideanLoss"
  bottom: "rgt2_overlaps"
  bottom: "rgt_bar"
  top: "loss"
}
I0122 01:56:24.353446 27918 net.cpp:414] Input 0 -> v
I0122 01:56:24.353469 27918 net.cpp:414] Input 1 -> gt_overlaps
I0122 01:56:24.353487 27918 net.cpp:414] Input 2 -> gt_num
I0122 01:56:24.353502 27918 net.cpp:414] Input 3 -> cont
I0122 01:56:24.353518 27918 net.cpp:414] Input 4 -> o_0
I0122 01:56:24.353536 27918 layer_factory.hpp:76] Creating layer trackerLoss_gt_overlaps_split
I0122 01:56:24.353540 27918 net.cpp:107] Creating Layer trackerLoss_gt_overlaps_split
I0122 01:56:24.353543 27918 net.cpp:455] trackerLoss_gt_overlaps_split <- gt_overlaps
I0122 01:56:24.353546 27918 net.cpp:412] trackerLoss_gt_overlaps_split -> gt1_overlaps
I0122 01:56:24.353550 27918 net.cpp:412] trackerLoss_gt_overlaps_split -> gt2_overlaps
I0122 01:56:24.353576 27918 net.cpp:151] Setting up trackerLoss_gt_overlaps_split
I0122 01:56:24.353580 27918 net.cpp:158] Top shape: 4 1 6 1800 (43200)
I0122 01:56:24.353584 27918 net.cpp:158] Top shape: 4 1 6 1800 (43200)
I0122 01:56:24.353585 27918 net.cpp:166] Memory required for data: 345600
I0122 01:56:24.353591 27918 layer_factory.hpp:76] Creating layer trackerLoss_reshape0
I0122 01:56:24.353595 27918 net.cpp:107] Creating Layer trackerLoss_reshape0
I0122 01:56:24.353598 27918 net.cpp:455] trackerLoss_reshape0 <- gt1_overlaps
I0122 01:56:24.353601 27918 net.cpp:412] trackerLoss_reshape0 -> rgt1_overlaps
I0122 01:56:24.353617 27918 net.cpp:151] Setting up trackerLoss_reshape0
I0122 01:56:24.353621 27918 net.cpp:158] Top shape: 4 6 1 1800 (43200)
I0122 01:56:24.353623 27918 net.cpp:166] Memory required for data: 518400
I0122 01:56:24.353626 27918 layer_factory.hpp:76] Creating layer trackerLoss_best_seg_match
I0122 01:56:24.353627 27918 layer_factory.cpp:58] cuDNN does not support multiple tops. Using Caffe's own pooling layer.
I0122 01:56:24.353631 27918 net.cpp:107] Creating Layer trackerLoss_best_seg_match
I0122 01:56:24.353633 27918 net.cpp:455] trackerLoss_best_seg_match <- rgt1_overlaps
I0122 01:56:24.353636 27918 net.cpp:412] trackerLoss_best_seg_match -> tmp
I0122 01:56:24.353641 27918 net.cpp:412] trackerLoss_best_seg_match -> rbest_track
I0122 01:56:24.353667 27918 net.cpp:151] Setting up trackerLoss_best_seg_match
I0122 01:56:24.353669 27918 net.cpp:158] Top shape: 4 6 1 1 (24)
I0122 01:56:24.353672 27918 net.cpp:158] Top shape: 4 6 1 1 (24)
I0122 01:56:24.353674 27918 net.cpp:166] Memory required for data: 518592
I0122 01:56:24.353677 27918 layer_factory.hpp:76] Creating layer trackerLoss_silent_tmp
I0122 01:56:24.353678 27918 net.cpp:107] Creating Layer trackerLoss_silent_tmp
I0122 01:56:24.353680 27918 net.cpp:455] trackerLoss_silent_tmp <- tmp
I0122 01:56:24.353683 27918 net.cpp:151] Setting up trackerLoss_silent_tmp
I0122 01:56:24.353685 27918 net.cpp:166] Memory required for data: 518592
I0122 01:56:24.353688 27918 layer_factory.hpp:76] Creating layer trackerLoss_reshape_best_track
I0122 01:56:24.353690 27918 net.cpp:107] Creating Layer trackerLoss_reshape_best_track
I0122 01:56:24.353693 27918 net.cpp:455] trackerLoss_reshape_best_track <- rbest_track
I0122 01:56:24.353695 27918 net.cpp:412] trackerLoss_reshape_best_track -> best_track
I0122 01:56:24.353710 27918 net.cpp:151] Setting up trackerLoss_reshape_best_track
I0122 01:56:24.353714 27918 net.cpp:158] Top shape: 4 1 6 1 (24)
I0122 01:56:24.353715 27918 net.cpp:166] Memory required for data: 518688
I0122 01:56:24.353718 27918 layer_factory.hpp:76] Creating layer trackerLoss_cont_slice
I0122 01:56:24.353721 27918 net.cpp:107] Creating Layer trackerLoss_cont_slice
I0122 01:56:24.353724 27918 net.cpp:455] trackerLoss_cont_slice <- cont
I0122 01:56:24.353726 27918 net.cpp:412] trackerLoss_cont_slice -> cont_1
I0122 01:56:24.353730 27918 net.cpp:412] trackerLoss_cont_slice -> cont_2
I0122 01:56:24.353734 27918 net.cpp:412] trackerLoss_cont_slice -> cont_3
I0122 01:56:24.353739 27918 net.cpp:412] trackerLoss_cont_slice -> cont_4
I0122 01:56:24.353782 27918 net.cpp:151] Setting up trackerLoss_cont_slice
I0122 01:56:24.353785 27918 net.cpp:158] Top shape: 1 1 (1)
I0122 01:56:24.353787 27918 net.cpp:158] Top shape: 1 1 (1)
I0122 01:56:24.353790 27918 net.cpp:158] Top shape: 1 1 (1)
I0122 01:56:24.353792 27918 net.cpp:158] Top shape: 1 1 (1)
I0122 01:56:24.353795 27918 net.cpp:166] Memory required for data: 518704
I0122 01:56:24.353796 27918 layer_factory.hpp:76] Creating layer trackerLoss_best_track_slice
I0122 01:56:24.353799 27918 net.cpp:107] Creating Layer trackerLoss_best_track_slice
I0122 01:56:24.353801 27918 net.cpp:455] trackerLoss_best_track_slice <- best_track
I0122 01:56:24.353804 27918 net.cpp:412] trackerLoss_best_track_slice -> bt_1
I0122 01:56:24.353808 27918 net.cpp:412] trackerLoss_best_track_slice -> bt_2
I0122 01:56:24.353813 27918 net.cpp:412] trackerLoss_best_track_slice -> bt_3
I0122 01:56:24.353816 27918 net.cpp:412] trackerLoss_best_track_slice -> bt_4
I0122 01:56:24.353860 27918 net.cpp:151] Setting up trackerLoss_best_track_slice
I0122 01:56:24.353864 27918 net.cpp:158] Top shape: 1 1 6 1 (6)
I0122 01:56:24.353866 27918 net.cpp:158] Top shape: 1 1 6 1 (6)
I0122 01:56:24.353869 27918 net.cpp:158] Top shape: 1 1 6 1 (6)
I0122 01:56:24.353875 27918 net.cpp:158] Top shape: 1 1 6 1 (6)
I0122 01:56:24.353878 27918 net.cpp:166] Memory required for data: 518800
I0122 01:56:24.353879 27918 layer_factory.hpp:76] Creating layer trackerLoss_o_cont_0
I0122 01:56:24.353883 27918 net.cpp:107] Creating Layer trackerLoss_o_cont_0
I0122 01:56:24.353885 27918 net.cpp:455] trackerLoss_o_cont_0 <- bt_1
I0122 01:56:24.353888 27918 net.cpp:455] trackerLoss_o_cont_0 <- o_0
I0122 01:56:24.353891 27918 net.cpp:455] trackerLoss_o_cont_0 <- cont_1
I0122 01:56:24.353894 27918 net.cpp:412] trackerLoss_o_cont_0 -> new_o_1
I0122 01:56:24.353910 27918 net.cpp:151] Setting up trackerLoss_o_cont_0
I0122 01:56:24.353916 27918 net.cpp:158] Top shape: 1 1 6 1 (6)
I0122 01:56:24.353919 27918 net.cpp:166] Memory required for data: 518824
I0122 01:56:24.353920 27918 layer_factory.hpp:76] Creating layer trackerLoss_o_split_1
I0122 01:56:24.353924 27918 net.cpp:107] Creating Layer trackerLoss_o_split_1
I0122 01:56:24.353926 27918 net.cpp:455] trackerLoss_o_split_1 <- new_o_1
I0122 01:56:24.353929 27918 net.cpp:412] trackerLoss_o_split_1 -> o_1
I0122 01:56:24.353932 27918 net.cpp:412] trackerLoss_o_split_1 -> track_1
I0122 01:56:24.353957 27918 net.cpp:151] Setting up trackerLoss_o_split_1
I0122 01:56:24.353961 27918 net.cpp:158] Top shape: 1 1 6 1 (6)
I0122 01:56:24.353963 27918 net.cpp:158] Top shape: 1 1 6 1 (6)
I0122 01:56:24.353965 27918 net.cpp:166] Memory required for data: 518872
I0122 01:56:24.353967 27918 layer_factory.hpp:76] Creating layer trackerLoss_o_cont_1
I0122 01:56:24.353971 27918 net.cpp:107] Creating Layer trackerLoss_o_cont_1
I0122 01:56:24.353972 27918 net.cpp:455] trackerLoss_o_cont_1 <- bt_2
I0122 01:56:24.353976 27918 net.cpp:455] trackerLoss_o_cont_1 <- o_1
I0122 01:56:24.353978 27918 net.cpp:455] trackerLoss_o_cont_1 <- cont_2
I0122 01:56:24.353981 27918 net.cpp:412] trackerLoss_o_cont_1 -> new_o_2
I0122 01:56:24.353996 27918 net.cpp:151] Setting up trackerLoss_o_cont_1
I0122 01:56:24.354001 27918 net.cpp:158] Top shape: 1 1 6 1 (6)
I0122 01:56:24.354002 27918 net.cpp:166] Memory required for data: 518896
I0122 01:56:24.354004 27918 layer_factory.hpp:76] Creating layer trackerLoss_o_split_2
I0122 01:56:24.354007 27918 net.cpp:107] Creating Layer trackerLoss_o_split_2
I0122 01:56:24.354009 27918 net.cpp:455] trackerLoss_o_split_2 <- new_o_2
I0122 01:56:24.354012 27918 net.cpp:412] trackerLoss_o_split_2 -> o_2
I0122 01:56:24.354015 27918 net.cpp:412] trackerLoss_o_split_2 -> track_2
I0122 01:56:24.354040 27918 net.cpp:151] Setting up trackerLoss_o_split_2
I0122 01:56:24.354044 27918 net.cpp:158] Top shape: 1 1 6 1 (6)
I0122 01:56:24.354048 27918 net.cpp:158] Top shape: 1 1 6 1 (6)
I0122 01:56:24.354048 27918 net.cpp:166] Memory required for data: 518944
I0122 01:56:24.354050 27918 layer_factory.hpp:76] Creating layer trackerLoss_o_cont_2
I0122 01:56:24.354053 27918 net.cpp:107] Creating Layer trackerLoss_o_cont_2
I0122 01:56:24.354056 27918 net.cpp:455] trackerLoss_o_cont_2 <- bt_3
I0122 01:56:24.354058 27918 net.cpp:455] trackerLoss_o_cont_2 <- o_2
I0122 01:56:24.354061 27918 net.cpp:455] trackerLoss_o_cont_2 <- cont_3
I0122 01:56:24.354064 27918 net.cpp:412] trackerLoss_o_cont_2 -> new_o_3
I0122 01:56:24.354079 27918 net.cpp:151] Setting up trackerLoss_o_cont_2
I0122 01:56:24.354084 27918 net.cpp:158] Top shape: 1 1 6 1 (6)
I0122 01:56:24.354085 27918 net.cpp:166] Memory required for data: 518968
I0122 01:56:24.354087 27918 layer_factory.hpp:76] Creating layer trackerLoss_o_split_3
I0122 01:56:24.354090 27918 net.cpp:107] Creating Layer trackerLoss_o_split_3
I0122 01:56:24.354092 27918 net.cpp:455] trackerLoss_o_split_3 <- new_o_3
I0122 01:56:24.354095 27918 net.cpp:412] trackerLoss_o_split_3 -> o_3
I0122 01:56:24.354099 27918 net.cpp:412] trackerLoss_o_split_3 -> track_3
I0122 01:56:24.354123 27918 net.cpp:151] Setting up trackerLoss_o_split_3
I0122 01:56:24.354127 27918 net.cpp:158] Top shape: 1 1 6 1 (6)
I0122 01:56:24.354130 27918 net.cpp:158] Top shape: 1 1 6 1 (6)
I0122 01:56:24.354131 27918 net.cpp:166] Memory required for data: 519016
I0122 01:56:24.354137 27918 layer_factory.hpp:76] Creating layer trackerLoss_o_cont_3
I0122 01:56:24.354140 27918 net.cpp:107] Creating Layer trackerLoss_o_cont_3
I0122 01:56:24.354142 27918 net.cpp:455] trackerLoss_o_cont_3 <- bt_4
I0122 01:56:24.354146 27918 net.cpp:455] trackerLoss_o_cont_3 <- o_3
I0122 01:56:24.354148 27918 net.cpp:455] trackerLoss_o_cont_3 <- cont_4
I0122 01:56:24.354151 27918 net.cpp:412] trackerLoss_o_cont_3 -> new_o_4
I0122 01:56:24.354174 27918 net.cpp:151] Setting up trackerLoss_o_cont_3
I0122 01:56:24.354181 27918 net.cpp:158] Top shape: 1 1 6 1 (6)
I0122 01:56:24.354183 27918 net.cpp:166] Memory required for data: 519040
I0122 01:56:24.354185 27918 layer_factory.hpp:76] Creating layer trackerLoss_o_split_4
I0122 01:56:24.354189 27918 net.cpp:107] Creating Layer trackerLoss_o_split_4
I0122 01:56:24.354192 27918 net.cpp:455] trackerLoss_o_split_4 <- new_o_4
I0122 01:56:24.354195 27918 net.cpp:412] trackerLoss_o_split_4 -> o_4
I0122 01:56:24.354200 27918 net.cpp:412] trackerLoss_o_split_4 -> track_4
I0122 01:56:24.354229 27918 net.cpp:151] Setting up trackerLoss_o_split_4
I0122 01:56:24.354235 27918 net.cpp:158] Top shape: 1 1 6 1 (6)
I0122 01:56:24.354238 27918 net.cpp:158] Top shape: 1 1 6 1 (6)
I0122 01:56:24.354241 27918 net.cpp:166] Memory required for data: 519088
I0122 01:56:24.354243 27918 layer_factory.hpp:76] Creating layer trackerLoss_ob_concat
I0122 01:56:24.354248 27918 net.cpp:107] Creating Layer trackerLoss_ob_concat
I0122 01:56:24.354250 27918 net.cpp:455] trackerLoss_ob_concat <- track_1
I0122 01:56:24.354254 27918 net.cpp:455] trackerLoss_ob_concat <- track_2
I0122 01:56:24.354257 27918 net.cpp:455] trackerLoss_ob_concat <- track_3
I0122 01:56:24.354260 27918 net.cpp:455] trackerLoss_ob_concat <- track_4
I0122 01:56:24.354264 27918 net.cpp:412] trackerLoss_ob_concat -> O
I0122 01:56:24.354281 27918 net.cpp:151] Setting up trackerLoss_ob_concat
I0122 01:56:24.354288 27918 net.cpp:158] Top shape: 4 1 6 1 (24)
I0122 01:56:24.354292 27918 net.cpp:166] Memory required for data: 519184
I0122 01:56:24.354295 27918 layer_factory.hpp:76] Creating layer trackerLoss_reshape1
I0122 01:56:24.354300 27918 net.cpp:107] Creating Layer trackerLoss_reshape1
I0122 01:56:24.354302 27918 net.cpp:455] trackerLoss_reshape1 <- O
I0122 01:56:24.354305 27918 net.cpp:412] trackerLoss_reshape1 -> rO
I0122 01:56:24.354323 27918 net.cpp:151] Setting up trackerLoss_reshape1
I0122 01:56:24.354327 27918 net.cpp:158] Top shape: 4 1 6 (24)
I0122 01:56:24.354329 27918 net.cpp:166] Memory required for data: 519280
I0122 01:56:24.354331 27918 layer_factory.hpp:76] Creating layer trackerLoss_hotmult
I0122 01:56:24.354336 27918 net.cpp:107] Creating Layer trackerLoss_hotmult
I0122 01:56:24.354337 27918 net.cpp:455] trackerLoss_hotmult <- rO
I0122 01:56:24.354341 27918 net.cpp:455] trackerLoss_hotmult <- v
I0122 01:56:24.354343 27918 net.cpp:455] trackerLoss_hotmult <- gt_num
I0122 01:56:24.354346 27918 net.cpp:412] trackerLoss_hotmult -> gt_bar
I0122 01:56:24.354367 27918 net.cpp:151] Setting up trackerLoss_hotmult
I0122 01:56:24.354370 27918 net.cpp:158] Top shape: 4 1 6 1800 (43200)
I0122 01:56:24.354373 27918 net.cpp:166] Memory required for data: 692080
I0122 01:56:24.354375 27918 layer_factory.hpp:76] Creating layer trackerLoss_reshape2
I0122 01:56:24.354378 27918 net.cpp:107] Creating Layer trackerLoss_reshape2
I0122 01:56:24.354380 27918 net.cpp:455] trackerLoss_reshape2 <- gt_bar
I0122 01:56:24.354383 27918 net.cpp:412] trackerLoss_reshape2 -> rgt_bar
I0122 01:56:24.354398 27918 net.cpp:151] Setting up trackerLoss_reshape2
I0122 01:56:24.354403 27918 net.cpp:158] Top shape: 43200 1 1 1 (43200)
I0122 01:56:24.354405 27918 net.cpp:166] Memory required for data: 864880
I0122 01:56:24.354408 27918 layer_factory.hpp:76] Creating layer trackerLoss_reshape3
I0122 01:56:24.354409 27918 net.cpp:107] Creating Layer trackerLoss_reshape3
I0122 01:56:24.354413 27918 net.cpp:455] trackerLoss_reshape3 <- gt2_overlaps
I0122 01:56:24.354415 27918 net.cpp:412] trackerLoss_reshape3 -> rgt2_overlaps
I0122 01:56:24.354437 27918 net.cpp:151] Setting up trackerLoss_reshape3
I0122 01:56:24.354442 27918 net.cpp:158] Top shape: 43200 1 1 1 (43200)
I0122 01:56:24.354444 27918 net.cpp:166] Memory required for data: 1037680
I0122 01:56:24.354446 27918 layer_factory.hpp:76] Creating layer trackerLoss_loss
I0122 01:56:24.354449 27918 net.cpp:107] Creating Layer trackerLoss_loss
I0122 01:56:24.354451 27918 net.cpp:455] trackerLoss_loss <- rgt2_overlaps
I0122 01:56:24.354454 27918 net.cpp:455] trackerLoss_loss <- rgt_bar
I0122 01:56:24.354456 27918 net.cpp:412] trackerLoss_loss -> loss
…
I0122 01:56:24.354666 27918 recurrent_layer.cpp:42] Initializing recurrent layer: assuming input batch contains 4 timesteps of 1 independent streams.
I0122 01:56:24.354786 27918 net.cpp:49] Initializing net from parameters: 
input: "v"
input: "gt_overlaps"
input: "gt_num"
input: "cont"
input: "o_0"
force_backward: true
input_shape {
  dim: 4
  dim: 1
  dim: 1800
  dim: 1800
}
input_shape {
  dim: 4
  dim: 1
  dim: 6
  dim: 1800
}
input_shape {
  dim: 4
  dim: 1
}
input_shape {
  dim: 4
  dim: 1
}
input_shape {
  dim: 1
  dim: 1
  dim: 6
  dim: 1
}
layer {
  name: "trackerLoss_refined_gt_overlaps_split"
  type: "Split"
  bottom: "gt_overlaps"
  top: "gt1_overlaps"
  top: "gt2_overlaps"
}
layer {
  name: "trackerLoss_refined_reshape0"
  type: "Reshape"
  bottom: "gt1_overlaps"
  top: "rgt1_overlaps"
  reshape_param {
    shape {
      dim: 4
      dim: 6
      dim: 1
      dim: 1800
    }
  }
}
layer {
  name: "trackerLoss_refined_best_seg_match"
  type: "Pooling"
  bottom: "rgt1_overlaps"
  top: "tmp"
  top: "rbest_track"
  pooling_param {
    pool: MAX
    global_pooling: true
  }
}
layer {
  name: "trackerLoss_refined_silent_tmp"
  type: "Silence"
  bottom: "tmp"
}
layer {
  name: "trackerLoss_refined_reshape_best_track"
  type: "Reshape"
  bottom: "rbest_track"
  top: "best_track"
  reshape_param {
    shape {
      dim: 4
      dim: 1
      dim: 6
      dim: 1
    }
  }
}
layer {
  name: "trackerLoss_refined_cont_slice"
  type: "Slice"
  bottom: "cont"
  top: "cont_1"
  top: "cont_2"
  top: "cont_3"
  top: "cont_4"
  slice_param {
    axis: 0
  }
}
layer {
  name: "trackerLoss_refined_best_track_slice"
  type: "Slice"
  bottom: "best_track"
  top: "bt_1"
  top: "bt_2"
  top: "bt_3"
  top: "bt_4"
  slice_param {
    axis: 0
  }
}
layer {
  name: "trackerLoss_refined_o_cont_0"
  type: "Switch"
  bottom: "bt_1"
  bottom: "o_0"
  bottom: "cont_1"
  top: "new_o_1"
  switch_param {
    axis: 2
  }
}
layer {
  name: "trackerLoss_refined_o_split_1"
  type: "Split"
  bottom: "new_o_1"
  top: "o_1"
  top: "track_1"
}
layer {
  name: "trackerLoss_refined_o_cont_1"
  type: "Switch"
  bottom: "bt_2"
  bottom: "o_1"
  bottom: "cont_2"
  top: "new_o_2"
  switch_param {
    axis: 2
  }
}
layer {
  name: "trackerLoss_refined_o_split_2"
  type: "Split"
  bottom: "new_o_2"
  top: "o_2"
  top: "track_2"
}
layer {
  name: "trackerLoss_refined_o_cont_2"
  type: "Switch"
  bottom: "bt_3"
  bottom: "o_2"
  bottom: "cont_3"
  top: "new_o_3"
  switch_param {
    axis: 2
  }
}
layer {
  name: "trackerLoss_refined_o_split_3"
  type: "Split"
  bottom: "new_o_3"
  top: "o_3"
  top: "track_3"
}
layer {
  name: "trackerLoss_refined_o_cont_3"
  type: "Switch"
  bottom: "bt_4"
  bottom: "o_3"
  bottom: "cont_4"
  top: "new_o_4"
  switch_param {
    axis: 2
  }
}
layer {
  name: "trackerLoss_refined_o_split_4"
  type: "Split"
  bottom: "new_o_4"
  top: "o_4"
  top: "track_4"
}
layer {
  name: "trackerLoss_refined_ob_concat"
  type: "Concat"
  bottom: "track_1"
  bottom: "track_2"
  bottom: "track_3"
  bottom: "track_4"
  top: "O"
  concat_param {
    axis: 0
  }
}
layer {
  name: "trackerLoss_refined_reshape1"
  type: "Reshape"
  bottom: "O"
  top: "rO"
  reshape_param {
    shape {
      dim: 4
      dim: 1
      dim: 6
    }
  }
}
layer {
  name: "trackerLoss_refined_hotmult"
  type: "HotMult"
  bottom: "rO"
  bottom: "v"
  bottom: "gt_num"
  top: "gt_bar"
  hotmult_param {
    mode: "ROW"
  }
}
layer {
  name: "trackerLoss_refined_reshape2"
  type: "Reshape"
  bottom: "gt_bar"
  top: "rgt_bar"
  reshape_param {
    shape {
      dim: -1
      dim: 1
      dim: 1
      dim: 1
    }
  }
}
layer {
  name: "trackerLoss_refined_reshape3"
  type: "Reshape"
  bottom: "gt2_overlaps"
  top: "rgt2_overlaps"
  reshape_param {
    shape {
      dim: -1
      dim: 1
      dim: 1
      dim: 1
    }
  }
}
layer {
  name: "trackerLoss_refined_loss"
  type: "EuclideanLoss"
  bottom: "rgt2_overlaps"
  bottom: "rgt_bar"
  top: "loss"
}
I0122 01:56:24.354846 27918 net.cpp:414] Input 0 -> v
I0122 01:56:24.354867 27918 net.cpp:414] Input 1 -> gt_overlaps
I0122 01:56:24.354884 27918 net.cpp:414] Input 2 -> gt_num
I0122 01:56:24.354900 27918 net.cpp:414] Input 3 -> cont
I0122 01:56:24.354914 27918 net.cpp:414] Input 4 -> o_0
I0122 01:56:24.354938 27918 layer_factory.hpp:76] Creating layer trackerLoss_refined_gt_overlaps_split
I0122 01:56:24.354943 27918 net.cpp:107] Creating Layer trackerLoss_refined_gt_overlaps_split
I0122 01:56:24.354948 27918 net.cpp:455] trackerLoss_refined_gt_overlaps_split <- gt_overlaps
I0122 01:56:24.354953 27918 net.cpp:412] trackerLoss_refined_gt_overlaps_split -> gt1_overlaps
I0122 01:56:24.354959 27918 net.cpp:412] trackerLoss_refined_gt_overlaps_split -> gt2_overlaps
I0122 01:56:24.354987 27918 net.cpp:151] Setting up trackerLoss_refined_gt_overlaps_split
I0122 01:56:24.354992 27918 net.cpp:158] Top shape: 4 1 6 1800 (43200)
I0122 01:56:24.354995 27918 net.cpp:158] Top shape: 4 1 6 1800 (43200)
I0122 01:56:24.354997 27918 net.cpp:166] Memory required for data: 345600
I0122 01:56:24.355000 27918 layer_factory.hpp:76] Creating layer trackerLoss_refined_reshape0
I0122 01:56:24.355003 27918 net.cpp:107] Creating Layer trackerLoss_refined_reshape0
I0122 01:56:24.355005 27918 net.cpp:455] trackerLoss_refined_reshape0 <- gt1_overlaps
I0122 01:56:24.355008 27918 net.cpp:412] trackerLoss_refined_reshape0 -> rgt1_overlaps
I0122 01:56:24.355025 27918 net.cpp:151] Setting up trackerLoss_refined_reshape0
I0122 01:56:24.355027 27918 net.cpp:158] Top shape: 4 6 1 1800 (43200)
I0122 01:56:24.355029 27918 net.cpp:166] Memory required for data: 518400
I0122 01:56:24.355031 27918 layer_factory.hpp:76] Creating layer trackerLoss_refined_best_seg_match
I0122 01:56:24.355034 27918 layer_factory.cpp:58] cuDNN does not support multiple tops. Using Caffe's own pooling layer.
I0122 01:56:24.355037 27918 net.cpp:107] Creating Layer trackerLoss_refined_best_seg_match
I0122 01:56:24.355039 27918 net.cpp:455] trackerLoss_refined_best_seg_match <- rgt1_overlaps
I0122 01:56:24.355042 27918 net.cpp:412] trackerLoss_refined_best_seg_match -> tmp
I0122 01:56:24.355046 27918 net.cpp:412] trackerLoss_refined_best_seg_match -> rbest_track
I0122 01:56:24.355072 27918 net.cpp:151] Setting up trackerLoss_refined_best_seg_match
I0122 01:56:24.355074 27918 net.cpp:158] Top shape: 4 6 1 1 (24)
I0122 01:56:24.355077 27918 net.cpp:158] Top shape: 4 6 1 1 (24)
I0122 01:56:24.355079 27918 net.cpp:166] Memory required for data: 518592
I0122 01:56:24.355082 27918 layer_factory.hpp:76] Creating layer trackerLoss_refined_silent_tmp
I0122 01:56:24.355083 27918 net.cpp:107] Creating Layer trackerLoss_refined_silent_tmp
I0122 01:56:24.355085 27918 net.cpp:455] trackerLoss_refined_silent_tmp <- tmp
I0122 01:56:24.355088 27918 net.cpp:151] Setting up trackerLoss_refined_silent_tmp
I0122 01:56:24.355090 27918 net.cpp:166] Memory required for data: 518592
I0122 01:56:24.355092 27918 layer_factory.hpp:76] Creating layer trackerLoss_refined_reshape_best_track
I0122 01:56:24.355095 27918 net.cpp:107] Creating Layer trackerLoss_refined_reshape_best_track
I0122 01:56:24.355098 27918 net.cpp:455] trackerLoss_refined_reshape_best_track <- rbest_track
I0122 01:56:24.355100 27918 net.cpp:412] trackerLoss_refined_reshape_best_track -> best_track
I0122 01:56:24.355114 27918 net.cpp:151] Setting up trackerLoss_refined_reshape_best_track
I0122 01:56:24.355118 27918 net.cpp:158] Top shape: 4 1 6 1 (24)
I0122 01:56:24.355120 27918 net.cpp:166] Memory required for data: 518688
I0122 01:56:24.355121 27918 layer_factory.hpp:76] Creating layer trackerLoss_refined_cont_slice
I0122 01:56:24.355124 27918 net.cpp:107] Creating Layer trackerLoss_refined_cont_slice
I0122 01:56:24.355128 27918 net.cpp:455] trackerLoss_refined_cont_slice <- cont
I0122 01:56:24.355130 27918 net.cpp:412] trackerLoss_refined_cont_slice -> cont_1
I0122 01:56:24.355134 27918 net.cpp:412] trackerLoss_refined_cont_slice -> cont_2
I0122 01:56:24.355137 27918 net.cpp:412] trackerLoss_refined_cont_slice -> cont_3
I0122 01:56:24.355141 27918 net.cpp:412] trackerLoss_refined_cont_slice -> cont_4
I0122 01:56:24.355185 27918 net.cpp:151] Setting up trackerLoss_refined_cont_slice
I0122 01:56:24.355187 27918 net.cpp:158] Top shape: 1 1 (1)
I0122 01:56:24.355190 27918 net.cpp:158] Top shape: 1 1 (1)
I0122 01:56:24.355192 27918 net.cpp:158] Top shape: 1 1 (1)
I0122 01:56:24.355201 27918 net.cpp:158] Top shape: 1 1 (1)
I0122 01:56:24.355202 27918 net.cpp:166] Memory required for data: 518704
I0122 01:56:24.355204 27918 layer_factory.hpp:76] Creating layer trackerLoss_refined_best_track_slice
I0122 01:56:24.355207 27918 net.cpp:107] Creating Layer trackerLoss_refined_best_track_slice
I0122 01:56:24.355209 27918 net.cpp:455] trackerLoss_refined_best_track_slice <- best_track
I0122 01:56:24.355212 27918 net.cpp:412] trackerLoss_refined_best_track_slice -> bt_1
I0122 01:56:24.355216 27918 net.cpp:412] trackerLoss_refined_best_track_slice -> bt_2
I0122 01:56:24.355221 27918 net.cpp:412] trackerLoss_refined_best_track_slice -> bt_3
I0122 01:56:24.355226 27918 net.cpp:412] trackerLoss_refined_best_track_slice -> bt_4
I0122 01:56:24.355268 27918 net.cpp:151] Setting up trackerLoss_refined_best_track_slice
I0122 01:56:24.355271 27918 net.cpp:158] Top shape: 1 1 6 1 (6)
I0122 01:56:24.355274 27918 net.cpp:158] Top shape: 1 1 6 1 (6)
I0122 01:56:24.355276 27918 net.cpp:158] Top shape: 1 1 6 1 (6)
I0122 01:56:24.355279 27918 net.cpp:158] Top shape: 1 1 6 1 (6)
I0122 01:56:24.355281 27918 net.cpp:166] Memory required for data: 518800
I0122 01:56:24.355283 27918 layer_factory.hpp:76] Creating layer trackerLoss_refined_o_cont_0
I0122 01:56:24.355286 27918 net.cpp:107] Creating Layer trackerLoss_refined_o_cont_0
I0122 01:56:24.355288 27918 net.cpp:455] trackerLoss_refined_o_cont_0 <- bt_1
I0122 01:56:24.355290 27918 net.cpp:455] trackerLoss_refined_o_cont_0 <- o_0
I0122 01:56:24.355293 27918 net.cpp:455] trackerLoss_refined_o_cont_0 <- cont_1
I0122 01:56:24.355296 27918 net.cpp:412] trackerLoss_refined_o_cont_0 -> new_o_1
I0122 01:56:24.355310 27918 net.cpp:151] Setting up trackerLoss_refined_o_cont_0
I0122 01:56:24.355315 27918 net.cpp:158] Top shape: 1 1 6 1 (6)
I0122 01:56:24.355317 27918 net.cpp:166] Memory required for data: 518824
I0122 01:56:24.355319 27918 layer_factory.hpp:76] Creating layer trackerLoss_refined_o_split_1
I0122 01:56:24.355322 27918 net.cpp:107] Creating Layer trackerLoss_refined_o_split_1
I0122 01:56:24.355325 27918 net.cpp:455] trackerLoss_refined_o_split_1 <- new_o_1
I0122 01:56:24.355329 27918 net.cpp:412] trackerLoss_refined_o_split_1 -> o_1
I0122 01:56:24.355332 27918 net.cpp:412] trackerLoss_refined_o_split_1 -> track_1
I0122 01:56:24.355355 27918 net.cpp:151] Setting up trackerLoss_refined_o_split_1
I0122 01:56:24.355360 27918 net.cpp:158] Top shape: 1 1 6 1 (6)
I0122 01:56:24.355362 27918 net.cpp:158] Top shape: 1 1 6 1 (6)
I0122 01:56:24.355363 27918 net.cpp:166] Memory required for data: 518872
I0122 01:56:24.355366 27918 layer_factory.hpp:76] Creating layer trackerLoss_refined_o_cont_1
I0122 01:56:24.355368 27918 net.cpp:107] Creating Layer trackerLoss_refined_o_cont_1
I0122 01:56:24.355371 27918 net.cpp:455] trackerLoss_refined_o_cont_1 <- bt_2
I0122 01:56:24.355373 27918 net.cpp:455] trackerLoss_refined_o_cont_1 <- o_1
I0122 01:56:24.355376 27918 net.cpp:455] trackerLoss_refined_o_cont_1 <- cont_2
I0122 01:56:24.355379 27918 net.cpp:412] trackerLoss_refined_o_cont_1 -> new_o_2
I0122 01:56:24.355393 27918 net.cpp:151] Setting up trackerLoss_refined_o_cont_1
I0122 01:56:24.355397 27918 net.cpp:158] Top shape: 1 1 6 1 (6)
I0122 01:56:24.355399 27918 net.cpp:166] Memory required for data: 518896
I0122 01:56:24.355401 27918 layer_factory.hpp:76] Creating layer trackerLoss_refined_o_split_2
I0122 01:56:24.355403 27918 net.cpp:107] Creating Layer trackerLoss_refined_o_split_2
I0122 01:56:24.355406 27918 net.cpp:455] trackerLoss_refined_o_split_2 <- new_o_2
I0122 01:56:24.355409 27918 net.cpp:412] trackerLoss_refined_o_split_2 -> o_2
I0122 01:56:24.355412 27918 net.cpp:412] trackerLoss_refined_o_split_2 -> track_2
I0122 01:56:24.355437 27918 net.cpp:151] Setting up trackerLoss_refined_o_split_2
I0122 01:56:24.355440 27918 net.cpp:158] Top shape: 1 1 6 1 (6)
I0122 01:56:24.355443 27918 net.cpp:158] Top shape: 1 1 6 1 (6)
I0122 01:56:24.355445 27918 net.cpp:166] Memory required for data: 518944
I0122 01:56:24.355448 27918 layer_factory.hpp:76] Creating layer trackerLoss_refined_o_cont_2
I0122 01:56:24.355454 27918 net.cpp:107] Creating Layer trackerLoss_refined_o_cont_2
I0122 01:56:24.355458 27918 net.cpp:455] trackerLoss_refined_o_cont_2 <- bt_3
I0122 01:56:24.355459 27918 net.cpp:455] trackerLoss_refined_o_cont_2 <- o_2
I0122 01:56:24.355463 27918 net.cpp:455] trackerLoss_refined_o_cont_2 <- cont_3
I0122 01:56:24.355465 27918 net.cpp:412] trackerLoss_refined_o_cont_2 -> new_o_3
I0122 01:56:24.355480 27918 net.cpp:151] Setting up trackerLoss_refined_o_cont_2
I0122 01:56:24.355485 27918 net.cpp:158] Top shape: 1 1 6 1 (6)
I0122 01:56:24.355487 27918 net.cpp:166] Memory required for data: 518968
I0122 01:56:24.355489 27918 layer_factory.hpp:76] Creating layer trackerLoss_refined_o_split_3
I0122 01:56:24.355492 27918 net.cpp:107] Creating Layer trackerLoss_refined_o_split_3
I0122 01:56:24.355494 27918 net.cpp:455] trackerLoss_refined_o_split_3 <- new_o_3
I0122 01:56:24.355497 27918 net.cpp:412] trackerLoss_refined_o_split_3 -> o_3
I0122 01:56:24.355501 27918 net.cpp:412] trackerLoss_refined_o_split_3 -> track_3
I0122 01:56:24.355525 27918 net.cpp:151] Setting up trackerLoss_refined_o_split_3
I0122 01:56:24.355530 27918 net.cpp:158] Top shape: 1 1 6 1 (6)
I0122 01:56:24.355532 27918 net.cpp:158] Top shape: 1 1 6 1 (6)
I0122 01:56:24.355535 27918 net.cpp:166] Memory required for data: 519016
I0122 01:56:24.355536 27918 layer_factory.hpp:76] Creating layer trackerLoss_refined_o_cont_3
I0122 01:56:24.355538 27918 net.cpp:107] Creating Layer trackerLoss_refined_o_cont_3
I0122 01:56:24.355541 27918 net.cpp:455] trackerLoss_refined_o_cont_3 <- bt_4
I0122 01:56:24.355543 27918 net.cpp:455] trackerLoss_refined_o_cont_3 <- o_3
I0122 01:56:24.355546 27918 net.cpp:455] trackerLoss_refined_o_cont_3 <- cont_4
I0122 01:56:24.355550 27918 net.cpp:412] trackerLoss_refined_o_cont_3 -> new_o_4
I0122 01:56:24.355563 27918 net.cpp:151] Setting up trackerLoss_refined_o_cont_3
I0122 01:56:24.355567 27918 net.cpp:158] Top shape: 1 1 6 1 (6)
I0122 01:56:24.355569 27918 net.cpp:166] Memory required for data: 519040
I0122 01:56:24.355571 27918 layer_factory.hpp:76] Creating layer trackerLoss_refined_o_split_4
I0122 01:56:24.355574 27918 net.cpp:107] Creating Layer trackerLoss_refined_o_split_4
I0122 01:56:24.355576 27918 net.cpp:455] trackerLoss_refined_o_split_4 <- new_o_4
I0122 01:56:24.355579 27918 net.cpp:412] trackerLoss_refined_o_split_4 -> o_4
I0122 01:56:24.355582 27918 net.cpp:412] trackerLoss_refined_o_split_4 -> track_4
I0122 01:56:24.355607 27918 net.cpp:151] Setting up trackerLoss_refined_o_split_4
I0122 01:56:24.355609 27918 net.cpp:158] Top shape: 1 1 6 1 (6)
I0122 01:56:24.355612 27918 net.cpp:158] Top shape: 1 1 6 1 (6)
I0122 01:56:24.355614 27918 net.cpp:166] Memory required for data: 519088
I0122 01:56:24.355617 27918 layer_factory.hpp:76] Creating layer trackerLoss_refined_ob_concat
I0122 01:56:24.355619 27918 net.cpp:107] Creating Layer trackerLoss_refined_ob_concat
I0122 01:56:24.355622 27918 net.cpp:455] trackerLoss_refined_ob_concat <- track_1
I0122 01:56:24.355624 27918 net.cpp:455] trackerLoss_refined_ob_concat <- track_2
I0122 01:56:24.355626 27918 net.cpp:455] trackerLoss_refined_ob_concat <- track_3
I0122 01:56:24.355628 27918 net.cpp:455] trackerLoss_refined_ob_concat <- track_4
I0122 01:56:24.355631 27918 net.cpp:412] trackerLoss_refined_ob_concat -> O
I0122 01:56:24.355646 27918 net.cpp:151] Setting up trackerLoss_refined_ob_concat
I0122 01:56:24.355650 27918 net.cpp:158] Top shape: 4 1 6 1 (24)
I0122 01:56:24.355653 27918 net.cpp:166] Memory required for data: 519184
I0122 01:56:24.355654 27918 layer_factory.hpp:76] Creating layer trackerLoss_refined_reshape1
I0122 01:56:24.355659 27918 net.cpp:107] Creating Layer trackerLoss_refined_reshape1
I0122 01:56:24.355660 27918 net.cpp:455] trackerLoss_refined_reshape1 <- O
I0122 01:56:24.355664 27918 net.cpp:412] trackerLoss_refined_reshape1 -> rO
I0122 01:56:24.355680 27918 net.cpp:151] Setting up trackerLoss_refined_reshape1
I0122 01:56:24.355684 27918 net.cpp:158] Top shape: 4 1 6 (24)
I0122 01:56:24.355686 27918 net.cpp:166] Memory required for data: 519280
I0122 01:56:24.355692 27918 layer_factory.hpp:76] Creating layer trackerLoss_refined_hotmult
I0122 01:56:24.355695 27918 net.cpp:107] Creating Layer trackerLoss_refined_hotmult
I0122 01:56:24.355698 27918 net.cpp:455] trackerLoss_refined_hotmult <- rO
I0122 01:56:24.355700 27918 net.cpp:455] trackerLoss_refined_hotmult <- v
I0122 01:56:24.355703 27918 net.cpp:455] trackerLoss_refined_hotmult <- gt_num
I0122 01:56:24.355706 27918 net.cpp:412] trackerLoss_refined_hotmult -> gt_bar
I0122 01:56:24.355723 27918 net.cpp:151] Setting up trackerLoss_refined_hotmult
I0122 01:56:24.355727 27918 net.cpp:158] Top shape: 4 1 6 1800 (43200)
I0122 01:56:24.355729 27918 net.cpp:166] Memory required for data: 692080
I0122 01:56:24.355731 27918 layer_factory.hpp:76] Creating layer trackerLoss_refined_reshape2
I0122 01:56:24.355734 27918 net.cpp:107] Creating Layer trackerLoss_refined_reshape2
I0122 01:56:24.355736 27918 net.cpp:455] trackerLoss_refined_reshape2 <- gt_bar
I0122 01:56:24.355739 27918 net.cpp:412] trackerLoss_refined_reshape2 -> rgt_bar
I0122 01:56:24.355754 27918 net.cpp:151] Setting up trackerLoss_refined_reshape2
I0122 01:56:24.355758 27918 net.cpp:158] Top shape: 43200 1 1 1 (43200)
I0122 01:56:24.355761 27918 net.cpp:166] Memory required for data: 864880
I0122 01:56:24.355762 27918 layer_factory.hpp:76] Creating layer trackerLoss_refined_reshape3
I0122 01:56:24.355765 27918 net.cpp:107] Creating Layer trackerLoss_refined_reshape3
I0122 01:56:24.355767 27918 net.cpp:455] trackerLoss_refined_reshape3 <- gt2_overlaps
I0122 01:56:24.355770 27918 net.cpp:412] trackerLoss_refined_reshape3 -> rgt2_overlaps
I0122 01:56:24.355785 27918 net.cpp:151] Setting up trackerLoss_refined_reshape3
I0122 01:56:24.355789 27918 net.cpp:158] Top shape: 43200 1 1 1 (43200)
I0122 01:56:24.355792 27918 net.cpp:166] Memory required for data: 1037680
I0122 01:56:24.355793 27918 layer_factory.hpp:76] Creating layer trackerLoss_refined_loss
I0122 01:56:24.355797 27918 net.cpp:107] Creating Layer trackerLoss_refined_loss
I0122 01:56:24.355798 27918 net.cpp:455] trackerLoss_refined_loss <- rgt2_overlaps
I0122 01:56:24.355800 27918 net.cpp:455] trackerLoss_refined_loss <- rgt_bar
…
