…
    mean_value: 122.67892
  }
  image_data_param {
    source: "./tracker_model/data/SegTrackv2_hdf5_t2/images.txt"
    batch_size: 2
    shuffle: false
  }
}
layer {
  name: "data"
  type: "HDF5Data"
  top: "cont"
  top: "mask_size"
  top: "spixel_data"
  top: "spixel_ptr"
  top: "spixel_num"
  top: "seg_data"
  top: "seg_ptr"
  top: "seg_num"
  top: "seg_coef"
  top: "overlaps"
  top: "gt_num"
  top: "gt_overlaps"
  include {
    phase: TRAIN
  }
  hdf5_data_param {
    source: "./tracker_model/data/SegTrackv2_hdf5_t2/seq_data.txt"
    batch_size: 2
  }
}
layer {
  name: "silent_gt_overlaps"
  type: "Silence"
  bottom: "gt_overlaps"
  include {
    phase: TRAIN
  }
}
layer {
  name: "silent_gt_overlaps"
  type: "Silence"
  bottom: "gt_num"
  include {
    phase: TRAIN
  }
}
layer {
  name: "silent_ilabel"
  type: "Silence"
  bottom: "ilabel"
}
layer {
  name: "conv1"
  type: "Convolution"
  bottom: "image"
  top: "conv1"
  param {
    lr_mult: 1
    decay_mult: 1
  }
  param {
    lr_mult: 2
    decay_mult: 0
  }
  convolution_param {
    num_output: 96
    pad: 100
    kernel_size: 11
    stride: 4
    weight_filler {
      type: "gaussian"
      std: 0.01
    }
    bias_filler {
      type: "constant"
      value: 0
    }
  }
}
layer {
  name: "relu1"
  type: "ReLU"
  bottom: "conv1"
  top: "conv1"
}
layer {
  name: "pool1"
  type: "Pooling"
  bottom: "conv1"
  top: "pool1"
  pooling_param {
    pool: AVE
    kernel_size: 3
    stride: 2
  }
}
layer {
  name: "norm1"
  type: "LRN"
  bottom: "pool1"
  top: "norm1"
  lrn_param {
    local_size: 5
    alpha: 0.0001
    beta: 0.75
  }
}
layer {
  name: "conv2"
  type: "Convolution"
  bottom: "norm1"
  top: "conv2"
  param {
    lr_mult: 1
    decay_mult: 1
  }
  param {
    lr_mult: 2
    decay_mult: 0
  }
  convolution_param {
    num_output: 256
    pad: 2
    kernel_size: 5
    group: 2
    weight_filler {
      type: "gaussian"
      std: 0.01
    }
    bias_filler {
      type: "constant"
      value: 1
    }
  }
}
layer {
  name: "relu2"
  type: "ReLU"
  bottom: "conv2"
  top: "conv2"
}
layer {
  name: "pool2"
  type: "Pooling"
  bottom: "conv2"
  top: "pool2"
  pooling_param {
    pool: AVE
    kernel_size: 3
    stride: 2
  }
}
layer {
  name: "norm2"
  type: "LRN"
  bottom: "pool2"
  top: "norm2"
  lrn_param {
    local_size: 5
    alpha: 0.0001
    beta: 0.75
  }
}
layer {
  name: "conv3"
  type: "Convolution"
  bottom: "norm2"
  top: "conv3"
  param {
    lr_mult: 1
    decay_mult: 1
  }
  param {
    lr_mult: 2
    decay_mult: 0
  }
  convolution_param {
    num_output: 384
    pad: 1
    kernel_size: 3
    weight_filler {
      type: "gaussian"
      std: 0.01
    }
    bias_filler {
      type: "constant"
      value: 0
    }
  }
}
layer {
  name: "relu3"
  type: "ReLU"
  bottom: "conv3"
  top: "conv3"
}
layer {
  name: "conv4"
  type: "Convolution"
  bottom: "conv3"
  top: "conv4"
  param {
    lr_mult: 1
    decay_mult: 1
  }
  param {
    lr_mult: 2
    decay_mult: 0
  }
  convolution_param {
    num_output: 384
    pad: 1
    kernel_size: 3
    group: 2
    weight_filler {
      type: "gaussian"
      std: 0.01
    }
    bias_filler {
      type: "constant"
      value: 1
    }
  }
}
layer {
  name: "relu4"
  type: "ReLU"
  bottom: "conv4"
  top: "conv4"
}
layer {
  name: "conv5"
  type: "Convolution"
  bottom: "conv4"
  top: "conv5"
  param {
    lr_mult: 1
    decay_mult: 1
  }
  param {
    lr_mult: 2
    decay_mult: 0
  }
  convolution_param {
    num_output: 256
    pad: 1
    kernel_size: 3
    group: 2
    weight_filler {
      type: "gaussian"
      std: 0.01
    }
    bias_filler {
      type: "constant"
      value: 1
    }
  }
}
layer {
  name: "relu5"
  type: "ReLU"
  bottom: "conv5"
  top: "conv5"
}
layer {
  name: "pool5"
  type: "Pooling"
  bottom: "conv5"
  top: "pool5"
  pooling_param {
    pool: MAX
    kernel_size: 3
    stride: 2
  }
}
layer {
  name: "fc6"
  type: "Convolution"
  bottom: "pool5"
  top: "fc6"
  param {
    lr_mult: 1
    decay_mult: 1
  }
  param {
    lr_mult: 2
    decay_mult: 0
  }
  convolution_param {
    num_output: 4096
    kernel_size: 6
    weight_filler {
      type: "gaussian"
      std: 0.005
    }
    bias_filler {
      type: "constant"
      value: 1
    }
  }
}
layer {
  name: "relu6"
  type: "ReLU"
  bottom: "fc6"
  top: "fc6"
}
layer {
  name: "fc7"
  type: "Convolution"
  bottom: "fc6"
  top: "fc7"
  param {
    lr_mult: 1
    decay_mult: 1
  }
  param {
    lr_mult: 2
    decay_mult: 0
  }
  convolution_param {
    num_output: 4096
    kernel_size: 1
    weight_filler {
      type: "gaussian"
      std: 0.005
    }
    bias_filler {
      type: "constant"
      value: 1
    }
  }
}
layer {
  name: "relu7"
  type: "ReLU"
  bottom: "fc7"
  top: "fc7"
}
layer {
  name: "deconv-1"
  type: "Deconvolution"
  bottom: "fc7"
  top: "up-fc7"
  param {
    lr_mult: 0
    decay_mult: 0
  }
  convolution_param {
    num_output: 256
    bias_term: false
    kernel_size: 63
    group: 256
    stride: 32
    weight_filler {
      type: "bilinear"
    }
  }
}
layer {
  name: "crop"
  type: "Crop"
  bottom: "up-fc7"
  bottom: "image"
  top: "conv-feature"
}
layer {
  name: "spixel_pooling1"
  type: "SuperpixelPooling"
  bottom: "conv-feature"
  bottom: "spixel_data"
  bottom: "spixel_ptr"
  bottom: "spixel_num"
  bottom: "mask_size"
  top: "spixel_feature"
}
layer {
  name: "rpixel_pooling1"
  type: "RowPooling"
  bottom: "spixel_feature"
  bottom: "seg_data"
  bottom: "seg_ptr"
  bottom: "seg_num"
  bottom: "seg_coef"
  top: "seg_feature"
}
layer {
  name: "tracker"
  type: "Tracker"
  bottom: "seg_feature"
  bottom: "overlaps"
  bottom: "seg_num"
  bottom: "cont"
  top: "v"
  top: "vtilde"
  tracker_param {
    num_track: 1800
    feature_dim: 256
    lambda: 10000
    use_softmax: false
    use_vtilde_in_c: false
  }
}
layer {
  name: "reshape_v"
  type: "Reshape"
  bottom: "v"
  top: "rv"
  reshape_param {
    shape {
      dim: -1
    }
    num_axes: 2
  }
}
layer {
  name: "reshape_vt"
  type: "Reshape"
  bottom: "vtilde"
  top: "rvtilde"
  propagate_down: false
  reshape_param {
    shape {
      dim: -1
    }
    num_axes: 2
  }
}
layer {
  name: "euclideanLoss"
  type: "EuclideanLoss"
  bottom: "rv"
  bottom: "rvtilde"
  top: "unsupervised_loss"
  propagate_down: true
  propagate_down: false
}
I0122 01:36:58.107203 27435 layer_factory.hpp:76] Creating layer images
I0122 01:36:58.107226 27435 net.cpp:107] Creating Layer images
I0122 01:36:58.107230 27435 net.cpp:412] images -> image
I0122 01:36:58.107245 27435 net.cpp:412] images -> ilabel
I0122 01:36:58.107259 27435 image_data_layer.cpp:37] Opening file ./tracker_model/data/SegTrackv2_hdf5_t2/images.txt
I0122 01:36:58.107391 27435 image_data_layer.cpp:52] A total of 306 images.
I0122 01:36:58.115756 27435 image_data_layer.cpp:79] output data size: 2,3,500,500
I0122 01:36:58.122300 27435 net.cpp:151] Setting up images
I0122 01:36:58.122319 27435 net.cpp:158] Top shape: 2 3 500 500 (1500000)
I0122 01:36:58.122323 27435 net.cpp:158] Top shape: 2 (2)
I0122 01:36:58.122325 27435 net.cpp:166] Memory required for data: 6000008
I0122 01:36:58.122331 27435 layer_factory.hpp:76] Creating layer image_images_0_split
I0122 01:36:58.122342 27435 net.cpp:107] Creating Layer image_images_0_split
I0122 01:36:58.122346 27435 net.cpp:455] image_images_0_split <- image
I0122 01:36:58.122354 27435 net.cpp:412] image_images_0_split -> image_images_0_split_0
I0122 01:36:58.122360 27435 net.cpp:412] image_images_0_split -> image_images_0_split_1
I0122 01:36:58.122396 27435 net.cpp:151] Setting up image_images_0_split
I0122 01:36:58.122401 27435 net.cpp:158] Top shape: 2 3 500 500 (1500000)
I0122 01:36:58.122405 27435 net.cpp:158] Top shape: 2 3 500 500 (1500000)
I0122 01:36:58.122406 27435 net.cpp:166] Memory required for data: 18000008
I0122 01:36:58.122408 27435 layer_factory.hpp:76] Creating layer data
I0122 01:36:58.122414 27435 net.cpp:107] Creating Layer data
I0122 01:36:58.122417 27435 net.cpp:412] data -> cont
I0122 01:36:58.122424 27435 net.cpp:412] data -> mask_size
I0122 01:36:58.122429 27435 net.cpp:412] data -> spixel_data
I0122 01:36:58.122433 27435 net.cpp:412] data -> spixel_ptr
I0122 01:36:58.122437 27435 net.cpp:412] data -> spixel_num
I0122 01:36:58.122443 27435 net.cpp:412] data -> seg_data
I0122 01:36:58.122447 27435 net.cpp:412] data -> seg_ptr
I0122 01:36:58.122452 27435 net.cpp:412] data -> seg_num
I0122 01:36:58.122455 27435 net.cpp:412] data -> seg_coef
I0122 01:36:58.122460 27435 net.cpp:412] data -> overlaps
I0122 01:36:58.122464 27435 net.cpp:412] data -> gt_num
I0122 01:36:58.122468 27435 net.cpp:412] data -> gt_overlaps
I0122 01:36:58.122473 27435 hdf5_data_layer.cpp:80] Loading list of HDF5 filenames from: ./tracker_model/data/SegTrackv2_hdf5_t2/seq_data.txt
I0122 01:36:58.122493 27435 hdf5_data_layer.cpp:94] Number of HDF5 files: 20
I0122 01:36:58.122994 27435 hdf5.cpp:35] Datatype class: H5T_INTEGER
I0122 01:36:58.291142 27435 hdf5.cpp:32] Datatype class: H5T_FLOAT
I0122 01:36:58.468348 27435 net.cpp:151] Setting up data
I0122 01:36:58.468379 27435 net.cpp:158] Top shape: 2 1 (2)
I0122 01:36:58.468381 27435 net.cpp:158] Top shape: 2 1 2 (4)
I0122 01:36:58.468384 27435 net.cpp:158] Top shape: 2 1 230400 2 (921600)
I0122 01:36:58.468401 27435 net.cpp:158] Top shape: 2 1 9778 (19556)
I0122 01:36:58.468403 27435 net.cpp:158] Top shape: 2 1 (2)
I0122 01:36:58.468406 27435 net.cpp:158] Top shape: 2 1 4527541 (9055082)
I0122 01:36:58.468408 27435 net.cpp:158] Top shape: 2 1 1801 (3602)
I0122 01:36:58.468411 27435 net.cpp:158] Top shape: 2 1 (2)
I0122 01:36:58.468413 27435 net.cpp:158] Top shape: 2 1 4527541 (9055082)
I0122 01:36:58.468416 27435 net.cpp:158] Top shape: 2 1 1800 1800 (6480000)
I0122 01:36:58.468418 27435 net.cpp:158] Top shape: 2 1 (2)
I0122 01:36:58.468420 27435 net.cpp:158] Top shape: 2 1 6 1800 (21600)
I0122 01:36:58.468422 27435 net.cpp:166] Memory required for data: 120226144
I0122 01:36:58.468426 27435 layer_factory.hpp:76] Creating layer seg_num_data_7_split
I0122 01:36:58.468435 27435 net.cpp:107] Creating Layer seg_num_data_7_split
I0122 01:36:58.468437 27435 net.cpp:455] seg_num_data_7_split <- seg_num
I0122 01:36:58.468442 27435 net.cpp:412] seg_num_data_7_split -> seg_num_data_7_split_0
I0122 01:36:58.468449 27435 net.cpp:412] seg_num_data_7_split -> seg_num_data_7_split_1
I0122 01:36:58.468469 27435 net.cpp:151] Setting up seg_num_data_7_split
I0122 01:36:58.468478 27435 net.cpp:158] Top shape: 2 1 (2)
I0122 01:36:58.468480 27435 net.cpp:158] Top shape: 2 1 (2)
I0122 01:36:58.468482 27435 net.cpp:166] Memory required for data: 120226160
I0122 01:36:58.468484 27435 layer_factory.hpp:76] Creating layer silent_gt_overlaps
I0122 01:36:58.468488 27435 net.cpp:107] Creating Layer silent_gt_overlaps
I0122 01:36:58.468492 27435 net.cpp:455] silent_gt_overlaps <- gt_overlaps
I0122 01:36:58.468494 27435 net.cpp:151] Setting up silent_gt_overlaps
I0122 01:36:58.468508 27435 net.cpp:166] Memory required for data: 120226160
…
I0122 01:36:58.468523 27435 net.cpp:107] Creating Layer silent_ilabel
I0122 01:36:58.468524 27435 net.cpp:455] silent_ilabel <- ilabel
I0122 01:36:58.468528 27435 net.cpp:151] Setting up silent_ilabel
I0122 01:36:58.468528 27435 net.cpp:166] Memory required for data: 120226160
I0122 01:36:58.468530 27435 layer_factory.hpp:76] Creating layer conv1
I0122 01:36:58.468536 27435 net.cpp:107] Creating Layer conv1
I0122 01:36:58.468539 27435 net.cpp:455] conv1 <- image_images_0_split_0
I0122 01:36:58.468543 27435 net.cpp:412] conv1 -> conv1
I0122 01:36:58.533201 27435 net.cpp:151] Setting up conv1
I0122 01:36:58.533234 27435 net.cpp:158] Top shape: 2 96 173 173 (5746368)
I0122 01:36:58.533236 27435 net.cpp:166] Memory required for data: 143211632
I0122 01:36:58.533263 27435 layer_factory.hpp:76] Creating layer relu1
I0122 01:36:58.533273 27435 net.cpp:107] Creating Layer relu1
I0122 01:36:58.533277 27435 net.cpp:455] relu1 <- conv1
I0122 01:36:58.533279 27435 net.cpp:398] relu1 -> conv1 (in-place)
I0122 01:36:58.533376 27435 net.cpp:151] Setting up relu1
I0122 01:36:58.533382 27435 net.cpp:158] Top shape: 2 96 173 173 (5746368)
I0122 01:36:58.533385 27435 net.cpp:166] Memory required for data: 166197104
I0122 01:36:58.533386 27435 layer_factory.hpp:76] Creating layer pool1
I0122 01:36:58.533391 27435 net.cpp:107] Creating Layer pool1
I0122 01:36:58.533393 27435 net.cpp:455] pool1 <- conv1
I0122 01:36:58.533397 27435 net.cpp:412] pool1 -> pool1
I0122 01:36:58.533591 27435 net.cpp:151] Setting up pool1
I0122 01:36:58.533599 27435 net.cpp:158] Top shape: 2 96 86 86 (1420032)
I0122 01:36:58.533601 27435 net.cpp:166] Memory required for data: 171877232
I0122 01:36:58.533603 27435 layer_factory.hpp:76] Creating layer norm1
I0122 01:36:58.533627 27435 net.cpp:107] Creating Layer norm1
I0122 01:36:58.533628 27435 net.cpp:455] norm1 <- pool1
I0122 01:36:58.533632 27435 net.cpp:412] norm1 -> norm1
I0122 01:36:58.533849 27435 net.cpp:151] Setting up norm1
I0122 01:36:58.533856 27435 net.cpp:158] Top shape: 2 96 86 86 (1420032)
I0122 01:36:58.533872 27435 net.cpp:166] Memory required for data: 177557360
I0122 01:36:58.533874 27435 layer_factory.hpp:76] Creating layer conv2
I0122 01:36:58.533880 27435 net.cpp:107] Creating Layer conv2
I0122 01:36:58.533882 27435 net.cpp:455] conv2 <- norm1
I0122 01:36:58.533886 27435 net.cpp:412] conv2 -> conv2
I0122 01:36:58.540514 27435 cudnn_conv_layer.cpp:198] Reallocating workspace storage: 28800
I0122 01:36:58.540544 27435 net.cpp:151] Setting up conv2
I0122 01:36:58.540549 27435 net.cpp:158] Top shape: 2 256 86 86 (3786752)
I0122 01:36:58.540550 27435 net.cpp:166] Memory required for data: 192704368
I0122 01:36:58.540557 27435 layer_factory.hpp:76] Creating layer relu2
I0122 01:36:58.540563 27435 net.cpp:107] Creating Layer relu2
I0122 01:36:58.540566 27435 net.cpp:455] relu2 <- conv2
I0122 01:36:58.540570 27435 net.cpp:398] relu2 -> conv2 (in-place)
I0122 01:36:58.540768 27435 net.cpp:151] Setting up relu2
I0122 01:36:58.540776 27435 net.cpp:158] Top shape: 2 256 86 86 (3786752)
I0122 01:36:58.540792 27435 net.cpp:166] Memory required for data: 207851376
I0122 01:36:58.540794 27435 layer_factory.hpp:76] Creating layer pool2
I0122 01:36:58.540798 27435 net.cpp:107] Creating Layer pool2
I0122 01:36:58.540801 27435 net.cpp:455] pool2 <- conv2
I0122 01:36:58.540804 27435 net.cpp:412] pool2 -> pool2
I0122 01:36:58.540915 27435 net.cpp:151] Setting up pool2
I0122 01:36:58.540920 27435 net.cpp:158] Top shape: 2 256 43 43 (946688)
I0122 01:36:58.540923 27435 net.cpp:166] Memory required for data: 211638128
I0122 01:36:58.540947 27435 layer_factory.hpp:76] Creating layer norm2
I0122 01:36:58.540952 27435 net.cpp:107] Creating Layer norm2
I0122 01:36:58.540956 27435 net.cpp:455] norm2 <- pool2
I0122 01:36:58.540973 27435 net.cpp:412] norm2 -> norm2
I0122 01:36:58.541189 27435 net.cpp:151] Setting up norm2
I0122 01:36:58.541195 27435 net.cpp:158] Top shape: 2 256 43 43 (946688)
I0122 01:36:58.541213 27435 net.cpp:166] Memory required for data: 215424880
I0122 01:36:58.541214 27435 layer_factory.hpp:76] Creating layer conv3
I0122 01:36:58.541220 27435 net.cpp:107] Creating Layer conv3
I0122 01:36:58.541223 27435 net.cpp:455] conv3 <- norm2
I0122 01:36:58.541226 27435 net.cpp:412] conv3 -> conv3
I0122 01:36:58.558065 27435 cudnn_conv_layer.cpp:198] Reallocating workspace storage: 27648
I0122 01:36:58.558111 27435 net.cpp:151] Setting up conv3
I0122 01:36:58.558117 27435 net.cpp:158] Top shape: 2 384 43 43 (1420032)
I0122 01:36:58.558120 27435 net.cpp:166] Memory required for data: 221105008
I0122 01:36:58.558128 27435 layer_factory.hpp:76] Creating layer relu3
I0122 01:36:58.558136 27435 net.cpp:107] Creating Layer relu3
I0122 01:36:58.558140 27435 net.cpp:455] relu3 <- conv3
I0122 01:36:58.558145 27435 net.cpp:398] relu3 -> conv3 (in-place)
I0122 01:36:58.558264 27435 net.cpp:151] Setting up relu3
I0122 01:36:58.558269 27435 net.cpp:158] Top shape: 2 384 43 43 (1420032)
I0122 01:36:58.558271 27435 net.cpp:166] Memory required for data: 226785136
I0122 01:36:58.558274 27435 layer_factory.hpp:76] Creating layer conv4
I0122 01:36:58.558292 27435 net.cpp:107] Creating Layer conv4
I0122 01:36:58.558295 27435 net.cpp:455] conv4 <- conv3
I0122 01:36:58.558315 27435 net.cpp:412] conv4 -> conv4
I0122 01:36:58.571059 27435 net.cpp:151] Setting up conv4
I0122 01:36:58.571082 27435 net.cpp:158] Top shape: 2 384 43 43 (1420032)
I0122 01:36:58.571084 27435 net.cpp:166] Memory required for data: 232465264
I0122 01:36:58.571089 27435 layer_factory.hpp:76] Creating layer relu4
I0122 01:36:58.571094 27435 net.cpp:107] Creating Layer relu4
I0122 01:36:58.571096 27435 net.cpp:455] relu4 <- conv4
I0122 01:36:58.571099 27435 net.cpp:398] relu4 -> conv4 (in-place)
I0122 01:36:58.571202 27435 net.cpp:151] Setting up relu4
I0122 01:36:58.571208 27435 net.cpp:158] Top shape: 2 384 43 43 (1420032)
I0122 01:36:58.571210 27435 net.cpp:166] Memory required for data: 238145392
I0122 01:36:58.571213 27435 layer_factory.hpp:76] Creating layer conv5
I0122 01:36:58.571219 27435 net.cpp:107] Creating Layer conv5
I0122 01:36:58.571223 27435 net.cpp:455] conv5 <- conv4
I0122 01:36:58.571226 27435 net.cpp:412] conv5 -> conv5
I0122 01:36:58.580149 27435 net.cpp:151] Setting up conv5
I0122 01:36:58.580157 27435 net.cpp:158] Top shape: 2 256 43 43 (946688)
I0122 01:36:58.580174 27435 net.cpp:166] Memory required for data: 241932144
I0122 01:36:58.580181 27435 layer_factory.hpp:76] Creating layer relu5
I0122 01:36:58.580185 27435 net.cpp:107] Creating Layer relu5
I0122 01:36:58.580188 27435 net.cpp:455] relu5 <- conv5
I0122 01:36:58.580191 27435 net.cpp:398] relu5 -> conv5 (in-place)
I0122 01:36:58.580296 27435 net.cpp:151] Setting up relu5
I0122 01:36:58.580302 27435 net.cpp:158] Top shape: 2 256 43 43 (946688)
I0122 01:36:58.580306 27435 net.cpp:166] Memory required for data: 245718896
I0122 01:36:58.580307 27435 layer_factory.hpp:76] Creating layer pool5
I0122 01:36:58.580312 27435 net.cpp:107] Creating Layer pool5
I0122 01:36:58.580313 27435 net.cpp:455] pool5 <- conv5
I0122 01:36:58.580317 27435 net.cpp:412] pool5 -> pool5
I0122 01:36:58.580541 27435 net.cpp:151] Setting up pool5
I0122 01:36:58.580549 27435 net.cpp:158] Top shape: 2 256 21 21 (225792)
I0122 01:36:58.580565 27435 net.cpp:166] Memory required for data: 246622064
I0122 01:36:58.580567 27435 layer_factory.hpp:76] Creating layer fc6
I0122 01:36:58.580572 27435 net.cpp:107] Creating Layer fc6
I0122 01:36:58.580575 27435 net.cpp:455] fc6 <- pool5
I0122 01:36:58.580579 27435 net.cpp:412] fc6 -> fc6
I0122 01:36:59.252364 27435 cudnn_conv_layer.cpp:198] Reallocating workspace storage: 110592
I0122 01:36:59.252485 27435 net.cpp:151] Setting up fc6
I0122 01:36:59.252493 27435 net.cpp:158] Top shape: 2 4096 16 16 (2097152)
I0122 01:36:59.252496 27435 net.cpp:166] Memory required for data: 255010672
I0122 01:36:59.252501 27435 layer_factory.hpp:76] Creating layer relu6
I0122 01:36:59.252511 27435 net.cpp:107] Creating Layer relu6
I0122 01:36:59.252516 27435 net.cpp:455] relu6 <- fc6
I0122 01:36:59.252522 27435 net.cpp:398] relu6 -> fc6 (in-place)
I0122 01:36:59.252650 27435 net.cpp:151] Setting up relu6
I0122 01:36:59.252658 27435 net.cpp:158] Top shape: 2 4096 16 16 (2097152)
I0122 01:36:59.252662 27435 net.cpp:166] Memory required for data: 263399280
I0122 01:36:59.252665 27435 layer_factory.hpp:76] Creating layer fc7
I0122 01:36:59.252673 27435 net.cpp:107] Creating Layer fc7
I0122 01:36:59.252677 27435 net.cpp:455] fc7 <- fc6
I0122 01:36:59.252686 27435 net.cpp:412] fc7 -> fc7
I0122 01:36:59.551005 27435 cudnn_conv_layer.cpp:198] Reallocating workspace storage: 49152
I0122 01:36:59.551026 27435 net.cpp:151] Setting up fc7
I0122 01:36:59.551048 27435 net.cpp:158] Top shape: 2 4096 16 16 (2097152)
I0122 01:36:59.551051 27435 net.cpp:166] Memory required for data: 271787888
I0122 01:36:59.551059 27435 layer_factory.hpp:76] Creating layer relu7
I0122 01:36:59.551070 27435 net.cpp:107] Creating Layer relu7
I0122 01:36:59.551076 27435 net.cpp:455] relu7 <- fc7
I0122 01:36:59.551084 27435 net.cpp:398] relu7 -> fc7 (in-place)
I0122 01:36:59.551278 27435 net.cpp:151] Setting up relu7
I0122 01:36:59.551287 27435 net.cpp:158] Top shape: 2 4096 16 16 (2097152)
I0122 01:36:59.551290 27435 net.cpp:166] Memory required for data: 280176496
I0122 01:36:59.551295 27435 layer_factory.hpp:76] Creating layer deconv-1
I0122 01:36:59.551306 27435 net.cpp:107] Creating Layer deconv-1
I0122 01:36:59.551309 27435 net.cpp:455] deconv-1 <- fc7
I0122 01:36:59.551316 27435 net.cpp:412] deconv-1 -> up-fc7
I0122 01:36:59.827852 27435 net.cpp:151] Setting up deconv-1
I0122 01:36:59.827869 27435 net.cpp:158] Top shape: 2 256 543 543 (150962688)
I0122 01:36:59.827872 27435 net.cpp:166] Memory required for data: 884027248
I0122 01:36:59.827893 27435 layer_factory.hpp:76] Creating layer crop
I0122 01:36:59.827910 27435 net.cpp:107] Creating Layer crop
I0122 01:36:59.827916 27435 net.cpp:455] crop <- up-fc7
I0122 01:36:59.827922 27435 net.cpp:455] crop <- image_images_0_split_1
I0122 01:36:59.827929 27435 net.cpp:412] crop -> conv-feature
I0122 01:36:59.827985 27435 net.cpp:151] Setting up crop
I0122 01:36:59.827991 27435 net.cpp:158] Top shape: 2 256 500 500 (128000000)
I0122 01:36:59.827994 27435 net.cpp:166] Memory required for data: 1396027248
I0122 01:36:59.827998 27435 layer_factory.hpp:76] Creating layer spixel_pooling1
I0122 01:36:59.828004 27435 net.cpp:107] Creating Layer spixel_pooling1
I0122 01:36:59.828008 27435 net.cpp:455] spixel_pooling1 <- conv-feature
I0122 01:36:59.828013 27435 net.cpp:455] spixel_pooling1 <- spixel_data
I0122 01:36:59.828018 27435 net.cpp:455] spixel_pooling1 <- spixel_ptr
I0122 01:36:59.828022 27435 net.cpp:455] spixel_pooling1 <- spixel_num
I0122 01:36:59.828027 27435 net.cpp:455] spixel_pooling1 <- mask_size
I0122 01:36:59.828032 27435 net.cpp:412] spixel_pooling1 -> spixel_feature
I0122 01:36:59.828059 27435 net.cpp:151] Setting up spixel_pooling1
I0122 01:36:59.828065 27435 net.cpp:158] Top shape: 2 1 9777 256 (5005824)
I0122 01:36:59.828069 27435 net.cpp:166] Memory required for data: 1416050544
I0122 01:36:59.828073 27435 layer_factory.hpp:76] Creating layer rpixel_pooling1
I0122 01:36:59.828078 27435 net.cpp:107] Creating Layer rpixel_pooling1
I0122 01:36:59.828083 27435 net.cpp:455] rpixel_pooling1 <- spixel_feature
I0122 01:36:59.828086 27435 net.cpp:455] rpixel_pooling1 <- seg_data
I0122 01:36:59.828090 27435 net.cpp:455] rpixel_pooling1 <- seg_ptr
I0122 01:36:59.828095 27435 net.cpp:455] rpixel_pooling1 <- seg_num_data_7_split_0
I0122 01:36:59.828099 27435 net.cpp:455] rpixel_pooling1 <- seg_coef
I0122 01:36:59.828106 27435 net.cpp:412] rpixel_pooling1 -> seg_feature
I0122 01:36:59.828138 27435 net.cpp:151] Setting up rpixel_pooling1
I0122 01:36:59.828143 27435 net.cpp:158] Top shape: 2 1 1800 256 (921600)
I0122 01:36:59.828147 27435 net.cpp:166] Memory required for data: 1419736944
I0122 01:36:59.828150 27435 layer_factory.hpp:76] Creating layer tracker
I0122 01:36:59.828157 27435 net.cpp:107] Creating Layer tracker
I0122 01:36:59.828161 27435 net.cpp:455] tracker <- seg_feature
I0122 01:36:59.828166 27435 net.cpp:455] tracker <- overlaps
I0122 01:36:59.828169 27435 net.cpp:455] tracker <- seg_num_data_7_split_1
I0122 01:36:59.828173 27435 net.cpp:455] tracker <- cont
I0122 01:36:59.828181 27435 net.cpp:412] tracker -> v
I0122 01:36:59.828189 27435 net.cpp:412] tracker -> vtilde
I0122 01:36:59.828200 27435 recurrent_layer.cpp:42] Initializing recurrent layer: assuming input batch contains 2 timesteps of 1 independent streams.
I0122 01:36:59.828578 27435 net.cpp:49] Initializing net from parameters: 
input: "x"
input: "overlaps"
input: "seg_num"
input: "cont"
input: "c_0"
input: "h_0"
input: "s_0"
force_backward: true
input_shape {
  dim: 2
  dim: 1
  dim: 1800
  dim: 256
}
input_shape {
  dim: 2
  dim: 1
  dim: 1800
  dim: 1800
}
input_shape {
  dim: 2
  dim: 1
}
input_shape {
  dim: 2
  dim: 1
}
input_shape {
  dim: 1
  dim: 1
  dim: 1800
  dim: 256
}
input_shape {
  dim: 1
  dim: 1
  dim: 256
  dim: 256
}
input_shape {
  dim: 1
  dim: 1
  dim: 1
}
layer {
  name: "tracker_cont_slice"
  type: "Slice"
  bottom: "cont"
  top: "cont_1"
  top: "cont_2"
  slice_param {
    axis: 0
  }
}
layer {
  name: "tracker_x_slice"
  type: "Slice"
  bottom: "x"
  top: "x_1"
  top: "x_2"
  slice_param {
    axis: 0
  }
}
layer {
  name: "tracker_overlaps_slice"
  type: "Slice"
  bottom: "overlaps"
  top: "overlaps_1"
  top: "overlaps_2"
  slice_param {
    axis: 0
  }
}
layer {
  name: "tracker_seg_num_slice"
  type: "Slice"
  bottom: "seg_num"
  top: "nseg_1"
  top: "nseg_2"
  slice_param {
    axis: 0
  }
}
layer {
  name: "tracker_overlaps_split_1"
  type: "Split"
  bottom: "overlaps_1"
  top: "overlaps1_1"
  top: "overlaps2_1"
}
layer {
  name: "tracker_x_split_1"
  type: "Split"
  bottom: "x_1"
  top: "x1_1"
  top: "x2_1"
  top: "x3_1"
  top: "x4_1"
}
layer {
  name: "tracker_cont_split_1"
  type: "Split"
  bottom: "cont_1"
  top: "cont1_1"
  top: "cont2_1"
  top: "cont3_1"
  top: "cont4_1"
}
layer {
  name: "tracker_h_split_0"
  type: "Split"
  bottom: "h_0"
  top: "h1_0"
  top: "h2_0"
}
layer {
  name: "tracker_c_split_0"
  type: "Split"
  bottom: "c_0"
  top: "c1_0"
  top: "c2_0"
}
layer {
  name: "tracker_s_cont_0"
  type: "Scalar"
  bottom: "s_0"
  bottom: "cont4_1"
  top: "s_cont_0"
  scalar_param {
    axis: 0
  }
}
layer {
  name: "tracker_s_cont_split_0"
  type: "Split"
  bottom: "s_cont_0"
  top: "s1_cont_0"
  top: "s2_cont_0"
}
layer {
  name: "tracker_hm1_0"
  type: "MatInv"
  bottom: "h1_0"
  bottom: "s1_cont_0"
  top: "hm1_0"
  matinv_param {
    lambda: 10000
  }
}
layer {
  name: "tracker_w_0"
  type: "MatMult"
  bottom: "c1_0"
  bottom: "hm1_0"
  top: "w_0"
}
layer {
  name: "tracker_v_1"
  type: "MatMult"
  bottom: "w_0"
  bottom: "x_1"
  top: "v_1"
  matmult_param {
    transpose_b: true
  }
}
layer {
  name: "tracker_rename_overlaps_1"
  type: "Split"
  bottom: "overlaps1_1"
  top: "s_overlaps_1"
}
layer {
  name: "tracker_v_cont_1"
  type: "Switch"
  bottom: "s_overlaps_1"
  bottom: "v_1"
  bottom: "cont1_1"
  top: "v_cont_1"
  switch_param {
    axis: 2
  }
}
layer {
  name: "tracker_v_split_1"
  type: "Split"
  bottom: "v_cont_1"
  top: "v1_1"
  top: "v3_1"
  top: "v4_1"
  top: "v2_1"
}
layer {
  name: "tracker_vtilde_1"
  type: "TrackerMatching"
  bottom: "v4_1"
  bottom: "overlaps2_1"
  bottom: "nseg_1"
  top: "vtilde_1"
}
layer {
  name: "tracker_vtilde_split_1"
  type: "Split"
  bottom: "vtilde_1"
  top: "vtilde1_1"
}
layer {
  name: "tracker_reshape1_1"
  type: "Reshape"
  bottom: "v1_1"
  top: "vr_1"
  reshape_param {
    shape {
      dim: 1
      dim: 1
      dim: 1800
      dim: 1800
    }
  }
}
layer {
  name: "tracker_max_1"
  type: "Pooling"
  bottom: "vr_1"
  top: "mr_1"
  pooling_param {
    pool: MAX
    kernel_h: 1800
    kernel_w: 1
  }
}
layer {
  name: "tracker_reshape2_1"
  type: "Reshape"
  bottom: "mr_1"
  top: "m_1"
  reshape_param {
    shape {
      dim: 1
      dim: 1
      dim: 1800
    }
  }
}
layer {
  name: "tracker_m_split_1"
  type: "Split"
  bottom: "m_1"
  top: "m1_1"
  top: "m2_1"
}
layer {
  name: "tracker_concat_s_elemens_1"
  type: "Concat"
  bottom: "m2_1"
  bottom: "s2_cont_0"
  top: "s_elem_1"
  concat_param {
    axis: 2
  }
}
layer {
  name: "tracker_sum_s_elemens_1"
  type: "Reduction"
  bottom: "s_elem_1"
  top: "ns_1"
  concat_param {
    axis: 2
  }
}
layer {
  name: "tracker_s_reshape_1"
  type: "Reshape"
  bottom: "ns_1"
  top: "s_1"
  reshape_param {
    shape {
      dim: 1
      dim: 1
      dim: 1
    }
  }
}
layer {
  name: "tracker_mx_1"
  type: "MatMult"
  bottom: "m1_1"
  bottom: "x2_1"
  top: "mx_1"
  matmult_param {
    diagonal_input: true
  }
}
layer {
  name: "tracker_mx_split_1"
  type: "Split"
  bottom: "mx_1"
  top: "mx1_1"
  top: "mx2_1"
}
layer {
  name: "tracker_xmx_1"
  type: "MatMult"
  bottom: "x3_1"
  bottom: "mx1_1"
  top: "xmx_1"
  matmult_param {
    transpose_a: true
  }
}
layer {
  name: "tracker_h_cont_0"
  type: "Scalar"
  bottom: "h2_0"
  bottom: "cont2_1"
  top: "h_cont_0"
  scalar_param {
    axis: 0
  }
}
layer {
  name: "tracker_h_1"
  type: "Eltwise"
  bottom: "h_cont_0"
  bottom: "xmx_1"
  top: "h_1"
  eltwise_param {
    operation: SUM
  }
}
layer {
  name: "tracker_vmx_1"
  type: "MatMult"
  bottom: "v2_1"
  bottom: "mx2_1"
  top: "vmx_1"
}
layer {
  name: "tracker_c_cont_0"
  type: "Scalar"
  bottom: "c2_0"
  bottom: "cont3_1"
  top: "c_cont_0"
  scalar_param {
    axis: 0
  }
}
layer {
  name: "tracker_c_1"
  type: "Eltwise"
  bottom: "c_cont_0"
  bottom: "vmx_1"
  top: "c_1"
  eltwise_param {
    operation: SUM
  }
}
layer {
  name: "tracker_overlaps_split_2"
  type: "Split"
  bottom: "overlaps_2"
  top: "overlaps1_2"
  top: "overlaps2_2"
}
layer {
  name: "tracker_x_split_2"
  type: "Split"
  bottom: "x_2"
  top: "x1_2"
  top: "x2_2"
  top: "x3_2"
  top: "x4_2"
}
layer {
  name: "tracker_cont_split_2"
  type: "Split"
  bottom: "cont_2"
  top: "cont1_2"
  top: "cont2_2"
  top: "cont3_2"
  top: "cont4_2"
}
layer {
  name: "tracker_h_split_1"
  type: "Split"
  bottom: "h_1"
  top: "h1_1"
  top: "h2_1"
}
layer {
  name: "tracker_c_split_1"
  type: "Split"
  bottom: "c_1"
  top: "c1_1"
  top: "c2_1"
}
layer {
  name: "tracker_s_cont_1"
  type: "Scalar"
  bottom: "s_1"
  bottom: "cont4_2"
  top: "s_cont_1"
  scalar_param {
    axis: 0
  }
}
layer {
  name: "tracker_s_cont_split_1"
  type: "Split"
  bottom: "s_cont_1"
  top: "s1_cont_1"
  top: "s2_cont_1"
}
layer {
  name: "tracker_hm1_1"
  type: "MatInv"
  bottom: "h1_1"
  bottom: "s1_cont_1"
  top: "hm1_1"
  matinv_param {
    lambda: 10000
  }
}
layer {
  name: "tracker_w_1"
  type: "MatMult"
  bottom: "c1_1"
  bottom: "hm1_1"
  top: "w_1"
}
layer {
  name: "tracker_v_2"
  type: "MatMult"
  bottom: "w_1"
  bottom: "x_2"
  top: "v_2"
  matmult_param {
    transpose_b: true
  }
}
layer {
  name: "tracker_rename_overlaps_2"
  type: "Split"
  bottom: "overlaps1_2"
  top: "s_overlaps_2"
}
layer {
  name: "tracker_v_cont_2"
  type: "Switch"
  bottom: "s_overlaps_2"
  bottom: "v_2"
  bottom: "cont1_2"
  top: "v_cont_2"
  switch_param {
    axis: 2
  }
}
layer {
  name: "tracker_v_split_2"
  type: "Split"
  bottom: "v_cont_2"
  top: "v1_2"
  top: "v3_2"
  top: "v4_2"
  top: "v2_2"
}
layer {
  name: "tracker_vtilde_2"
  type: "TrackerMatching"
  bottom: "v4_2"
  bottom: "overlaps2_2"
  bottom: "nseg_2"
  top: "vtilde_2"
}
layer {
  name: "tracker_vtilde_split_2"
  type: "Split"
  bottom: "vtilde_2"
  top: "vtilde1_2"
}
layer {
  name: "tracker_reshape1_2"
  type: "Reshape"
  bottom: "v1_2"
  top: "vr_2"
  reshape_param {
    shape {
      dim: 1
      dim: 1
      dim: 1800
      dim: 1800
    }
  }
}
layer {
  name: "tracker_max_2"
  type: "Pooling"
  bottom: "vr_2"
  top: "mr_2"
  pooling_param {
    pool: MAX
    kernel_h: 1800
    kernel_w: 1
  }
}
layer {
  name: "tracker_reshape2_2"
  type: "Reshape"
  bottom: "mr_2"
  top: "m_2"
  reshape_param {
    shape {
      dim: 1
      dim: 1
      dim: 1800
    }
  }
}
layer {
  name: "tracker_m_split_2"
  type: "Split"
  bottom: "m_2"
  top: "m1_2"
  top: "m2_2"
}
layer {
  name: "tracker_concat_s_elemens_2"
  type: "Concat"
  bottom: "m2_2"
  bottom: "s2_cont_1"
  top: "s_elem_2"
  concat_param {
    axis: 2
  }
}
layer {
  name: "tracker_sum_s_elemens_2"
  type: "Reduction"
  bottom: "s_elem_2"
  top: "ns_2"
  concat_param {
    axis: 2
  }
}
layer {
  name: "tracker_s_reshape_2"
  type: "Reshape"
  bottom: "ns_2"
  top: "s_2"
  reshape_param {
    shape {
      dim: 1
      dim: 1
      dim: 1
    }
  }
}
layer {
  name: "tracker_mx_2"
  type: "MatMult"
  bottom: "m1_2"
  bottom: "x2_2"
  top: "mx_2"
  matmult_param {
    diagonal_input: true
  }
}
layer {
  name: "tracker_mx_split_2"
  type: "Split"
  bottom: "mx_2"
  top: "mx1_2"
  top: "mx2_2"
}
layer {
  name: "tracker_xmx_2"
  type: "MatMult"
  bottom: "x3_2"
  bottom: "mx1_2"
  top: "xmx_2"
  matmult_param {
    transpose_a: true
  }
}
layer {
  name: "tracker_h_cont_1"
  type: "Scalar"
  bottom: "h2_1"
  bottom: "cont2_2"
  top: "h_cont_1"
  scalar_param {
    axis: 0
  }
}
layer {
  name: "tracker_h_2"
  type: "Eltwise"
  bottom: "h_cont_1"
  bottom: "xmx_2"
  top: "h_2"
  eltwise_param {
    operation: SUM
  }
}
layer {
  name: "tracker_vmx_2"
  type: "MatMult"
  bottom: "v2_2"
  bottom: "mx2_2"
  top: "vmx_2"
}
layer {
  name: "tracker_c_cont_1"
  type: "Scalar"
  bottom: "c2_1"
  bottom: "cont3_2"
  top: "c_cont_1"
  scalar_param {
    axis: 0
  }
}
layer {
  name: "tracker_c_2"
  type: "Eltwise"
  bottom: "c_cont_1"
  bottom: "vmx_2"
  top: "c_2"
  eltwise_param {
    operation: SUM
  }
}
layer {
  name: "tracker_v_concat"
  type: "Concat"
  bottom: "v3_1"
  bottom: "v3_2"
  top: "v"
  concat_param {
    axis: 0
  }
}
layer {
  name: "tracker_vtilde_concat"
  type: "Concat"
  bottom: "vtilde1_1"
  bottom: "vtilde1_2"
  top: "vtilde"
  concat_param {
    axis: 0
  }
}
I0122 01:36:59.828902 27435 net.cpp:414] Input 0 -> x
I0122 01:36:59.828932 27435 net.cpp:414] Input 1 -> overlaps
I0122 01:36:59.828953 27435 net.cpp:414] Input 2 -> seg_num
I0122 01:36:59.828971 27435 net.cpp:414] Input 3 -> cont
I0122 01:36:59.828991 27435 net.cpp:414] Input 4 -> c_0
I0122 01:36:59.829010 27435 net.cpp:414] Input 5 -> h_0
I0122 01:36:59.829026 27435 net.cpp:414] Input 6 -> s_0
I0122 01:36:59.829051 27435 layer_factory.hpp:76] Creating layer tracker_cont_slice
I0122 01:36:59.829059 27435 net.cpp:107] Creating Layer tracker_cont_slice
I0122 01:36:59.829063 27435 net.cpp:455] tracker_cont_slice <- cont
I0122 01:36:59.829069 27435 net.cpp:412] tracker_cont_slice -> cont_1
I0122 01:36:59.829076 27435 net.cpp:412] tracker_cont_slice -> cont_2
I0122 01:36:59.829108 27435 net.cpp:151] Setting up tracker_cont_slice
I0122 01:36:59.829114 27435 net.cpp:158] Top shape: 1 1 (1)
I0122 01:36:59.829118 27435 net.cpp:158] Top shape: 1 1 (1)
I0122 01:36:59.829123 27435 net.cpp:166] Memory required for data: 8
I0122 01:36:59.829125 27435 layer_factory.hpp:76] Creating layer tracker_x_slice
I0122 01:36:59.829131 27435 net.cpp:107] Creating Layer tracker_x_slice
I0122 01:36:59.829134 27435 net.cpp:455] tracker_x_slice <- x
I0122 01:36:59.829139 27435 net.cpp:412] tracker_x_slice -> x_1
I0122 01:36:59.829147 27435 net.cpp:412] tracker_x_slice -> x_2
I0122 01:36:59.829180 27435 net.cpp:151] Setting up tracker_x_slice
I0122 01:36:59.829185 27435 net.cpp:158] Top shape: 1 1 1800 256 (460800)
I0122 01:36:59.829190 27435 net.cpp:158] Top shape: 1 1 1800 256 (460800)
I0122 01:36:59.829192 27435 net.cpp:166] Memory required for data: 3686408
I0122 01:36:59.829195 27435 layer_factory.hpp:76] Creating layer x_1_tracker_x_slice_0_split
I0122 01:36:59.829202 27435 net.cpp:107] Creating Layer x_1_tracker_x_slice_0_split
I0122 01:36:59.829205 27435 net.cpp:455] x_1_tracker_x_slice_0_split <- x_1
I0122 01:36:59.829210 27435 net.cpp:412] x_1_tracker_x_slice_0_split -> x_1_tracker_x_slice_0_split_0
I0122 01:36:59.829222 27435 net.cpp:412] x_1_tracker_x_slice_0_split -> x_1_tracker_x_slice_0_split_1
I0122 01:36:59.829255 27435 net.cpp:151] Setting up x_1_tracker_x_slice_0_split
I0122 01:36:59.829262 27435 net.cpp:158] Top shape: 1 1 1800 256 (460800)
I0122 01:36:59.829265 27435 net.cpp:158] Top shape: 1 1 1800 256 (460800)
I0122 01:36:59.829268 27435 net.cpp:166] Memory required for data: 7372808
I0122 01:36:59.829272 27435 layer_factory.hpp:76] Creating layer x_2_tracker_x_slice_1_split
I0122 01:36:59.829277 27435 net.cpp:107] Creating Layer x_2_tracker_x_slice_1_split
I0122 01:36:59.829279 27435 net.cpp:455] x_2_tracker_x_slice_1_split <- x_2
I0122 01:36:59.829285 27435 net.cpp:412] x_2_tracker_x_slice_1_split -> x_2_tracker_x_slice_1_split_0
I0122 01:36:59.829291 27435 net.cpp:412] x_2_tracker_x_slice_1_split -> x_2_tracker_x_slice_1_split_1
I0122 01:36:59.829321 27435 net.cpp:151] Setting up x_2_tracker_x_slice_1_split
I0122 01:36:59.829326 27435 net.cpp:158] Top shape: 1 1 1800 256 (460800)
I0122 01:36:59.829331 27435 net.cpp:158] Top shape: 1 1 1800 256 (460800)
I0122 01:36:59.829334 27435 net.cpp:166] Memory required for data: 11059208
I0122 01:36:59.829337 27435 layer_factory.hpp:76] Creating layer tracker_overlaps_slice
I0122 01:36:59.829344 27435 net.cpp:107] Creating Layer tracker_overlaps_slice
I0122 01:36:59.829346 27435 net.cpp:455] tracker_overlaps_slice <- overlaps
I0122 01:36:59.829351 27435 net.cpp:412] tracker_overlaps_slice -> overlaps_1
I0122 01:36:59.829358 27435 net.cpp:412] tracker_overlaps_slice -> overlaps_2
I0122 01:36:59.829391 27435 net.cpp:151] Setting up tracker_overlaps_slice
I0122 01:36:59.829396 27435 net.cpp:158] Top shape: 1 1 1800 1800 (3240000)
I0122 01:36:59.829399 27435 net.cpp:158] Top shape: 1 1 1800 1800 (3240000)
I0122 01:36:59.829403 27435 net.cpp:166] Memory required for data: 36979208
I0122 01:36:59.829406 27435 layer_factory.hpp:76] Creating layer tracker_seg_num_slice
I0122 01:36:59.829414 27435 net.cpp:107] Creating Layer tracker_seg_num_slice
I0122 01:36:59.829418 27435 net.cpp:455] tracker_seg_num_slice <- seg_num
I0122 01:36:59.829424 27435 net.cpp:412] tracker_seg_num_slice -> nseg_1
I0122 01:36:59.829430 27435 net.cpp:412] tracker_seg_num_slice -> nseg_2
I0122 01:36:59.829460 27435 net.cpp:151] Setting up tracker_seg_num_slice
I0122 01:36:59.829465 27435 net.cpp:158] Top shape: 1 1 (1)
I0122 01:36:59.829469 27435 net.cpp:158] Top shape: 1 1 (1)
I0122 01:36:59.829473 27435 net.cpp:166] Memory required for data: 36979216
I0122 01:36:59.829475 27435 layer_factory.hpp:76] Creating layer tracker_overlaps_split_1
I0122 01:36:59.829479 27435 net.cpp:107] Creating Layer tracker_overlaps_split_1
I0122 01:36:59.829483 27435 net.cpp:455] tracker_overlaps_split_1 <- overlaps_1
I0122 01:36:59.829488 27435 net.cpp:412] tracker_overlaps_split_1 -> overlaps1_1
I0122 01:36:59.829494 27435 net.cpp:412] tracker_overlaps_split_1 -> overlaps2_1
I0122 01:36:59.829524 27435 net.cpp:151] Setting up tracker_overlaps_split_1
I0122 01:36:59.829530 27435 net.cpp:158] Top shape: 1 1 1800 1800 (3240000)
I0122 01:36:59.829535 27435 net.cpp:158] Top shape: 1 1 1800 1800 (3240000)
I0122 01:36:59.829537 27435 net.cpp:166] Memory required for data: 62899216
I0122 01:36:59.829541 27435 layer_factory.hpp:76] Creating layer tracker_x_split_1
I0122 01:36:59.829545 27435 net.cpp:107] Creating Layer tracker_x_split_1
I0122 01:36:59.829548 27435 net.cpp:455] tracker_x_split_1 <- x_1_tracker_x_slice_0_split_0
I0122 01:36:59.829555 27435 net.cpp:412] tracker_x_split_1 -> x1_1
I0122 01:36:59.829562 27435 net.cpp:412] tracker_x_split_1 -> x2_1
I0122 01:36:59.829568 27435 net.cpp:412] tracker_x_split_1 -> x3_1
I0122 01:36:59.829574 27435 net.cpp:412] tracker_x_split_1 -> x4_1
I0122 01:36:59.829623 27435 net.cpp:151] Setting up tracker_x_split_1
I0122 01:36:59.829628 27435 net.cpp:158] Top shape: 1 1 1800 256 (460800)
I0122 01:36:59.829632 27435 net.cpp:158] Top shape: 1 1 1800 256 (460800)
I0122 01:36:59.829638 27435 net.cpp:158] Top shape: 1 1 1800 256 (460800)
I0122 01:36:59.829641 27435 net.cpp:158] Top shape: 1 1 1800 256 (460800)
I0122 01:36:59.829649 27435 net.cpp:166] Memory required for data: 70272016
I0122 01:36:59.829653 27435 layer_factory.hpp:76] Creating layer tracker_cont_split_1
I0122 01:36:59.829659 27435 net.cpp:107] Creating Layer tracker_cont_split_1
I0122 01:36:59.829663 27435 net.cpp:455] tracker_cont_split_1 <- cont_1
I0122 01:36:59.829668 27435 net.cpp:412] tracker_cont_split_1 -> cont1_1
I0122 01:36:59.829674 27435 net.cpp:412] tracker_cont_split_1 -> cont2_1
I0122 01:36:59.829680 27435 net.cpp:412] tracker_cont_split_1 -> cont3_1
I0122 01:36:59.829686 27435 net.cpp:412] tracker_cont_split_1 -> cont4_1
I0122 01:36:59.829740 27435 net.cpp:151] Setting up tracker_cont_split_1
I0122 01:36:59.829744 27435 net.cpp:158] Top shape: 1 1 (1)
I0122 01:36:59.829748 27435 net.cpp:158] Top shape: 1 1 (1)
I0122 01:36:59.829752 27435 net.cpp:158] Top shape: 1 1 (1)
I0122 01:36:59.829756 27435 net.cpp:158] Top shape: 1 1 (1)
I0122 01:36:59.829761 27435 net.cpp:166] Memory required for data: 70272032
I0122 01:36:59.829763 27435 layer_factory.hpp:76] Creating layer tracker_h_split_0
I0122 01:36:59.829767 27435 net.cpp:107] Creating Layer tracker_h_split_0
I0122 01:36:59.829771 27435 net.cpp:455] tracker_h_split_0 <- h_0
I0122 01:36:59.829776 27435 net.cpp:412] tracker_h_split_0 -> h1_0
I0122 01:36:59.829782 27435 net.cpp:412] tracker_h_split_0 -> h2_0
I0122 01:36:59.829812 27435 net.cpp:151] Setting up tracker_h_split_0
I0122 01:36:59.829816 27435 net.cpp:158] Top shape: 1 1 256 256 (65536)
I0122 01:36:59.829820 27435 net.cpp:158] Top shape: 1 1 256 256 (65536)
I0122 01:36:59.829823 27435 net.cpp:166] Memory required for data: 70796320
I0122 01:36:59.829828 27435 layer_factory.hpp:76] Creating layer tracker_c_split_0
I0122 01:36:59.829831 27435 net.cpp:107] Creating Layer tracker_c_split_0
I0122 01:36:59.829834 27435 net.cpp:455] tracker_c_split_0 <- c_0
I0122 01:36:59.829840 27435 net.cpp:412] tracker_c_split_0 -> c1_0
I0122 01:36:59.829845 27435 net.cpp:412] tracker_c_split_0 -> c2_0
I0122 01:36:59.829877 27435 net.cpp:151] Setting up tracker_c_split_0
I0122 01:36:59.829882 27435 net.cpp:158] Top shape: 1 1 1800 256 (460800)
I0122 01:36:59.829887 27435 net.cpp:158] Top shape: 1 1 1800 256 (460800)
I0122 01:36:59.829890 27435 net.cpp:166] Memory required for data: 74482720
I0122 01:36:59.829893 27435 layer_factory.hpp:76] Creating layer tracker_s_cont_0
I0122 01:36:59.829902 27435 net.cpp:107] Creating Layer tracker_s_cont_0
I0122 01:36:59.829905 27435 net.cpp:455] tracker_s_cont_0 <- s_0
I0122 01:36:59.829910 27435 net.cpp:455] tracker_s_cont_0 <- cont4_1
I0122 01:36:59.829916 27435 net.cpp:412] tracker_s_cont_0 -> s_cont_0
I0122 01:36:59.829969 27435 net.cpp:151] Setting up tracker_s_cont_0
I0122 01:36:59.829975 27435 net.cpp:158] Top shape: 1 1 1 (1)
I0122 01:36:59.829978 27435 net.cpp:166] Memory required for data: 74482724
I0122 01:36:59.829982 27435 layer_factory.hpp:76] Creating layer tracker_s_cont_split_0
I0122 01:36:59.829985 27435 net.cpp:107] Creating Layer tracker_s_cont_split_0
I0122 01:36:59.829989 27435 net.cpp:455] tracker_s_cont_split_0 <- s_cont_0
I0122 01:36:59.829994 27435 net.cpp:412] tracker_s_cont_split_0 -> s1_cont_0
I0122 01:36:59.829999 27435 net.cpp:412] tracker_s_cont_split_0 -> s2_cont_0
I0122 01:36:59.830031 27435 net.cpp:151] Setting up tracker_s_cont_split_0
I0122 01:36:59.830036 27435 net.cpp:158] Top shape: 1 1 1 (1)
I0122 01:36:59.830040 27435 net.cpp:158] Top shape: 1 1 1 (1)
I0122 01:36:59.830044 27435 net.cpp:166] Memory required for data: 74482732
I0122 01:36:59.830046 27435 layer_factory.hpp:76] Creating layer tracker_hm1_0
I0122 01:36:59.830052 27435 net.cpp:107] Creating Layer tracker_hm1_0
I0122 01:36:59.830055 27435 net.cpp:455] tracker_hm1_0 <- h1_0
I0122 01:36:59.830061 27435 net.cpp:455] tracker_hm1_0 <- s1_cont_0
I0122 01:36:59.830066 27435 net.cpp:412] tracker_hm1_0 -> hm1_0
I0122 01:36:59.830101 27435 net.cpp:151] Setting up tracker_hm1_0
I0122 01:36:59.830107 27435 net.cpp:158] Top shape: 1 1 256 256 (65536)
I0122 01:36:59.830111 27435 net.cpp:166] Memory required for data: 74744876
I0122 01:36:59.830119 27435 layer_factory.hpp:76] Creating layer tracker_w_0
I0122 01:36:59.830124 27435 net.cpp:107] Creating Layer tracker_w_0
I0122 01:36:59.830128 27435 net.cpp:455] tracker_w_0 <- c1_0
I0122 01:36:59.830132 27435 net.cpp:455] tracker_w_0 <- hm1_0
I0122 01:36:59.830137 27435 net.cpp:412] tracker_w_0 -> w_0
I0122 01:36:59.830159 27435 net.cpp:151] Setting up tracker_w_0
I0122 01:36:59.830173 27435 net.cpp:158] Top shape: 1 1 1800 256 (460800)
I0122 01:36:59.830178 27435 net.cpp:166] Memory required for data: 76588076
I0122 01:36:59.830180 27435 layer_factory.hpp:76] Creating layer tracker_v_1
I0122 01:36:59.830188 27435 net.cpp:107] Creating Layer tracker_v_1
I0122 01:36:59.830191 27435 net.cpp:455] tracker_v_1 <- w_0
I0122 01:36:59.830196 27435 net.cpp:455] tracker_v_1 <- x_1_tracker_x_slice_0_split_1
I0122 01:36:59.830201 27435 net.cpp:412] tracker_v_1 -> v_1
I0122 01:36:59.830221 27435 net.cpp:151] Setting up tracker_v_1
I0122 01:36:59.830226 27435 net.cpp:158] Top shape: 1 1 1800 1800 (3240000)
I0122 01:36:59.830229 27435 net.cpp:166] Memory required for data: 89548076
I0122 01:36:59.830234 27435 layer_factory.hpp:76] Creating layer tracker_rename_overlaps_1
I0122 01:36:59.830240 27435 net.cpp:107] Creating Layer tracker_rename_overlaps_1
I0122 01:36:59.830243 27435 net.cpp:455] tracker_rename_overlaps_1 <- overlaps1_1
I0122 01:36:59.830248 27435 net.cpp:412] tracker_rename_overlaps_1 -> s_overlaps_1
I0122 01:36:59.830266 27435 net.cpp:151] Setting up tracker_rename_overlaps_1
I0122 01:36:59.830271 27435 net.cpp:158] Top shape: 1 1 1800 1800 (3240000)
I0122 01:36:59.830276 27435 net.cpp:166] Memory required for data: 102508076
I0122 01:36:59.830278 27435 layer_factory.hpp:76] Creating layer tracker_v_cont_1
I0122 01:36:59.830283 27435 net.cpp:107] Creating Layer tracker_v_cont_1
I0122 01:36:59.830286 27435 net.cpp:455] tracker_v_cont_1 <- s_overlaps_1
I0122 01:36:59.830291 27435 net.cpp:455] tracker_v_cont_1 <- v_1
I0122 01:36:59.830294 27435 net.cpp:455] tracker_v_cont_1 <- cont1_1
I0122 01:36:59.830302 27435 net.cpp:412] tracker_v_cont_1 -> v_cont_1
I0122 01:36:59.830322 27435 net.cpp:151] Setting up tracker_v_cont_1
I0122 01:36:59.830327 27435 net.cpp:158] Top shape: 1 1 1800 1800 (3240000)
I0122 01:36:59.830330 27435 net.cpp:166] Memory required for data: 115468076
I0122 01:36:59.830334 27435 layer_factory.hpp:76] Creating layer tracker_v_split_1
I0122 01:36:59.830338 27435 net.cpp:107] Creating Layer tracker_v_split_1
I0122 01:36:59.830343 27435 net.cpp:455] tracker_v_split_1 <- v_cont_1
I0122 01:36:59.830348 27435 net.cpp:412] tracker_v_split_1 -> v1_1
I0122 01:36:59.830353 27435 net.cpp:412] tracker_v_split_1 -> v3_1
I0122 01:36:59.830360 27435 net.cpp:412] tracker_v_split_1 -> v4_1
I0122 01:36:59.830366 27435 net.cpp:412] tracker_v_split_1 -> v2_1
I0122 01:36:59.830416 27435 net.cpp:151] Setting up tracker_v_split_1
I0122 01:36:59.830421 27435 net.cpp:158] Top shape: 1 1 1800 1800 (3240000)
I0122 01:36:59.830426 27435 net.cpp:158] Top shape: 1 1 1800 1800 (3240000)
I0122 01:36:59.830430 27435 net.cpp:158] Top shape: 1 1 1800 1800 (3240000)
I0122 01:36:59.830435 27435 net.cpp:158] Top shape: 1 1 1800 1800 (3240000)
I0122 01:36:59.830437 27435 net.cpp:166] Memory required for data: 167308076
I0122 01:36:59.830440 27435 layer_factory.hpp:76] Creating layer tracker_vtilde_1
I0122 01:36:59.830446 27435 net.cpp:107] Creating Layer tracker_vtilde_1
I0122 01:36:59.830451 27435 net.cpp:455] tracker_vtilde_1 <- v4_1
I0122 01:36:59.830454 27435 net.cpp:455] tracker_vtilde_1 <- overlaps2_1
I0122 01:36:59.830459 27435 net.cpp:455] tracker_vtilde_1 <- nseg_1
I0122 01:36:59.830463 27435 net.cpp:412] tracker_vtilde_1 -> vtilde_1
I0122 01:36:59.830497 27435 net.cpp:151] Setting up tracker_vtilde_1
I0122 01:36:59.830502 27435 net.cpp:158] Top shape: 1 1 1800 1800 (3240000)
I0122 01:36:59.830504 27435 net.cpp:166] Memory required for data: 180268076
I0122 01:36:59.830507 27435 layer_factory.hpp:76] Creating layer tracker_vtilde_split_1
I0122 01:36:59.830513 27435 net.cpp:107] Creating Layer tracker_vtilde_split_1
I0122 01:36:59.830521 27435 net.cpp:455] tracker_vtilde_split_1 <- vtilde_1
I0122 01:36:59.830526 27435 net.cpp:412] tracker_vtilde_split_1 -> vtilde1_1
I0122 01:36:59.830545 27435 net.cpp:151] Setting up tracker_vtilde_split_1
I0122 01:36:59.830550 27435 net.cpp:158] Top shape: 1 1 1800 1800 (3240000)
I0122 01:36:59.830554 27435 net.cpp:166] Memory required for data: 193228076
I0122 01:36:59.830557 27435 layer_factory.hpp:76] Creating layer tracker_reshape1_1
I0122 01:36:59.830564 27435 net.cpp:107] Creating Layer tracker_reshape1_1
I0122 01:36:59.830567 27435 net.cpp:455] tracker_reshape1_1 <- v1_1
I0122 01:36:59.830572 27435 net.cpp:412] tracker_reshape1_1 -> vr_1
I0122 01:36:59.830595 27435 net.cpp:151] Setting up tracker_reshape1_1
I0122 01:36:59.830601 27435 net.cpp:158] Top shape: 1 1 1800 1800 (3240000)
I0122 01:36:59.830605 27435 net.cpp:166] Memory required for data: 206188076
I0122 01:36:59.830607 27435 layer_factory.hpp:76] Creating layer tracker_max_1
I0122 01:36:59.830612 27435 net.cpp:107] Creating Layer tracker_max_1
I0122 01:36:59.830615 27435 net.cpp:455] tracker_max_1 <- vr_1
I0122 01:36:59.830622 27435 net.cpp:412] tracker_max_1 -> mr_1
I0122 01:36:59.830838 27435 net.cpp:151] Setting up tracker_max_1
I0122 01:36:59.830845 27435 net.cpp:158] Top shape: 1 1 1 1800 (1800)
I0122 01:36:59.830849 27435 net.cpp:166] Memory required for data: 206195276
I0122 01:36:59.830852 27435 layer_factory.hpp:76] Creating layer tracker_reshape2_1
I0122 01:36:59.830857 27435 net.cpp:107] Creating Layer tracker_reshape2_1
I0122 01:36:59.830862 27435 net.cpp:455] tracker_reshape2_1 <- mr_1
I0122 01:36:59.830868 27435 net.cpp:412] tracker_reshape2_1 -> m_1
I0122 01:36:59.830888 27435 net.cpp:151] Setting up tracker_reshape2_1
I0122 01:36:59.830894 27435 net.cpp:158] Top shape: 1 1 1800 (1800)
I0122 01:36:59.830899 27435 net.cpp:166] Memory required for data: 206202476
I0122 01:36:59.830901 27435 layer_factory.hpp:76] Creating layer tracker_m_split_1
I0122 01:36:59.830907 27435 net.cpp:107] Creating Layer tracker_m_split_1
I0122 01:36:59.830911 27435 net.cpp:455] tracker_m_split_1 <- m_1
I0122 01:36:59.830916 27435 net.cpp:412] tracker_m_split_1 -> m1_1
I0122 01:36:59.830922 27435 net.cpp:412] tracker_m_split_1 -> m2_1
I0122 01:36:59.830952 27435 net.cpp:151] Setting up tracker_m_split_1
I0122 01:36:59.830958 27435 net.cpp:158] Top shape: 1 1 1800 (1800)
I0122 01:36:59.830962 27435 net.cpp:158] Top shape: 1 1 1800 (1800)
I0122 01:36:59.830965 27435 net.cpp:166] Memory required for data: 206216876
I0122 01:36:59.830970 27435 layer_factory.hpp:76] Creating layer tracker_concat_s_elemens_1
I0122 01:36:59.830974 27435 net.cpp:107] Creating Layer tracker_concat_s_elemens_1
I0122 01:36:59.830978 27435 net.cpp:455] tracker_concat_s_elemens_1 <- m2_1
I0122 01:36:59.830982 27435 net.cpp:455] tracker_concat_s_elemens_1 <- s2_cont_0
I0122 01:36:59.830989 27435 net.cpp:412] tracker_concat_s_elemens_1 -> s_elem_1
I0122 01:36:59.831008 27435 net.cpp:151] Setting up tracker_concat_s_elemens_1
I0122 01:36:59.831015 27435 net.cpp:158] Top shape: 1 1 1801 (1801)
I0122 01:36:59.831018 27435 net.cpp:166] Memory required for data: 206224080
I0122 01:36:59.831022 27435 layer_factory.hpp:76] Creating layer tracker_sum_s_elemens_1
I0122 01:36:59.831027 27435 net.cpp:107] Creating Layer tracker_sum_s_elemens_1
I0122 01:36:59.831030 27435 net.cpp:455] tracker_sum_s_elemens_1 <- s_elem_1
I0122 01:36:59.831035 27435 net.cpp:412] tracker_sum_s_elemens_1 -> ns_1
I0122 01:36:59.831065 27435 net.cpp:151] Setting up tracker_sum_s_elemens_1
I0122 01:36:59.831070 27435 net.cpp:158] Top shape: (1)
I0122 01:36:59.831073 27435 net.cpp:166] Memory required for data: 206224084
I0122 01:36:59.831076 27435 layer_factory.hpp:76] Creating layer tracker_s_reshape_1
I0122 01:36:59.831082 27435 net.cpp:107] Creating Layer tracker_s_reshape_1
I0122 01:36:59.831085 27435 net.cpp:455] tracker_s_reshape_1 <- ns_1
I0122 01:36:59.831092 27435 net.cpp:412] tracker_s_reshape_1 -> s_1
I0122 01:36:59.831111 27435 net.cpp:151] Setting up tracker_s_reshape_1
I0122 01:36:59.831122 27435 net.cpp:158] Top shape: 1 1 1 (1)
I0122 01:36:59.831126 27435 net.cpp:166] Memory required for data: 206224088
I0122 01:36:59.831130 27435 layer_factory.hpp:76] Creating layer tracker_mx_1
I0122 01:36:59.831135 27435 net.cpp:107] Creating Layer tracker_mx_1
I0122 01:36:59.831138 27435 net.cpp:455] tracker_mx_1 <- m1_1
I0122 01:36:59.831142 27435 net.cpp:455] tracker_mx_1 <- x2_1
I0122 01:36:59.831148 27435 net.cpp:412] tracker_mx_1 -> mx_1
I0122 01:36:59.831168 27435 net.cpp:151] Setting up tracker_mx_1
I0122 01:36:59.831174 27435 net.cpp:158] Top shape: 1 1 1800 256 (460800)
I0122 01:36:59.831177 27435 net.cpp:166] Memory required for data: 208067288
I0122 01:36:59.831181 27435 layer_factory.hpp:76] Creating layer tracker_mx_split_1
I0122 01:36:59.831187 27435 net.cpp:107] Creating Layer tracker_mx_split_1
I0122 01:36:59.831190 27435 net.cpp:455] tracker_mx_split_1 <- mx_1
I0122 01:36:59.831195 27435 net.cpp:412] tracker_mx_split_1 -> mx1_1
I0122 01:36:59.831202 27435 net.cpp:412] tracker_mx_split_1 -> mx2_1
I0122 01:36:59.831228 27435 net.cpp:151] Setting up tracker_mx_split_1
I0122 01:36:59.831233 27435 net.cpp:158] Top shape: 1 1 1800 256 (460800)
I0122 01:36:59.831238 27435 net.cpp:158] Top shape: 1 1 1800 256 (460800)
I0122 01:36:59.831240 27435 net.cpp:166] Memory required for data: 211753688
I0122 01:36:59.831244 27435 layer_factory.hpp:76] Creating layer tracker_xmx_1
I0122 01:36:59.831248 27435 net.cpp:107] Creating Layer tracker_xmx_1
I0122 01:36:59.831253 27435 net.cpp:455] tracker_xmx_1 <- x3_1
I0122 01:36:59.831257 27435 net.cpp:455] tracker_xmx_1 <- mx1_1
I0122 01:36:59.831264 27435 net.cpp:412] tracker_xmx_1 -> xmx_1
I0122 01:36:59.831282 27435 net.cpp:151] Setting up tracker_xmx_1
I0122 01:36:59.831287 27435 net.cpp:158] Top shape: 1 1 256 256 (65536)
I0122 01:36:59.831290 27435 net.cpp:166] Memory required for data: 212015832
I0122 01:36:59.831295 27435 layer_factory.hpp:76] Creating layer tracker_h_cont_0
I0122 01:36:59.831298 27435 net.cpp:107] Creating Layer tracker_h_cont_0
I0122 01:36:59.831302 27435 net.cpp:455] tracker_h_cont_0 <- h2_0
I0122 01:36:59.831307 27435 net.cpp:455] tracker_h_cont_0 <- cont2_1
I0122 01:36:59.831312 27435 net.cpp:412] tracker_h_cont_0 -> h_cont_0
I0122 01:36:59.831379 27435 net.cpp:151] Setting up tracker_h_cont_0
I0122 01:36:59.831385 27435 net.cpp:158] Top shape: 1 1 256 256 (65536)
I0122 01:36:59.831388 27435 net.cpp:166] Memory required for data: 212277976
I0122 01:36:59.831393 27435 layer_factory.hpp:76] Creating layer tracker_h_1
I0122 01:36:59.831400 27435 net.cpp:107] Creating Layer tracker_h_1
I0122 01:36:59.831406 27435 net.cpp:455] tracker_h_1 <- h_cont_0
I0122 01:36:59.831411 27435 net.cpp:455] tracker_h_1 <- xmx_1
I0122 01:36:59.831416 27435 net.cpp:412] tracker_h_1 -> h_1
I0122 01:36:59.831437 27435 net.cpp:151] Setting up tracker_h_1
I0122 01:36:59.831442 27435 net.cpp:158] Top shape: 1 1 256 256 (65536)
I0122 01:36:59.831445 27435 net.cpp:166] Memory required for data: 212540120
I0122 01:36:59.831449 27435 layer_factory.hpp:76] Creating layer tracker_vmx_1
I0122 01:36:59.831454 27435 net.cpp:107] Creating Layer tracker_vmx_1
I0122 01:36:59.831457 27435 net.cpp:455] tracker_vmx_1 <- v2_1
I0122 01:36:59.831461 27435 net.cpp:455] tracker_vmx_1 <- mx2_1
I0122 01:36:59.831468 27435 net.cpp:412] tracker_vmx_1 -> vmx_1
I0122 01:36:59.831487 27435 net.cpp:151] Setting up tracker_vmx_1
I0122 01:36:59.831492 27435 net.cpp:158] Top shape: 1 1 1800 256 (460800)
I0122 01:36:59.831496 27435 net.cpp:166] Memory required for data: 214383320
I0122 01:36:59.831500 27435 layer_factory.hpp:76] Creating layer tracker_c_cont_0
I0122 01:36:59.831504 27435 net.cpp:107] Creating Layer tracker_c_cont_0
I0122 01:36:59.831507 27435 net.cpp:455] tracker_c_cont_0 <- c2_0
I0122 01:36:59.831512 27435 net.cpp:455] tracker_c_cont_0 <- cont3_1
I0122 01:36:59.831517 27435 net.cpp:412] tracker_c_cont_0 -> c_cont_0
I0122 01:36:59.832162 27435 net.cpp:151] Setting up tracker_c_cont_0
I0122 01:36:59.832171 27435 net.cpp:158] Top shape: 1 1 1800 256 (460800)
I0122 01:36:59.832181 27435 net.cpp:166] Memory required for data: 216226520
I0122 01:36:59.832185 27435 layer_factory.hpp:76] Creating layer tracker_c_1
I0122 01:36:59.832193 27435 net.cpp:107] Creating Layer tracker_c_1
I0122 01:36:59.832197 27435 net.cpp:455] tracker_c_1 <- c_cont_0
I0122 01:36:59.832202 27435 net.cpp:455] tracker_c_1 <- vmx_1
I0122 01:36:59.832208 27435 net.cpp:412] tracker_c_1 -> c_1
I0122 01:36:59.832231 27435 net.cpp:151] Setting up tracker_c_1
I0122 01:36:59.832237 27435 net.cpp:158] Top shape: 1 1 1800 256 (460800)
I0122 01:36:59.832239 27435 net.cpp:166] Memory required for data: 218069720
I0122 01:36:59.832242 27435 layer_factory.hpp:76] Creating layer tracker_overlaps_split_2
I0122 01:36:59.832247 27435 net.cpp:107] Creating Layer tracker_overlaps_split_2
I0122 01:36:59.832252 27435 net.cpp:455] tracker_overlaps_split_2 <- overlaps_2
I0122 01:36:59.832258 27435 net.cpp:412] tracker_overlaps_split_2 -> overlaps1_2
I0122 01:36:59.832269 27435 net.cpp:412] tracker_overlaps_split_2 -> overlaps2_2
I0122 01:36:59.832298 27435 net.cpp:151] Setting up tracker_overlaps_split_2
I0122 01:36:59.832304 27435 net.cpp:158] Top shape: 1 1 1800 1800 (3240000)
I0122 01:36:59.832309 27435 net.cpp:158] Top shape: 1 1 1800 1800 (3240000)
I0122 01:36:59.832312 27435 net.cpp:166] Memory required for data: 243989720
I0122 01:36:59.832316 27435 layer_factory.hpp:76] Creating layer tracker_x_split_2
I0122 01:36:59.832321 27435 net.cpp:107] Creating Layer tracker_x_split_2
I0122 01:36:59.832324 27435 net.cpp:455] tracker_x_split_2 <- x_2_tracker_x_slice_1_split_0
I0122 01:36:59.832330 27435 net.cpp:412] tracker_x_split_2 -> x1_2
I0122 01:36:59.832339 27435 net.cpp:412] tracker_x_split_2 -> x2_2
I0122 01:36:59.832345 27435 net.cpp:412] tracker_x_split_2 -> x3_2
I0122 01:36:59.832352 27435 net.cpp:412] tracker_x_split_2 -> x4_2
I0122 01:36:59.832393 27435 net.cpp:151] Setting up tracker_x_split_2
I0122 01:36:59.832398 27435 net.cpp:158] Top shape: 1 1 1800 256 (460800)
I0122 01:36:59.832403 27435 net.cpp:158] Top shape: 1 1 1800 256 (460800)
I0122 01:36:59.832407 27435 net.cpp:158] Top shape: 1 1 1800 256 (460800)
I0122 01:36:59.832412 27435 net.cpp:158] Top shape: 1 1 1800 256 (460800)
I0122 01:36:59.832415 27435 net.cpp:166] Memory required for data: 251362520
I0122 01:36:59.832418 27435 layer_factory.hpp:76] Creating layer tracker_cont_split_2
I0122 01:36:59.832424 27435 net.cpp:107] Creating Layer tracker_cont_split_2
I0122 01:36:59.832428 27435 net.cpp:455] tracker_cont_split_2 <- cont_2
I0122 01:36:59.832433 27435 net.cpp:412] tracker_cont_split_2 -> cont1_2
I0122 01:36:59.832440 27435 net.cpp:412] tracker_cont_split_2 -> cont2_2
I0122 01:36:59.832448 27435 net.cpp:412] tracker_cont_split_2 -> cont3_2
I0122 01:36:59.832455 27435 net.cpp:412] tracker_cont_split_2 -> cont4_2
I0122 01:36:59.832496 27435 net.cpp:151] Setting up tracker_cont_split_2
I0122 01:36:59.832502 27435 net.cpp:158] Top shape: 1 1 (1)
I0122 01:36:59.832506 27435 net.cpp:158] Top shape: 1 1 (1)
I0122 01:36:59.832510 27435 net.cpp:158] Top shape: 1 1 (1)
I0122 01:36:59.832515 27435 net.cpp:158] Top shape: 1 1 (1)
I0122 01:36:59.832518 27435 net.cpp:166] Memory required for data: 251362536
I0122 01:36:59.832521 27435 layer_factory.hpp:76] Creating layer tracker_h_split_1
I0122 01:36:59.832525 27435 net.cpp:107] Creating Layer tracker_h_split_1
I0122 01:36:59.832530 27435 net.cpp:455] tracker_h_split_1 <- h_1
I0122 01:36:59.832535 27435 net.cpp:412] tracker_h_split_1 -> h1_1
I0122 01:36:59.832541 27435 net.cpp:412] tracker_h_split_1 -> h2_1
I0122 01:36:59.832567 27435 net.cpp:151] Setting up tracker_h_split_1
I0122 01:36:59.832572 27435 net.cpp:158] Top shape: 1 1 256 256 (65536)
I0122 01:36:59.832577 27435 net.cpp:158] Top shape: 1 1 256 256 (65536)
I0122 01:36:59.832581 27435 net.cpp:166] Memory required for data: 251886824
I0122 01:36:59.832584 27435 layer_factory.hpp:76] Creating layer tracker_c_split_1
I0122 01:36:59.832588 27435 net.cpp:107] Creating Layer tracker_c_split_1
I0122 01:36:59.832592 27435 net.cpp:455] tracker_c_split_1 <- c_1
I0122 01:36:59.832597 27435 net.cpp:412] tracker_c_split_1 -> c1_1
I0122 01:36:59.832610 27435 net.cpp:412] tracker_c_split_1 -> c2_1
I0122 01:36:59.832636 27435 net.cpp:151] Setting up tracker_c_split_1
I0122 01:36:59.832641 27435 net.cpp:158] Top shape: 1 1 1800 256 (460800)
I0122 01:36:59.832645 27435 net.cpp:158] Top shape: 1 1 1800 256 (460800)
I0122 01:36:59.832649 27435 net.cpp:166] Memory required for data: 255573224
I0122 01:36:59.832653 27435 layer_factory.hpp:76] Creating layer tracker_s_cont_1
I0122 01:36:59.832659 27435 net.cpp:107] Creating Layer tracker_s_cont_1
I0122 01:36:59.832662 27435 net.cpp:455] tracker_s_cont_1 <- s_1
I0122 01:36:59.832667 27435 net.cpp:455] tracker_s_cont_1 <- cont4_2
I0122 01:36:59.832672 27435 net.cpp:412] tracker_s_cont_1 -> s_cont_1
I0122 01:36:59.832713 27435 net.cpp:151] Setting up tracker_s_cont_1
I0122 01:36:59.832720 27435 net.cpp:158] Top shape: 1 1 1 (1)
I0122 01:36:59.832722 27435 net.cpp:166] Memory required for data: 255573228
I0122 01:36:59.832726 27435 layer_factory.hpp:76] Creating layer tracker_s_cont_split_1
I0122 01:36:59.832731 27435 net.cpp:107] Creating Layer tracker_s_cont_split_1
I0122 01:36:59.832736 27435 net.cpp:455] tracker_s_cont_split_1 <- s_cont_1
I0122 01:36:59.832741 27435 net.cpp:412] tracker_s_cont_split_1 -> s1_cont_1
I0122 01:36:59.832746 27435 net.cpp:412] tracker_s_cont_split_1 -> s2_cont_1
I0122 01:36:59.832772 27435 net.cpp:151] Setting up tracker_s_cont_split_1
I0122 01:36:59.832777 27435 net.cpp:158] Top shape: 1 1 1 (1)
I0122 01:36:59.832782 27435 net.cpp:158] Top shape: 1 1 1 (1)
I0122 01:36:59.832785 27435 net.cpp:166] Memory required for data: 255573236
I0122 01:36:59.832788 27435 layer_factory.hpp:76] Creating layer tracker_hm1_1
I0122 01:36:59.832795 27435 net.cpp:107] Creating Layer tracker_hm1_1
I0122 01:36:59.832799 27435 net.cpp:455] tracker_hm1_1 <- h1_1
I0122 01:36:59.832803 27435 net.cpp:455] tracker_hm1_1 <- s1_cont_1
I0122 01:36:59.832808 27435 net.cpp:412] tracker_hm1_1 -> hm1_1
I0122 01:36:59.832835 27435 net.cpp:151] Setting up tracker_hm1_1
I0122 01:36:59.832841 27435 net.cpp:158] Top shape: 1 1 256 256 (65536)
I0122 01:36:59.832844 27435 net.cpp:166] Memory required for data: 255835380
I0122 01:36:59.832847 27435 layer_factory.hpp:76] Creating layer tracker_w_1
I0122 01:36:59.832852 27435 net.cpp:107] Creating Layer tracker_w_1
I0122 01:36:59.832855 27435 net.cpp:455] tracker_w_1 <- c1_1
I0122 01:36:59.832860 27435 net.cpp:455] tracker_w_1 <- hm1_1
I0122 01:36:59.832867 27435 net.cpp:412] tracker_w_1 -> w_1
I0122 01:36:59.832885 27435 net.cpp:151] Setting up tracker_w_1
I0122 01:36:59.832890 27435 net.cpp:158] Top shape: 1 1 1800 256 (460800)
I0122 01:36:59.832893 27435 net.cpp:166] Memory required for data: 257678580
I0122 01:36:59.832897 27435 layer_factory.hpp:76] Creating layer tracker_v_2
I0122 01:36:59.832901 27435 net.cpp:107] Creating Layer tracker_v_2
I0122 01:36:59.832906 27435 net.cpp:455] tracker_v_2 <- w_1
I0122 01:36:59.832911 27435 net.cpp:455] tracker_v_2 <- x_2_tracker_x_slice_1_split_1
I0122 01:36:59.832916 27435 net.cpp:412] tracker_v_2 -> v_2
I0122 01:36:59.832936 27435 net.cpp:151] Setting up tracker_v_2
I0122 01:36:59.832940 27435 net.cpp:158] Top shape: 1 1 1800 1800 (3240000)
I0122 01:36:59.832943 27435 net.cpp:166] Memory required for data: 270638580
I0122 01:36:59.832947 27435 layer_factory.hpp:76] Creating layer tracker_rename_overlaps_2
I0122 01:36:59.832952 27435 net.cpp:107] Creating Layer tracker_rename_overlaps_2
I0122 01:36:59.832955 27435 net.cpp:455] tracker_rename_overlaps_2 <- overlaps1_2
I0122 01:36:59.832960 27435 net.cpp:412] tracker_rename_overlaps_2 -> s_overlaps_2
I0122 01:36:59.832979 27435 net.cpp:151] Setting up tracker_rename_overlaps_2
I0122 01:36:59.832984 27435 net.cpp:158] Top shape: 1 1 1800 1800 (3240000)
I0122 01:36:59.832988 27435 net.cpp:166] Memory required for data: 283598580
I0122 01:36:59.832991 27435 layer_factory.hpp:76] Creating layer tracker_v_cont_2
I0122 01:36:59.832996 27435 net.cpp:107] Creating Layer tracker_v_cont_2
I0122 01:36:59.833000 27435 net.cpp:455] tracker_v_cont_2 <- s_overlaps_2
I0122 01:36:59.833009 27435 net.cpp:455] tracker_v_cont_2 <- v_2
I0122 01:36:59.833014 27435 net.cpp:455] tracker_v_cont_2 <- cont1_2
I0122 01:36:59.833019 27435 net.cpp:412] tracker_v_cont_2 -> v_cont_2
I0122 01:36:59.833039 27435 net.cpp:151] Setting up tracker_v_cont_2
I0122 01:36:59.833044 27435 net.cpp:158] Top shape: 1 1 1800 1800 (3240000)
I0122 01:36:59.833047 27435 net.cpp:166] Memory required for data: 296558580
I0122 01:36:59.833050 27435 layer_factory.hpp:76] Creating layer tracker_v_split_2
I0122 01:36:59.833056 27435 net.cpp:107] Creating Layer tracker_v_split_2
I0122 01:36:59.833060 27435 net.cpp:455] tracker_v_split_2 <- v_cont_2
I0122 01:36:59.833065 27435 net.cpp:412] tracker_v_split_2 -> v1_2
I0122 01:36:59.833072 27435 net.cpp:412] tracker_v_split_2 -> v3_2
I0122 01:36:59.833078 27435 net.cpp:412] tracker_v_split_2 -> v4_2
I0122 01:36:59.833086 27435 net.cpp:412] tracker_v_split_2 -> v2_2
I0122 01:36:59.833127 27435 net.cpp:151] Setting up tracker_v_split_2
I0122 01:36:59.833132 27435 net.cpp:158] Top shape: 1 1 1800 1800 (3240000)
I0122 01:36:59.833137 27435 net.cpp:158] Top shape: 1 1 1800 1800 (3240000)
I0122 01:36:59.833142 27435 net.cpp:158] Top shape: 1 1 1800 1800 (3240000)
I0122 01:36:59.833145 27435 net.cpp:158] Top shape: 1 1 1800 1800 (3240000)
I0122 01:36:59.833148 27435 net.cpp:166] Memory required for data: 348398580
I0122 01:36:59.833153 27435 layer_factory.hpp:76] Creating layer tracker_vtilde_2
I0122 01:36:59.833158 27435 net.cpp:107] Creating Layer tracker_vtilde_2
I0122 01:36:59.833160 27435 net.cpp:455] tracker_vtilde_2 <- v4_2
I0122 01:36:59.833165 27435 net.cpp:455] tracker_vtilde_2 <- overlaps2_2
I0122 01:36:59.833169 27435 net.cpp:455] tracker_vtilde_2 <- nseg_2
I0122 01:36:59.833174 27435 net.cpp:412] tracker_vtilde_2 -> vtilde_2
I0122 01:36:59.833202 27435 net.cpp:151] Setting up tracker_vtilde_2
I0122 01:36:59.833209 27435 net.cpp:158] Top shape: 1 1 1800 1800 (3240000)
I0122 01:36:59.833211 27435 net.cpp:166] Memory required for data: 361358580
I0122 01:36:59.833214 27435 layer_factory.hpp:76] Creating layer tracker_vtilde_split_2
I0122 01:36:59.833220 27435 net.cpp:107] Creating Layer tracker_vtilde_split_2
I0122 01:36:59.833222 27435 net.cpp:455] tracker_vtilde_split_2 <- vtilde_2
I0122 01:36:59.833227 27435 net.cpp:412] tracker_vtilde_split_2 -> vtilde1_2
I0122 01:36:59.833248 27435 net.cpp:151] Setting up tracker_vtilde_split_2
I0122 01:36:59.833253 27435 net.cpp:158] Top shape: 1 1 1800 1800 (3240000)
I0122 01:36:59.833256 27435 net.cpp:166] Memory required for data: 374318580
I0122 01:36:59.833261 27435 layer_factory.hpp:76] Creating layer tracker_reshape1_2
I0122 01:36:59.833266 27435 net.cpp:107] Creating Layer tracker_reshape1_2
I0122 01:36:59.833269 27435 net.cpp:455] tracker_reshape1_2 <- v1_2
I0122 01:36:59.833274 27435 net.cpp:412] tracker_reshape1_2 -> vr_2
I0122 01:36:59.833293 27435 net.cpp:151] Setting up tracker_reshape1_2
I0122 01:36:59.833299 27435 net.cpp:158] Top shape: 1 1 1800 1800 (3240000)
I0122 01:36:59.833302 27435 net.cpp:166] Memory required for data: 387278580
I0122 01:36:59.833305 27435 layer_factory.hpp:76] Creating layer tracker_max_2
I0122 01:36:59.833312 27435 net.cpp:107] Creating Layer tracker_max_2
I0122 01:36:59.833315 27435 net.cpp:455] tracker_max_2 <- vr_2
I0122 01:36:59.833320 27435 net.cpp:412] tracker_max_2 -> mr_2
I0122 01:36:59.833560 27435 net.cpp:151] Setting up tracker_max_2
I0122 01:36:59.833569 27435 net.cpp:158] Top shape: 1 1 1 1800 (1800)
I0122 01:36:59.833571 27435 net.cpp:166] Memory required for data: 387285780
I0122 01:36:59.833575 27435 layer_factory.hpp:76] Creating layer tracker_reshape2_2
I0122 01:36:59.833582 27435 net.cpp:107] Creating Layer tracker_reshape2_2
I0122 01:36:59.833585 27435 net.cpp:455] tracker_reshape2_2 <- mr_2
I0122 01:36:59.833591 27435 net.cpp:412] tracker_reshape2_2 -> m_2
I0122 01:36:59.833613 27435 net.cpp:151] Setting up tracker_reshape2_2
I0122 01:36:59.833618 27435 net.cpp:158] Top shape: 1 1 1800 (1800)
I0122 01:36:59.833621 27435 net.cpp:166] Memory required for data: 387292980
I0122 01:36:59.833631 27435 layer_factory.hpp:76] Creating layer tracker_m_split_2
I0122 01:36:59.833636 27435 net.cpp:107] Creating Layer tracker_m_split_2
I0122 01:36:59.833641 27435 net.cpp:455] tracker_m_split_2 <- m_2
I0122 01:36:59.833647 27435 net.cpp:412] tracker_m_split_2 -> m1_2
I0122 01:36:59.833653 27435 net.cpp:412] tracker_m_split_2 -> m2_2
I0122 01:36:59.833681 27435 net.cpp:151] Setting up tracker_m_split_2
I0122 01:36:59.833688 27435 net.cpp:158] Top shape: 1 1 1800 (1800)
I0122 01:36:59.833693 27435 net.cpp:158] Top shape: 1 1 1800 (1800)
I0122 01:36:59.833696 27435 net.cpp:166] Memory required for data: 387307380
I0122 01:36:59.833700 27435 layer_factory.hpp:76] Creating layer tracker_concat_s_elemens_2
I0122 01:36:59.833705 27435 net.cpp:107] Creating Layer tracker_concat_s_elemens_2
I0122 01:36:59.833709 27435 net.cpp:455] tracker_concat_s_elemens_2 <- m2_2
I0122 01:36:59.833714 27435 net.cpp:455] tracker_concat_s_elemens_2 <- s2_cont_1
I0122 01:36:59.833719 27435 net.cpp:412] tracker_concat_s_elemens_2 -> s_elem_2
I0122 01:36:59.833739 27435 net.cpp:151] Setting up tracker_concat_s_elemens_2
I0122 01:36:59.833745 27435 net.cpp:158] Top shape: 1 1 1801 (1801)
I0122 01:36:59.833747 27435 net.cpp:166] Memory required for data: 387314584
I0122 01:36:59.833750 27435 layer_factory.hpp:76] Creating layer tracker_sum_s_elemens_2
I0122 01:36:59.833757 27435 net.cpp:107] Creating Layer tracker_sum_s_elemens_2
I0122 01:36:59.833761 27435 net.cpp:455] tracker_sum_s_elemens_2 <- s_elem_2
I0122 01:36:59.833766 27435 net.cpp:412] tracker_sum_s_elemens_2 -> ns_2
I0122 01:36:59.833797 27435 net.cpp:151] Setting up tracker_sum_s_elemens_2
I0122 01:36:59.833803 27435 net.cpp:158] Top shape: (1)
I0122 01:36:59.833806 27435 net.cpp:166] Memory required for data: 387314588
I0122 01:36:59.833809 27435 layer_factory.hpp:76] Creating layer tracker_s_reshape_2
I0122 01:36:59.833814 27435 net.cpp:107] Creating Layer tracker_s_reshape_2
I0122 01:36:59.833818 27435 net.cpp:455] tracker_s_reshape_2 <- ns_2
I0122 01:36:59.833825 27435 net.cpp:412] tracker_s_reshape_2 -> s_2
I0122 01:36:59.833844 27435 net.cpp:151] Setting up tracker_s_reshape_2
I0122 01:36:59.833849 27435 net.cpp:158] Top shape: 1 1 1 (1)
I0122 01:36:59.833853 27435 net.cpp:166] Memory required for data: 387314592
I0122 01:36:59.833855 27435 layer_factory.hpp:76] Creating layer tracker_mx_2
I0122 01:36:59.833863 27435 net.cpp:107] Creating Layer tracker_mx_2
I0122 01:36:59.833866 27435 net.cpp:455] tracker_mx_2 <- m1_2
I0122 01:36:59.833871 27435 net.cpp:455] tracker_mx_2 <- x2_2
I0122 01:36:59.833876 27435 net.cpp:412] tracker_mx_2 -> mx_2
I0122 01:36:59.833896 27435 net.cpp:151] Setting up tracker_mx_2
I0122 01:36:59.833902 27435 net.cpp:158] Top shape: 1 1 1800 256 (460800)
I0122 01:36:59.833906 27435 net.cpp:166] Memory required for data: 389157792
I0122 01:36:59.833909 27435 layer_factory.hpp:76] Creating layer tracker_mx_split_2
I0122 01:36:59.833914 27435 net.cpp:107] Creating Layer tracker_mx_split_2
I0122 01:36:59.833917 27435 net.cpp:455] tracker_mx_split_2 <- mx_2
I0122 01:36:59.833925 27435 net.cpp:412] tracker_mx_split_2 -> mx1_2
I0122 01:36:59.833930 27435 net.cpp:412] tracker_mx_split_2 -> mx2_2
I0122 01:36:59.833956 27435 net.cpp:151] Setting up tracker_mx_split_2
I0122 01:36:59.833962 27435 net.cpp:158] Top shape: 1 1 1800 256 (460800)
I0122 01:36:59.833967 27435 net.cpp:158] Top shape: 1 1 1800 256 (460800)
I0122 01:36:59.833971 27435 net.cpp:166] Memory required for data: 392844192
I0122 01:36:59.833973 27435 layer_factory.hpp:76] Creating layer tracker_xmx_2
I0122 01:36:59.833978 27435 net.cpp:107] Creating Layer tracker_xmx_2
I0122 01:36:59.833982 27435 net.cpp:455] tracker_xmx_2 <- x3_2
I0122 01:36:59.833986 27435 net.cpp:455] tracker_xmx_2 <- mx1_2
I0122 01:36:59.833992 27435 net.cpp:412] tracker_xmx_2 -> xmx_2
I0122 01:36:59.834012 27435 net.cpp:151] Setting up tracker_xmx_2
I0122 01:36:59.834017 27435 net.cpp:158] Top shape: 1 1 256 256 (65536)
I0122 01:36:59.834020 27435 net.cpp:166] Memory required for data: 393106336
I0122 01:36:59.834028 27435 layer_factory.hpp:76] Creating layer tracker_h_cont_1
I0122 01:36:59.834033 27435 net.cpp:107] Creating Layer tracker_h_cont_1
I0122 01:36:59.834038 27435 net.cpp:455] tracker_h_cont_1 <- h2_1
I0122 01:36:59.834043 27435 net.cpp:455] tracker_h_cont_1 <- cont2_2
I0122 01:36:59.834048 27435 net.cpp:412] tracker_h_cont_1 -> h_cont_1
I0122 01:36:59.834110 27435 net.cpp:151] Setting up tracker_h_cont_1
I0122 01:36:59.834115 27435 net.cpp:158] Top shape: 1 1 256 256 (65536)
I0122 01:36:59.834120 27435 net.cpp:166] Memory required for data: 393368480
I0122 01:36:59.834122 27435 layer_factory.hpp:76] Creating layer tracker_h_2
I0122 01:36:59.834127 27435 net.cpp:107] Creating Layer tracker_h_2
I0122 01:36:59.834131 27435 net.cpp:455] tracker_h_2 <- h_cont_1
I0122 01:36:59.834136 27435 net.cpp:455] tracker_h_2 <- xmx_2
I0122 01:36:59.834141 27435 net.cpp:412] tracker_h_2 -> h_2
I0122 01:36:59.834162 27435 net.cpp:151] Setting up tracker_h_2
I0122 01:36:59.834170 27435 net.cpp:158] Top shape: 1 1 256 256 (65536)
I0122 01:36:59.834174 27435 net.cpp:166] Memory required for data: 393630624
I0122 01:36:59.834177 27435 layer_factory.hpp:76] Creating layer tracker_vmx_2
I0122 01:36:59.834182 27435 net.cpp:107] Creating Layer tracker_vmx_2
I0122 01:36:59.834185 27435 net.cpp:455] tracker_vmx_2 <- v2_2
I0122 01:36:59.834190 27435 net.cpp:455] tracker_vmx_2 <- mx2_2
I0122 01:36:59.834195 27435 net.cpp:412] tracker_vmx_2 -> vmx_2
I0122 01:36:59.834214 27435 net.cpp:151] Setting up tracker_vmx_2
I0122 01:36:59.834221 27435 net.cpp:158] Top shape: 1 1 1800 256 (460800)
I0122 01:36:59.834225 27435 net.cpp:166] Memory required for data: 395473824
I0122 01:36:59.834228 27435 layer_factory.hpp:76] Creating layer tracker_c_cont_1
I0122 01:36:59.834238 27435 net.cpp:107] Creating Layer tracker_c_cont_1
I0122 01:36:59.834241 27435 net.cpp:455] tracker_c_cont_1 <- c2_1
I0122 01:36:59.834245 27435 net.cpp:455] tracker_c_cont_1 <- cont3_2
I0122 01:36:59.834251 27435 net.cpp:412] tracker_c_cont_1 -> c_cont_1
I0122 01:36:59.834794 27435 net.cpp:151] Setting up tracker_c_cont_1
I0122 01:36:59.834802 27435 net.cpp:158] Top shape: 1 1 1800 256 (460800)
I0122 01:36:59.834806 27435 net.cpp:166] Memory required for data: 397317024
I0122 01:36:59.834810 27435 layer_factory.hpp:76] Creating layer tracker_c_2
I0122 01:36:59.834817 27435 net.cpp:107] Creating Layer tracker_c_2
I0122 01:36:59.834821 27435 net.cpp:455] tracker_c_2 <- c_cont_1
I0122 01:36:59.834826 27435 net.cpp:455] tracker_c_2 <- vmx_2
I0122 01:36:59.834831 27435 net.cpp:412] tracker_c_2 -> c_2
I0122 01:36:59.834853 27435 net.cpp:151] Setting up tracker_c_2
I0122 01:36:59.834859 27435 net.cpp:158] Top shape: 1 1 1800 256 (460800)
I0122 01:36:59.834862 27435 net.cpp:166] Memory required for data: 399160224
I0122 01:36:59.834866 27435 layer_factory.hpp:76] Creating layer tracker_v_concat
I0122 01:36:59.834872 27435 net.cpp:107] Creating Layer tracker_v_concat
I0122 01:36:59.834874 27435 net.cpp:455] tracker_v_concat <- v3_1
I0122 01:36:59.834879 27435 net.cpp:455] tracker_v_concat <- v3_2
I0122 01:36:59.834887 27435 net.cpp:412] tracker_v_concat -> v
I0122 01:36:59.834906 27435 net.cpp:151] Setting up tracker_v_concat
I0122 01:36:59.834911 27435 net.cpp:158] Top shape: 2 1 1800 1800 (6480000)
I0122 01:36:59.834914 27435 net.cpp:166] Memory required for data: 425080224
I0122 01:36:59.834918 27435 layer_factory.hpp:76] Creating layer tracker_vtilde_concat
I0122 01:36:59.834923 27435 net.cpp:107] Creating Layer tracker_vtilde_concat
I0122 01:36:59.834926 27435 net.cpp:455] tracker_vtilde_concat <- vtilde1_1
I0122 01:36:59.834931 27435 net.cpp:455] tracker_vtilde_concat <- vtilde1_2
I0122 01:36:59.834936 27435 net.cpp:412] tracker_vtilde_concat -> vtilde
I0122 01:36:59.834959 27435 net.cpp:151] Setting up tracker_vtilde_concat
I0122 01:36:59.834964 27435 net.cpp:158] Top shape: 2 1 1800 1800 (6480000)
I0122 01:36:59.834967 27435 net.cpp:166] Memory required for data: 451000224
I0122 01:36:59.834970 27435 net.cpp:229] tracker_vtilde_concat does not need backward computation.
I0122 01:36:59.834981 27435 net.cpp:229] tracker_v_concat does not need backward computation.
I0122 01:36:59.834985 27435 net.cpp:229] tracker_c_2 does not need backward computation.
I0122 01:36:59.834990 27435 net.cpp:229] tracker_c_cont_1 does not need backward computation.
…
    mean_value: 122.67892
  }
  image_data_param {
    source: "./tracker_model/data/SegTrackv2_hdf5_t4/images.txt"
    batch_size: 4
    shuffle: false
  }
}
layer {
  name: "data"
  type: "HDF5Data"
  top: "cont"
  top: "mask_size"
  top: "spixel_data"
  top: "spixel_ptr"
  top: "spixel_num"
  top: "seg_data"
  top: "seg_ptr"
  top: "seg_num"
  top: "seg_coef"
  top: "overlaps"
  top: "gt_num"
  top: "gt_overlaps"
  include {
    phase: TEST
  }
  hdf5_data_param {
    source: "./tracker_model/data/SegTrackv2_hdf5_t4/seq_data.txt"
    batch_size: 4
  }
}
layer {
  name: "silent_ilabel"
  type: "Silence"
  bottom: "ilabel"
}
layer {
  name: "conv1"
  type: "Convolution"
  bottom: "image"
  top: "conv1"
  param {
    lr_mult: 1
    decay_mult: 1
  }
  param {
    lr_mult: 2
    decay_mult: 0
  }
  convolution_param {
    num_output: 96
    pad: 100
    kernel_size: 11
    stride: 4
    weight_filler {
      type: "gaussian"
      std: 0.01
    }
    bias_filler {
      type: "constant"
      value: 0
    }
  }
}
layer {
  name: "relu1"
  type: "ReLU"
  bottom: "conv1"
  top: "conv1"
}
layer {
  name: "pool1"
  type: "Pooling"
  bottom: "conv1"
  top: "pool1"
  pooling_param {
    pool: AVE
    kernel_size: 3
    stride: 2
  }
}
layer {
  name: "norm1"
  type: "LRN"
  bottom: "pool1"
  top: "norm1"
  lrn_param {
    local_size: 5
    alpha: 0.0001
    beta: 0.75
  }
}
layer {
  name: "conv2"
  type: "Convolution"
  bottom: "norm1"
  top: "conv2"
  param {
    lr_mult: 1
    decay_mult: 1
  }
  param {
    lr_mult: 2
    decay_mult: 0
  }
  convolution_param {
    num_output: 256
    pad: 2
    kernel_size: 5
    group: 2
    weight_filler {
      type: "gaussian"
      std: 0.01
    }
    bias_filler {
      type: "constant"
      value: 1
    }
  }
}
layer {
  name: "relu2"
  type: "ReLU"
  bottom: "conv2"
  top: "conv2"
}
layer {
  name: "pool2"
  type: "Pooling"
  bottom: "conv2"
  top: "pool2"
  pooling_param {
    pool: AVE
    kernel_size: 3
    stride: 2
  }
}
layer {
  name: "norm2"
  type: "LRN"
  bottom: "pool2"
  top: "norm2"
  lrn_param {
    local_size: 5
    alpha: 0.0001
    beta: 0.75
  }
}
layer {
  name: "conv3"
  type: "Convolution"
  bottom: "norm2"
  top: "conv3"
  param {
    lr_mult: 1
    decay_mult: 1
  }
  param {
    lr_mult: 2
    decay_mult: 0
  }
  convolution_param {
    num_output: 384
    pad: 1
    kernel_size: 3
    weight_filler {
      type: "gaussian"
      std: 0.01
    }
    bias_filler {
      type: "constant"
      value: 0
    }
  }
}
layer {
  name: "relu3"
  type: "ReLU"
  bottom: "conv3"
  top: "conv3"
}
layer {
  name: "conv4"
  type: "Convolution"
  bottom: "conv3"
  top: "conv4"
  param {
    lr_mult: 1
    decay_mult: 1
  }
  param {
    lr_mult: 2
    decay_mult: 0
  }
  convolution_param {
    num_output: 384
    pad: 1
    kernel_size: 3
    group: 2
    weight_filler {
      type: "gaussian"
      std: 0.01
    }
    bias_filler {
      type: "constant"
      value: 1
    }
  }
}
layer {
  name: "relu4"
  type: "ReLU"
  bottom: "conv4"
  top: "conv4"
}
layer {
  name: "conv5"
  type: "Convolution"
  bottom: "conv4"
  top: "conv5"
  param {
    lr_mult: 1
    decay_mult: 1
  }
  param {
    lr_mult: 2
    decay_mult: 0
  }
  convolution_param {
    num_output: 256
    pad: 1
    kernel_size: 3
    group: 2
    weight_filler {
      type: "gaussian"
      std: 0.01
    }
    bias_filler {
      type: "constant"
      value: 1
    }
  }
}
layer {
  name: "relu5"
  type: "ReLU"
  bottom: "conv5"
  top: "conv5"
}
layer {
  name: "pool5"
  type: "Pooling"
  bottom: "conv5"
  top: "pool5"
  pooling_param {
    pool: MAX
    kernel_size: 3
    stride: 2
  }
}
layer {
  name: "fc6"
  type: "Convolution"
  bottom: "pool5"
  top: "fc6"
  param {
    lr_mult: 1
    decay_mult: 1
  }
  param {
    lr_mult: 2
    decay_mult: 0
  }
  convolution_param {
    num_output: 4096
    kernel_size: 6
    weight_filler {
      type: "gaussian"
      std: 0.005
    }
    bias_filler {
      type: "constant"
      value: 1
    }
  }
}
layer {
  name: "relu6"
  type: "ReLU"
  bottom: "fc6"
  top: "fc6"
}
layer {
  name: "fc7"
  type: "Convolution"
  bottom: "fc6"
  top: "fc7"
  param {
    lr_mult: 1
    decay_mult: 1
  }
  param {
    lr_mult: 2
    decay_mult: 0
  }
  convolution_param {
    num_output: 4096
    kernel_size: 1
    weight_filler {
      type: "gaussian"
      std: 0.005
    }
    bias_filler {
      type: "constant"
      value: 1
    }
  }
}
layer {
  name: "relu7"
  type: "ReLU"
  bottom: "fc7"
  top: "fc7"
}
layer {
  name: "deconv-1"
  type: "Deconvolution"
  bottom: "fc7"
  top: "up-fc7"
  param {
    lr_mult: 0
    decay_mult: 0
  }
  convolution_param {
    num_output: 256
    bias_term: false
    kernel_size: 63
    group: 256
    stride: 32
    weight_filler {
      type: "bilinear"
    }
  }
}
layer {
  name: "crop"
  type: "Crop"
  bottom: "up-fc7"
  bottom: "image"
  top: "conv-feature"
}
layer {
  name: "spixel_pooling1"
  type: "SuperpixelPooling"
  bottom: "conv-feature"
  bottom: "spixel_data"
  bottom: "spixel_ptr"
  bottom: "spixel_num"
  bottom: "mask_size"
  top: "spixel_feature"
}
layer {
  name: "rpixel_pooling1"
  type: "RowPooling"
  bottom: "spixel_feature"
  bottom: "seg_data"
  bottom: "seg_ptr"
  bottom: "seg_num"
  bottom: "seg_coef"
  top: "seg_feature"
}
layer {
  name: "tracker"
  type: "Tracker"
  bottom: "seg_feature"
  bottom: "overlaps"
  bottom: "seg_num"
  bottom: "cont"
  top: "v"
  top: "vtilde"
  tracker_param {
    num_track: 1800
    feature_dim: 256
    lambda: 10000
    use_softmax: false
    use_vtilde_in_c: false
  }
}
layer {
  name: "reshape_v"
  type: "Reshape"
  bottom: "v"
  top: "rv"
  reshape_param {
    shape {
      dim: -1
    }
    num_axes: 2
  }
}
layer {
  name: "reshape_vt"
  type: "Reshape"
  bottom: "vtilde"
  top: "rvtilde"
  propagate_down: false
  reshape_param {
    shape {
      dim: -1
    }
    num_axes: 2
  }
}
layer {
  name: "euclideanLoss"
  type: "EuclideanLoss"
  bottom: "rv"
  bottom: "rvtilde"
  top: "unsupervised_loss"
  propagate_down: true
  propagate_down: false
}
layer {
  name: "trackerLoss"
  type: "TrackerLoss"
  bottom: "v"
  bottom: "gt_overlaps"
  bottom: "gt_num"
  bottom: "cont"
  top: "supervised_loss"
  include {
    phase: TEST
  }
  tracker_loss_param {
    object_num: 6
  }
}
layer {
  name: "trackerLoss_refined"
  type: "TrackerLoss"
  bottom: "vtilde"
  bottom: "gt_overlaps"
  bottom: "gt_num"
  bottom: "cont"
  top: "supervised_loss_refined"
  include {
    phase: TEST
  }
  tracker_loss_param {
    object_num: 6
  }
}
I0122 01:36:59.837760 27435 layer_factory.hpp:76] Creating layer images
I0122 01:36:59.837772 27435 net.cpp:107] Creating Layer images
I0122 01:36:59.837777 27435 net.cpp:412] images -> image
I0122 01:36:59.837786 27435 net.cpp:412] images -> ilabel
I0122 01:36:59.837795 27435 image_data_layer.cpp:37] Opening file ./tracker_model/data/SegTrackv2_hdf5_t4/images.txt
I0122 01:36:59.837990 27435 image_data_layer.cpp:52] A total of 316 images.
I0122 01:36:59.841984 27435 image_data_layer.cpp:79] output data size: 4,3,500,500
I0122 01:36:59.854368 27435 net.cpp:151] Setting up images
I0122 01:36:59.854390 27435 net.cpp:158] Top shape: 4 3 500 500 (3000000)
I0122 01:36:59.854395 27435 net.cpp:158] Top shape: 4 (4)
I0122 01:36:59.854399 27435 net.cpp:166] Memory required for data: 12000016
I0122 01:36:59.854404 27435 layer_factory.hpp:76] Creating layer image_images_0_split
I0122 01:36:59.854415 27435 net.cpp:107] Creating Layer image_images_0_split
I0122 01:36:59.854419 27435 net.cpp:455] image_images_0_split <- image
I0122 01:36:59.854426 27435 net.cpp:412] image_images_0_split -> image_images_0_split_0
I0122 01:36:59.854450 27435 net.cpp:412] image_images_0_split -> image_images_0_split_1
I0122 01:36:59.854490 27435 net.cpp:151] Setting up image_images_0_split
I0122 01:36:59.854496 27435 net.cpp:158] Top shape: 4 3 500 500 (3000000)
I0122 01:36:59.854501 27435 net.cpp:158] Top shape: 4 3 500 500 (3000000)
I0122 01:36:59.854503 27435 net.cpp:166] Memory required for data: 36000016
I0122 01:36:59.854507 27435 layer_factory.hpp:76] Creating layer data
I0122 01:36:59.854517 27435 net.cpp:107] Creating Layer data
I0122 01:36:59.854524 27435 net.cpp:412] data -> cont
I0122 01:36:59.854534 27435 net.cpp:412] data -> mask_size
I0122 01:36:59.854543 27435 net.cpp:412] data -> spixel_data
I0122 01:36:59.854550 27435 net.cpp:412] data -> spixel_ptr
I0122 01:36:59.854558 27435 net.cpp:412] data -> spixel_num
I0122 01:36:59.854568 27435 net.cpp:412] data -> seg_data
I0122 01:36:59.854576 27435 net.cpp:412] data -> seg_ptr
I0122 01:36:59.854584 27435 net.cpp:412] data -> seg_num
I0122 01:36:59.854593 27435 net.cpp:412] data -> seg_coef
I0122 01:36:59.854600 27435 net.cpp:412] data -> overlaps
I0122 01:36:59.854609 27435 net.cpp:412] data -> gt_num
I0122 01:36:59.854617 27435 net.cpp:412] data -> gt_overlaps
I0122 01:36:59.854624 27435 hdf5_data_layer.cpp:80] Loading list of HDF5 filenames from: ./tracker_model/data/SegTrackv2_hdf5_t4/seq_data.txt
I0122 01:36:59.854650 27435 hdf5_data_layer.cpp:94] Number of HDF5 files: 20
I0122 01:37:00.115419 27435 net.cpp:151] Setting up data
I0122 01:37:00.115439 27435 net.cpp:158] Top shape: 4 1 (4)
I0122 01:37:00.115443 27435 net.cpp:158] Top shape: 4 1 2 (8)
I0122 01:37:00.115447 27435 net.cpp:158] Top shape: 4 1 230400 2 (1843200)
I0122 01:37:00.115452 27435 net.cpp:158] Top shape: 4 1 9778 (39112)
I0122 01:37:00.115469 27435 net.cpp:158] Top shape: 4 1 (4)
I0122 01:37:00.115473 27435 net.cpp:158] Top shape: 4 1 3102361 (12409444)
I0122 01:37:00.115476 27435 net.cpp:158] Top shape: 4 1 1801 (7204)
I0122 01:37:00.115480 27435 net.cpp:158] Top shape: 4 1 (4)
I0122 01:37:00.115485 27435 net.cpp:158] Top shape: 4 1 3102361 (12409444)
I0122 01:37:00.115489 27435 net.cpp:158] Top shape: 4 1 1800 1800 (12960000)
I0122 01:37:00.115494 27435 net.cpp:158] Top shape: 4 1 (4)
I0122 01:37:00.115499 27435 net.cpp:158] Top shape: 4 1 6 1800 (43200)
I0122 01:37:00.115501 27435 net.cpp:166] Memory required for data: 194846528
I0122 01:37:00.115507 27435 layer_factory.hpp:76] Creating layer cont_data_0_split
I0122 01:37:00.115517 27435 net.cpp:107] Creating Layer cont_data_0_split
I0122 01:37:00.115522 27435 net.cpp:455] cont_data_0_split <- cont
I0122 01:37:00.115530 27435 net.cpp:412] cont_data_0_split -> cont_data_0_split_0
I0122 01:37:00.115540 27435 net.cpp:412] cont_data_0_split -> cont_data_0_split_1
I0122 01:37:00.115548 27435 net.cpp:412] cont_data_0_split -> cont_data_0_split_2
I0122 01:37:00.115587 27435 net.cpp:151] Setting up cont_data_0_split
I0122 01:37:00.115593 27435 net.cpp:158] Top shape: 4 1 (4)
I0122 01:37:00.115597 27435 net.cpp:158] Top shape: 4 1 (4)
I0122 01:37:00.115602 27435 net.cpp:158] Top shape: 4 1 (4)
I0122 01:37:00.115605 27435 net.cpp:166] Memory required for data: 194846576
I0122 01:37:00.115609 27435 layer_factory.hpp:76] Creating layer seg_num_data_7_split
I0122 01:37:00.115615 27435 net.cpp:107] Creating Layer seg_num_data_7_split
I0122 01:37:00.115619 27435 net.cpp:455] seg_num_data_7_split <- seg_num
I0122 01:37:00.115624 27435 net.cpp:412] seg_num_data_7_split -> seg_num_data_7_split_0
I0122 01:37:00.115631 27435 net.cpp:412] seg_num_data_7_split -> seg_num_data_7_split_1
I0122 01:37:00.115659 27435 net.cpp:151] Setting up seg_num_data_7_split
I0122 01:37:00.115664 27435 net.cpp:158] Top shape: 4 1 (4)
I0122 01:37:00.115669 27435 net.cpp:158] Top shape: 4 1 (4)
I0122 01:37:00.115672 27435 net.cpp:166] Memory required for data: 194846608
I0122 01:37:00.115676 27435 layer_factory.hpp:76] Creating layer gt_num_data_10_split
I0122 01:37:00.115680 27435 net.cpp:107] Creating Layer gt_num_data_10_split
I0122 01:37:00.115684 27435 net.cpp:455] gt_num_data_10_split <- gt_num
I0122 01:37:00.115703 27435 net.cpp:412] gt_num_data_10_split -> gt_num_data_10_split_0
I0122 01:37:00.115712 27435 net.cpp:412] gt_num_data_10_split -> gt_num_data_10_split_1
I0122 01:37:00.115741 27435 net.cpp:151] Setting up gt_num_data_10_split
I0122 01:37:00.115746 27435 net.cpp:158] Top shape: 4 1 (4)
I0122 01:37:00.115751 27435 net.cpp:158] Top shape: 4 1 (4)
I0122 01:37:00.115753 27435 net.cpp:166] Memory required for data: 194846640
I0122 01:37:00.115757 27435 layer_factory.hpp:76] Creating layer gt_overlaps_data_11_split
I0122 01:37:00.115762 27435 net.cpp:107] Creating Layer gt_overlaps_data_11_split
I0122 01:37:00.115767 27435 net.cpp:455] gt_overlaps_data_11_split <- gt_overlaps
I0122 01:37:00.115772 27435 net.cpp:412] gt_overlaps_data_11_split -> gt_overlaps_data_11_split_0
I0122 01:37:00.115778 27435 net.cpp:412] gt_overlaps_data_11_split -> gt_overlaps_data_11_split_1
I0122 01:37:00.115805 27435 net.cpp:151] Setting up gt_overlaps_data_11_split
I0122 01:37:00.115811 27435 net.cpp:158] Top shape: 4 1 6 1800 (43200)
I0122 01:37:00.115815 27435 net.cpp:158] Top shape: 4 1 6 1800 (43200)
I0122 01:37:00.115818 27435 net.cpp:166] Memory required for data: 195192240
I0122 01:37:00.115823 27435 layer_factory.hpp:76] Creating layer silent_ilabel
I0122 01:37:00.115828 27435 net.cpp:107] Creating Layer silent_ilabel
I0122 01:37:00.115831 27435 net.cpp:455] silent_ilabel <- ilabel
I0122 01:37:00.115836 27435 net.cpp:151] Setting up silent_ilabel
I0122 01:37:00.115839 27435 net.cpp:166] Memory required for data: 195192240
I0122 01:37:00.115844 27435 layer_factory.hpp:76] Creating layer conv1
I0122 01:37:00.115852 27435 net.cpp:107] Creating Layer conv1
I0122 01:37:00.115857 27435 net.cpp:455] conv1 <- image_images_0_split_0
I0122 01:37:00.115864 27435 net.cpp:412] conv1 -> conv1
I0122 01:37:00.117079 27435 net.cpp:151] Setting up conv1
I0122 01:37:00.117087 27435 net.cpp:158] Top shape: 4 96 173 173 (11492736)
I0122 01:37:00.117091 27435 net.cpp:166] Memory required for data: 241163184
I0122 01:37:00.117115 27435 layer_factory.hpp:76] Creating layer relu1
I0122 01:37:00.117122 27435 net.cpp:107] Creating Layer relu1
I0122 01:37:00.117127 27435 net.cpp:455] relu1 <- conv1
I0122 01:37:00.117133 27435 net.cpp:398] relu1 -> conv1 (in-place)
I0122 01:37:00.117334 27435 net.cpp:151] Setting up relu1
I0122 01:37:00.117342 27435 net.cpp:158] Top shape: 4 96 173 173 (11492736)
I0122 01:37:00.117346 27435 net.cpp:166] Memory required for data: 287134128
I0122 01:37:00.117363 27435 layer_factory.hpp:76] Creating layer pool1
I0122 01:37:00.117370 27435 net.cpp:107] Creating Layer pool1
I0122 01:37:00.117374 27435 net.cpp:455] pool1 <- conv1
I0122 01:37:00.117380 27435 net.cpp:412] pool1 -> pool1
I0122 01:37:00.117593 27435 net.cpp:151] Setting up pool1
I0122 01:37:00.117599 27435 net.cpp:158] Top shape: 4 96 86 86 (2840064)
I0122 01:37:00.117604 27435 net.cpp:166] Memory required for data: 298494384
I0122 01:37:00.117621 27435 layer_factory.hpp:76] Creating layer norm1
I0122 01:37:00.117629 27435 net.cpp:107] Creating Layer norm1
I0122 01:37:00.117632 27435 net.cpp:455] norm1 <- pool1
I0122 01:37:00.117637 27435 net.cpp:412] norm1 -> norm1
I0122 01:37:00.117763 27435 net.cpp:151] Setting up norm1
I0122 01:37:00.117769 27435 net.cpp:158] Top shape: 4 96 86 86 (2840064)
I0122 01:37:00.117772 27435 net.cpp:166] Memory required for data: 309854640
I0122 01:37:00.117776 27435 layer_factory.hpp:76] Creating layer conv2
I0122 01:37:00.117784 27435 net.cpp:107] Creating Layer conv2
I0122 01:37:00.117787 27435 net.cpp:455] conv2 <- norm1
I0122 01:37:00.117794 27435 net.cpp:412] conv2 -> conv2
I0122 01:37:00.124348 27435 cudnn_conv_layer.cpp:198] Reallocating workspace storage: 28800
I0122 01:37:00.124364 27435 net.cpp:151] Setting up conv2
I0122 01:37:00.124385 27435 net.cpp:158] Top shape: 4 256 86 86 (7573504)
I0122 01:37:00.124388 27435 net.cpp:166] Memory required for data: 340148656
I0122 01:37:00.124398 27435 layer_factory.hpp:76] Creating layer relu2
I0122 01:37:00.124407 27435 net.cpp:107] Creating Layer relu2
I0122 01:37:00.124418 27435 net.cpp:455] relu2 <- conv2
I0122 01:37:00.124423 27435 net.cpp:398] relu2 -> conv2 (in-place)
I0122 01:37:00.124639 27435 net.cpp:151] Setting up relu2
I0122 01:37:00.124646 27435 net.cpp:158] Top shape: 4 256 86 86 (7573504)
I0122 01:37:00.124650 27435 net.cpp:166] Memory required for data: 370442672
I0122 01:37:00.124667 27435 layer_factory.hpp:76] Creating layer pool2
I0122 01:37:00.124673 27435 net.cpp:107] Creating Layer pool2
I0122 01:37:00.124677 27435 net.cpp:455] pool2 <- conv2
I0122 01:37:00.124683 27435 net.cpp:412] pool2 -> pool2
I0122 01:37:00.124887 27435 net.cpp:151] Setting up pool2
I0122 01:37:00.124896 27435 net.cpp:158] Top shape: 4 256 43 43 (1893376)
I0122 01:37:00.124898 27435 net.cpp:166] Memory required for data: 378016176
I0122 01:37:00.124902 27435 layer_factory.hpp:76] Creating layer norm2
I0122 01:37:00.124908 27435 net.cpp:107] Creating Layer norm2
I0122 01:37:00.124912 27435 net.cpp:455] norm2 <- pool2
I0122 01:37:00.124917 27435 net.cpp:412] norm2 -> norm2
I0122 01:37:00.125066 27435 net.cpp:151] Setting up norm2
I0122 01:37:00.125072 27435 net.cpp:158] Top shape: 4 256 43 43 (1893376)
I0122 01:37:00.125075 27435 net.cpp:166] Memory required for data: 385589680
I0122 01:37:00.125093 27435 layer_factory.hpp:76] Creating layer conv3
I0122 01:37:00.125102 27435 net.cpp:107] Creating Layer conv3
I0122 01:37:00.125105 27435 net.cpp:455] conv3 <- norm2
I0122 01:37:00.125116 27435 net.cpp:412] conv3 -> conv3
I0122 01:37:00.141276 27435 cudnn_conv_layer.cpp:198] Reallocating workspace storage: 27648
I0122 01:37:00.141294 27435 net.cpp:151] Setting up conv3
I0122 01:37:00.141314 27435 net.cpp:158] Top shape: 4 384 43 43 (2840064)
I0122 01:37:00.141316 27435 net.cpp:166] Memory required for data: 396949936
I0122 01:37:00.141327 27435 layer_factory.hpp:76] Creating layer relu3
I0122 01:37:00.141335 27435 net.cpp:107] Creating Layer relu3
I0122 01:37:00.141340 27435 net.cpp:455] relu3 <- conv3
I0122 01:37:00.141346 27435 net.cpp:398] relu3 -> conv3 (in-place)
I0122 01:37:00.141552 27435 net.cpp:151] Setting up relu3
I0122 01:37:00.141561 27435 net.cpp:158] Top shape: 4 384 43 43 (2840064)
I0122 01:37:00.141563 27435 net.cpp:166] Memory required for data: 408310192
I0122 01:37:00.141582 27435 layer_factory.hpp:76] Creating layer conv4
I0122 01:37:00.141590 27435 net.cpp:107] Creating Layer conv4
I0122 01:37:00.141595 27435 net.cpp:455] conv4 <- conv3
I0122 01:37:00.141602 27435 net.cpp:412] conv4 -> conv4
I0122 01:37:00.154402 27435 net.cpp:151] Setting up conv4
I0122 01:37:00.154412 27435 net.cpp:158] Top shape: 4 384 43 43 (2840064)
I0122 01:37:00.154417 27435 net.cpp:166] Memory required for data: 419670448
I0122 01:37:00.154438 27435 layer_factory.hpp:76] Creating layer relu4
I0122 01:37:00.154444 27435 net.cpp:107] Creating Layer relu4
I0122 01:37:00.154448 27435 net.cpp:455] relu4 <- conv4
I0122 01:37:00.154454 27435 net.cpp:398] relu4 -> conv4 (in-place)
I0122 01:37:00.154659 27435 net.cpp:151] Setting up relu4
I0122 01:37:00.154669 27435 net.cpp:158] Top shape: 4 384 43 43 (2840064)
I0122 01:37:00.154672 27435 net.cpp:166] Memory required for data: 431030704
I0122 01:37:00.154676 27435 layer_factory.hpp:76] Creating layer conv5
I0122 01:37:00.154685 27435 net.cpp:107] Creating Layer conv5
I0122 01:37:00.154690 27435 net.cpp:455] conv5 <- conv4
I0122 01:37:00.154696 27435 net.cpp:412] conv5 -> conv5
I0122 01:37:00.163519 27435 net.cpp:151] Setting up conv5
I0122 01:37:00.163529 27435 net.cpp:158] Top shape: 4 256 43 43 (1893376)
I0122 01:37:00.163532 27435 net.cpp:166] Memory required for data: 438604208
I0122 01:37:00.163558 27435 layer_factory.hpp:76] Creating layer relu5
I0122 01:37:00.163564 27435 net.cpp:107] Creating Layer relu5
I0122 01:37:00.163569 27435 net.cpp:455] relu5 <- conv5
I0122 01:37:00.163574 27435 net.cpp:398] relu5 -> conv5 (in-place)
I0122 01:37:00.163784 27435 net.cpp:151] Setting up relu5
I0122 01:37:00.163792 27435 net.cpp:158] Top shape: 4 256 43 43 (1893376)
I0122 01:37:00.163796 27435 net.cpp:166] Memory required for data: 446177712
I0122 01:37:00.163825 27435 layer_factory.hpp:76] Creating layer pool5
I0122 01:37:00.163835 27435 net.cpp:107] Creating Layer pool5
I0122 01:37:00.163839 27435 net.cpp:455] pool5 <- conv5
I0122 01:37:00.163846 27435 net.cpp:412] pool5 -> pool5
I0122 01:37:00.163997 27435 net.cpp:151] Setting up pool5
I0122 01:37:00.164003 27435 net.cpp:158] Top shape: 4 256 21 21 (451584)
I0122 01:37:00.164007 27435 net.cpp:166] Memory required for data: 447984048
I0122 01:37:00.164011 27435 layer_factory.hpp:76] Creating layer fc6
I0122 01:37:00.164032 27435 net.cpp:107] Creating Layer fc6
I0122 01:37:00.164036 27435 net.cpp:455] fc6 <- pool5
I0122 01:37:00.164044 27435 net.cpp:412] fc6 -> fc6
I0122 01:37:00.829731 27435 cudnn_conv_layer.cpp:198] Reallocating workspace storage: 110592
I0122 01:37:00.829757 27435 net.cpp:151] Setting up fc6
I0122 01:37:00.829779 27435 net.cpp:158] Top shape: 4 4096 16 16 (4194304)
I0122 01:37:00.829783 27435 net.cpp:166] Memory required for data: 464761264
I0122 01:37:00.829792 27435 layer_factory.hpp:76] Creating layer relu6
I0122 01:37:00.829802 27435 net.cpp:107] Creating Layer relu6
I0122 01:37:00.829808 27435 net.cpp:455] relu6 <- fc6
I0122 01:37:00.829815 27435 net.cpp:398] relu6 -> fc6 (in-place)
I0122 01:37:00.830023 27435 net.cpp:151] Setting up relu6
I0122 01:37:00.830032 27435 net.cpp:158] Top shape: 4 4096 16 16 (4194304)
I0122 01:37:00.830035 27435 net.cpp:166] Memory required for data: 481538480
I0122 01:37:00.830039 27435 layer_factory.hpp:76] Creating layer fc7
I0122 01:37:00.830047 27435 net.cpp:107] Creating Layer fc7
I0122 01:37:00.830051 27435 net.cpp:455] fc7 <- fc6
I0122 01:37:00.830060 27435 net.cpp:412] fc7 -> fc7
I0122 01:37:01.130643 27435 cudnn_conv_layer.cpp:198] Reallocating workspace storage: 49152
I0122 01:37:01.130666 27435 net.cpp:151] Setting up fc7
I0122 01:37:01.130687 27435 net.cpp:158] Top shape: 4 4096 16 16 (4194304)
I0122 01:37:01.130691 27435 net.cpp:166] Memory required for data: 498315696
I0122 01:37:01.130699 27435 layer_factory.hpp:76] Creating layer relu7
I0122 01:37:01.130710 27435 net.cpp:107] Creating Layer relu7
I0122 01:37:01.130717 27435 net.cpp:455] relu7 <- fc7
I0122 01:37:01.130724 27435 net.cpp:398] relu7 -> fc7 (in-place)
I0122 01:37:01.130942 27435 net.cpp:151] Setting up relu7
I0122 01:37:01.130950 27435 net.cpp:158] Top shape: 4 4096 16 16 (4194304)
I0122 01:37:01.130954 27435 net.cpp:166] Memory required for data: 515092912
I0122 01:37:01.130971 27435 layer_factory.hpp:76] Creating layer deconv-1
I0122 01:37:01.130980 27435 net.cpp:107] Creating Layer deconv-1
I0122 01:37:01.130985 27435 net.cpp:455] deconv-1 <- fc7
I0122 01:37:01.130991 27435 net.cpp:412] deconv-1 -> up-fc7
I0122 01:37:01.406105 27435 net.cpp:151] Setting up deconv-1
I0122 01:37:01.406121 27435 net.cpp:158] Top shape: 4 256 543 543 (301925376)
I0122 01:37:01.406123 27435 net.cpp:166] Memory required for data: 1722794416
I0122 01:37:01.406131 27435 layer_factory.hpp:76] Creating layer crop
I0122 01:37:01.406141 27435 net.cpp:107] Creating Layer crop
I0122 01:37:01.406147 27435 net.cpp:455] crop <- up-fc7
I0122 01:37:01.406152 27435 net.cpp:455] crop <- image_images_0_split_1
I0122 01:37:01.406158 27435 net.cpp:412] crop -> conv-feature
I0122 01:37:01.406209 27435 net.cpp:151] Setting up crop
I0122 01:37:01.406216 27435 net.cpp:158] Top shape: 4 256 500 500 (256000000)
I0122 01:37:01.406220 27435 net.cpp:166] Memory required for data: 2746794416
I0122 01:37:01.406224 27435 layer_factory.hpp:76] Creating layer spixel_pooling1
I0122 01:37:01.406230 27435 net.cpp:107] Creating Layer spixel_pooling1
I0122 01:37:01.406234 27435 net.cpp:455] spixel_pooling1 <- conv-feature
I0122 01:37:01.406239 27435 net.cpp:455] spixel_pooling1 <- spixel_data
I0122 01:37:01.406244 27435 net.cpp:455] spixel_pooling1 <- spixel_ptr
I0122 01:37:01.406249 27435 net.cpp:455] spixel_pooling1 <- spixel_num
I0122 01:37:01.406252 27435 net.cpp:455] spixel_pooling1 <- mask_size
I0122 01:37:01.406258 27435 net.cpp:412] spixel_pooling1 -> spixel_feature
I0122 01:37:01.406282 27435 net.cpp:151] Setting up spixel_pooling1
I0122 01:37:01.406296 27435 net.cpp:158] Top shape: 4 1 9777 256 (10011648)
I0122 01:37:01.406301 27435 net.cpp:166] Memory required for data: 2786841008
I0122 01:37:01.406303 27435 layer_factory.hpp:76] Creating layer rpixel_pooling1
I0122 01:37:01.406309 27435 net.cpp:107] Creating Layer rpixel_pooling1
I0122 01:37:01.406313 27435 net.cpp:455] rpixel_pooling1 <- spixel_feature
I0122 01:37:01.406318 27435 net.cpp:455] rpixel_pooling1 <- seg_data
I0122 01:37:01.406323 27435 net.cpp:455] rpixel_pooling1 <- seg_ptr
I0122 01:37:01.406327 27435 net.cpp:455] rpixel_pooling1 <- seg_num_data_7_split_0
I0122 01:37:01.406332 27435 net.cpp:455] rpixel_pooling1 <- seg_coef
I0122 01:37:01.406338 27435 net.cpp:412] rpixel_pooling1 -> seg_feature
I0122 01:37:01.406363 27435 net.cpp:151] Setting up rpixel_pooling1
I0122 01:37:01.406369 27435 net.cpp:158] Top shape: 4 1 1800 256 (1843200)
I0122 01:37:01.406373 27435 net.cpp:166] Memory required for data: 2794213808
I0122 01:37:01.406376 27435 layer_factory.hpp:76] Creating layer tracker
I0122 01:37:01.406383 27435 net.cpp:107] Creating Layer tracker
I0122 01:37:01.406386 27435 net.cpp:455] tracker <- seg_feature
I0122 01:37:01.406391 27435 net.cpp:455] tracker <- overlaps
I0122 01:37:01.406395 27435 net.cpp:455] tracker <- seg_num_data_7_split_1
I0122 01:37:01.406400 27435 net.cpp:455] tracker <- cont_data_0_split_0
I0122 01:37:01.406405 27435 net.cpp:412] tracker -> v
I0122 01:37:01.406412 27435 net.cpp:412] tracker -> vtilde
I0122 01:37:01.406420 27435 recurrent_layer.cpp:42] Initializing recurrent layer: assuming input batch contains 4 timesteps of 1 independent streams.
I0122 01:37:01.407013 27435 net.cpp:49] Initializing net from parameters: 
input: "x"
input: "overlaps"
input: "seg_num"
input: "cont"
input: "c_0"
input: "h_0"
input: "s_0"
force_backward: true
input_shape {
  dim: 4
  dim: 1
  dim: 1800
  dim: 256
}
input_shape {
  dim: 4
  dim: 1
  dim: 1800
  dim: 1800
}
input_shape {
  dim: 4
  dim: 1
}
input_shape {
  dim: 4
  dim: 1
}
input_shape {
  dim: 1
  dim: 1
  dim: 1800
  dim: 256
}
input_shape {
  dim: 1
  dim: 1
  dim: 256
  dim: 256
}
input_shape {
  dim: 1
  dim: 1
  dim: 1
}
layer {
  name: "tracker_cont_slice"
  type: "Slice"
  bottom: "cont"
  top: "cont_1"
  top: "cont_2"
  top: "cont_3"
  top: "cont_4"
  slice_param {
    axis: 0
  }
}
layer {
  name: "tracker_x_slice"
  type: "Slice"
  bottom: "x"
  top: "x_1"
  top: "x_2"
  top: "x_3"
  top: "x_4"
  slice_param {
    axis: 0
  }
}
layer {
  name: "tracker_overlaps_slice"
  type: "Slice"
  bottom: "overlaps"
  top: "overlaps_1"
  top: "overlaps_2"
  top: "overlaps_3"
  top: "overlaps_4"
  slice_param {
    axis: 0
  }
}
layer {
  name: "tracker_seg_num_slice"
  type: "Slice"
  bottom: "seg_num"
  top: "nseg_1"
  top: "nseg_2"
  top: "nseg_3"
  top: "nseg_4"
  slice_param {
    axis: 0
  }
}
layer {
  name: "tracker_overlaps_split_1"
  type: "Split"
  bottom: "overlaps_1"
  top: "overlaps1_1"
  top: "overlaps2_1"
}
layer {
  name: "tracker_x_split_1"
  type: "Split"
  bottom: "x_1"
  top: "x1_1"
  top: "x2_1"
  top: "x3_1"
  top: "x4_1"
}
layer {
  name: "tracker_cont_split_1"
  type: "Split"
  bottom: "cont_1"
  top: "cont1_1"
  top: "cont2_1"
  top: "cont3_1"
  top: "cont4_1"
}
layer {
  name: "tracker_h_split_0"
  type: "Split"
  bottom: "h_0"
  top: "h1_0"
  top: "h2_0"
}
layer {
  name: "tracker_c_split_0"
  type: "Split"
  bottom: "c_0"
  top: "c1_0"
  top: "c2_0"
}
layer {
  name: "tracker_s_cont_0"
  type: "Scalar"
  bottom: "s_0"
  bottom: "cont4_1"
  top: "s_cont_0"
  scalar_param {
    axis: 0
  }
}
layer {
  name: "tracker_s_cont_split_0"
  type: "Split"
  bottom: "s_cont_0"
  top: "s1_cont_0"
  top: "s2_cont_0"
}
layer {
  name: "tracker_hm1_0"
  type: "MatInv"
  bottom: "h1_0"
  bottom: "s1_cont_0"
  top: "hm1_0"
  matinv_param {
    lambda: 10000
  }
}
layer {
  name: "tracker_w_0"
  type: "MatMult"
  bottom: "c1_0"
  bottom: "hm1_0"
  top: "w_0"
}
layer {
  name: "tracker_v_1"
  type: "MatMult"
  bottom: "w_0"
  bottom: "x_1"
  top: "v_1"
  matmult_param {
    transpose_b: true
  }
}
layer {
  name: "tracker_rename_overlaps_1"
  type: "Split"
  bottom: "overlaps1_1"
  top: "s_overlaps_1"
}
layer {
  name: "tracker_v_cont_1"
  type: "Switch"
  bottom: "s_overlaps_1"
  bottom: "v_1"
  bottom: "cont1_1"
  top: "v_cont_1"
  switch_param {
    axis: 2
  }
}
layer {
  name: "tracker_v_split_1"
  type: "Split"
  bottom: "v_cont_1"
  top: "v1_1"
  top: "v3_1"
  top: "v4_1"
  top: "v2_1"
}
layer {
  name: "tracker_vtilde_1"
  type: "TrackerMatching"
  bottom: "v4_1"
  bottom: "overlaps2_1"
  bottom: "nseg_1"
  top: "vtilde_1"
}
layer {
  name: "tracker_vtilde_split_1"
  type: "Split"
  bottom: "vtilde_1"
  top: "vtilde1_1"
}
layer {
  name: "tracker_reshape1_1"
  type: "Reshape"
  bottom: "v1_1"
  top: "vr_1"
  reshape_param {
    shape {
      dim: 1
      dim: 1
      dim: 1800
      dim: 1800
    }
  }
}
layer {
  name: "tracker_max_1"
  type: "Pooling"
  bottom: "vr_1"
  top: "mr_1"
  pooling_param {
    pool: MAX
    kernel_h: 1800
    kernel_w: 1
  }
}
layer {
  name: "tracker_reshape2_1"
  type: "Reshape"
  bottom: "mr_1"
  top: "m_1"
  reshape_param {
    shape {
      dim: 1
      dim: 1
      dim: 1800
    }
  }
}
layer {
  name: "tracker_m_split_1"
  type: "Split"
  bottom: "m_1"
  top: "m1_1"
  top: "m2_1"
}
layer {
  name: "tracker_concat_s_elemens_1"
  type: "Concat"
  bottom: "m2_1"
  bottom: "s2_cont_0"
  top: "s_elem_1"
  concat_param {
    axis: 2
  }
}
layer {
  name: "tracker_sum_s_elemens_1"
  type: "Reduction"
  bottom: "s_elem_1"
  top: "ns_1"
  concat_param {
    axis: 2
  }
}
layer {
  name: "tracker_s_reshape_1"
  type: "Reshape"
  bottom: "ns_1"
  top: "s_1"
  reshape_param {
    shape {
      dim: 1
      dim: 1
      dim: 1
    }
  }
}
layer {
  name: "tracker_mx_1"
  type: "MatMult"
  bottom: "m1_1"
  bottom: "x2_1"
  top: "mx_1"
  matmult_param {
    diagonal_input: true
  }
}
layer {
  name: "tracker_mx_split_1"
  type: "Split"
  bottom: "mx_1"
  top: "mx1_1"
  top: "mx2_1"
}
layer {
  name: "tracker_xmx_1"
  type: "MatMult"
  bottom: "x3_1"
  bottom: "mx1_1"
  top: "xmx_1"
  matmult_param {
    transpose_a: true
  }
}
layer {
  name: "tracker_h_cont_0"
  type: "Scalar"
  bottom: "h2_0"
  bottom: "cont2_1"
  top: "h_cont_0"
  scalar_param {
    axis: 0
  }
}
layer {
  name: "tracker_h_1"
  type: "Eltwise"
  bottom: "h_cont_0"
  bottom: "xmx_1"
  top: "h_1"
  eltwise_param {
    operation: SUM
  }
}
layer {
  name: "tracker_vmx_1"
  type: "MatMult"
  bottom: "v2_1"
  bottom: "mx2_1"
  top: "vmx_1"
}
layer {
  name: "tracker_c_cont_0"
  type: "Scalar"
  bottom: "c2_0"
  bottom: "cont3_1"
  top: "c_cont_0"
  scalar_param {
    axis: 0
  }
}
layer {
  name: "tracker_c_1"
  type: "Eltwise"
  bottom: "c_cont_0"
  bottom: "vmx_1"
  top: "c_1"
  eltwise_param {
    operation: SUM
  }
}
layer {
  name: "tracker_overlaps_split_2"
  type: "Split"
  bottom: "overlaps_2"
  top: "overlaps1_2"
  top: "overlaps2_2"
}
layer {
  name: "tracker_x_split_2"
  type: "Split"
  bottom: "x_2"
  top: "x1_2"
  top: "x2_2"
  top: "x3_2"
  top: "x4_2"
}
layer {
  name: "tracker_cont_split_2"
  type: "Split"
  bottom: "cont_2"
  top: "cont1_2"
  top: "cont2_2"
  top: "cont3_2"
  top: "cont4_2"
}
layer {
  name: "tracker_h_split_1"
  type: "Split"
  bottom: "h_1"
  top: "h1_1"
  top: "h2_1"
}
layer {
  name: "tracker_c_split_1"
  type: "Split"
  bottom: "c_1"
  top: "c1_1"
  top: "c2_1"
}
layer {
  name: "tracker_s_cont_1"
  type: "Scalar"
  bottom: "s_1"
  bottom: "cont4_2"
  top: "s_cont_1"
  scalar_param {
    axis: 0
  }
}
layer {
  name: "tracker_s_cont_split_1"
  type: "Split"
  bottom: "s_cont_1"
  top: "s1_cont_1"
  top: "s2_cont_1"
}
layer {
  name: "tracker_hm1_1"
  type: "MatInv"
  bottom: "h1_1"
  bottom: "s1_cont_1"
  top: "hm1_1"
  matinv_param {
    lambda: 10000
  }
}
layer {
  name: "tracker_w_1"
  type: "MatMult"
  bottom: "c1_1"
  bottom: "hm1_1"
  top: "w_1"
}
layer {
  name: "tracker_v_2"
  type: "MatMult"
  bottom: "w_1"
  bottom: "x_2"
  top: "v_2"
  matmult_param {
    transpose_b: true
  }
}
layer {
  name: "tracker_rename_overlaps_2"
  type: "Split"
  bottom: "overlaps1_2"
  top: "s_overlaps_2"
}
layer {
  name: "tracker_v_cont_2"
  type: "Switch"
  bottom: "s_overlaps_2"
  bottom: "v_2"
  bottom: "cont1_2"
  top: "v_cont_2"
  switch_param {
    axis: 2
  }
}
layer {
  name: "tracker_v_split_2"
  type: "Split"
  bottom: "v_cont_2"
  top: "v1_2"
  top: "v3_2"
  top: "v4_2"
  top: "v2_2"
}
layer {
  name: "tracker_vtilde_2"
  type: "TrackerMatching"
  bottom: "v4_2"
  bottom: "overlaps2_2"
  bottom: "nseg_2"
  top: "vtilde_2"
}
layer {
  name: "tracker_vtilde_split_2"
  type: "Split"
  bottom: "vtilde_2"
  top: "vtilde1_2"
}
layer {
  name: "tracker_reshape1_2"
  type: "Reshape"
  bottom: "v1_2"
  top: "vr_2"
  reshape_param {
    shape {
      dim: 1
      dim: 1
      dim: 1800
      dim: 1800
    }
  }
}
layer {
  name: "tracker_max_2"
  type: "Pooling"
  bottom: "vr_2"
  top: "mr_2"
  pooling_param {
    pool: MAX
    kernel_h: 1800
    kernel_w: 1
  }
}
layer {
  name: "tracker_reshape2_2"
  type: "Reshape"
  bottom: "mr_2"
  top: "m_2"
  reshape_param {
    shape {
      dim: 1
      dim: 1
      dim: 1800
    }
  }
}
layer {
  name: "tracker_m_split_2"
  type: "Split"
  bottom: "m_2"
  top: "m1_2"
  top: "m2_2"
}
layer {
  name: "tracker_concat_s_elemens_2"
  type: "Concat"
  bottom: "m2_2"
  bottom: "s2_cont_1"
  top: "s_elem_2"
  concat_param {
    axis: 2
  }
}
layer {
  name: "tracker_sum_s_elemens_2"
  type: "Reduction"
  bottom: "s_elem_2"
  top: "ns_2"
  concat_param {
    axis: 2
  }
}
layer {
  name: "tracker_s_reshape_2"
  type: "Reshape"
  bottom: "ns_2"
  top: "s_2"
  reshape_param {
    shape {
      dim: 1
      dim: 1
      dim: 1
    }
  }
}
layer {
  name: "tracker_mx_2"
  type: "MatMult"
  bottom: "m1_2"
  bottom: "x2_2"
  top: "mx_2"
  matmult_param {
    diagonal_input: true
  }
}
layer {
  name: "tracker_mx_split_2"
  type: "Split"
  bottom: "mx_2"
  top: "mx1_2"
  top: "mx2_2"
}
layer {
  name: "tracker_xmx_2"
  type: "MatMult"
  bottom: "x3_2"
  bottom: "mx1_2"
  top: "xmx_2"
  matmult_param {
    transpose_a: true
  }
}
layer {
  name: "tracker_h_cont_1"
  type: "Scalar"
  bottom: "h2_1"
  bottom: "cont2_2"
  top: "h_cont_1"
  scalar_param {
    axis: 0
  }
}
layer {
  name: "tracker_h_2"
  type: "Eltwise"
  bottom: "h_cont_1"
  bottom: "xmx_2"
  top: "h_2"
  eltwise_param {
    operation: SUM
  }
}
layer {
  name: "tracker_vmx_2"
  type: "MatMult"
  bottom: "v2_2"
  bottom: "mx2_2"
  top: "vmx_2"
}
layer {
  name: "tracker_c_cont_1"
  type: "Scalar"
  bottom: "c2_1"
  bottom: "cont3_2"
  top: "c_cont_1"
  scalar_param {
    axis: 0
  }
}
layer {
  name: "tracker_c_2"
  type: "Eltwise"
  bottom: "c_cont_1"
  bottom: "vmx_2"
  top: "c_2"
  eltwise_param {
    operation: SUM
  }
}
layer {
  name: "tracker_overlaps_split_3"
  type: "Split"
  bottom: "overlaps_3"
  top: "overlaps1_3"
  top: "overlaps2_3"
}
layer {
  name: "tracker_x_split_3"
  type: "Split"
  bottom: "x_3"
  top: "x1_3"
  top: "x2_3"
  top: "x3_3"
  top: "x4_3"
}
layer {
  name: "tracker_cont_split_3"
  type: "Split"
  bottom: "cont_3"
  top: "cont1_3"
  top: "cont2_3"
  top: "cont3_3"
  top: "cont4_3"
}
layer {
  name: "tracker_h_split_2"
  type: "Split"
  bottom: "h_2"
  top: "h1_2"
  top: "h2_2"
}
layer {
  name: "tracker_c_split_2"
  type: "Split"
  bottom: "c_2"
  top: "c1_2"
  top: "c2_2"
}
layer {
  name: "tracker_s_cont_2"
  type: "Scalar"
  bottom: "s_2"
  bottom: "cont4_3"
  top: "s_cont_2"
  scalar_param {
    axis: 0
  }
}
layer {
  name: "tracker_s_cont_split_2"
  type: "Split"
  bottom: "s_cont_2"
  top: "s1_cont_2"
  top: "s2_cont_2"
}
layer {
  name: "tracker_hm1_2"
  type: "MatInv"
  bottom: "h1_2"
  bottom: "s1_cont_2"
  top: "hm1_2"
  matinv_param {
    lambda: 10000
  }
}
layer {
  name: "tracker_w_2"
  type: "MatMult"
  bottom: "c1_2"
  bottom: "hm1_2"
  top: "w_2"
}
layer {
  name: "tracker_v_3"
  type: "MatMult"
  bottom: "w_2"
  bottom: "x_3"
  top: "v_3"
  matmult_param {
    transpose_b: true
  }
}
layer {
  name: "tracker_rename_overlaps_3"
  type: "Split"
  bottom: "overlaps1_3"
  top: "s_overlaps_3"
}
layer {
  name: "tracker_v_cont_3"
  type: "Switch"
  bottom: "s_overlaps_3"
  bottom: "v_3"
  bottom: "cont1_3"
  top: "v_cont_3"
  switch_param {
    axis: 2
  }
}
layer {
  name: "tracker_v_split_3"
  type: "Split"
  bottom: "v_cont_3"
  top: "v1_3"
  top: "v3_3"
  top: "v4_3"
  top: "v2_3"
}
layer {
  name: "tracker_vtilde_3"
  type: "TrackerMatching"
  bottom: "v4_3"
  bottom: "overlaps2_3"
  bottom: "nseg_3"
  top: "vtilde_3"
}
layer {
  name: "tracker_vtilde_split_3"
  type: "Split"
  bottom: "vtilde_3"
  top: "vtilde1_3"
}
layer {
  name: "tracker_reshape1_3"
  type: "Reshape"
  bottom: "v1_3"
  top: "vr_3"
  reshape_param {
    shape {
      dim: 1
      dim: 1
      dim: 1800
      dim: 1800
    }
  }
}
layer {
  name: "tracker_max_3"
  type: "Pooling"
  bottom: "vr_3"
  top: "mr_3"
  pooling_param {
    pool: MAX
    kernel_h: 1800
    kernel_w: 1
  }
}
layer {
  name: "tracker_reshape2_3"
  type: "Reshape"
  bottom: "mr_3"
  top: "m_3"
  reshape_param {
    shape {
      dim: 1
      dim: 1
      dim: 1800
    }
  }
}
layer {
  name: "tracker_m_split_3"
  type: "Split"
  bottom: "m_3"
  top: "m1_3"
  top: "m2_3"
}
layer {
  name: "tracker_concat_s_elemens_3"
  type: "Concat"
  bottom: "m2_3"
  bottom: "s2_cont_2"
  top: "s_elem_3"
  concat_param {
    axis: 2
  }
}
layer {
  name: "tracker_sum_s_elemens_3"
  type: "Reduction"
  bottom: "s_elem_3"
  top: "ns_3"
  concat_param {
    axis: 2
  }
}
layer {
  name: "tracker_s_reshape_3"
  type: "Reshape"
  bottom: "ns_3"
  top: "s_3"
  reshape_param {
    shape {
      dim: 1
      dim: 1
      dim: 1
    }
  }
}
layer {
  name: "tracker_mx_3"
  type: "MatMult"
  bottom: "m1_3"
  bottom: "x2_3"
  top: "mx_3"
  matmult_param {
    diagonal_input: true
  }
}
layer {
  name: "tracker_mx_split_3"
  type: "Split"
  bottom: "mx_3"
  top: "mx1_3"
  top: "mx2_3"
}
layer {
  name: "tracker_xmx_3"
  type: "MatMult"
  bottom: "x3_3"
  bottom: "mx1_3"
  top: "xmx_3"
  matmult_param {
    transpose_a: true
  }
}
layer {
  name: "tracker_h_cont_2"
  type: "Scalar"
  bottom: "h2_2"
  bottom: "cont2_3"
  top: "h_cont_2"
  scalar_param {
    axis: 0
  }
}
layer {
  name: "tracker_h_3"
  type: "Eltwise"
  bottom: "h_cont_2"
  bottom: "xmx_3"
  top: "h_3"
  eltwise_param {
    operation: SUM
  }
}
layer {
  name: "tracker_vmx_3"
  type: "MatMult"
  bottom: "v2_3"
  bottom: "mx2_3"
  top: "vmx_3"
}
layer {
  name: "tracker_c_cont_2"
  type: "Scalar"
  bottom: "c2_2"
  bottom: "cont3_3"
  top: "c_cont_2"
  scalar_param {
    axis: 0
  }
}
layer {
  name: "tracker_c_3"
  type: "Eltwise"
  bottom: "c_cont_2"
  bottom: "vmx_3"
  top: "c_3"
  eltwise_param {
    operation: SUM
  }
}
layer {
  name: "tracker_overlaps_split_4"
  type: "Split"
  bottom: "overlaps_4"
  top: "overlaps1_4"
  top: "overlaps2_4"
}
layer {
  name: "tracker_x_split_4"
  type: "Split"
  bottom: "x_4"
  top: "x1_4"
  top: "x2_4"
  top: "x3_4"
  top: "x4_4"
}
layer {
  name: "tracker_cont_split_4"
  type: "Split"
  bottom: "cont_4"
  top: "cont1_4"
  top: "cont2_4"
  top: "cont3_4"
  top: "cont4_4"
}
layer {
  name: "tracker_h_split_3"
  type: "Split"
  bottom: "h_3"
  top: "h1_3"
  top: "h2_3"
}
layer {
  name: "tracker_c_split_3"
  type: "Split"
  bottom: "c_3"
  top: "c1_3"
  top: "c2_3"
}
layer {
  name: "tracker_s_cont_3"
  type: "Scalar"
  bottom: "s_3"
  bottom: "cont4_4"
  top: "s_cont_3"
  scalar_param {
    axis: 0
  }
}
layer {
  name: "tracker_s_cont_split_3"
  type: "Split"
  bottom: "s_cont_3"
  top: "s1_cont_3"
  top: "s2_cont_3"
}
layer {
  name: "tracker_hm1_3"
  type: "MatInv"
  bottom: "h1_3"
  bottom: "s1_cont_3"
  top: "hm1_3"
  matinv_param {
    lambda: 10000
  }
}
layer {
  name: "tracker_w_3"
  type: "MatMult"
  bottom: "c1_3"
  bottom: "hm1_3"
  top: "w_3"
}
layer {
  name: "tracker_v_4"
  type: "MatMult"
  bottom: "w_3"
  bottom: "x_4"
  top: "v_4"
  matmult_param {
    transpose_b: true
  }
}
layer {
  name: "tracker_rename_overlaps_4"
  type: "Split"
  bottom: "overlaps1_4"
  top: "s_overlaps_4"
}
layer {
  name: "tracker_v_cont_4"
  type: "Switch"
  bottom: "s_overlaps_4"
  bottom: "v_4"
  bottom: "cont1_4"
  top: "v_cont_4"
  switch_param {
    axis: 2
  }
}
layer {
  name: "tracker_v_split_4"
  type: "Split"
  bottom: "v_cont_4"
  top: "v1_4"
  top: "v3_4"
  top: "v4_4"
  top: "v2_4"
}
layer {
  name: "tracker_vtilde_4"
  type: "TrackerMatching"
  bottom: "v4_4"
  bottom: "overlaps2_4"
  bottom: "nseg_4"
  top: "vtilde_4"
}
layer {
  name: "tracker_vtilde_split_4"
  type: "Split"
  bottom: "vtilde_4"
  top: "vtilde1_4"
}
layer {
  name: "tracker_reshape1_4"
  type: "Reshape"
  bottom: "v1_4"
  top: "vr_4"
  reshape_param {
    shape {
      dim: 1
      dim: 1
      dim: 1800
      dim: 1800
    }
  }
}
layer {
  name: "tracker_max_4"
  type: "Pooling"
  bottom: "vr_4"
  top: "mr_4"
  pooling_param {
    pool: MAX
    kernel_h: 1800
    kernel_w: 1
  }
}
layer {
  name: "tracker_reshape2_4"
  type: "Reshape"
  bottom: "mr_4"
  top: "m_4"
  reshape_param {
    shape {
      dim: 1
      dim: 1
      dim: 1800
    }
  }
}
layer {
  name: "tracker_m_split_4"
  type: "Split"
  bottom: "m_4"
  top: "m1_4"
  top: "m2_4"
}
layer {
  name: "tracker_concat_s_elemens_4"
  type: "Concat"
  bottom: "m2_4"
  bottom: "s2_cont_3"
  top: "s_elem_4"
  concat_param {
    axis: 2
  }
}
layer {
  name: "tracker_sum_s_elemens_4"
  type: "Reduction"
  bottom: "s_elem_4"
  top: "ns_4"
  concat_param {
    axis: 2
  }
}
layer {
  name: "tracker_s_reshape_4"
  type: "Reshape"
  bottom: "ns_4"
  top: "s_4"
  reshape_param {
    shape {
      dim: 1
      dim: 1
      dim: 1
    }
  }
}
layer {
  name: "tracker_mx_4"
  type: "MatMult"
  bottom: "m1_4"
  bottom: "x2_4"
  top: "mx_4"
  matmult_param {
    diagonal_input: true
  }
}
layer {
  name: "tracker_mx_split_4"
  type: "Split"
  bottom: "mx_4"
  top: "mx1_4"
  top: "mx2_4"
}
layer {
  name: "tracker_xmx_4"
  type: "MatMult"
  bottom: "x3_4"
  bottom: "mx1_4"
  top: "xmx_4"
  matmult_param {
    transpose_a: true
  }
}
layer {
  name: "tracker_h_cont_3"
  type: "Scalar"
  bottom: "h2_3"
  bottom: "cont2_4"
  top: "h_cont_3"
  scalar_param {
    axis: 0
  }
}
layer {
  name: "tracker_h_4"
  type: "Eltwise"
  bottom: "h_cont_3"
  bottom: "xmx_4"
  top: "h_4"
  eltwise_param {
    operation: SUM
  }
}
layer {
  name: "tracker_vmx_4"
  type: "MatMult"
  bottom: "v2_4"
  bottom: "mx2_4"
  top: "vmx_4"
}
layer {
  name: "tracker_c_cont_3"
  type: "Scalar"
  bottom: "c2_3"
  bottom: "cont3_4"
  top: "c_cont_3"
  scalar_param {
    axis: 0
  }
}
layer {
  name: "tracker_c_4"
  type: "Eltwise"
  bottom: "c_cont_3"
  bottom: "vmx_4"
  top: "c_4"
  eltwise_param {
    operation: SUM
  }
}
layer {
  name: "tracker_v_concat"
  type: "Concat"
  bottom: "v3_1"
  bottom: "v3_2"
  bottom: "v3_3"
  bottom: "v3_4"
  top: "v"
  concat_param {
    axis: 0
  }
}
layer {
  name: "tracker_vtilde_concat"
  type: "Concat"
  bottom: "vtilde1_1"
  bottom: "vtilde1_2"
  bottom: "vtilde1_3"
  bottom: "vtilde1_4"
  top: "vtilde"
  concat_param {
    axis: 0
  }
}
I0122 01:37:01.407605 27435 net.cpp:414] Input 0 -> x
I0122 01:37:01.407637 27435 net.cpp:414] Input 1 -> overlaps
I0122 01:37:01.407660 27435 net.cpp:414] Input 2 -> seg_num
I0122 01:37:01.407681 27435 net.cpp:414] Input 3 -> cont
I0122 01:37:01.407703 27435 net.cpp:414] Input 4 -> c_0
I0122 01:37:01.407723 27435 net.cpp:414] Input 5 -> h_0
I0122 01:37:01.407742 27435 net.cpp:414] Input 6 -> s_0
I0122 01:37:01.407778 27435 layer_factory.hpp:76] Creating layer tracker_cont_slice
I0122 01:37:01.407785 27435 net.cpp:107] Creating Layer tracker_cont_slice
I0122 01:37:01.407789 27435 net.cpp:455] tracker_cont_slice <- cont
I0122 01:37:01.407794 27435 net.cpp:412] tracker_cont_slice -> cont_1
I0122 01:37:01.407802 27435 net.cpp:412] tracker_cont_slice -> cont_2
I0122 01:37:01.407810 27435 net.cpp:412] tracker_cont_slice -> cont_3
I0122 01:37:01.407816 27435 net.cpp:412] tracker_cont_slice -> cont_4
I0122 01:37:01.407877 27435 net.cpp:151] Setting up tracker_cont_slice
I0122 01:37:01.407883 27435 net.cpp:158] Top shape: 1 1 (1)
I0122 01:37:01.407888 27435 net.cpp:158] Top shape: 1 1 (1)
I0122 01:37:01.407892 27435 net.cpp:158] Top shape: 1 1 (1)
I0122 01:37:01.407897 27435 net.cpp:158] Top shape: 1 1 (1)
I0122 01:37:01.407907 27435 net.cpp:166] Memory required for data: 16
I0122 01:37:01.407912 27435 layer_factory.hpp:76] Creating layer tracker_x_slice
I0122 01:37:01.407917 27435 net.cpp:107] Creating Layer tracker_x_slice
I0122 01:37:01.407920 27435 net.cpp:455] tracker_x_slice <- x
I0122 01:37:01.407925 27435 net.cpp:412] tracker_x_slice -> x_1
I0122 01:37:01.407932 27435 net.cpp:412] tracker_x_slice -> x_2
I0122 01:37:01.407938 27435 net.cpp:412] tracker_x_slice -> x_3
I0122 01:37:01.407944 27435 net.cpp:412] tracker_x_slice -> x_4
I0122 01:37:01.408004 27435 net.cpp:151] Setting up tracker_x_slice
I0122 01:37:01.408010 27435 net.cpp:158] Top shape: 1 1 1800 256 (460800)
I0122 01:37:01.408015 27435 net.cpp:158] Top shape: 1 1 1800 256 (460800)
I0122 01:37:01.408018 27435 net.cpp:158] Top shape: 1 1 1800 256 (460800)
I0122 01:37:01.408023 27435 net.cpp:158] Top shape: 1 1 1800 256 (460800)
I0122 01:37:01.408026 27435 net.cpp:166] Memory required for data: 7372816
I0122 01:37:01.408030 27435 layer_factory.hpp:76] Creating layer x_1_tracker_x_slice_0_split
I0122 01:37:01.408035 27435 net.cpp:107] Creating Layer x_1_tracker_x_slice_0_split
I0122 01:37:01.408038 27435 net.cpp:455] x_1_tracker_x_slice_0_split <- x_1
I0122 01:37:01.408043 27435 net.cpp:412] x_1_tracker_x_slice_0_split -> x_1_tracker_x_slice_0_split_0
I0122 01:37:01.408049 27435 net.cpp:412] x_1_tracker_x_slice_0_split -> x_1_tracker_x_slice_0_split_1
I0122 01:37:01.408084 27435 net.cpp:151] Setting up x_1_tracker_x_slice_0_split
I0122 01:37:01.408089 27435 net.cpp:158] Top shape: 1 1 1800 256 (460800)
I0122 01:37:01.408094 27435 net.cpp:158] Top shape: 1 1 1800 256 (460800)
I0122 01:37:01.408098 27435 net.cpp:166] Memory required for data: 11059216
I0122 01:37:01.408102 27435 layer_factory.hpp:76] Creating layer x_2_tracker_x_slice_1_split
I0122 01:37:01.408107 27435 net.cpp:107] Creating Layer x_2_tracker_x_slice_1_split
I0122 01:37:01.408109 27435 net.cpp:455] x_2_tracker_x_slice_1_split <- x_2
I0122 01:37:01.408114 27435 net.cpp:412] x_2_tracker_x_slice_1_split -> x_2_tracker_x_slice_1_split_0
I0122 01:37:01.408121 27435 net.cpp:412] x_2_tracker_x_slice_1_split -> x_2_tracker_x_slice_1_split_1
I0122 01:37:01.408156 27435 net.cpp:151] Setting up x_2_tracker_x_slice_1_split
I0122 01:37:01.408162 27435 net.cpp:158] Top shape: 1 1 1800 256 (460800)
I0122 01:37:01.408166 27435 net.cpp:158] Top shape: 1 1 1800 256 (460800)
I0122 01:37:01.408169 27435 net.cpp:166] Memory required for data: 14745616
I0122 01:37:01.408172 27435 layer_factory.hpp:76] Creating layer x_3_tracker_x_slice_2_split
I0122 01:37:01.408179 27435 net.cpp:107] Creating Layer x_3_tracker_x_slice_2_split
I0122 01:37:01.408182 27435 net.cpp:455] x_3_tracker_x_slice_2_split <- x_3
I0122 01:37:01.408187 27435 net.cpp:412] x_3_tracker_x_slice_2_split -> x_3_tracker_x_slice_2_split_0
I0122 01:37:01.408193 27435 net.cpp:412] x_3_tracker_x_slice_2_split -> x_3_tracker_x_slice_2_split_1
I0122 01:37:01.408227 27435 net.cpp:151] Setting up x_3_tracker_x_slice_2_split
I0122 01:37:01.408233 27435 net.cpp:158] Top shape: 1 1 1800 256 (460800)
I0122 01:37:01.408237 27435 net.cpp:158] Top shape: 1 1 1800 256 (460800)
I0122 01:37:01.408241 27435 net.cpp:166] Memory required for data: 18432016
I0122 01:37:01.408243 27435 layer_factory.hpp:76] Creating layer x_4_tracker_x_slice_3_split
I0122 01:37:01.408247 27435 net.cpp:107] Creating Layer x_4_tracker_x_slice_3_split
I0122 01:37:01.408252 27435 net.cpp:455] x_4_tracker_x_slice_3_split <- x_4
I0122 01:37:01.408255 27435 net.cpp:412] x_4_tracker_x_slice_3_split -> x_4_tracker_x_slice_3_split_0
I0122 01:37:01.408262 27435 net.cpp:412] x_4_tracker_x_slice_3_split -> x_4_tracker_x_slice_3_split_1
I0122 01:37:01.408296 27435 net.cpp:151] Setting up x_4_tracker_x_slice_3_split
I0122 01:37:01.408301 27435 net.cpp:158] Top shape: 1 1 1800 256 (460800)
I0122 01:37:01.408305 27435 net.cpp:158] Top shape: 1 1 1800 256 (460800)
I0122 01:37:01.408308 27435 net.cpp:166] Memory required for data: 22118416
I0122 01:37:01.408311 27435 layer_factory.hpp:76] Creating layer tracker_overlaps_slice
I0122 01:37:01.408323 27435 net.cpp:107] Creating Layer tracker_overlaps_slice
I0122 01:37:01.408326 27435 net.cpp:455] tracker_overlaps_slice <- overlaps
I0122 01:37:01.408332 27435 net.cpp:412] tracker_overlaps_slice -> overlaps_1
I0122 01:37:01.408339 27435 net.cpp:412] tracker_overlaps_slice -> overlaps_2
I0122 01:37:01.408346 27435 net.cpp:412] tracker_overlaps_slice -> overlaps_3
I0122 01:37:01.408352 27435 net.cpp:412] tracker_overlaps_slice -> overlaps_4
I0122 01:37:01.408412 27435 net.cpp:151] Setting up tracker_overlaps_slice
I0122 01:37:01.408418 27435 net.cpp:158] Top shape: 1 1 1800 1800 (3240000)
I0122 01:37:01.408422 27435 net.cpp:158] Top shape: 1 1 1800 1800 (3240000)
I0122 01:37:01.408427 27435 net.cpp:158] Top shape: 1 1 1800 1800 (3240000)
I0122 01:37:01.408431 27435 net.cpp:158] Top shape: 1 1 1800 1800 (3240000)
I0122 01:37:01.408434 27435 net.cpp:166] Memory required for data: 73958416
I0122 01:37:01.408437 27435 layer_factory.hpp:76] Creating layer tracker_seg_num_slice
I0122 01:37:01.408442 27435 net.cpp:107] Creating Layer tracker_seg_num_slice
I0122 01:37:01.408447 27435 net.cpp:455] tracker_seg_num_slice <- seg_num
I0122 01:37:01.408452 27435 net.cpp:412] tracker_seg_num_slice -> nseg_1
I0122 01:37:01.408457 27435 net.cpp:412] tracker_seg_num_slice -> nseg_2
I0122 01:37:01.408464 27435 net.cpp:412] tracker_seg_num_slice -> nseg_3
I0122 01:37:01.408470 27435 net.cpp:412] tracker_seg_num_slice -> nseg_4
I0122 01:37:01.408531 27435 net.cpp:151] Setting up tracker_seg_num_slice
I0122 01:37:01.408537 27435 net.cpp:158] Top shape: 1 1 (1)
I0122 01:37:01.408541 27435 net.cpp:158] Top shape: 1 1 (1)
I0122 01:37:01.408546 27435 net.cpp:158] Top shape: 1 1 (1)
I0122 01:37:01.408550 27435 net.cpp:158] Top shape: 1 1 (1)
I0122 01:37:01.408553 27435 net.cpp:166] Memory required for data: 73958432
I0122 01:37:01.408556 27435 layer_factory.hpp:76] Creating layer tracker_overlaps_split_1
I0122 01:37:01.408561 27435 net.cpp:107] Creating Layer tracker_overlaps_split_1
I0122 01:37:01.408565 27435 net.cpp:455] tracker_overlaps_split_1 <- overlaps_1
I0122 01:37:01.408573 27435 net.cpp:412] tracker_overlaps_split_1 -> overlaps1_1
I0122 01:37:01.408579 27435 net.cpp:412] tracker_overlaps_split_1 -> overlaps2_1
I0122 01:37:01.408615 27435 net.cpp:151] Setting up tracker_overlaps_split_1
I0122 01:37:01.408620 27435 net.cpp:158] Top shape: 1 1 1800 1800 (3240000)
I0122 01:37:01.408625 27435 net.cpp:158] Top shape: 1 1 1800 1800 (3240000)
I0122 01:37:01.408629 27435 net.cpp:166] Memory required for data: 99878432
I0122 01:37:01.408632 27435 layer_factory.hpp:76] Creating layer tracker_x_split_1
I0122 01:37:01.408637 27435 net.cpp:107] Creating Layer tracker_x_split_1
I0122 01:37:01.408640 27435 net.cpp:455] tracker_x_split_1 <- x_1_tracker_x_slice_0_split_0
I0122 01:37:01.408645 27435 net.cpp:412] tracker_x_split_1 -> x1_1
I0122 01:37:01.408651 27435 net.cpp:412] tracker_x_split_1 -> x2_1
I0122 01:37:01.408658 27435 net.cpp:412] tracker_x_split_1 -> x3_1
I0122 01:37:01.408663 27435 net.cpp:412] tracker_x_split_1 -> x4_1
I0122 01:37:01.408725 27435 net.cpp:151] Setting up tracker_x_split_1
I0122 01:37:01.408730 27435 net.cpp:158] Top shape: 1 1 1800 256 (460800)
I0122 01:37:01.408735 27435 net.cpp:158] Top shape: 1 1 1800 256 (460800)
I0122 01:37:01.408738 27435 net.cpp:158] Top shape: 1 1 1800 256 (460800)
I0122 01:37:01.408743 27435 net.cpp:158] Top shape: 1 1 1800 256 (460800)
I0122 01:37:01.408746 27435 net.cpp:166] Memory required for data: 107251232
I0122 01:37:01.408749 27435 layer_factory.hpp:76] Creating layer tracker_cont_split_1
I0122 01:37:01.408753 27435 net.cpp:107] Creating Layer tracker_cont_split_1
I0122 01:37:01.408757 27435 net.cpp:455] tracker_cont_split_1 <- cont_1
I0122 01:37:01.408763 27435 net.cpp:412] tracker_cont_split_1 -> cont1_1
I0122 01:37:01.408769 27435 net.cpp:412] tracker_cont_split_1 -> cont2_1
I0122 01:37:01.408776 27435 net.cpp:412] tracker_cont_split_1 -> cont3_1
I0122 01:37:01.408782 27435 net.cpp:412] tracker_cont_split_1 -> cont4_1
I0122 01:37:01.408841 27435 net.cpp:151] Setting up tracker_cont_split_1
I0122 01:37:01.408852 27435 net.cpp:158] Top shape: 1 1 (1)
I0122 01:37:01.408856 27435 net.cpp:158] Top shape: 1 1 (1)
I0122 01:37:01.408860 27435 net.cpp:158] Top shape: 1 1 (1)
I0122 01:37:01.408864 27435 net.cpp:158] Top shape: 1 1 (1)
I0122 01:37:01.408869 27435 net.cpp:166] Memory required for data: 107251248
I0122 01:37:01.408871 27435 layer_factory.hpp:76] Creating layer tracker_h_split_0
I0122 01:37:01.408876 27435 net.cpp:107] Creating Layer tracker_h_split_0
I0122 01:37:01.408880 27435 net.cpp:455] tracker_h_split_0 <- h_0
I0122 01:37:01.408885 27435 net.cpp:412] tracker_h_split_0 -> h1_0
I0122 01:37:01.408891 27435 net.cpp:412] tracker_h_split_0 -> h2_0
I0122 01:37:01.408926 27435 net.cpp:151] Setting up tracker_h_split_0
I0122 01:37:01.408932 27435 net.cpp:158] Top shape: 1 1 256 256 (65536)
I0122 01:37:01.408936 27435 net.cpp:158] Top shape: 1 1 256 256 (65536)
I0122 01:37:01.408939 27435 net.cpp:166] Memory required for data: 107775536
I0122 01:37:01.408942 27435 layer_factory.hpp:76] Creating layer tracker_c_split_0
I0122 01:37:01.408947 27435 net.cpp:107] Creating Layer tracker_c_split_0
I0122 01:37:01.408951 27435 net.cpp:455] tracker_c_split_0 <- c_0
I0122 01:37:01.408956 27435 net.cpp:412] tracker_c_split_0 -> c1_0
I0122 01:37:01.408962 27435 net.cpp:412] tracker_c_split_0 -> c2_0
I0122 01:37:01.408994 27435 net.cpp:151] Setting up tracker_c_split_0
I0122 01:37:01.408999 27435 net.cpp:158] Top shape: 1 1 1800 256 (460800)
I0122 01:37:01.409004 27435 net.cpp:158] Top shape: 1 1 1800 256 (460800)
I0122 01:37:01.409008 27435 net.cpp:166] Memory required for data: 111461936
I0122 01:37:01.409010 27435 layer_factory.hpp:76] Creating layer tracker_s_cont_0
I0122 01:37:01.409016 27435 net.cpp:107] Creating Layer tracker_s_cont_0
I0122 01:37:01.409019 27435 net.cpp:455] tracker_s_cont_0 <- s_0
I0122 01:37:01.409024 27435 net.cpp:455] tracker_s_cont_0 <- cont4_1
I0122 01:37:01.409030 27435 net.cpp:412] tracker_s_cont_0 -> s_cont_0
I0122 01:37:01.409095 27435 net.cpp:151] Setting up tracker_s_cont_0
I0122 01:37:01.409099 27435 net.cpp:158] Top shape: 1 1 1 (1)
I0122 01:37:01.409103 27435 net.cpp:166] Memory required for data: 111461940
I0122 01:37:01.409106 27435 layer_factory.hpp:76] Creating layer tracker_s_cont_split_0
I0122 01:37:01.409111 27435 net.cpp:107] Creating Layer tracker_s_cont_split_0
I0122 01:37:01.409114 27435 net.cpp:455] tracker_s_cont_split_0 <- s_cont_0
I0122 01:37:01.409119 27435 net.cpp:412] tracker_s_cont_split_0 -> s1_cont_0
I0122 01:37:01.409126 27435 net.cpp:412] tracker_s_cont_split_0 -> s2_cont_0
I0122 01:37:01.409158 27435 net.cpp:151] Setting up tracker_s_cont_split_0
I0122 01:37:01.409163 27435 net.cpp:158] Top shape: 1 1 1 (1)
I0122 01:37:01.409168 27435 net.cpp:158] Top shape: 1 1 1 (1)
I0122 01:37:01.409171 27435 net.cpp:166] Memory required for data: 111461948
I0122 01:37:01.409174 27435 layer_factory.hpp:76] Creating layer tracker_hm1_0
I0122 01:37:01.409181 27435 net.cpp:107] Creating Layer tracker_hm1_0
I0122 01:37:01.409184 27435 net.cpp:455] tracker_hm1_0 <- h1_0
I0122 01:37:01.409189 27435 net.cpp:455] tracker_hm1_0 <- s1_cont_0
I0122 01:37:01.409194 27435 net.cpp:412] tracker_hm1_0 -> hm1_0
I0122 01:37:01.409230 27435 net.cpp:151] Setting up tracker_hm1_0
I0122 01:37:01.409235 27435 net.cpp:158] Top shape: 1 1 256 256 (65536)
I0122 01:37:01.409240 27435 net.cpp:166] Memory required for data: 111724092
I0122 01:37:01.409242 27435 layer_factory.hpp:76] Creating layer tracker_w_0
I0122 01:37:01.409248 27435 net.cpp:107] Creating Layer tracker_w_0
I0122 01:37:01.409252 27435 net.cpp:455] tracker_w_0 <- c1_0
I0122 01:37:01.409256 27435 net.cpp:455] tracker_w_0 <- hm1_0
I0122 01:37:01.409261 27435 net.cpp:412] tracker_w_0 -> w_0
I0122 01:37:01.409284 27435 net.cpp:151] Setting up tracker_w_0
I0122 01:37:01.409291 27435 net.cpp:158] Top shape: 1 1 1800 256 (460800)
I0122 01:37:01.409293 27435 net.cpp:166] Memory required for data: 113567292
I0122 01:37:01.409296 27435 layer_factory.hpp:76] Creating layer tracker_v_1
I0122 01:37:01.409301 27435 net.cpp:107] Creating Layer tracker_v_1
I0122 01:37:01.409310 27435 net.cpp:455] tracker_v_1 <- w_0
I0122 01:37:01.409314 27435 net.cpp:455] tracker_v_1 <- x_1_tracker_x_slice_0_split_1
I0122 01:37:01.409319 27435 net.cpp:412] tracker_v_1 -> v_1
I0122 01:37:01.409343 27435 net.cpp:151] Setting up tracker_v_1
I0122 01:37:01.409348 27435 net.cpp:158] Top shape: 1 1 1800 1800 (3240000)
I0122 01:37:01.409351 27435 net.cpp:166] Memory required for data: 126527292
I0122 01:37:01.409354 27435 layer_factory.hpp:76] Creating layer tracker_rename_overlaps_1
I0122 01:37:01.409358 27435 net.cpp:107] Creating Layer tracker_rename_overlaps_1
I0122 01:37:01.409363 27435 net.cpp:455] tracker_rename_overlaps_1 <- overlaps1_1
I0122 01:37:01.409366 27435 net.cpp:412] tracker_rename_overlaps_1 -> s_overlaps_1
I0122 01:37:01.409387 27435 net.cpp:151] Setting up tracker_rename_overlaps_1
I0122 01:37:01.409392 27435 net.cpp:158] Top shape: 1 1 1800 1800 (3240000)
I0122 01:37:01.409395 27435 net.cpp:166] Memory required for data: 139487292
I0122 01:37:01.409399 27435 layer_factory.hpp:76] Creating layer tracker_v_cont_1
I0122 01:37:01.409405 27435 net.cpp:107] Creating Layer tracker_v_cont_1
I0122 01:37:01.409409 27435 net.cpp:455] tracker_v_cont_1 <- s_overlaps_1
I0122 01:37:01.409414 27435 net.cpp:455] tracker_v_cont_1 <- v_1
I0122 01:37:01.409417 27435 net.cpp:455] tracker_v_cont_1 <- cont1_1
I0122 01:37:01.409422 27435 net.cpp:412] tracker_v_cont_1 -> v_cont_1
I0122 01:37:01.409443 27435 net.cpp:151] Setting up tracker_v_cont_1
I0122 01:37:01.409449 27435 net.cpp:158] Top shape: 1 1 1800 1800 (3240000)
I0122 01:37:01.409452 27435 net.cpp:166] Memory required for data: 152447292
I0122 01:37:01.409456 27435 layer_factory.hpp:76] Creating layer tracker_v_split_1
I0122 01:37:01.409461 27435 net.cpp:107] Creating Layer tracker_v_split_1
I0122 01:37:01.409463 27435 net.cpp:455] tracker_v_split_1 <- v_cont_1
I0122 01:37:01.409471 27435 net.cpp:412] tracker_v_split_1 -> v1_1
I0122 01:37:01.409476 27435 net.cpp:412] tracker_v_split_1 -> v3_1
I0122 01:37:01.409482 27435 net.cpp:412] tracker_v_split_1 -> v4_1
I0122 01:37:01.409489 27435 net.cpp:412] tracker_v_split_1 -> v2_1
I0122 01:37:01.409548 27435 net.cpp:151] Setting up tracker_v_split_1
I0122 01:37:01.409554 27435 net.cpp:158] Top shape: 1 1 1800 1800 (3240000)
I0122 01:37:01.409557 27435 net.cpp:158] Top shape: 1 1 1800 1800 (3240000)
I0122 01:37:01.409562 27435 net.cpp:158] Top shape: 1 1 1800 1800 (3240000)
I0122 01:37:01.409566 27435 net.cpp:158] Top shape: 1 1 1800 1800 (3240000)
I0122 01:37:01.409569 27435 net.cpp:166] Memory required for data: 204287292
I0122 01:37:01.409574 27435 layer_factory.hpp:76] Creating layer tracker_vtilde_1
I0122 01:37:01.409579 27435 net.cpp:107] Creating Layer tracker_vtilde_1
I0122 01:37:01.409581 27435 net.cpp:455] tracker_vtilde_1 <- v4_1
I0122 01:37:01.409585 27435 net.cpp:455] tracker_vtilde_1 <- overlaps2_1
I0122 01:37:01.409590 27435 net.cpp:455] tracker_vtilde_1 <- nseg_1
I0122 01:37:01.409595 27435 net.cpp:412] tracker_vtilde_1 -> vtilde_1
I0122 01:37:01.409631 27435 net.cpp:151] Setting up tracker_vtilde_1
I0122 01:37:01.409636 27435 net.cpp:158] Top shape: 1 1 1800 1800 (3240000)
I0122 01:37:01.409639 27435 net.cpp:166] Memory required for data: 217247292
I0122 01:37:01.409642 27435 layer_factory.hpp:76] Creating layer tracker_vtilde_split_1
I0122 01:37:01.409646 27435 net.cpp:107] Creating Layer tracker_vtilde_split_1
I0122 01:37:01.409651 27435 net.cpp:455] tracker_vtilde_split_1 <- vtilde_1
I0122 01:37:01.409654 27435 net.cpp:412] tracker_vtilde_split_1 -> vtilde1_1
I0122 01:37:01.409675 27435 net.cpp:151] Setting up tracker_vtilde_split_1
I0122 01:37:01.409680 27435 net.cpp:158] Top shape: 1 1 1800 1800 (3240000)
I0122 01:37:01.409683 27435 net.cpp:166] Memory required for data: 230207292
I0122 01:37:01.409687 27435 layer_factory.hpp:76] Creating layer tracker_reshape1_1
I0122 01:37:01.409693 27435 net.cpp:107] Creating Layer tracker_reshape1_1
I0122 01:37:01.409695 27435 net.cpp:455] tracker_reshape1_1 <- v1_1
I0122 01:37:01.409701 27435 net.cpp:412] tracker_reshape1_1 -> vr_1
I0122 01:37:01.409731 27435 net.cpp:151] Setting up tracker_reshape1_1
I0122 01:37:01.409736 27435 net.cpp:158] Top shape: 1 1 1800 1800 (3240000)
I0122 01:37:01.409740 27435 net.cpp:166] Memory required for data: 243167292
I0122 01:37:01.409744 27435 layer_factory.hpp:76] Creating layer tracker_max_1
I0122 01:37:01.409749 27435 net.cpp:107] Creating Layer tracker_max_1
I0122 01:37:01.409752 27435 net.cpp:455] tracker_max_1 <- vr_1
I0122 01:37:01.409757 27435 net.cpp:412] tracker_max_1 -> mr_1
I0122 01:37:01.410135 27435 net.cpp:151] Setting up tracker_max_1
I0122 01:37:01.410143 27435 net.cpp:158] Top shape: 1 1 1 1800 (1800)
I0122 01:37:01.410146 27435 net.cpp:166] Memory required for data: 243174492
I0122 01:37:01.410151 27435 layer_factory.hpp:76] Creating layer tracker_reshape2_1
I0122 01:37:01.410156 27435 net.cpp:107] Creating Layer tracker_reshape2_1
I0122 01:37:01.410159 27435 net.cpp:455] tracker_reshape2_1 <- mr_1
I0122 01:37:01.410171 27435 net.cpp:412] tracker_reshape2_1 -> m_1
I0122 01:37:01.410194 27435 net.cpp:151] Setting up tracker_reshape2_1
I0122 01:37:01.410199 27435 net.cpp:158] Top shape: 1 1 1800 (1800)
I0122 01:37:01.410202 27435 net.cpp:166] Memory required for data: 243181692
I0122 01:37:01.410207 27435 layer_factory.hpp:76] Creating layer tracker_m_split_1
I0122 01:37:01.410212 27435 net.cpp:107] Creating Layer tracker_m_split_1
I0122 01:37:01.410215 27435 net.cpp:455] tracker_m_split_1 <- m_1
I0122 01:37:01.410220 27435 net.cpp:412] tracker_m_split_1 -> m1_1
I0122 01:37:01.410228 27435 net.cpp:412] tracker_m_split_1 -> m2_1
I0122 01:37:01.410264 27435 net.cpp:151] Setting up tracker_m_split_1
I0122 01:37:01.410269 27435 net.cpp:158] Top shape: 1 1 1800 (1800)
I0122 01:37:01.410272 27435 net.cpp:158] Top shape: 1 1 1800 (1800)
I0122 01:37:01.410276 27435 net.cpp:166] Memory required for data: 243196092
I0122 01:37:01.410279 27435 layer_factory.hpp:76] Creating layer tracker_concat_s_elemens_1
I0122 01:37:01.410285 27435 net.cpp:107] Creating Layer tracker_concat_s_elemens_1
I0122 01:37:01.410290 27435 net.cpp:455] tracker_concat_s_elemens_1 <- m2_1
I0122 01:37:01.410293 27435 net.cpp:455] tracker_concat_s_elemens_1 <- s2_cont_0
I0122 01:37:01.410298 27435 net.cpp:412] tracker_concat_s_elemens_1 -> s_elem_1
I0122 01:37:01.410327 27435 net.cpp:151] Setting up tracker_concat_s_elemens_1
I0122 01:37:01.410334 27435 net.cpp:158] Top shape: 1 1 1801 (1801)
I0122 01:37:01.410337 27435 net.cpp:166] Memory required for data: 243203296
I0122 01:37:01.410341 27435 layer_factory.hpp:76] Creating layer tracker_sum_s_elemens_1
I0122 01:37:01.410346 27435 net.cpp:107] Creating Layer tracker_sum_s_elemens_1
I0122 01:37:01.410349 27435 net.cpp:455] tracker_sum_s_elemens_1 <- s_elem_1
I0122 01:37:01.410354 27435 net.cpp:412] tracker_sum_s_elemens_1 -> ns_1
I0122 01:37:01.410392 27435 net.cpp:151] Setting up tracker_sum_s_elemens_1
I0122 01:37:01.410398 27435 net.cpp:158] Top shape: (1)
I0122 01:37:01.410401 27435 net.cpp:166] Memory required for data: 243203300
I0122 01:37:01.410404 27435 layer_factory.hpp:76] Creating layer tracker_s_reshape_1
I0122 01:37:01.410409 27435 net.cpp:107] Creating Layer tracker_s_reshape_1
I0122 01:37:01.410413 27435 net.cpp:455] tracker_s_reshape_1 <- ns_1
I0122 01:37:01.410419 27435 net.cpp:412] tracker_s_reshape_1 -> s_1
I0122 01:37:01.410444 27435 net.cpp:151] Setting up tracker_s_reshape_1
I0122 01:37:01.410449 27435 net.cpp:158] Top shape: 1 1 1 (1)
I0122 01:37:01.410451 27435 net.cpp:166] Memory required for data: 243203304
I0122 01:37:01.410454 27435 layer_factory.hpp:76] Creating layer tracker_mx_1
I0122 01:37:01.410459 27435 net.cpp:107] Creating Layer tracker_mx_1
I0122 01:37:01.410464 27435 net.cpp:455] tracker_mx_1 <- m1_1
I0122 01:37:01.410467 27435 net.cpp:455] tracker_mx_1 <- x2_1
I0122 01:37:01.410472 27435 net.cpp:412] tracker_mx_1 -> mx_1
I0122 01:37:01.410496 27435 net.cpp:151] Setting up tracker_mx_1
I0122 01:37:01.410501 27435 net.cpp:158] Top shape: 1 1 1800 256 (460800)
I0122 01:37:01.410506 27435 net.cpp:166] Memory required for data: 245046504
I0122 01:37:01.410516 27435 layer_factory.hpp:76] Creating layer tracker_mx_split_1
I0122 01:37:01.410521 27435 net.cpp:107] Creating Layer tracker_mx_split_1
I0122 01:37:01.410523 27435 net.cpp:455] tracker_mx_split_1 <- mx_1
I0122 01:37:01.410528 27435 net.cpp:412] tracker_mx_split_1 -> mx1_1
I0122 01:37:01.410534 27435 net.cpp:412] tracker_mx_split_1 -> mx2_1
I0122 01:37:01.410569 27435 net.cpp:151] Setting up tracker_mx_split_1
I0122 01:37:01.410575 27435 net.cpp:158] Top shape: 1 1 1800 256 (460800)
I0122 01:37:01.410579 27435 net.cpp:158] Top shape: 1 1 1800 256 (460800)
I0122 01:37:01.410583 27435 net.cpp:166] Memory required for data: 248732904
I0122 01:37:01.410585 27435 layer_factory.hpp:76] Creating layer tracker_xmx_1
I0122 01:37:01.410593 27435 net.cpp:107] Creating Layer tracker_xmx_1
I0122 01:37:01.410596 27435 net.cpp:455] tracker_xmx_1 <- x3_1
I0122 01:37:01.410601 27435 net.cpp:455] tracker_xmx_1 <- mx1_1
I0122 01:37:01.410606 27435 net.cpp:412] tracker_xmx_1 -> xmx_1
I0122 01:37:01.410629 27435 net.cpp:151] Setting up tracker_xmx_1
I0122 01:37:01.410634 27435 net.cpp:158] Top shape: 1 1 256 256 (65536)
I0122 01:37:01.410637 27435 net.cpp:166] Memory required for data: 248995048
I0122 01:37:01.410641 27435 layer_factory.hpp:76] Creating layer tracker_h_cont_0
I0122 01:37:01.410645 27435 net.cpp:107] Creating Layer tracker_h_cont_0
I0122 01:37:01.410650 27435 net.cpp:455] tracker_h_cont_0 <- h2_0
I0122 01:37:01.410653 27435 net.cpp:455] tracker_h_cont_0 <- cont2_1
I0122 01:37:01.410660 27435 net.cpp:412] tracker_h_cont_0 -> h_cont_0
I0122 01:37:01.410751 27435 net.cpp:151] Setting up tracker_h_cont_0
I0122 01:37:01.410758 27435 net.cpp:158] Top shape: 1 1 256 256 (65536)
I0122 01:37:01.410760 27435 net.cpp:166] Memory required for data: 249257192
I0122 01:37:01.410763 27435 layer_factory.hpp:76] Creating layer tracker_h_1
I0122 01:37:01.410769 27435 net.cpp:107] Creating Layer tracker_h_1
I0122 01:37:01.410773 27435 net.cpp:455] tracker_h_1 <- h_cont_0
I0122 01:37:01.410778 27435 net.cpp:455] tracker_h_1 <- xmx_1
I0122 01:37:01.410784 27435 net.cpp:412] tracker_h_1 -> h_1
I0122 01:37:01.410807 27435 net.cpp:151] Setting up tracker_h_1
I0122 01:37:01.410815 27435 net.cpp:158] Top shape: 1 1 256 256 (65536)
I0122 01:37:01.410820 27435 net.cpp:166] Memory required for data: 249519336
I0122 01:37:01.410823 27435 layer_factory.hpp:76] Creating layer tracker_vmx_1
I0122 01:37:01.410828 27435 net.cpp:107] Creating Layer tracker_vmx_1
I0122 01:37:01.410832 27435 net.cpp:455] tracker_vmx_1 <- v2_1
I0122 01:37:01.410836 27435 net.cpp:455] tracker_vmx_1 <- mx2_1
I0122 01:37:01.410843 27435 net.cpp:412] tracker_vmx_1 -> vmx_1
I0122 01:37:01.410864 27435 net.cpp:151] Setting up tracker_vmx_1
I0122 01:37:01.410871 27435 net.cpp:158] Top shape: 1 1 1800 256 (460800)
I0122 01:37:01.410873 27435 net.cpp:166] Memory required for data: 251362536
I0122 01:37:01.410876 27435 layer_factory.hpp:76] Creating layer tracker_c_cont_0
I0122 01:37:01.410881 27435 net.cpp:107] Creating Layer tracker_c_cont_0
I0122 01:37:01.410886 27435 net.cpp:455] tracker_c_cont_0 <- c2_0
I0122 01:37:01.410889 27435 net.cpp:455] tracker_c_cont_0 <- cont3_1
I0122 01:37:01.410895 27435 net.cpp:412] tracker_c_cont_0 -> c_cont_0
I0122 01:37:01.411427 27435 net.cpp:151] Setting up tracker_c_cont_0
I0122 01:37:01.411437 27435 net.cpp:158] Top shape: 1 1 1800 256 (460800)
I0122 01:37:01.411440 27435 net.cpp:166] Memory required for data: 253205736
I0122 01:37:01.411443 27435 layer_factory.hpp:76] Creating layer tracker_c_1
I0122 01:37:01.411450 27435 net.cpp:107] Creating Layer tracker_c_1
I0122 01:37:01.411454 27435 net.cpp:455] tracker_c_1 <- c_cont_0
I0122 01:37:01.411459 27435 net.cpp:455] tracker_c_1 <- vmx_1
I0122 01:37:01.411465 27435 net.cpp:412] tracker_c_1 -> c_1
I0122 01:37:01.411489 27435 net.cpp:151] Setting up tracker_c_1
I0122 01:37:01.411495 27435 net.cpp:158] Top shape: 1 1 1800 256 (460800)
I0122 01:37:01.411499 27435 net.cpp:166] Memory required for data: 255048936
I0122 01:37:01.411502 27435 layer_factory.hpp:76] Creating layer tracker_overlaps_split_2
I0122 01:37:01.411512 27435 net.cpp:107] Creating Layer tracker_overlaps_split_2
I0122 01:37:01.411517 27435 net.cpp:455] tracker_overlaps_split_2 <- overlaps_2
I0122 01:37:01.411525 27435 net.cpp:412] tracker_overlaps_split_2 -> overlaps1_2
I0122 01:37:01.411531 27435 net.cpp:412] tracker_overlaps_split_2 -> overlaps2_2
I0122 01:37:01.411564 27435 net.cpp:151] Setting up tracker_overlaps_split_2
I0122 01:37:01.411569 27435 net.cpp:158] Top shape: 1 1 1800 1800 (3240000)
I0122 01:37:01.411573 27435 net.cpp:158] Top shape: 1 1 1800 1800 (3240000)
I0122 01:37:01.411577 27435 net.cpp:166] Memory required for data: 280968936
I0122 01:37:01.411581 27435 layer_factory.hpp:76] Creating layer tracker_x_split_2
I0122 01:37:01.411586 27435 net.cpp:107] Creating Layer tracker_x_split_2
I0122 01:37:01.411589 27435 net.cpp:455] tracker_x_split_2 <- x_2_tracker_x_slice_1_split_0
I0122 01:37:01.411594 27435 net.cpp:412] tracker_x_split_2 -> x1_2
I0122 01:37:01.411600 27435 net.cpp:412] tracker_x_split_2 -> x2_2
I0122 01:37:01.411607 27435 net.cpp:412] tracker_x_split_2 -> x3_2
I0122 01:37:01.411615 27435 net.cpp:412] tracker_x_split_2 -> x4_2
I0122 01:37:01.411664 27435 net.cpp:151] Setting up tracker_x_split_2
I0122 01:37:01.411669 27435 net.cpp:158] Top shape: 1 1 1800 256 (460800)
I0122 01:37:01.411674 27435 net.cpp:158] Top shape: 1 1 1800 256 (460800)
I0122 01:37:01.411677 27435 net.cpp:158] Top shape: 1 1 1800 256 (460800)
I0122 01:37:01.411682 27435 net.cpp:158] Top shape: 1 1 1800 256 (460800)
I0122 01:37:01.411685 27435 net.cpp:166] Memory required for data: 288341736
I0122 01:37:01.411689 27435 layer_factory.hpp:76] Creating layer tracker_cont_split_2
I0122 01:37:01.411694 27435 net.cpp:107] Creating Layer tracker_cont_split_2
I0122 01:37:01.411697 27435 net.cpp:455] tracker_cont_split_2 <- cont_2
I0122 01:37:01.411703 27435 net.cpp:412] tracker_cont_split_2 -> cont1_2
I0122 01:37:01.411710 27435 net.cpp:412] tracker_cont_split_2 -> cont2_2
I0122 01:37:01.411717 27435 net.cpp:412] tracker_cont_split_2 -> cont3_2
I0122 01:37:01.411725 27435 net.cpp:412] tracker_cont_split_2 -> cont4_2
I0122 01:37:01.411772 27435 net.cpp:151] Setting up tracker_cont_split_2
I0122 01:37:01.411778 27435 net.cpp:158] Top shape: 1 1 (1)
I0122 01:37:01.411782 27435 net.cpp:158] Top shape: 1 1 (1)
I0122 01:37:01.411787 27435 net.cpp:158] Top shape: 1 1 (1)
I0122 01:37:01.411790 27435 net.cpp:158] Top shape: 1 1 (1)
I0122 01:37:01.411794 27435 net.cpp:166] Memory required for data: 288341752
I0122 01:37:01.411798 27435 layer_factory.hpp:76] Creating layer tracker_h_split_1
I0122 01:37:01.411803 27435 net.cpp:107] Creating Layer tracker_h_split_1
I0122 01:37:01.411808 27435 net.cpp:455] tracker_h_split_1 <- h_1
I0122 01:37:01.411813 27435 net.cpp:412] tracker_h_split_1 -> h1_1
I0122 01:37:01.411818 27435 net.cpp:412] tracker_h_split_1 -> h2_1
I0122 01:37:01.411849 27435 net.cpp:151] Setting up tracker_h_split_1
I0122 01:37:01.411854 27435 net.cpp:158] Top shape: 1 1 256 256 (65536)
I0122 01:37:01.411859 27435 net.cpp:158] Top shape: 1 1 256 256 (65536)
I0122 01:37:01.411862 27435 net.cpp:166] Memory required for data: 288866040
I0122 01:37:01.411865 27435 layer_factory.hpp:76] Creating layer tracker_c_split_1
I0122 01:37:01.411870 27435 net.cpp:107] Creating Layer tracker_c_split_1
I0122 01:37:01.411873 27435 net.cpp:455] tracker_c_split_1 <- c_1
I0122 01:37:01.411878 27435 net.cpp:412] tracker_c_split_1 -> c1_1
I0122 01:37:01.411885 27435 net.cpp:412] tracker_c_split_1 -> c2_1
I0122 01:37:01.411914 27435 net.cpp:151] Setting up tracker_c_split_1
I0122 01:37:01.411919 27435 net.cpp:158] Top shape: 1 1 1800 256 (460800)
I0122 01:37:01.411924 27435 net.cpp:158] Top shape: 1 1 1800 256 (460800)
I0122 01:37:01.411927 27435 net.cpp:166] Memory required for data: 292552440
I0122 01:37:01.411931 27435 layer_factory.hpp:76] Creating layer tracker_s_cont_1
I0122 01:37:01.411936 27435 net.cpp:107] Creating Layer tracker_s_cont_1
I0122 01:37:01.411941 27435 net.cpp:455] tracker_s_cont_1 <- s_1
I0122 01:37:01.411944 27435 net.cpp:455] tracker_s_cont_1 <- cont4_2
I0122 01:37:01.411957 27435 net.cpp:412] tracker_s_cont_1 -> s_cont_1
I0122 01:37:01.412009 27435 net.cpp:151] Setting up tracker_s_cont_1
I0122 01:37:01.412015 27435 net.cpp:158] Top shape: 1 1 1 (1)
I0122 01:37:01.412019 27435 net.cpp:166] Memory required for data: 292552444
I0122 01:37:01.412021 27435 layer_factory.hpp:76] Creating layer tracker_s_cont_split_1
I0122 01:37:01.412026 27435 net.cpp:107] Creating Layer tracker_s_cont_split_1
…
I0122 01:37:01.415478 27435 layer_factory.hpp:76] Creating layer tracker_reshape1_3
I0122 01:37:01.415484 27435 net.cpp:107] Creating Layer tracker_reshape1_3
I0122 01:37:01.415488 27435 net.cpp:455] tracker_reshape1_3 <- v1_3
I0122 01:37:01.415495 27435 net.cpp:412] tracker_reshape1_3 -> vr_3
I0122 01:37:01.415516 27435 net.cpp:151] Setting up tracker_reshape1_3
I0122 01:37:01.415523 27435 net.cpp:158] Top shape: 1 1 1800 1800 (3240000)
I0122 01:37:01.415525 27435 net.cpp:166] Memory required for data: 605348300
I0122 01:37:01.415529 27435 layer_factory.hpp:76] Creating layer tracker_max_3
I0122 01:37:01.415534 27435 net.cpp:107] Creating Layer tracker_max_3
I0122 01:37:01.415539 27435 net.cpp:455] tracker_max_3 <- vr_3
I0122 01:37:01.415544 27435 net.cpp:412] tracker_max_3 -> mr_3
I0122 01:37:01.415792 27435 net.cpp:151] Setting up tracker_max_3
I0122 01:37:01.415801 27435 net.cpp:158] Top shape: 1 1 1 1800 (1800)
I0122 01:37:01.415804 27435 net.cpp:166] Memory required for data: 605355500
I0122 01:37:01.415808 27435 layer_factory.hpp:76] Creating layer tracker_reshape2_3
I0122 01:37:01.415813 27435 net.cpp:107] Creating Layer tracker_reshape2_3
I0122 01:37:01.415817 27435 net.cpp:455] tracker_reshape2_3 <- mr_3
I0122 01:37:01.415823 27435 net.cpp:412] tracker_reshape2_3 -> m_3
I0122 01:37:01.415846 27435 net.cpp:151] Setting up tracker_reshape2_3
I0122 01:37:01.415853 27435 net.cpp:158] Top shape: 1 1 1800 (1800)
I0122 01:37:01.415855 27435 net.cpp:166] Memory required for data: 605362700
I0122 01:37:01.415859 27435 layer_factory.hpp:76] Creating layer tracker_m_split_3
I0122 01:37:01.415865 27435 net.cpp:107] Creating Layer tracker_m_split_3
I0122 01:37:01.415869 27435 net.cpp:455] tracker_m_split_3 <- m_3
I0122 01:37:01.415874 27435 net.cpp:412] tracker_m_split_3 -> m1_3
I0122 01:37:01.415880 27435 net.cpp:412] tracker_m_split_3 -> m2_3
I0122 01:37:01.415912 27435 net.cpp:151] Setting up tracker_m_split_3
I0122 01:37:01.415918 27435 net.cpp:158] Top shape: 1 1 1800 (1800)
I0122 01:37:01.415922 27435 net.cpp:158] Top shape: 1 1 1800 (1800)
I0122 01:37:01.415926 27435 net.cpp:166] Memory required for data: 605377100
I0122 01:37:01.415930 27435 layer_factory.hpp:76] Creating layer tracker_concat_s_elemens_3
I0122 01:37:01.415935 27435 net.cpp:107] Creating Layer tracker_concat_s_elemens_3
I0122 01:37:01.415938 27435 net.cpp:455] tracker_concat_s_elemens_3 <- m2_3
I0122 01:37:01.415942 27435 net.cpp:455] tracker_concat_s_elemens_3 <- s2_cont_2
I0122 01:37:01.415949 27435 net.cpp:412] tracker_concat_s_elemens_3 -> s_elem_3
I0122 01:37:01.415971 27435 net.cpp:151] Setting up tracker_concat_s_elemens_3
I0122 01:37:01.415977 27435 net.cpp:158] Top shape: 1 1 1801 (1801)
I0122 01:37:01.415980 27435 net.cpp:166] Memory required for data: 605384304
I0122 01:37:01.415984 27435 layer_factory.hpp:76] Creating layer tracker_sum_s_elemens_3
I0122 01:37:01.415989 27435 net.cpp:107] Creating Layer tracker_sum_s_elemens_3
I0122 01:37:01.415992 27435 net.cpp:455] tracker_sum_s_elemens_3 <- s_elem_3
I0122 01:37:01.415997 27435 net.cpp:412] tracker_sum_s_elemens_3 -> ns_3
I0122 01:37:01.416034 27435 net.cpp:151] Setting up tracker_sum_s_elemens_3
I0122 01:37:01.416039 27435 net.cpp:158] Top shape: (1)
I0122 01:37:01.416043 27435 net.cpp:166] Memory required for data: 605384308
I0122 01:37:01.416046 27435 layer_factory.hpp:76] Creating layer tracker_s_reshape_3
I0122 01:37:01.416051 27435 net.cpp:107] Creating Layer tracker_s_reshape_3
I0122 01:37:01.416055 27435 net.cpp:455] tracker_s_reshape_3 <- ns_3
I0122 01:37:01.416064 27435 net.cpp:412] tracker_s_reshape_3 -> s_3
I0122 01:37:01.416085 27435 net.cpp:151] Setting up tracker_s_reshape_3
I0122 01:37:01.416091 27435 net.cpp:158] Top shape: 1 1 1 (1)
I0122 01:37:01.416095 27435 net.cpp:166] Memory required for data: 605384312
I0122 01:37:01.416097 27435 layer_factory.hpp:76] Creating layer tracker_mx_3
I0122 01:37:01.416102 27435 net.cpp:107] Creating Layer tracker_mx_3
I0122 01:37:01.416106 27435 net.cpp:455] tracker_mx_3 <- m1_3
I0122 01:37:01.416111 27435 net.cpp:455] tracker_mx_3 <- x2_3
I0122 01:37:01.416122 27435 net.cpp:412] tracker_mx_3 -> mx_3
I0122 01:37:01.416146 27435 net.cpp:151] Setting up tracker_mx_3
I0122 01:37:01.416153 27435 net.cpp:158] Top shape: 1 1 1800 256 (460800)
I0122 01:37:01.416157 27435 net.cpp:166] Memory required for data: 607227512
I0122 01:37:01.416160 27435 layer_factory.hpp:76] Creating layer tracker_mx_split_3
I0122 01:37:01.416165 27435 net.cpp:107] Creating Layer tracker_mx_split_3
I0122 01:37:01.416169 27435 net.cpp:455] tracker_mx_split_3 <- mx_3
I0122 01:37:01.416174 27435 net.cpp:412] tracker_mx_split_3 -> mx1_3
I0122 01:37:01.416182 27435 net.cpp:412] tracker_mx_split_3 -> mx2_3
I0122 01:37:01.416211 27435 net.cpp:151] Setting up tracker_mx_split_3
I0122 01:37:01.416218 27435 net.cpp:158] Top shape: 1 1 1800 256 (460800)
I0122 01:37:01.416221 27435 net.cpp:158] Top shape: 1 1 1800 256 (460800)
I0122 01:37:01.416225 27435 net.cpp:166] Memory required for data: 610913912
I0122 01:37:01.416229 27435 layer_factory.hpp:76] Creating layer tracker_xmx_3
I0122 01:37:01.416234 27435 net.cpp:107] Creating Layer tracker_xmx_3
I0122 01:37:01.416237 27435 net.cpp:455] tracker_xmx_3 <- x3_3
I0122 01:37:01.416242 27435 net.cpp:455] tracker_xmx_3 <- mx1_3
I0122 01:37:01.416249 27435 net.cpp:412] tracker_xmx_3 -> xmx_3
I0122 01:37:01.416270 27435 net.cpp:151] Setting up tracker_xmx_3
I0122 01:37:01.416275 27435 net.cpp:158] Top shape: 1 1 256 256 (65536)
I0122 01:37:01.416278 27435 net.cpp:166] Memory required for data: 611176056
I0122 01:37:01.416281 27435 layer_factory.hpp:76] Creating layer tracker_h_cont_2
I0122 01:37:01.416286 27435 net.cpp:107] Creating Layer tracker_h_cont_2
I0122 01:37:01.416290 27435 net.cpp:455] tracker_h_cont_2 <- h2_2
I0122 01:37:01.416296 27435 net.cpp:455] tracker_h_cont_2 <- cont2_3
I0122 01:37:01.416302 27435 net.cpp:412] tracker_h_cont_2 -> h_cont_2
I0122 01:37:01.416363 27435 net.cpp:151] Setting up tracker_h_cont_2
I0122 01:37:01.416369 27435 net.cpp:158] Top shape: 1 1 256 256 (65536)
I0122 01:37:01.416373 27435 net.cpp:166] Memory required for data: 611438200
I0122 01:37:01.416376 27435 layer_factory.hpp:76] Creating layer tracker_h_3
I0122 01:37:01.416381 27435 net.cpp:107] Creating Layer tracker_h_3
I0122 01:37:01.416384 27435 net.cpp:455] tracker_h_3 <- h_cont_2
I0122 01:37:01.416389 27435 net.cpp:455] tracker_h_3 <- xmx_3
I0122 01:37:01.416396 27435 net.cpp:412] tracker_h_3 -> h_3
I0122 01:37:01.416417 27435 net.cpp:151] Setting up tracker_h_3
I0122 01:37:01.416422 27435 net.cpp:158] Top shape: 1 1 256 256 (65536)
I0122 01:37:01.416425 27435 net.cpp:166] Memory required for data: 611700344
I0122 01:37:01.416429 27435 layer_factory.hpp:76] Creating layer tracker_vmx_3
I0122 01:37:01.416434 27435 net.cpp:107] Creating Layer tracker_vmx_3
I0122 01:37:01.416437 27435 net.cpp:455] tracker_vmx_3 <- v2_3
I0122 01:37:01.416442 27435 net.cpp:455] tracker_vmx_3 <- mx2_3
I0122 01:37:01.416447 27435 net.cpp:412] tracker_vmx_3 -> vmx_3
I0122 01:37:01.416471 27435 net.cpp:151] Setting up tracker_vmx_3
I0122 01:37:01.416476 27435 net.cpp:158] Top shape: 1 1 1800 256 (460800)
I0122 01:37:01.416479 27435 net.cpp:166] Memory required for data: 613543544
I0122 01:37:01.416482 27435 layer_factory.hpp:76] Creating layer tracker_c_cont_2
I0122 01:37:01.416487 27435 net.cpp:107] Creating Layer tracker_c_cont_2
I0122 01:37:01.416491 27435 net.cpp:455] tracker_c_cont_2 <- c2_2
I0122 01:37:01.416496 27435 net.cpp:455] tracker_c_cont_2 <- cont3_3
I0122 01:37:01.416501 27435 net.cpp:412] tracker_c_cont_2 -> c_cont_2
I0122 01:37:01.417008 27435 net.cpp:151] Setting up tracker_c_cont_2
I0122 01:37:01.417017 27435 net.cpp:158] Top shape: 1 1 1800 256 (460800)
I0122 01:37:01.417021 27435 net.cpp:166] Memory required for data: 615386744
I0122 01:37:01.417024 27435 layer_factory.hpp:76] Creating layer tracker_c_3
I0122 01:37:01.417029 27435 net.cpp:107] Creating Layer tracker_c_3
I0122 01:37:01.417033 27435 net.cpp:455] tracker_c_3 <- c_cont_2
I0122 01:37:01.417038 27435 net.cpp:455] tracker_c_3 <- vmx_3
I0122 01:37:01.417045 27435 net.cpp:412] tracker_c_3 -> c_3
I0122 01:37:01.417078 27435 net.cpp:151] Setting up tracker_c_3
I0122 01:37:01.417083 27435 net.cpp:158] Top shape: 1 1 1800 256 (460800)
I0122 01:37:01.417086 27435 net.cpp:166] Memory required for data: 617229944
I0122 01:37:01.417089 27435 layer_factory.hpp:76] Creating layer tracker_overlaps_split_4
I0122 01:37:01.417094 27435 net.cpp:107] Creating Layer tracker_overlaps_split_4
I0122 01:37:01.417098 27435 net.cpp:455] tracker_overlaps_split_4 <- overlaps_4
I0122 01:37:01.417104 27435 net.cpp:412] tracker_overlaps_split_4 -> overlaps1_4
I0122 01:37:01.417112 27435 net.cpp:412] tracker_overlaps_split_4 -> overlaps2_4
I0122 01:37:01.417143 27435 net.cpp:151] Setting up tracker_overlaps_split_4
I0122 01:37:01.417150 27435 net.cpp:158] Top shape: 1 1 1800 1800 (3240000)
I0122 01:37:01.417155 27435 net.cpp:158] Top shape: 1 1 1800 1800 (3240000)
I0122 01:37:01.417157 27435 net.cpp:166] Memory required for data: 643149944
I0122 01:37:01.417161 27435 layer_factory.hpp:76] Creating layer tracker_x_split_4
I0122 01:37:01.417168 27435 net.cpp:107] Creating Layer tracker_x_split_4
I0122 01:37:01.417173 27435 net.cpp:455] tracker_x_split_4 <- x_4_tracker_x_slice_3_split_0
I0122 01:37:01.417178 27435 net.cpp:412] tracker_x_split_4 -> x1_4
I0122 01:37:01.417186 27435 net.cpp:412] tracker_x_split_4 -> x2_4
I0122 01:37:01.417191 27435 net.cpp:412] tracker_x_split_4 -> x3_4
I0122 01:37:01.417198 27435 net.cpp:412] tracker_x_split_4 -> x4_4
I0122 01:37:01.417248 27435 net.cpp:151] Setting up tracker_x_split_4
I0122 01:37:01.417253 27435 net.cpp:158] Top shape: 1 1 1800 256 (460800)
I0122 01:37:01.417258 27435 net.cpp:158] Top shape: 1 1 1800 256 (460800)
I0122 01:37:01.417263 27435 net.cpp:158] Top shape: 1 1 1800 256 (460800)
I0122 01:37:01.417268 27435 net.cpp:158] Top shape: 1 1 1800 256 (460800)
I0122 01:37:01.417270 27435 net.cpp:166] Memory required for data: 650522744
I0122 01:37:01.417273 27435 layer_factory.hpp:76] Creating layer tracker_cont_split_4
I0122 01:37:01.417279 27435 net.cpp:107] Creating Layer tracker_cont_split_4
I0122 01:37:01.417282 27435 net.cpp:455] tracker_cont_split_4 <- cont_4
I0122 01:37:01.417287 27435 net.cpp:412] tracker_cont_split_4 -> cont1_4
I0122 01:37:01.417294 27435 net.cpp:412] tracker_cont_split_4 -> cont2_4
I0122 01:37:01.417301 27435 net.cpp:412] tracker_cont_split_4 -> cont3_4
I0122 01:37:01.417309 27435 net.cpp:412] tracker_cont_split_4 -> cont4_4
I0122 01:37:01.417358 27435 net.cpp:151] Setting up tracker_cont_split_4
I0122 01:37:01.417364 27435 net.cpp:158] Top shape: 1 1 (1)
I0122 01:37:01.417368 27435 net.cpp:158] Top shape: 1 1 (1)
I0122 01:37:01.417372 27435 net.cpp:158] Top shape: 1 1 (1)
I0122 01:37:01.417377 27435 net.cpp:158] Top shape: 1 1 (1)
I0122 01:37:01.417381 27435 net.cpp:166] Memory required for data: 650522760
I0122 01:37:01.417383 27435 layer_factory.hpp:76] Creating layer tracker_h_split_3
I0122 01:37:01.417388 27435 net.cpp:107] Creating Layer tracker_h_split_3
I0122 01:37:01.417392 27435 net.cpp:455] tracker_h_split_3 <- h_3
I0122 01:37:01.417397 27435 net.cpp:412] tracker_h_split_3 -> h1_3
I0122 01:37:01.417405 27435 net.cpp:412] tracker_h_split_3 -> h2_3
I0122 01:37:01.417434 27435 net.cpp:151] Setting up tracker_h_split_3
I0122 01:37:01.417439 27435 net.cpp:158] Top shape: 1 1 256 256 (65536)
I0122 01:37:01.417444 27435 net.cpp:158] Top shape: 1 1 256 256 (65536)
I0122 01:37:01.417448 27435 net.cpp:166] Memory required for data: 651047048
I0122 01:37:01.417451 27435 layer_factory.hpp:76] Creating layer tracker_c_split_3
I0122 01:37:01.417457 27435 net.cpp:107] Creating Layer tracker_c_split_3
I0122 01:37:01.417461 27435 net.cpp:455] tracker_c_split_3 <- c_3
I0122 01:37:01.417466 27435 net.cpp:412] tracker_c_split_3 -> c1_3
I0122 01:37:01.417472 27435 net.cpp:412] tracker_c_split_3 -> c2_3
I0122 01:37:01.417502 27435 net.cpp:151] Setting up tracker_c_split_3
I0122 01:37:01.417507 27435 net.cpp:158] Top shape: 1 1 1800 256 (460800)
I0122 01:37:01.417512 27435 net.cpp:158] Top shape: 1 1 1800 256 (460800)
I0122 01:37:01.417515 27435 net.cpp:166] Memory required for data: 654733448
I0122 01:37:01.417523 27435 layer_factory.hpp:76] Creating layer tracker_s_cont_3
I0122 01:37:01.417529 27435 net.cpp:107] Creating Layer tracker_s_cont_3
I0122 01:37:01.417533 27435 net.cpp:455] tracker_s_cont_3 <- s_3
I0122 01:37:01.417537 27435 net.cpp:455] tracker_s_cont_3 <- cont4_4
I0122 01:37:01.417543 27435 net.cpp:412] tracker_s_cont_3 -> s_cont_3
I0122 01:37:01.417595 27435 net.cpp:151] Setting up tracker_s_cont_3
I0122 01:37:01.417601 27435 net.cpp:158] Top shape: 1 1 1 (1)
I0122 01:37:01.417604 27435 net.cpp:166] Memory required for data: 654733452
I0122 01:37:01.417608 27435 layer_factory.hpp:76] Creating layer tracker_s_cont_split_3
I0122 01:37:01.417613 27435 net.cpp:107] Creating Layer tracker_s_cont_split_3
I0122 01:37:01.417616 27435 net.cpp:455] tracker_s_cont_split_3 <- s_cont_3
I0122 01:37:01.417621 27435 net.cpp:412] tracker_s_cont_split_3 -> s1_cont_3
I0122 01:37:01.417629 27435 net.cpp:412] tracker_s_cont_split_3 -> s2_cont_3
I0122 01:37:01.417659 27435 net.cpp:151] Setting up tracker_s_cont_split_3
I0122 01:37:01.417665 27435 net.cpp:158] Top shape: 1 1 1 (1)
I0122 01:37:01.417670 27435 net.cpp:158] Top shape: 1 1 1 (1)
I0122 01:37:01.417672 27435 net.cpp:166] Memory required for data: 654733460
I0122 01:37:01.417676 27435 layer_factory.hpp:76] Creating layer tracker_hm1_3
I0122 01:37:01.417681 27435 net.cpp:107] Creating Layer tracker_hm1_3
I0122 01:37:01.417685 27435 net.cpp:455] tracker_hm1_3 <- h1_3
I0122 01:37:01.417690 27435 net.cpp:455] tracker_hm1_3 <- s1_cont_3
I0122 01:37:01.417696 27435 net.cpp:412] tracker_hm1_3 -> hm1_3
I0122 01:37:01.417727 27435 net.cpp:151] Setting up tracker_hm1_3
I0122 01:37:01.417732 27435 net.cpp:158] Top shape: 1 1 256 256 (65536)
I0122 01:37:01.417737 27435 net.cpp:166] Memory required for data: 654995604
I0122 01:37:01.417739 27435 layer_factory.hpp:76] Creating layer tracker_w_3
I0122 01:37:01.417745 27435 net.cpp:107] Creating Layer tracker_w_3
I0122 01:37:01.417749 27435 net.cpp:455] tracker_w_3 <- c1_3
I0122 01:37:01.417754 27435 net.cpp:455] tracker_w_3 <- hm1_3
I0122 01:37:01.417759 27435 net.cpp:412] tracker_w_3 -> w_3
I0122 01:37:01.417780 27435 net.cpp:151] Setting up tracker_w_3
I0122 01:37:01.417785 27435 net.cpp:158] Top shape: 1 1 1800 256 (460800)
I0122 01:37:01.417788 27435 net.cpp:166] Memory required for data: 656838804
I0122 01:37:01.417793 27435 layer_factory.hpp:76] Creating layer tracker_v_4
I0122 01:37:01.417798 27435 net.cpp:107] Creating Layer tracker_v_4
I0122 01:37:01.417803 27435 net.cpp:455] tracker_v_4 <- w_3
I0122 01:37:01.417807 27435 net.cpp:455] tracker_v_4 <- x_4_tracker_x_slice_3_split_1
I0122 01:37:01.417812 27435 net.cpp:412] tracker_v_4 -> v_4
I0122 01:37:01.417832 27435 net.cpp:151] Setting up tracker_v_4
I0122 01:37:01.417839 27435 net.cpp:158] Top shape: 1 1 1800 1800 (3240000)
I0122 01:37:01.417841 27435 net.cpp:166] Memory required for data: 669798804
I0122 01:37:01.417845 27435 layer_factory.hpp:76] Creating layer tracker_rename_overlaps_4
I0122 01:37:01.417850 27435 net.cpp:107] Creating Layer tracker_rename_overlaps_4
I0122 01:37:01.417853 27435 net.cpp:455] tracker_rename_overlaps_4 <- overlaps1_4
I0122 01:37:01.417860 27435 net.cpp:412] tracker_rename_overlaps_4 -> s_overlaps_4
I0122 01:37:01.417879 27435 net.cpp:151] Setting up tracker_rename_overlaps_4
I0122 01:37:01.417886 27435 net.cpp:158] Top shape: 1 1 1800 1800 (3240000)
I0122 01:37:01.417888 27435 net.cpp:166] Memory required for data: 682758804
I0122 01:37:01.417892 27435 layer_factory.hpp:76] Creating layer tracker_v_cont_4
I0122 01:37:01.417897 27435 net.cpp:107] Creating Layer tracker_v_cont_4
I0122 01:37:01.417901 27435 net.cpp:455] tracker_v_cont_4 <- s_overlaps_4
I0122 01:37:01.417906 27435 net.cpp:455] tracker_v_cont_4 <- v_4
I0122 01:37:01.417911 27435 net.cpp:455] tracker_v_cont_4 <- cont1_4
I0122 01:37:01.417915 27435 net.cpp:412] tracker_v_cont_4 -> v_cont_4
I0122 01:37:01.417937 27435 net.cpp:151] Setting up tracker_v_cont_4
I0122 01:37:01.417943 27435 net.cpp:158] Top shape: 1 1 1800 1800 (3240000)
I0122 01:37:01.417950 27435 net.cpp:166] Memory required for data: 695718804
I0122 01:37:01.417954 27435 layer_factory.hpp:76] Creating layer tracker_v_split_4
I0122 01:37:01.417960 27435 net.cpp:107] Creating Layer tracker_v_split_4
I0122 01:37:01.417964 27435 net.cpp:455] tracker_v_split_4 <- v_cont_4
I0122 01:37:01.417969 27435 net.cpp:412] tracker_v_split_4 -> v1_4
I0122 01:37:01.417976 27435 net.cpp:412] tracker_v_split_4 -> v3_4
I0122 01:37:01.417982 27435 net.cpp:412] tracker_v_split_4 -> v4_4
I0122 01:37:01.417989 27435 net.cpp:412] tracker_v_split_4 -> v2_4
I0122 01:37:01.418040 27435 net.cpp:151] Setting up tracker_v_split_4
I0122 01:37:01.418045 27435 net.cpp:158] Top shape: 1 1 1800 1800 (3240000)
I0122 01:37:01.418050 27435 net.cpp:158] Top shape: 1 1 1800 1800 (3240000)
I0122 01:37:01.418054 27435 net.cpp:158] Top shape: 1 1 1800 1800 (3240000)
I0122 01:37:01.418058 27435 net.cpp:158] Top shape: 1 1 1800 1800 (3240000)
I0122 01:37:01.418061 27435 net.cpp:166] Memory required for data: 747558804
I0122 01:37:01.418066 27435 layer_factory.hpp:76] Creating layer tracker_vtilde_4
I0122 01:37:01.418071 27435 net.cpp:107] Creating Layer tracker_vtilde_4
I0122 01:37:01.418073 27435 net.cpp:455] tracker_vtilde_4 <- v4_4
I0122 01:37:01.418078 27435 net.cpp:455] tracker_vtilde_4 <- overlaps2_4
I0122 01:37:01.418083 27435 net.cpp:455] tracker_vtilde_4 <- nseg_4
I0122 01:37:01.418092 27435 net.cpp:412] tracker_vtilde_4 -> vtilde_4
I0122 01:37:01.418123 27435 net.cpp:151] Setting up tracker_vtilde_4
I0122 01:37:01.418129 27435 net.cpp:158] Top shape: 1 1 1800 1800 (3240000)
I0122 01:37:01.418133 27435 net.cpp:166] Memory required for data: 760518804
I0122 01:37:01.418136 27435 layer_factory.hpp:76] Creating layer tracker_vtilde_split_4
I0122 01:37:01.418143 27435 net.cpp:107] Creating Layer tracker_vtilde_split_4
I0122 01:37:01.418148 27435 net.cpp:455] tracker_vtilde_split_4 <- vtilde_4
I0122 01:37:01.418153 27435 net.cpp:412] tracker_vtilde_split_4 -> vtilde1_4
I0122 01:37:01.418177 27435 net.cpp:151] Setting up tracker_vtilde_split_4
I0122 01:37:01.418184 27435 net.cpp:158] Top shape: 1 1 1800 1800 (3240000)
I0122 01:37:01.418186 27435 net.cpp:166] Memory required for data: 773478804
I0122 01:37:01.418190 27435 layer_factory.hpp:76] Creating layer tracker_reshape1_4
I0122 01:37:01.418195 27435 net.cpp:107] Creating Layer tracker_reshape1_4
I0122 01:37:01.418200 27435 net.cpp:455] tracker_reshape1_4 <- v1_4
I0122 01:37:01.418206 27435 net.cpp:412] tracker_reshape1_4 -> vr_4
I0122 01:37:01.418227 27435 net.cpp:151] Setting up tracker_reshape1_4
I0122 01:37:01.418233 27435 net.cpp:158] Top shape: 1 1 1800 1800 (3240000)
I0122 01:37:01.418236 27435 net.cpp:166] Memory required for data: 786438804
I0122 01:37:01.418239 27435 layer_factory.hpp:76] Creating layer tracker_max_4
I0122 01:37:01.418246 27435 net.cpp:107] Creating Layer tracker_max_4
I0122 01:37:01.418248 27435 net.cpp:455] tracker_max_4 <- vr_4
I0122 01:37:01.418256 27435 net.cpp:412] tracker_max_4 -> mr_4
I0122 01:37:01.418403 27435 net.cpp:151] Setting up tracker_max_4
I0122 01:37:01.418411 27435 net.cpp:158] Top shape: 1 1 1 1800 (1800)
I0122 01:37:01.418413 27435 net.cpp:166] Memory required for data: 786446004
I0122 01:37:01.418417 27435 layer_factory.hpp:76] Creating layer tracker_reshape2_4
I0122 01:37:01.418423 27435 net.cpp:107] Creating Layer tracker_reshape2_4
I0122 01:37:01.418427 27435 net.cpp:455] tracker_reshape2_4 <- mr_4
I0122 01:37:01.418433 27435 net.cpp:412] tracker_reshape2_4 -> m_4
I0122 01:37:01.418457 27435 net.cpp:151] Setting up tracker_reshape2_4
I0122 01:37:01.418462 27435 net.cpp:158] Top shape: 1 1 1800 (1800)
I0122 01:37:01.418464 27435 net.cpp:166] Memory required for data: 786453204
I0122 01:37:01.418468 27435 layer_factory.hpp:76] Creating layer tracker_m_split_4
I0122 01:37:01.418473 27435 net.cpp:107] Creating Layer tracker_m_split_4
I0122 01:37:01.418476 27435 net.cpp:455] tracker_m_split_4 <- m_4
I0122 01:37:01.418483 27435 net.cpp:412] tracker_m_split_4 -> m1_4
I0122 01:37:01.418489 27435 net.cpp:412] tracker_m_split_4 -> m2_4
I0122 01:37:01.418529 27435 net.cpp:151] Setting up tracker_m_split_4
I0122 01:37:01.418536 27435 net.cpp:158] Top shape: 1 1 1800 (1800)
I0122 01:37:01.418540 27435 net.cpp:158] Top shape: 1 1 1800 (1800)
I0122 01:37:01.418545 27435 net.cpp:166] Memory required for data: 786467604
I0122 01:37:01.418547 27435 layer_factory.hpp:76] Creating layer tracker_concat_s_elemens_4
I0122 01:37:01.418552 27435 net.cpp:107] Creating Layer tracker_concat_s_elemens_4
I0122 01:37:01.418556 27435 net.cpp:455] tracker_concat_s_elemens_4 <- m2_4
I0122 01:37:01.418561 27435 net.cpp:455] tracker_concat_s_elemens_4 <- s2_cont_3
I0122 01:37:01.418566 27435 net.cpp:412] tracker_concat_s_elemens_4 -> s_elem_4
I0122 01:37:01.418588 27435 net.cpp:151] Setting up tracker_concat_s_elemens_4
I0122 01:37:01.418594 27435 net.cpp:158] Top shape: 1 1 1801 (1801)
I0122 01:37:01.418597 27435 net.cpp:166] Memory required for data: 786474808
I0122 01:37:01.418601 27435 layer_factory.hpp:76] Creating layer tracker_sum_s_elemens_4
I0122 01:37:01.418607 27435 net.cpp:107] Creating Layer tracker_sum_s_elemens_4
I0122 01:37:01.418611 27435 net.cpp:455] tracker_sum_s_elemens_4 <- s_elem_4
I0122 01:37:01.418617 27435 net.cpp:412] tracker_sum_s_elemens_4 -> ns_4
I0122 01:37:01.418653 27435 net.cpp:151] Setting up tracker_sum_s_elemens_4
I0122 01:37:01.418658 27435 net.cpp:158] Top shape: (1)
I0122 01:37:01.418661 27435 net.cpp:166] Memory required for data: 786474812
I0122 01:37:01.418664 27435 layer_factory.hpp:76] Creating layer tracker_s_reshape_4
I0122 01:37:01.418669 27435 net.cpp:107] Creating Layer tracker_s_reshape_4
I0122 01:37:01.418673 27435 net.cpp:455] tracker_s_reshape_4 <- ns_4
I0122 01:37:01.418680 27435 net.cpp:412] tracker_s_reshape_4 -> s_4
I0122 01:37:01.418702 27435 net.cpp:151] Setting up tracker_s_reshape_4
I0122 01:37:01.418709 27435 net.cpp:158] Top shape: 1 1 1 (1)
I0122 01:37:01.418712 27435 net.cpp:166] Memory required for data: 786474816
I0122 01:37:01.418715 27435 layer_factory.hpp:76] Creating layer tracker_mx_4
I0122 01:37:01.418720 27435 net.cpp:107] Creating Layer tracker_mx_4
I0122 01:37:01.418725 27435 net.cpp:455] tracker_mx_4 <- m1_4
I0122 01:37:01.418730 27435 net.cpp:455] tracker_mx_4 <- x2_4
I0122 01:37:01.418735 27435 net.cpp:412] tracker_mx_4 -> mx_4
I0122 01:37:01.418757 27435 net.cpp:151] Setting up tracker_mx_4
I0122 01:37:01.418762 27435 net.cpp:158] Top shape: 1 1 1800 256 (460800)
I0122 01:37:01.418766 27435 net.cpp:166] Memory required for data: 788318016
I0122 01:37:01.418769 27435 layer_factory.hpp:76] Creating layer tracker_mx_split_4
I0122 01:37:01.418774 27435 net.cpp:107] Creating Layer tracker_mx_split_4
I0122 01:37:01.418779 27435 net.cpp:455] tracker_mx_split_4 <- mx_4
I0122 01:37:01.418784 27435 net.cpp:412] tracker_mx_split_4 -> mx1_4
I0122 01:37:01.418792 27435 net.cpp:412] tracker_mx_split_4 -> mx2_4
I0122 01:37:01.418823 27435 net.cpp:151] Setting up tracker_mx_split_4
I0122 01:37:01.418828 27435 net.cpp:158] Top shape: 1 1 1800 256 (460800)
I0122 01:37:01.418833 27435 net.cpp:158] Top shape: 1 1 1800 256 (460800)
I0122 01:37:01.418835 27435 net.cpp:166] Memory required for data: 792004416
I0122 01:37:01.418838 27435 layer_factory.hpp:76] Creating layer tracker_xmx_4
I0122 01:37:01.418843 27435 net.cpp:107] Creating Layer tracker_xmx_4
I0122 01:37:01.418848 27435 net.cpp:455] tracker_xmx_4 <- x3_4
I0122 01:37:01.418853 27435 net.cpp:455] tracker_xmx_4 <- mx1_4
I0122 01:37:01.418859 27435 net.cpp:412] tracker_xmx_4 -> xmx_4
I0122 01:37:01.418879 27435 net.cpp:151] Setting up tracker_xmx_4
I0122 01:37:01.418884 27435 net.cpp:158] Top shape: 1 1 256 256 (65536)
I0122 01:37:01.418887 27435 net.cpp:166] Memory required for data: 792266560
I0122 01:37:01.418891 27435 layer_factory.hpp:76] Creating layer tracker_h_cont_3
I0122 01:37:01.418896 27435 net.cpp:107] Creating Layer tracker_h_cont_3
I0122 01:37:01.418900 27435 net.cpp:455] tracker_h_cont_3 <- h2_3
I0122 01:37:01.418905 27435 net.cpp:455] tracker_h_cont_3 <- cont2_4
I0122 01:37:01.418910 27435 net.cpp:412] tracker_h_cont_3 -> h_cont_3
I0122 01:37:01.418979 27435 net.cpp:151] Setting up tracker_h_cont_3
I0122 01:37:01.418985 27435 net.cpp:158] Top shape: 1 1 256 256 (65536)
I0122 01:37:01.418988 27435 net.cpp:166] Memory required for data: 792528704
I0122 01:37:01.418992 27435 layer_factory.hpp:76] Creating layer tracker_h_4
I0122 01:37:01.418998 27435 net.cpp:107] Creating Layer tracker_h_4
I0122 01:37:01.419000 27435 net.cpp:455] tracker_h_4 <- h_cont_3
I0122 01:37:01.419005 27435 net.cpp:455] tracker_h_4 <- xmx_4
I0122 01:37:01.419010 27435 net.cpp:412] tracker_h_4 -> h_4
I0122 01:37:01.419034 27435 net.cpp:151] Setting up tracker_h_4
I0122 01:37:01.419039 27435 net.cpp:158] Top shape: 1 1 256 256 (65536)
I0122 01:37:01.419042 27435 net.cpp:166] Memory required for data: 792790848
I0122 01:37:01.419046 27435 layer_factory.hpp:76] Creating layer tracker_vmx_4
I0122 01:37:01.419050 27435 net.cpp:107] Creating Layer tracker_vmx_4
I0122 01:37:01.419054 27435 net.cpp:455] tracker_vmx_4 <- v2_4
I0122 01:37:01.419059 27435 net.cpp:455] tracker_vmx_4 <- mx2_4
I0122 01:37:01.419064 27435 net.cpp:412] tracker_vmx_4 -> vmx_4
I0122 01:37:01.419087 27435 net.cpp:151] Setting up tracker_vmx_4
I0122 01:37:01.419093 27435 net.cpp:158] Top shape: 1 1 1800 256 (460800)
I0122 01:37:01.419096 27435 net.cpp:166] Memory required for data: 794634048
I0122 01:37:01.419100 27435 layer_factory.hpp:76] Creating layer tracker_c_cont_3
I0122 01:37:01.419105 27435 net.cpp:107] Creating Layer tracker_c_cont_3
I0122 01:37:01.419108 27435 net.cpp:455] tracker_c_cont_3 <- c2_3
I0122 01:37:01.419113 27435 net.cpp:455] tracker_c_cont_3 <- cont3_4
I0122 01:37:01.419118 27435 net.cpp:412] tracker_c_cont_3 -> c_cont_3
I0122 01:37:01.419632 27435 net.cpp:151] Setting up tracker_c_cont_3
I0122 01:37:01.419641 27435 net.cpp:158] Top shape: 1 1 1800 256 (460800)
I0122 01:37:01.419646 27435 net.cpp:166] Memory required for data: 796477248
I0122 01:37:01.419648 27435 layer_factory.hpp:76] Creating layer tracker_c_4
I0122 01:37:01.419654 27435 net.cpp:107] Creating Layer tracker_c_4
I0122 01:37:01.419658 27435 net.cpp:455] tracker_c_4 <- c_cont_3
I0122 01:37:01.419663 27435 net.cpp:455] tracker_c_4 <- vmx_4
I0122 01:37:01.419668 27435 net.cpp:412] tracker_c_4 -> c_4
I0122 01:37:01.419694 27435 net.cpp:151] Setting up tracker_c_4
I0122 01:37:01.419700 27435 net.cpp:158] Top shape: 1 1 1800 256 (460800)
I0122 01:37:01.419703 27435 net.cpp:166] Memory required for data: 798320448
I0122 01:37:01.419708 27435 layer_factory.hpp:76] Creating layer tracker_v_concat
I0122 01:37:01.419723 27435 net.cpp:107] Creating Layer tracker_v_concat
I0122 01:37:01.419726 27435 net.cpp:455] tracker_v_concat <- v3_1
I0122 01:37:01.419733 27435 net.cpp:455] tracker_v_concat <- v3_2
I0122 01:37:01.419736 27435 net.cpp:455] tracker_v_concat <- v3_3
I0122 01:37:01.419741 27435 net.cpp:455] tracker_v_concat <- v3_4
I0122 01:37:01.419746 27435 net.cpp:412] tracker_v_concat -> v
I0122 01:37:01.419769 27435 net.cpp:151] Setting up tracker_v_concat
I0122 01:37:01.419775 27435 net.cpp:158] Top shape: 4 1 1800 1800 (12960000)
I0122 01:37:01.419777 27435 net.cpp:166] Memory required for data: 850160448
I0122 01:37:01.419781 27435 layer_factory.hpp:76] Creating layer tracker_vtilde_concat
I0122 01:37:01.419787 27435 net.cpp:107] Creating Layer tracker_vtilde_concat
I0122 01:37:01.419792 27435 net.cpp:455] tracker_vtilde_concat <- vtilde1_1
I0122 01:37:01.419796 27435 net.cpp:455] tracker_vtilde_concat <- vtilde1_2
I0122 01:37:01.419801 27435 net.cpp:455] tracker_vtilde_concat <- vtilde1_3
I0122 01:37:01.419806 27435 net.cpp:455] tracker_vtilde_concat <- vtilde1_4
I0122 01:37:01.419811 27435 net.cpp:412] tracker_vtilde_concat -> vtilde
I0122 01:37:01.419832 27435 net.cpp:151] Setting up tracker_vtilde_concat
I0122 01:37:01.419837 27435 net.cpp:158] Top shape: 4 1 1800 1800 (12960000)
I0122 01:37:01.419842 27435 net.cpp:166] Memory required for data: 902000448
I0122 01:37:01.419844 27435 net.cpp:229] tracker_vtilde_concat does not need backward computation.
I0122 01:37:01.419848 27435 net.cpp:229] tracker_v_concat does not need backward computation.
I0122 01:37:01.419860 27435 net.cpp:229] tracker_c_4 does not need backward computation.
I0122 01:37:01.419864 27435 net.cpp:229] tracker_c_cont_3 does not need backward computation.
…
I0122 01:37:01.420425 27435 net.cpp:271] This network produces output x1_3
I0122 01:37:01.420429 27435 net.cpp:271] This network produces output x1_4
I0122 01:37:01.420433 27435 net.cpp:271] This network produces output x4_1
I0122 01:37:01.420436 27435 net.cpp:271] This network produces output x4_2
I0122 01:37:01.420439 27435 net.cpp:271] This network produces output x4_3
I0122 01:37:01.420442 27435 net.cpp:271] This network produces output x4_4
I0122 01:37:01.420526 27435 net.cpp:284] Network initialization done.
I0122 01:37:01.421350 27435 net.cpp:151] Setting up tracker
I0122 01:37:01.421360 27435 net.cpp:158] Top shape: 4 1 1800 1800 (12960000)
I0122 01:37:01.421365 27435 net.cpp:158] Top shape: 4 1 1800 1800 (12960000)
I0122 01:37:01.421368 27435 net.cpp:166] Memory required for data: 2897893808
I0122 01:37:01.421371 27435 layer_factory.hpp:76] Creating layer v_tracker_0_split
I0122 01:37:01.421381 27435 net.cpp:107] Creating Layer v_tracker_0_split
I0122 01:37:01.421386 27435 net.cpp:455] v_tracker_0_split <- v
I0122 01:37:01.421392 27435 net.cpp:412] v_tracker_0_split -> v_tracker_0_split_0
I0122 01:37:01.421399 27435 net.cpp:412] v_tracker_0_split -> v_tracker_0_split_1
I0122 01:37:01.421433 27435 net.cpp:151] Setting up v_tracker_0_split
I0122 01:37:01.421439 27435 net.cpp:158] Top shape: 4 1 1800 1800 (12960000)
I0122 01:37:01.421443 27435 net.cpp:158] Top shape: 4 1 1800 1800 (12960000)
I0122 01:37:01.421447 27435 net.cpp:166] Memory required for data: 3001573808
I0122 01:37:01.421452 27435 layer_factory.hpp:76] Creating layer vtilde_tracker_1_split
I0122 01:37:01.421457 27435 net.cpp:107] Creating Layer vtilde_tracker_1_split
I0122 01:37:01.421459 27435 net.cpp:455] vtilde_tracker_1_split <- vtilde
I0122 01:37:01.421465 27435 net.cpp:412] vtilde_tracker_1_split -> vtilde_tracker_1_split_0
I0122 01:37:01.421471 27435 net.cpp:412] vtilde_tracker_1_split -> vtilde_tracker_1_split_1
I0122 01:37:01.421502 27435 net.cpp:151] Setting up vtilde_tracker_1_split
I0122 01:37:01.421509 27435 net.cpp:158] Top shape: 4 1 1800 1800 (12960000)
I0122 01:37:01.421512 27435 net.cpp:158] Top shape: 4 1 1800 1800 (12960000)
I0122 01:37:01.421515 27435 net.cpp:166] Memory required for data: 3105253808
I0122 01:37:01.421519 27435 layer_factory.hpp:76] Creating layer reshape_v
I0122 01:37:01.421525 27435 net.cpp:107] Creating Layer reshape_v
I0122 01:37:01.421530 27435 net.cpp:455] reshape_v <- v_tracker_0_split_0
I0122 01:37:01.421535 27435 net.cpp:412] reshape_v -> rv
I0122 01:37:01.421556 27435 net.cpp:151] Setting up reshape_v
I0122 01:37:01.421562 27435 net.cpp:158] Top shape: 4 1800 1800 (12960000)
I0122 01:37:01.421566 27435 net.cpp:166] Memory required for data: 3157093808
I0122 01:37:01.421568 27435 layer_factory.hpp:76] Creating layer reshape_vt
I0122 01:37:01.421573 27435 net.cpp:107] Creating Layer reshape_vt
I0122 01:37:01.421577 27435 net.cpp:455] reshape_vt <- vtilde_tracker_1_split_0
I0122 01:37:01.421583 27435 net.cpp:412] reshape_vt -> rvtilde
I0122 01:37:01.421605 27435 net.cpp:151] Setting up reshape_vt
I0122 01:37:01.421612 27435 net.cpp:158] Top shape: 4 1800 1800 (12960000)
I0122 01:37:01.421614 27435 net.cpp:166] Memory required for data: 3208933808
I0122 01:37:01.421618 27435 layer_factory.hpp:76] Creating layer euclideanLoss
I0122 01:37:01.421623 27435 net.cpp:107] Creating Layer euclideanLoss
I0122 01:37:01.421627 27435 net.cpp:455] euclideanLoss <- rv
I0122 01:37:01.421633 27435 net.cpp:455] euclideanLoss <- rvtilde
I0122 01:37:01.421638 27435 net.cpp:412] euclideanLoss -> unsupervised_loss
…
I0122 01:37:01.421741 27435 recurrent_layer.cpp:42] Initializing recurrent layer: assuming input batch contains 4 timesteps of 1 independent streams.
I0122 01:37:01.421877 27435 net.cpp:49] Initializing net from parameters: 
input: "v"
input: "gt_overlaps"
input: "gt_num"
input: "cont"
input: "o_0"
force_backward: true
input_shape {
  dim: 4
  dim: 1
  dim: 1800
  dim: 1800
}
input_shape {
  dim: 4
  dim: 1
  dim: 6
  dim: 1800
}
input_shape {
  dim: 4
  dim: 1
}
input_shape {
  dim: 4
  dim: 1
}
input_shape {
  dim: 1
  dim: 1
  dim: 6
  dim: 1
}
layer {
  name: "trackerLoss_gt_overlaps_split"
  type: "Split"
  bottom: "gt_overlaps"
  top: "gt1_overlaps"
  top: "gt2_overlaps"
}
layer {
  name: "trackerLoss_reshape0"
  type: "Reshape"
  bottom: "gt1_overlaps"
  top: "rgt1_overlaps"
  reshape_param {
    shape {
      dim: 4
      dim: 6
      dim: 1
      dim: 1800
    }
  }
}
layer {
  name: "trackerLoss_best_seg_match"
  type: "Pooling"
  bottom: "rgt1_overlaps"
  top: "tmp"
  top: "rbest_track"
  pooling_param {
    pool: MAX
    global_pooling: true
  }
}
layer {
  name: "trackerLoss_silent_tmp"
  type: "Silence"
  bottom: "tmp"
}
layer {
  name: "trackerLoss_reshape_best_track"
  type: "Reshape"
  bottom: "rbest_track"
  top: "best_track"
  reshape_param {
    shape {
      dim: 4
      dim: 1
      dim: 6
      dim: 1
    }
  }
}
layer {
  name: "trackerLoss_cont_slice"
  type: "Slice"
  bottom: "cont"
  top: "cont_1"
  top: "cont_2"
  top: "cont_3"
  top: "cont_4"
  slice_param {
    axis: 0
  }
}
layer {
  name: "trackerLoss_best_track_slice"
  type: "Slice"
  bottom: "best_track"
  top: "bt_1"
  top: "bt_2"
  top: "bt_3"
  top: "bt_4"
  slice_param {
    axis: 0
  }
}
layer {
  name: "trackerLoss_o_cont_0"
  type: "Switch"
  bottom: "bt_1"
  bottom: "o_0"
  bottom: "cont_1"
  top: "new_o_1"
  switch_param {
    axis: 2
  }
}
layer {
  name: "trackerLoss_o_split_1"
  type: "Split"
  bottom: "new_o_1"
  top: "o_1"
  top: "track_1"
}
layer {
  name: "trackerLoss_o_cont_1"
  type: "Switch"
  bottom: "bt_2"
  bottom: "o_1"
  bottom: "cont_2"
  top: "new_o_2"
  switch_param {
    axis: 2
  }
}
layer {
  name: "trackerLoss_o_split_2"
  type: "Split"
  bottom: "new_o_2"
  top: "o_2"
  top: "track_2"
}
layer {
  name: "trackerLoss_o_cont_2"
  type: "Switch"
  bottom: "bt_3"
  bottom: "o_2"
  bottom: "cont_3"
  top: "new_o_3"
  switch_param {
    axis: 2
  }
}
layer {
  name: "trackerLoss_o_split_3"
  type: "Split"
  bottom: "new_o_3"
  top: "o_3"
  top: "track_3"
}
layer {
  name: "trackerLoss_o_cont_3"
  type: "Switch"
  bottom: "bt_4"
  bottom: "o_3"
  bottom: "cont_4"
  top: "new_o_4"
  switch_param {
    axis: 2
  }
}
layer {
  name: "trackerLoss_o_split_4"
  type: "Split"
  bottom: "new_o_4"
  top: "o_4"
  top: "track_4"
}
layer {
  name: "trackerLoss_ob_concat"
  type: "Concat"
  bottom: "track_1"
  bottom: "track_2"
  bottom: "track_3"
  bottom: "track_4"
  top: "O"
  concat_param {
    axis: 0
  }
}
layer {
  name: "trackerLoss_reshape1"
  type: "Reshape"
  bottom: "O"
  top: "rO"
  reshape_param {
    shape {
      dim: 4
      dim: 1
      dim: 6
    }
  }
}
layer {
  name: "trackerLoss_hotmult"
  type: "HotMult"
  bottom: "rO"
  bottom: "v"
  bottom: "gt_num"
  top: "gt_bar"
  hotmult_param {
    mode: "ROW"
  }
}
layer {
  name: "trackerLoss_reshape2"
  type: "Reshape"
  bottom: "gt_bar"
  top: "rgt_bar"
  reshape_param {
    shape {
      dim: -1
      dim: 1
      dim: 1
      dim: 1
    }
  }
}
layer {
  name: "trackerLoss_reshape3"
  type: "Reshape"
  bottom: "gt2_overlaps"
  top: "rgt2_overlaps"
  reshape_param {
    shape {
      dim: -1
      dim: 1
      dim: 1
      dim: 1
    }
  }
}
layer {
  name: "trackerLoss_loss"
  type: "EuclideanLoss"
  bottom: "rgt2_overlaps"
  bottom: "rgt_bar"
  top: "loss"
}
I0122 01:37:01.421982 27435 net.cpp:414] Input 0 -> v
I0122 01:37:01.422010 27435 net.cpp:414] Input 1 -> gt_overlaps
I0122 01:37:01.422034 27435 net.cpp:414] Input 2 -> gt_num
I0122 01:37:01.422056 27435 net.cpp:414] Input 3 -> cont
I0122 01:37:01.422077 27435 net.cpp:414] Input 4 -> o_0
I0122 01:37:01.422102 27435 layer_factory.hpp:76] Creating layer trackerLoss_gt_overlaps_split
I0122 01:37:01.422108 27435 net.cpp:107] Creating Layer trackerLoss_gt_overlaps_split
I0122 01:37:01.422112 27435 net.cpp:455] trackerLoss_gt_overlaps_split <- gt_overlaps
I0122 01:37:01.422118 27435 net.cpp:412] trackerLoss_gt_overlaps_split -> gt1_overlaps
I0122 01:37:01.422124 27435 net.cpp:412] trackerLoss_gt_overlaps_split -> gt2_overlaps
I0122 01:37:01.422160 27435 net.cpp:151] Setting up trackerLoss_gt_overlaps_split
I0122 01:37:01.422171 27435 net.cpp:158] Top shape: 4 1 6 1800 (43200)
I0122 01:37:01.422178 27435 net.cpp:158] Top shape: 4 1 6 1800 (43200)
I0122 01:37:01.422180 27435 net.cpp:166] Memory required for data: 345600
I0122 01:37:01.422184 27435 layer_factory.hpp:76] Creating layer trackerLoss_reshape0
I0122 01:37:01.422189 27435 net.cpp:107] Creating Layer trackerLoss_reshape0
I0122 01:37:01.422194 27435 net.cpp:455] trackerLoss_reshape0 <- gt1_overlaps
I0122 01:37:01.422199 27435 net.cpp:412] trackerLoss_reshape0 -> rgt1_overlaps
I0122 01:37:01.422222 27435 net.cpp:151] Setting up trackerLoss_reshape0
I0122 01:37:01.422227 27435 net.cpp:158] Top shape: 4 6 1 1800 (43200)
I0122 01:37:01.422231 27435 net.cpp:166] Memory required for data: 518400
I0122 01:37:01.422235 27435 layer_factory.hpp:76] Creating layer trackerLoss_best_seg_match
I0122 01:37:01.422238 27435 layer_factory.cpp:58] cuDNN does not support multiple tops. Using Caffe's own pooling layer.
I0122 01:37:01.422243 27435 net.cpp:107] Creating Layer trackerLoss_best_seg_match
I0122 01:37:01.422247 27435 net.cpp:455] trackerLoss_best_seg_match <- rgt1_overlaps
I0122 01:37:01.422252 27435 net.cpp:412] trackerLoss_best_seg_match -> tmp
I0122 01:37:01.422260 27435 net.cpp:412] trackerLoss_best_seg_match -> rbest_track
I0122 01:37:01.422296 27435 net.cpp:151] Setting up trackerLoss_best_seg_match
I0122 01:37:01.422302 27435 net.cpp:158] Top shape: 4 6 1 1 (24)
I0122 01:37:01.422307 27435 net.cpp:158] Top shape: 4 6 1 1 (24)
I0122 01:37:01.422309 27435 net.cpp:166] Memory required for data: 518592
I0122 01:37:01.422312 27435 layer_factory.hpp:76] Creating layer trackerLoss_silent_tmp
I0122 01:37:01.422317 27435 net.cpp:107] Creating Layer trackerLoss_silent_tmp
I0122 01:37:01.422322 27435 net.cpp:455] trackerLoss_silent_tmp <- tmp
I0122 01:37:01.422325 27435 net.cpp:151] Setting up trackerLoss_silent_tmp
I0122 01:37:01.422329 27435 net.cpp:166] Memory required for data: 518592
I0122 01:37:01.422333 27435 layer_factory.hpp:76] Creating layer trackerLoss_reshape_best_track
I0122 01:37:01.422338 27435 net.cpp:107] Creating Layer trackerLoss_reshape_best_track
I0122 01:37:01.422341 27435 net.cpp:455] trackerLoss_reshape_best_track <- rbest_track
I0122 01:37:01.422346 27435 net.cpp:412] trackerLoss_reshape_best_track -> best_track
I0122 01:37:01.422369 27435 net.cpp:151] Setting up trackerLoss_reshape_best_track
I0122 01:37:01.422374 27435 net.cpp:158] Top shape: 4 1 6 1 (24)
I0122 01:37:01.422377 27435 net.cpp:166] Memory required for data: 518688
I0122 01:37:01.422380 27435 layer_factory.hpp:76] Creating layer trackerLoss_cont_slice
I0122 01:37:01.422385 27435 net.cpp:107] Creating Layer trackerLoss_cont_slice
I0122 01:37:01.422389 27435 net.cpp:455] trackerLoss_cont_slice <- cont
I0122 01:37:01.422394 27435 net.cpp:412] trackerLoss_cont_slice -> cont_1
I0122 01:37:01.422408 27435 net.cpp:412] trackerLoss_cont_slice -> cont_2
I0122 01:37:01.422415 27435 net.cpp:412] trackerLoss_cont_slice -> cont_3
I0122 01:37:01.422422 27435 net.cpp:412] trackerLoss_cont_slice -> cont_4
I0122 01:37:01.422485 27435 net.cpp:151] Setting up trackerLoss_cont_slice
I0122 01:37:01.422490 27435 net.cpp:158] Top shape: 1 1 (1)
I0122 01:37:01.422495 27435 net.cpp:158] Top shape: 1 1 (1)
I0122 01:37:01.422499 27435 net.cpp:158] Top shape: 1 1 (1)
I0122 01:37:01.422504 27435 net.cpp:158] Top shape: 1 1 (1)
I0122 01:37:01.422508 27435 net.cpp:166] Memory required for data: 518704
I0122 01:37:01.422511 27435 layer_factory.hpp:76] Creating layer trackerLoss_best_track_slice
I0122 01:37:01.422516 27435 net.cpp:107] Creating Layer trackerLoss_best_track_slice
I0122 01:37:01.422519 27435 net.cpp:455] trackerLoss_best_track_slice <- best_track
I0122 01:37:01.422525 27435 net.cpp:412] trackerLoss_best_track_slice -> bt_1
I0122 01:37:01.422533 27435 net.cpp:412] trackerLoss_best_track_slice -> bt_2
I0122 01:37:01.422539 27435 net.cpp:412] trackerLoss_best_track_slice -> bt_3
I0122 01:37:01.422546 27435 net.cpp:412] trackerLoss_best_track_slice -> bt_4
I0122 01:37:01.422610 27435 net.cpp:151] Setting up trackerLoss_best_track_slice
I0122 01:37:01.422616 27435 net.cpp:158] Top shape: 1 1 6 1 (6)
I0122 01:37:01.422621 27435 net.cpp:158] Top shape: 1 1 6 1 (6)
I0122 01:37:01.422624 27435 net.cpp:158] Top shape: 1 1 6 1 (6)
I0122 01:37:01.422628 27435 net.cpp:158] Top shape: 1 1 6 1 (6)
I0122 01:37:01.422632 27435 net.cpp:166] Memory required for data: 518800
I0122 01:37:01.422636 27435 layer_factory.hpp:76] Creating layer trackerLoss_o_cont_0
I0122 01:37:01.422641 27435 net.cpp:107] Creating Layer trackerLoss_o_cont_0
I0122 01:37:01.422644 27435 net.cpp:455] trackerLoss_o_cont_0 <- bt_1
I0122 01:37:01.422648 27435 net.cpp:455] trackerLoss_o_cont_0 <- o_0
I0122 01:37:01.422653 27435 net.cpp:455] trackerLoss_o_cont_0 <- cont_1
I0122 01:37:01.422658 27435 net.cpp:412] trackerLoss_o_cont_0 -> new_o_1
I0122 01:37:01.422682 27435 net.cpp:151] Setting up trackerLoss_o_cont_0
I0122 01:37:01.422686 27435 net.cpp:158] Top shape: 1 1 6 1 (6)
I0122 01:37:01.422689 27435 net.cpp:166] Memory required for data: 518824
I0122 01:37:01.422693 27435 layer_factory.hpp:76] Creating layer trackerLoss_o_split_1
I0122 01:37:01.422698 27435 net.cpp:107] Creating Layer trackerLoss_o_split_1
I0122 01:37:01.422703 27435 net.cpp:455] trackerLoss_o_split_1 <- new_o_1
I0122 01:37:01.422708 27435 net.cpp:412] trackerLoss_o_split_1 -> o_1
I0122 01:37:01.422714 27435 net.cpp:412] trackerLoss_o_split_1 -> track_1
I0122 01:37:01.422749 27435 net.cpp:151] Setting up trackerLoss_o_split_1
I0122 01:37:01.422755 27435 net.cpp:158] Top shape: 1 1 6 1 (6)
I0122 01:37:01.422760 27435 net.cpp:158] Top shape: 1 1 6 1 (6)
I0122 01:37:01.422765 27435 net.cpp:166] Memory required for data: 518872
I0122 01:37:01.422767 27435 layer_factory.hpp:76] Creating layer trackerLoss_o_cont_1
I0122 01:37:01.422773 27435 net.cpp:107] Creating Layer trackerLoss_o_cont_1
I0122 01:37:01.422777 27435 net.cpp:455] trackerLoss_o_cont_1 <- bt_2
I0122 01:37:01.422781 27435 net.cpp:455] trackerLoss_o_cont_1 <- o_1
I0122 01:37:01.422786 27435 net.cpp:455] trackerLoss_o_cont_1 <- cont_2
I0122 01:37:01.422792 27435 net.cpp:412] trackerLoss_o_cont_1 -> new_o_2
I0122 01:37:01.422812 27435 net.cpp:151] Setting up trackerLoss_o_cont_1
I0122 01:37:01.422818 27435 net.cpp:158] Top shape: 1 1 6 1 (6)
I0122 01:37:01.422822 27435 net.cpp:166] Memory required for data: 518896
I0122 01:37:01.422826 27435 layer_factory.hpp:76] Creating layer trackerLoss_o_split_2
I0122 01:37:01.422830 27435 net.cpp:107] Creating Layer trackerLoss_o_split_2
I0122 01:37:01.422834 27435 net.cpp:455] trackerLoss_o_split_2 <- new_o_2
I0122 01:37:01.422839 27435 net.cpp:412] trackerLoss_o_split_2 -> o_2
I0122 01:37:01.422847 27435 net.cpp:412] trackerLoss_o_split_2 -> track_2
I0122 01:37:01.422875 27435 net.cpp:151] Setting up trackerLoss_o_split_2
I0122 01:37:01.422880 27435 net.cpp:158] Top shape: 1 1 6 1 (6)
I0122 01:37:01.422893 27435 net.cpp:158] Top shape: 1 1 6 1 (6)
I0122 01:37:01.422895 27435 net.cpp:166] Memory required for data: 518944
I0122 01:37:01.422899 27435 layer_factory.hpp:76] Creating layer trackerLoss_o_cont_2
I0122 01:37:01.422904 27435 net.cpp:107] Creating Layer trackerLoss_o_cont_2
I0122 01:37:01.422909 27435 net.cpp:455] trackerLoss_o_cont_2 <- bt_3
I0122 01:37:01.422914 27435 net.cpp:455] trackerLoss_o_cont_2 <- o_2
I0122 01:37:01.422919 27435 net.cpp:455] trackerLoss_o_cont_2 <- cont_3
I0122 01:37:01.422924 27435 net.cpp:412] trackerLoss_o_cont_2 -> new_o_3
I0122 01:37:01.422945 27435 net.cpp:151] Setting up trackerLoss_o_cont_2
I0122 01:37:01.422950 27435 net.cpp:158] Top shape: 1 1 6 1 (6)
I0122 01:37:01.422953 27435 net.cpp:166] Memory required for data: 518968
I0122 01:37:01.422957 27435 layer_factory.hpp:76] Creating layer trackerLoss_o_split_3
I0122 01:37:01.422961 27435 net.cpp:107] Creating Layer trackerLoss_o_split_3
I0122 01:37:01.422966 27435 net.cpp:455] trackerLoss_o_split_3 <- new_o_3
I0122 01:37:01.422971 27435 net.cpp:412] trackerLoss_o_split_3 -> o_3
I0122 01:37:01.422976 27435 net.cpp:412] trackerLoss_o_split_3 -> track_3
I0122 01:37:01.423007 27435 net.cpp:151] Setting up trackerLoss_o_split_3
I0122 01:37:01.423012 27435 net.cpp:158] Top shape: 1 1 6 1 (6)
I0122 01:37:01.423017 27435 net.cpp:158] Top shape: 1 1 6 1 (6)
I0122 01:37:01.423020 27435 net.cpp:166] Memory required for data: 519016
I0122 01:37:01.423023 27435 layer_factory.hpp:76] Creating layer trackerLoss_o_cont_3
I0122 01:37:01.423028 27435 net.cpp:107] Creating Layer trackerLoss_o_cont_3
I0122 01:37:01.423032 27435 net.cpp:455] trackerLoss_o_cont_3 <- bt_4
I0122 01:37:01.423038 27435 net.cpp:455] trackerLoss_o_cont_3 <- o_3
I0122 01:37:01.423043 27435 net.cpp:455] trackerLoss_o_cont_3 <- cont_4
I0122 01:37:01.423048 27435 net.cpp:412] trackerLoss_o_cont_3 -> new_o_4
I0122 01:37:01.423068 27435 net.cpp:151] Setting up trackerLoss_o_cont_3
I0122 01:37:01.423074 27435 net.cpp:158] Top shape: 1 1 6 1 (6)
I0122 01:37:01.423076 27435 net.cpp:166] Memory required for data: 519040
I0122 01:37:01.423079 27435 layer_factory.hpp:76] Creating layer trackerLoss_o_split_4
I0122 01:37:01.423084 27435 net.cpp:107] Creating Layer trackerLoss_o_split_4
I0122 01:37:01.423089 27435 net.cpp:455] trackerLoss_o_split_4 <- new_o_4
I0122 01:37:01.423094 27435 net.cpp:412] trackerLoss_o_split_4 -> o_4
I0122 01:37:01.423099 27435 net.cpp:412] trackerLoss_o_split_4 -> track_4
I0122 01:37:01.423128 27435 net.cpp:151] Setting up trackerLoss_o_split_4
I0122 01:37:01.423135 27435 net.cpp:158] Top shape: 1 1 6 1 (6)
I0122 01:37:01.423138 27435 net.cpp:158] Top shape: 1 1 6 1 (6)
I0122 01:37:01.423142 27435 net.cpp:166] Memory required for data: 519088
I0122 01:37:01.423146 27435 layer_factory.hpp:76] Creating layer trackerLoss_ob_concat
I0122 01:37:01.423151 27435 net.cpp:107] Creating Layer trackerLoss_ob_concat
I0122 01:37:01.423154 27435 net.cpp:455] trackerLoss_ob_concat <- track_1
I0122 01:37:01.423159 27435 net.cpp:455] trackerLoss_ob_concat <- track_2
I0122 01:37:01.423163 27435 net.cpp:455] trackerLoss_ob_concat <- track_3
I0122 01:37:01.423168 27435 net.cpp:455] trackerLoss_ob_concat <- track_4
I0122 01:37:01.423173 27435 net.cpp:412] trackerLoss_ob_concat -> O
I0122 01:37:01.423192 27435 net.cpp:151] Setting up trackerLoss_ob_concat
I0122 01:37:01.423198 27435 net.cpp:158] Top shape: 4 1 6 1 (24)
I0122 01:37:01.423202 27435 net.cpp:166] Memory required for data: 519184
I0122 01:37:01.423205 27435 layer_factory.hpp:76] Creating layer trackerLoss_reshape1
I0122 01:37:01.423212 27435 net.cpp:107] Creating Layer trackerLoss_reshape1
I0122 01:37:01.423215 27435 net.cpp:455] trackerLoss_reshape1 <- O
I0122 01:37:01.423221 27435 net.cpp:412] trackerLoss_reshape1 -> rO
I0122 01:37:01.423243 27435 net.cpp:151] Setting up trackerLoss_reshape1
I0122 01:37:01.423249 27435 net.cpp:158] Top shape: 4 1 6 (24)
I0122 01:37:01.423252 27435 net.cpp:166] Memory required for data: 519280
I0122 01:37:01.423255 27435 layer_factory.hpp:76] Creating layer trackerLoss_hotmult
I0122 01:37:01.423266 27435 net.cpp:107] Creating Layer trackerLoss_hotmult
I0122 01:37:01.423270 27435 net.cpp:455] trackerLoss_hotmult <- rO
I0122 01:37:01.423274 27435 net.cpp:455] trackerLoss_hotmult <- v
I0122 01:37:01.423280 27435 net.cpp:455] trackerLoss_hotmult <- gt_num
I0122 01:37:01.423285 27435 net.cpp:412] trackerLoss_hotmult -> gt_bar
I0122 01:37:01.423310 27435 net.cpp:151] Setting up trackerLoss_hotmult
I0122 01:37:01.423316 27435 net.cpp:158] Top shape: 4 1 6 1800 (43200)
I0122 01:37:01.423318 27435 net.cpp:166] Memory required for data: 692080
I0122 01:37:01.423321 27435 layer_factory.hpp:76] Creating layer trackerLoss_reshape2
I0122 01:37:01.423327 27435 net.cpp:107] Creating Layer trackerLoss_reshape2
I0122 01:37:01.423331 27435 net.cpp:455] trackerLoss_reshape2 <- gt_bar
I0122 01:37:01.423336 27435 net.cpp:412] trackerLoss_reshape2 -> rgt_bar
I0122 01:37:01.423357 27435 net.cpp:151] Setting up trackerLoss_reshape2
I0122 01:37:01.423362 27435 net.cpp:158] Top shape: 43200 1 1 1 (43200)
I0122 01:37:01.423365 27435 net.cpp:166] Memory required for data: 864880
I0122 01:37:01.423369 27435 layer_factory.hpp:76] Creating layer trackerLoss_reshape3
I0122 01:37:01.423374 27435 net.cpp:107] Creating Layer trackerLoss_reshape3
I0122 01:37:01.423378 27435 net.cpp:455] trackerLoss_reshape3 <- gt2_overlaps
I0122 01:37:01.423383 27435 net.cpp:412] trackerLoss_reshape3 -> rgt2_overlaps
I0122 01:37:01.423404 27435 net.cpp:151] Setting up trackerLoss_reshape3
I0122 01:37:01.423410 27435 net.cpp:158] Top shape: 43200 1 1 1 (43200)
I0122 01:37:01.423413 27435 net.cpp:166] Memory required for data: 1037680
I0122 01:37:01.423416 27435 layer_factory.hpp:76] Creating layer trackerLoss_loss
I0122 01:37:01.423421 27435 net.cpp:107] Creating Layer trackerLoss_loss
I0122 01:37:01.423425 27435 net.cpp:455] trackerLoss_loss <- rgt2_overlaps
I0122 01:37:01.423430 27435 net.cpp:455] trackerLoss_loss <- rgt_bar
I0122 01:37:01.423435 27435 net.cpp:412] trackerLoss_loss -> loss
…
