…
    mean_value: 122.67892
  }
  image_data_param {
    source: "./tracker_model/data/SegTrackv2_hdf5_t0/images.txt"
    batch_size: 2
    shuffle: false
  }
}
layer {
  name: "data"
  type: "HDF5Data"
  top: "cont"
  top: "mask_size"
  top: "spixel_data"
  top: "spixel_ptr"
  top: "spixel_num"
  top: "seg_data"
  top: "seg_ptr"
  top: "seg_num"
  top: "seg_coef"
  top: "overlaps"
  top: "gt_num"
  top: "gt_overlaps"
  include {
    phase: TRAIN
  }
  hdf5_data_param {
    source: "./tracker_model/data/SegTrackv2_hdf5_t0/seq_data.txt"
    batch_size: 2
  }
}
layer {
  name: "silent_cont"
  type: "Silence"
  bottom: "cont"
  include {
    phase: TRAIN
  }
}
layer {
  name: "silent_gt_overlaps"
  type: "Silence"
  bottom: "gt_overlaps"
  include {
    phase: TRAIN
  }
}
layer {
  name: "silent_gt_overlaps"
  type: "Silence"
  bottom: "gt_num"
  include {
    phase: TRAIN
  }
}
layer {
  name: "silent_ilabel"
  type: "Silence"
  bottom: "ilabel"
}
layer {
  name: "conv1"
  type: "Convolution"
  bottom: "image"
  top: "conv1"
  param {
    lr_mult: 1
    decay_mult: 1
  }
  param {
    lr_mult: 2
    decay_mult: 0
  }
  convolution_param {
    num_output: 96
    pad: 100
    kernel_size: 11
    stride: 4
    weight_filler {
      type: "gaussian"
      std: 0.01
    }
    bias_filler {
      type: "constant"
      value: 0
    }
  }
}
layer {
  name: "relu1"
  type: "ReLU"
  bottom: "conv1"
  top: "conv1"
}
layer {
  name: "pool1"
  type: "Pooling"
  bottom: "conv1"
  top: "pool1"
  pooling_param {
    pool: MAX
    kernel_size: 3
    stride: 2
  }
}
layer {
  name: "norm1"
  type: "LRN"
  bottom: "pool1"
  top: "norm1"
  lrn_param {
    local_size: 5
    alpha: 0.0001
    beta: 0.75
  }
}
layer {
  name: "conv2"
  type: "Convolution"
  bottom: "norm1"
  top: "conv2"
  param {
    lr_mult: 1
    decay_mult: 1
  }
  param {
    lr_mult: 2
    decay_mult: 0
  }
  convolution_param {
    num_output: 256
    pad: 2
    kernel_size: 5
    group: 2
    weight_filler {
      type: "gaussian"
      std: 0.01
    }
    bias_filler {
      type: "constant"
      value: 1
    }
  }
}
layer {
  name: "relu2"
  type: "ReLU"
  bottom: "conv2"
  top: "conv2"
}
layer {
  name: "pool2"
  type: "Pooling"
  bottom: "conv2"
  top: "pool2"
  pooling_param {
    pool: MAX
    kernel_size: 3
    stride: 2
  }
}
layer {
  name: "norm2"
  type: "LRN"
  bottom: "pool2"
  top: "norm2"
  lrn_param {
    local_size: 5
    alpha: 0.0001
    beta: 0.75
  }
}
layer {
  name: "conv3"
  type: "Convolution"
  bottom: "norm2"
  top: "conv3"
  param {
    lr_mult: 1
    decay_mult: 1
  }
  param {
    lr_mult: 2
    decay_mult: 0
  }
  convolution_param {
    num_output: 384
    pad: 1
    kernel_size: 3
    weight_filler {
      type: "gaussian"
      std: 0.01
    }
    bias_filler {
      type: "constant"
      value: 0
    }
  }
}
layer {
  name: "relu3"
  type: "ReLU"
  bottom: "conv3"
  top: "conv3"
}
layer {
  name: "conv4"
  type: "Convolution"
  bottom: "conv3"
  top: "conv4"
  param {
    lr_mult: 1
    decay_mult: 1
  }
  param {
    lr_mult: 2
    decay_mult: 0
  }
  convolution_param {
    num_output: 384
    pad: 1
    kernel_size: 3
    group: 2
    weight_filler {
      type: "gaussian"
      std: 0.01
    }
    bias_filler {
      type: "constant"
      value: 1
    }
  }
}
layer {
  name: "relu4"
  type: "ReLU"
  bottom: "conv4"
  top: "conv4"
}
layer {
  name: "conv5"
  type: "Convolution"
  bottom: "conv4"
  top: "conv5"
  param {
    lr_mult: 1
    decay_mult: 1
  }
  param {
    lr_mult: 2
    decay_mult: 0
  }
  convolution_param {
    num_output: 256
    pad: 1
    kernel_size: 3
    group: 2
    weight_filler {
      type: "gaussian"
      std: 0.01
    }
    bias_filler {
      type: "constant"
      value: 1
    }
  }
}
layer {
  name: "relu5"
  type: "ReLU"
  bottom: "conv5"
  top: "conv5"
}
layer {
  name: "pool5"
  type: "Pooling"
  bottom: "conv5"
  top: "pool5"
  pooling_param {
    pool: MAX
    kernel_size: 3
    stride: 2
  }
}
layer {
  name: "fc6"
  type: "Convolution"
  bottom: "pool5"
  top: "fc6"
  param {
    lr_mult: 1
    decay_mult: 1
  }
  param {
    lr_mult: 2
    decay_mult: 0
  }
  convolution_param {
    num_output: 4096
    kernel_size: 6
    weight_filler {
      type: "gaussian"
      std: 0.005
    }
    bias_filler {
      type: "constant"
      value: 1
    }
  }
}
layer {
  name: "relu6"
  type: "ReLU"
  bottom: "fc6"
  top: "fc6"
}
layer {
  name: "fc7"
  type: "Convolution"
  bottom: "fc6"
  top: "fc7"
  param {
    lr_mult: 1
    decay_mult: 1
  }
  param {
    lr_mult: 2
    decay_mult: 0
  }
  convolution_param {
    num_output: 4096
    kernel_size: 1
    weight_filler {
      type: "gaussian"
      std: 0.005
    }
    bias_filler {
      type: "constant"
      value: 1
    }
  }
}
layer {
  name: "relu7"
  type: "ReLU"
  bottom: "fc7"
  top: "fc7"
}
layer {
  name: "deconv-1"
  type: "Deconvolution"
  bottom: "fc7"
  top: "up-fc7"
  param {
    lr_mult: 0
    decay_mult: 0
  }
  convolution_param {
    num_output: 256
    bias_term: false
    kernel_size: 63
    group: 256
    stride: 32
    weight_filler {
      type: "bilinear"
    }
  }
}
layer {
  name: "crop"
  type: "Crop"
  bottom: "up-fc7"
  bottom: "image"
  top: "conv-feature"
}
layer {
  name: "spixel_pooling1"
  type: "SuperpixelPooling"
  bottom: "conv-feature"
  bottom: "spixel_data"
  bottom: "spixel_ptr"
  bottom: "spixel_num"
  bottom: "mask_size"
  top: "spixel_feature"
}
layer {
  name: "rpixel_pooling1"
  type: "RowPooling"
  bottom: "spixel_feature"
  bottom: "seg_data"
  bottom: "seg_ptr"
  bottom: "seg_num"
  bottom: "seg_coef"
  top: "seg_feature"
}
layer {
  name: "xtx"
  type: "MatMult"
  bottom: "seg_feature"
  bottom: "seg_feature"
  top: "v"
  include {
    phase: TRAIN
  }
  matmult_param {
    transpose_b: true
  }
}
layer {
  name: "reshape_v"
  type: "Reshape"
  bottom: "v"
  top: "rv"
  include {
    phase: TRAIN
  }
  reshape_param {
    shape {
      dim: -1
    }
    num_axes: 2
  }
}
layer {
  name: "reshape_overlaps"
  type: "Reshape"
  bottom: "overlaps"
  top: "roverlaps"
  include {
    phase: TRAIN
  }
  propagate_down: false
  reshape_param {
    shape {
      dim: -1
    }
    num_axes: 2
  }
}
layer {
  name: "euclideanLoss"
  type: "EuclideanLoss"
  bottom: "rv"
  bottom: "roverlaps"
  top: "unsupervised_loss"
  include {
    phase: TRAIN
  }
  propagate_down: true
  propagate_down: false
}
I0122 12:23:24.577412 32121 layer_factory.hpp:76] Creating layer images
I0122 12:23:24.577437 32121 net.cpp:107] Creating Layer images
I0122 12:23:24.577441 32121 net.cpp:412] images -> image
I0122 12:23:24.577458 32121 net.cpp:412] images -> ilabel
I0122 12:23:24.577477 32121 image_data_layer.cpp:37] Opening file ./tracker_model/data/SegTrackv2_hdf5_t0/images.txt
I0122 12:23:24.577720 32121 image_data_layer.cpp:52] A total of 606 images.
I0122 12:23:24.587527 32121 image_data_layer.cpp:79] output data size: 2,3,500,500
I0122 12:23:24.594537 32121 net.cpp:151] Setting up images
I0122 12:23:24.594555 32121 net.cpp:158] Top shape: 2 3 500 500 (1500000)
I0122 12:23:24.594559 32121 net.cpp:158] Top shape: 2 (2)
I0122 12:23:24.594561 32121 net.cpp:166] Memory required for data: 6000008
I0122 12:23:24.594568 32121 layer_factory.hpp:76] Creating layer image_images_0_split
I0122 12:23:24.594578 32121 net.cpp:107] Creating Layer image_images_0_split
I0122 12:23:24.594583 32121 net.cpp:455] image_images_0_split <- image
I0122 12:23:24.594600 32121 net.cpp:412] image_images_0_split -> image_images_0_split_0
I0122 12:23:24.594606 32121 net.cpp:412] image_images_0_split -> image_images_0_split_1
I0122 12:23:24.594636 32121 net.cpp:151] Setting up image_images_0_split
I0122 12:23:24.594640 32121 net.cpp:158] Top shape: 2 3 500 500 (1500000)
I0122 12:23:24.594643 32121 net.cpp:158] Top shape: 2 3 500 500 (1500000)
I0122 12:23:24.594645 32121 net.cpp:166] Memory required for data: 18000008
I0122 12:23:24.594647 32121 layer_factory.hpp:76] Creating layer data
I0122 12:23:24.594653 32121 net.cpp:107] Creating Layer data
I0122 12:23:24.594655 32121 net.cpp:412] data -> cont
I0122 12:23:24.594662 32121 net.cpp:412] data -> mask_size
I0122 12:23:24.594666 32121 net.cpp:412] data -> spixel_data
I0122 12:23:24.594671 32121 net.cpp:412] data -> spixel_ptr
I0122 12:23:24.594676 32121 net.cpp:412] data -> spixel_num
I0122 12:23:24.594681 32121 net.cpp:412] data -> seg_data
I0122 12:23:24.594686 32121 net.cpp:412] data -> seg_ptr
I0122 12:23:24.594691 32121 net.cpp:412] data -> seg_num
I0122 12:23:24.594696 32121 net.cpp:412] data -> seg_coef
I0122 12:23:24.594699 32121 net.cpp:412] data -> overlaps
I0122 12:23:24.594705 32121 net.cpp:412] data -> gt_num
I0122 12:23:24.594709 32121 net.cpp:412] data -> gt_overlaps
I0122 12:23:24.594717 32121 hdf5_data_layer.cpp:80] Loading list of HDF5 filenames from: ./tracker_model/data/SegTrackv2_hdf5_t0/seq_data.txt
I0122 12:23:24.594745 32121 hdf5_data_layer.cpp:94] Number of HDF5 files: 38
I0122 12:23:24.595340 32121 hdf5.cpp:35] Datatype class: H5T_INTEGER
I0122 12:23:24.727079 32121 hdf5.cpp:32] Datatype class: H5T_FLOAT
I0122 12:23:24.886287 32121 net.cpp:151] Setting up data
I0122 12:23:24.886318 32121 net.cpp:158] Top shape: 2 1 (2)
I0122 12:23:24.886323 32121 net.cpp:158] Top shape: 2 1 2 (4)
I0122 12:23:24.886327 32121 net.cpp:158] Top shape: 2 1 230400 2 (921600)
I0122 12:23:24.886329 32121 net.cpp:158] Top shape: 2 1 9778 (19556)
I0122 12:23:24.886332 32121 net.cpp:158] Top shape: 2 1 (2)
I0122 12:23:24.886335 32121 net.cpp:158] Top shape: 2 1 3102361 (6204722)
I0122 12:23:24.886337 32121 net.cpp:158] Top shape: 2 1 1801 (3602)
I0122 12:23:24.886340 32121 net.cpp:158] Top shape: 2 1 (2)
I0122 12:23:24.886343 32121 net.cpp:158] Top shape: 2 1 3102361 (6204722)
I0122 12:23:24.886345 32121 net.cpp:158] Top shape: 2 1 1800 1800 (6480000)
I0122 12:23:24.886348 32121 net.cpp:158] Top shape: 2 1 (2)
I0122 12:23:24.886350 32121 net.cpp:158] Top shape: 2 1 6 1800 (21600)
I0122 12:23:24.886351 32121 net.cpp:166] Memory required for data: 97423264
I0122 12:23:24.886355 32121 layer_factory.hpp:76] Creating layer silent_cont
I0122 12:23:24.886363 32121 net.cpp:107] Creating Layer silent_cont
I0122 12:23:24.886368 32121 net.cpp:455] silent_cont <- cont
I0122 12:23:24.886373 32121 net.cpp:151] Setting up silent_cont
I0122 12:23:24.886374 32121 net.cpp:166] Memory required for data: 97423264
…
I0122 12:23:24.886415 32121 net.cpp:107] Creating Layer silent_ilabel
I0122 12:23:24.886416 32121 net.cpp:455] silent_ilabel <- ilabel
I0122 12:23:24.886418 32121 net.cpp:151] Setting up silent_ilabel
I0122 12:23:24.886420 32121 net.cpp:166] Memory required for data: 97423264
I0122 12:23:24.886422 32121 layer_factory.hpp:76] Creating layer conv1
I0122 12:23:24.886428 32121 net.cpp:107] Creating Layer conv1
I0122 12:23:24.886430 32121 net.cpp:455] conv1 <- image_images_0_split_0
I0122 12:23:24.886433 32121 net.cpp:412] conv1 -> conv1
I0122 12:23:24.955994 32121 net.cpp:151] Setting up conv1
I0122 12:23:24.956029 32121 net.cpp:158] Top shape: 2 96 173 173 (5746368)
I0122 12:23:24.956033 32121 net.cpp:166] Memory required for data: 120408736
I0122 12:23:24.956058 32121 layer_factory.hpp:76] Creating layer relu1
I0122 12:23:24.956068 32121 net.cpp:107] Creating Layer relu1
I0122 12:23:24.956074 32121 net.cpp:455] relu1 <- conv1
I0122 12:23:24.956079 32121 net.cpp:398] relu1 -> conv1 (in-place)
I0122 12:23:24.956178 32121 net.cpp:151] Setting up relu1
I0122 12:23:24.956184 32121 net.cpp:158] Top shape: 2 96 173 173 (5746368)
I0122 12:23:24.956187 32121 net.cpp:166] Memory required for data: 143394208
I0122 12:23:24.956189 32121 layer_factory.hpp:76] Creating layer pool1
I0122 12:23:24.956194 32121 net.cpp:107] Creating Layer pool1
I0122 12:23:24.956197 32121 net.cpp:455] pool1 <- conv1
I0122 12:23:24.956200 32121 net.cpp:412] pool1 -> pool1
I0122 12:23:24.956416 32121 net.cpp:151] Setting up pool1
I0122 12:23:24.956423 32121 net.cpp:158] Top shape: 2 96 86 86 (1420032)
I0122 12:23:24.956426 32121 net.cpp:166] Memory required for data: 149074336
I0122 12:23:24.956429 32121 layer_factory.hpp:76] Creating layer norm1
I0122 12:23:24.956435 32121 net.cpp:107] Creating Layer norm1
I0122 12:23:24.956437 32121 net.cpp:455] norm1 <- pool1
I0122 12:23:24.956441 32121 net.cpp:412] norm1 -> norm1
I0122 12:23:24.956641 32121 net.cpp:151] Setting up norm1
I0122 12:23:24.956648 32121 net.cpp:158] Top shape: 2 96 86 86 (1420032)
I0122 12:23:24.956650 32121 net.cpp:166] Memory required for data: 154754464
I0122 12:23:24.956653 32121 layer_factory.hpp:76] Creating layer conv2
I0122 12:23:24.956663 32121 net.cpp:107] Creating Layer conv2
I0122 12:23:24.956666 32121 net.cpp:455] conv2 <- norm1
I0122 12:23:24.956670 32121 net.cpp:412] conv2 -> conv2
I0122 12:23:24.963668 32121 cudnn_conv_layer.cpp:198] Reallocating workspace storage: 28800
I0122 12:23:24.963685 32121 net.cpp:151] Setting up conv2
I0122 12:23:24.963690 32121 net.cpp:158] Top shape: 2 256 86 86 (3786752)
I0122 12:23:24.963692 32121 net.cpp:166] Memory required for data: 169901472
I0122 12:23:24.963699 32121 layer_factory.hpp:76] Creating layer relu2
I0122 12:23:24.963706 32121 net.cpp:107] Creating Layer relu2
I0122 12:23:24.963711 32121 net.cpp:455] relu2 <- conv2
I0122 12:23:24.963714 32121 net.cpp:398] relu2 -> conv2 (in-place)
I0122 12:23:24.963908 32121 net.cpp:151] Setting up relu2
I0122 12:23:24.963929 32121 net.cpp:158] Top shape: 2 256 86 86 (3786752)
I0122 12:23:24.963932 32121 net.cpp:166] Memory required for data: 185048480
I0122 12:23:24.963935 32121 layer_factory.hpp:76] Creating layer pool2
I0122 12:23:24.963939 32121 net.cpp:107] Creating Layer pool2
I0122 12:23:24.963942 32121 net.cpp:455] pool2 <- conv2
I0122 12:23:24.963944 32121 net.cpp:412] pool2 -> pool2
I0122 12:23:24.964069 32121 net.cpp:151] Setting up pool2
I0122 12:23:24.964076 32121 net.cpp:158] Top shape: 2 256 43 43 (946688)
I0122 12:23:24.964077 32121 net.cpp:166] Memory required for data: 188835232
I0122 12:23:24.964079 32121 layer_factory.hpp:76] Creating layer norm2
I0122 12:23:24.964105 32121 net.cpp:107] Creating Layer norm2
I0122 12:23:24.964107 32121 net.cpp:455] norm2 <- pool2
I0122 12:23:24.964110 32121 net.cpp:412] norm2 -> norm2
I0122 12:23:24.964328 32121 net.cpp:151] Setting up norm2
I0122 12:23:24.964334 32121 net.cpp:158] Top shape: 2 256 43 43 (946688)
I0122 12:23:24.964336 32121 net.cpp:166] Memory required for data: 192621984
I0122 12:23:24.964339 32121 layer_factory.hpp:76] Creating layer conv3
I0122 12:23:24.964344 32121 net.cpp:107] Creating Layer conv3
I0122 12:23:24.964346 32121 net.cpp:455] conv3 <- norm2
I0122 12:23:24.964350 32121 net.cpp:412] conv3 -> conv3
I0122 12:23:24.981886 32121 cudnn_conv_layer.cpp:198] Reallocating workspace storage: 27648
I0122 12:23:24.981925 32121 net.cpp:151] Setting up conv3
I0122 12:23:24.981932 32121 net.cpp:158] Top shape: 2 384 43 43 (1420032)
I0122 12:23:24.981935 32121 net.cpp:166] Memory required for data: 198302112
I0122 12:23:24.981943 32121 layer_factory.hpp:76] Creating layer relu3
I0122 12:23:24.981952 32121 net.cpp:107] Creating Layer relu3
I0122 12:23:24.981956 32121 net.cpp:455] relu3 <- conv3
I0122 12:23:24.981959 32121 net.cpp:398] relu3 -> conv3 (in-place)
I0122 12:23:24.982072 32121 net.cpp:151] Setting up relu3
I0122 12:23:24.982079 32121 net.cpp:158] Top shape: 2 384 43 43 (1420032)
I0122 12:23:24.982080 32121 net.cpp:166] Memory required for data: 203982240
I0122 12:23:24.982084 32121 layer_factory.hpp:76] Creating layer conv4
I0122 12:23:24.982089 32121 net.cpp:107] Creating Layer conv4
I0122 12:23:24.982091 32121 net.cpp:455] conv4 <- conv3
I0122 12:23:24.982095 32121 net.cpp:412] conv4 -> conv4
I0122 12:23:24.995802 32121 net.cpp:151] Setting up conv4
I0122 12:23:24.995818 32121 net.cpp:158] Top shape: 2 384 43 43 (1420032)
I0122 12:23:24.995821 32121 net.cpp:166] Memory required for data: 209662368
I0122 12:23:24.995826 32121 layer_factory.hpp:76] Creating layer relu4
I0122 12:23:24.995832 32121 net.cpp:107] Creating Layer relu4
I0122 12:23:24.995834 32121 net.cpp:455] relu4 <- conv4
I0122 12:23:24.995838 32121 net.cpp:398] relu4 -> conv4 (in-place)
I0122 12:23:24.995970 32121 net.cpp:151] Setting up relu4
I0122 12:23:24.995976 32121 net.cpp:158] Top shape: 2 384 43 43 (1420032)
I0122 12:23:24.995978 32121 net.cpp:166] Memory required for data: 215342496
I0122 12:23:24.995981 32121 layer_factory.hpp:76] Creating layer conv5
I0122 12:23:24.995987 32121 net.cpp:107] Creating Layer conv5
I0122 12:23:24.995990 32121 net.cpp:455] conv5 <- conv4
I0122 12:23:24.995995 32121 net.cpp:412] conv5 -> conv5
I0122 12:23:25.005434 32121 net.cpp:151] Setting up conv5
I0122 12:23:25.005444 32121 net.cpp:158] Top shape: 2 256 43 43 (946688)
I0122 12:23:25.005446 32121 net.cpp:166] Memory required for data: 219129248
I0122 12:23:25.005470 32121 layer_factory.hpp:76] Creating layer relu5
I0122 12:23:25.005475 32121 net.cpp:107] Creating Layer relu5
I0122 12:23:25.005477 32121 net.cpp:455] relu5 <- conv5
I0122 12:23:25.005481 32121 net.cpp:398] relu5 -> conv5 (in-place)
I0122 12:23:25.005585 32121 net.cpp:151] Setting up relu5
I0122 12:23:25.005591 32121 net.cpp:158] Top shape: 2 256 43 43 (946688)
I0122 12:23:25.005594 32121 net.cpp:166] Memory required for data: 222916000
I0122 12:23:25.005595 32121 layer_factory.hpp:76] Creating layer pool5
I0122 12:23:25.005602 32121 net.cpp:107] Creating Layer pool5
I0122 12:23:25.005604 32121 net.cpp:455] pool5 <- conv5
I0122 12:23:25.005609 32121 net.cpp:412] pool5 -> pool5
I0122 12:23:25.005810 32121 net.cpp:151] Setting up pool5
I0122 12:23:25.005817 32121 net.cpp:158] Top shape: 2 256 21 21 (225792)
I0122 12:23:25.005820 32121 net.cpp:166] Memory required for data: 223819168
I0122 12:23:25.005821 32121 layer_factory.hpp:76] Creating layer fc6
I0122 12:23:25.005827 32121 net.cpp:107] Creating Layer fc6
I0122 12:23:25.005831 32121 net.cpp:455] fc6 <- pool5
I0122 12:23:25.005836 32121 net.cpp:412] fc6 -> fc6
I0122 12:23:25.702725 32121 cudnn_conv_layer.cpp:198] Reallocating workspace storage: 110592
I0122 12:23:25.702848 32121 net.cpp:151] Setting up fc6
I0122 12:23:25.702874 32121 net.cpp:158] Top shape: 2 4096 16 16 (2097152)
I0122 12:23:25.702877 32121 net.cpp:166] Memory required for data: 232207776
I0122 12:23:25.702884 32121 layer_factory.hpp:76] Creating layer relu6
I0122 12:23:25.702891 32121 net.cpp:107] Creating Layer relu6
I0122 12:23:25.702894 32121 net.cpp:455] relu6 <- fc6
I0122 12:23:25.702900 32121 net.cpp:398] relu6 -> fc6 (in-place)
I0122 12:23:25.703022 32121 net.cpp:151] Setting up relu6
I0122 12:23:25.703027 32121 net.cpp:158] Top shape: 2 4096 16 16 (2097152)
I0122 12:23:25.703030 32121 net.cpp:166] Memory required for data: 240596384
I0122 12:23:25.703032 32121 layer_factory.hpp:76] Creating layer fc7
I0122 12:23:25.703038 32121 net.cpp:107] Creating Layer fc7
I0122 12:23:25.703040 32121 net.cpp:455] fc7 <- fc6
I0122 12:23:25.703045 32121 net.cpp:412] fc7 -> fc7
I0122 12:23:26.013798 32121 cudnn_conv_layer.cpp:198] Reallocating workspace storage: 49152
I0122 12:23:26.013844 32121 net.cpp:151] Setting up fc7
I0122 12:23:26.013849 32121 net.cpp:158] Top shape: 2 4096 16 16 (2097152)
I0122 12:23:26.013851 32121 net.cpp:166] Memory required for data: 248984992
I0122 12:23:26.013859 32121 layer_factory.hpp:76] Creating layer relu7
I0122 12:23:26.013865 32121 net.cpp:107] Creating Layer relu7
I0122 12:23:26.013869 32121 net.cpp:455] relu7 <- fc7
I0122 12:23:26.013872 32121 net.cpp:398] relu7 -> fc7 (in-place)
I0122 12:23:26.014077 32121 net.cpp:151] Setting up relu7
I0122 12:23:26.014084 32121 net.cpp:158] Top shape: 2 4096 16 16 (2097152)
I0122 12:23:26.014101 32121 net.cpp:166] Memory required for data: 257373600
I0122 12:23:26.014103 32121 layer_factory.hpp:76] Creating layer deconv-1
I0122 12:23:26.014109 32121 net.cpp:107] Creating Layer deconv-1
I0122 12:23:26.014111 32121 net.cpp:455] deconv-1 <- fc7
I0122 12:23:26.014117 32121 net.cpp:412] deconv-1 -> up-fc7
I0122 12:23:26.299854 32121 net.cpp:151] Setting up deconv-1
I0122 12:23:26.299883 32121 net.cpp:158] Top shape: 2 256 543 543 (150962688)
I0122 12:23:26.299886 32121 net.cpp:166] Memory required for data: 861224352
I0122 12:23:26.299892 32121 layer_factory.hpp:76] Creating layer crop
I0122 12:23:26.299904 32121 net.cpp:107] Creating Layer crop
I0122 12:23:26.299907 32121 net.cpp:455] crop <- up-fc7
I0122 12:23:26.299911 32121 net.cpp:455] crop <- image_images_0_split_1
I0122 12:23:26.299916 32121 net.cpp:412] crop -> conv-feature
I0122 12:23:26.299971 32121 net.cpp:151] Setting up crop
I0122 12:23:26.299976 32121 net.cpp:158] Top shape: 2 256 500 500 (128000000)
I0122 12:23:26.299978 32121 net.cpp:166] Memory required for data: 1373224352
I0122 12:23:26.299980 32121 layer_factory.hpp:76] Creating layer spixel_pooling1
I0122 12:23:26.299984 32121 net.cpp:107] Creating Layer spixel_pooling1
I0122 12:23:26.299986 32121 net.cpp:455] spixel_pooling1 <- conv-feature
I0122 12:23:26.299989 32121 net.cpp:455] spixel_pooling1 <- spixel_data
I0122 12:23:26.299993 32121 net.cpp:455] spixel_pooling1 <- spixel_ptr
I0122 12:23:26.299995 32121 net.cpp:455] spixel_pooling1 <- spixel_num
I0122 12:23:26.299998 32121 net.cpp:455] spixel_pooling1 <- mask_size
I0122 12:23:26.300000 32121 net.cpp:412] spixel_pooling1 -> spixel_feature
I0122 12:23:26.300015 32121 net.cpp:151] Setting up spixel_pooling1
I0122 12:23:26.300019 32121 net.cpp:158] Top shape: 2 1 9777 256 (5005824)
I0122 12:23:26.300021 32121 net.cpp:166] Memory required for data: 1393247648
I0122 12:23:26.300024 32121 layer_factory.hpp:76] Creating layer rpixel_pooling1
I0122 12:23:26.300029 32121 net.cpp:107] Creating Layer rpixel_pooling1
I0122 12:23:26.300031 32121 net.cpp:455] rpixel_pooling1 <- spixel_feature
I0122 12:23:26.300034 32121 net.cpp:455] rpixel_pooling1 <- seg_data
I0122 12:23:26.300036 32121 net.cpp:455] rpixel_pooling1 <- seg_ptr
I0122 12:23:26.300039 32121 net.cpp:455] rpixel_pooling1 <- seg_num
I0122 12:23:26.300040 32121 net.cpp:455] rpixel_pooling1 <- seg_coef
I0122 12:23:26.300045 32121 net.cpp:412] rpixel_pooling1 -> seg_feature
I0122 12:23:26.300058 32121 net.cpp:151] Setting up rpixel_pooling1
I0122 12:23:26.300061 32121 net.cpp:158] Top shape: 2 1 1800 256 (921600)
I0122 12:23:26.300073 32121 net.cpp:166] Memory required for data: 1396934048
I0122 12:23:26.300076 32121 layer_factory.hpp:76] Creating layer seg_feature_rpixel_pooling1_0_split
I0122 12:23:26.300078 32121 net.cpp:107] Creating Layer seg_feature_rpixel_pooling1_0_split
I0122 12:23:26.300081 32121 net.cpp:455] seg_feature_rpixel_pooling1_0_split <- seg_feature
I0122 12:23:26.300083 32121 net.cpp:412] seg_feature_rpixel_pooling1_0_split -> seg_feature_rpixel_pooling1_0_split_0
I0122 12:23:26.300091 32121 net.cpp:412] seg_feature_rpixel_pooling1_0_split -> seg_feature_rpixel_pooling1_0_split_1
I0122 12:23:26.300114 32121 net.cpp:151] Setting up seg_feature_rpixel_pooling1_0_split
I0122 12:23:26.300120 32121 net.cpp:158] Top shape: 2 1 1800 256 (921600)
I0122 12:23:26.300122 32121 net.cpp:158] Top shape: 2 1 1800 256 (921600)
I0122 12:23:26.300124 32121 net.cpp:166] Memory required for data: 1404306848
I0122 12:23:26.300127 32121 layer_factory.hpp:76] Creating layer xtx
I0122 12:23:26.300132 32121 net.cpp:107] Creating Layer xtx
I0122 12:23:26.300135 32121 net.cpp:455] xtx <- seg_feature_rpixel_pooling1_0_split_0
I0122 12:23:26.300137 32121 net.cpp:455] xtx <- seg_feature_rpixel_pooling1_0_split_1
I0122 12:23:26.300142 32121 net.cpp:412] xtx -> v
I0122 12:23:26.300158 32121 net.cpp:151] Setting up xtx
I0122 12:23:26.300163 32121 net.cpp:158] Top shape: 2 1 1800 1800 (6480000)
I0122 12:23:26.300164 32121 net.cpp:166] Memory required for data: 1430226848
I0122 12:23:26.300166 32121 layer_factory.hpp:76] Creating layer reshape_v
I0122 12:23:26.300175 32121 net.cpp:107] Creating Layer reshape_v
I0122 12:23:26.300178 32121 net.cpp:455] reshape_v <- v
I0122 12:23:26.300181 32121 net.cpp:412] reshape_v -> rv
I0122 12:23:26.300210 32121 net.cpp:151] Setting up reshape_v
I0122 12:23:26.300215 32121 net.cpp:158] Top shape: 2 1800 1800 (6480000)
I0122 12:23:26.300216 32121 net.cpp:166] Memory required for data: 1456146848
I0122 12:23:26.300218 32121 layer_factory.hpp:76] Creating layer reshape_overlaps
I0122 12:23:26.300221 32121 net.cpp:107] Creating Layer reshape_overlaps
I0122 12:23:26.300223 32121 net.cpp:455] reshape_overlaps <- overlaps
I0122 12:23:26.300228 32121 net.cpp:412] reshape_overlaps -> roverlaps
I0122 12:23:26.300242 32121 net.cpp:151] Setting up reshape_overlaps
I0122 12:23:26.300246 32121 net.cpp:158] Top shape: 2 1800 1800 (6480000)
I0122 12:23:26.300248 32121 net.cpp:166] Memory required for data: 1482066848
I0122 12:23:26.300251 32121 layer_factory.hpp:76] Creating layer euclideanLoss
I0122 12:23:26.300256 32121 net.cpp:107] Creating Layer euclideanLoss
I0122 12:23:26.300257 32121 net.cpp:455] euclideanLoss <- rv
I0122 12:23:26.300259 32121 net.cpp:455] euclideanLoss <- roverlaps
I0122 12:23:26.300263 32121 net.cpp:412] euclideanLoss -> unsupervised_loss
…
    mean_value: 122.67892
  }
  image_data_param {
    source: "./tracker_model/data/SegTrackv2_hdf5_t4/images.txt"
    batch_size: 4
    shuffle: false
  }
}
layer {
  name: "data"
  type: "HDF5Data"
  top: "cont"
  top: "mask_size"
  top: "spixel_data"
  top: "spixel_ptr"
  top: "spixel_num"
  top: "seg_data"
  top: "seg_ptr"
  top: "seg_num"
  top: "seg_coef"
  top: "overlaps"
  top: "gt_num"
  top: "gt_overlaps"
  include {
    phase: TEST
  }
  hdf5_data_param {
    source: "./tracker_model/data/SegTrackv2_hdf5_t4/seq_data.txt"
    batch_size: 4
  }
}
layer {
  name: "silent_ilabel"
  type: "Silence"
  bottom: "ilabel"
}
layer {
  name: "conv1"
  type: "Convolution"
  bottom: "image"
  top: "conv1"
  param {
    lr_mult: 1
    decay_mult: 1
  }
  param {
    lr_mult: 2
    decay_mult: 0
  }
  convolution_param {
    num_output: 96
    pad: 100
    kernel_size: 11
    stride: 4
    weight_filler {
      type: "gaussian"
      std: 0.01
    }
    bias_filler {
      type: "constant"
      value: 0
    }
  }
}
layer {
  name: "relu1"
  type: "ReLU"
  bottom: "conv1"
  top: "conv1"
}
layer {
  name: "pool1"
  type: "Pooling"
  bottom: "conv1"
  top: "pool1"
  pooling_param {
    pool: MAX
    kernel_size: 3
    stride: 2
  }
}
layer {
  name: "norm1"
  type: "LRN"
  bottom: "pool1"
  top: "norm1"
  lrn_param {
    local_size: 5
    alpha: 0.0001
    beta: 0.75
  }
}
layer {
  name: "conv2"
  type: "Convolution"
  bottom: "norm1"
  top: "conv2"
  param {
    lr_mult: 1
    decay_mult: 1
  }
  param {
    lr_mult: 2
    decay_mult: 0
  }
  convolution_param {
    num_output: 256
    pad: 2
    kernel_size: 5
    group: 2
    weight_filler {
      type: "gaussian"
      std: 0.01
    }
    bias_filler {
      type: "constant"
      value: 1
    }
  }
}
layer {
  name: "relu2"
  type: "ReLU"
  bottom: "conv2"
  top: "conv2"
}
layer {
  name: "pool2"
  type: "Pooling"
  bottom: "conv2"
  top: "pool2"
  pooling_param {
    pool: MAX
    kernel_size: 3
    stride: 2
  }
}
layer {
  name: "norm2"
  type: "LRN"
  bottom: "pool2"
  top: "norm2"
  lrn_param {
    local_size: 5
    alpha: 0.0001
    beta: 0.75
  }
}
layer {
  name: "conv3"
  type: "Convolution"
  bottom: "norm2"
  top: "conv3"
  param {
    lr_mult: 1
    decay_mult: 1
  }
  param {
    lr_mult: 2
    decay_mult: 0
  }
  convolution_param {
    num_output: 384
    pad: 1
    kernel_size: 3
    weight_filler {
      type: "gaussian"
      std: 0.01
    }
    bias_filler {
      type: "constant"
      value: 0
    }
  }
}
layer {
  name: "relu3"
  type: "ReLU"
  bottom: "conv3"
  top: "conv3"
}
layer {
  name: "conv4"
  type: "Convolution"
  bottom: "conv3"
  top: "conv4"
  param {
    lr_mult: 1
    decay_mult: 1
  }
  param {
    lr_mult: 2
    decay_mult: 0
  }
  convolution_param {
    num_output: 384
    pad: 1
    kernel_size: 3
    group: 2
    weight_filler {
      type: "gaussian"
      std: 0.01
    }
    bias_filler {
      type: "constant"
      value: 1
    }
  }
}
layer {
  name: "relu4"
  type: "ReLU"
  bottom: "conv4"
  top: "conv4"
}
layer {
  name: "conv5"
  type: "Convolution"
  bottom: "conv4"
  top: "conv5"
  param {
    lr_mult: 1
    decay_mult: 1
  }
  param {
    lr_mult: 2
    decay_mult: 0
  }
  convolution_param {
    num_output: 256
    pad: 1
    kernel_size: 3
    group: 2
    weight_filler {
      type: "gaussian"
      std: 0.01
    }
    bias_filler {
      type: "constant"
      value: 1
    }
  }
}
layer {
  name: "relu5"
  type: "ReLU"
  bottom: "conv5"
  top: "conv5"
}
layer {
  name: "pool5"
  type: "Pooling"
  bottom: "conv5"
  top: "pool5"
  pooling_param {
    pool: MAX
    kernel_size: 3
    stride: 2
  }
}
layer {
  name: "fc6"
  type: "Convolution"
  bottom: "pool5"
  top: "fc6"
  param {
    lr_mult: 1
    decay_mult: 1
  }
  param {
    lr_mult: 2
    decay_mult: 0
  }
  convolution_param {
    num_output: 4096
    kernel_size: 6
    weight_filler {
      type: "gaussian"
      std: 0.005
    }
    bias_filler {
      type: "constant"
      value: 1
    }
  }
}
layer {
  name: "relu6"
  type: "ReLU"
  bottom: "fc6"
  top: "fc6"
}
layer {
  name: "fc7"
  type: "Convolution"
  bottom: "fc6"
  top: "fc7"
  param {
    lr_mult: 1
    decay_mult: 1
  }
  param {
    lr_mult: 2
    decay_mult: 0
  }
  convolution_param {
    num_output: 4096
    kernel_size: 1
    weight_filler {
      type: "gaussian"
      std: 0.005
    }
    bias_filler {
      type: "constant"
      value: 1
    }
  }
}
layer {
  name: "relu7"
  type: "ReLU"
  bottom: "fc7"
  top: "fc7"
}
layer {
  name: "deconv-1"
  type: "Deconvolution"
  bottom: "fc7"
  top: "up-fc7"
  param {
    lr_mult: 0
    decay_mult: 0
  }
  convolution_param {
    num_output: 256
    bias_term: false
    kernel_size: 63
    group: 256
    stride: 32
    weight_filler {
      type: "bilinear"
    }
  }
}
layer {
  name: "crop"
  type: "Crop"
  bottom: "up-fc7"
  bottom: "image"
  top: "conv-feature"
}
layer {
  name: "spixel_pooling1"
  type: "SuperpixelPooling"
  bottom: "conv-feature"
  bottom: "spixel_data"
  bottom: "spixel_ptr"
  bottom: "spixel_num"
  bottom: "mask_size"
  top: "spixel_feature"
}
layer {
  name: "rpixel_pooling1"
  type: "RowPooling"
  bottom: "spixel_feature"
  bottom: "seg_data"
  bottom: "seg_ptr"
  bottom: "seg_num"
  bottom: "seg_coef"
  top: "seg_feature"
}
layer {
  name: "tracker"
  type: "Tracker"
  bottom: "seg_feature"
  bottom: "overlaps"
  bottom: "seg_num"
  bottom: "cont"
  top: "v"
  top: "vtilde"
  include {
    phase: TEST
  }
  tracker_param {
    num_track: 1800
    feature_dim: 256
    lambda: 10000
    use_softmax: false
    use_vtilde_in_c: false
  }
}
layer {
  name: "trackerLoss"
  type: "TrackerLoss"
  bottom: "v"
  bottom: "gt_overlaps"
  bottom: "gt_num"
  bottom: "cont"
  top: "supervised_loss"
  include {
    phase: TEST
  }
  tracker_loss_param {
    object_num: 6
  }
}
layer {
  name: "trackerLoss_refined"
  type: "TrackerLoss"
  bottom: "vtilde"
  bottom: "gt_overlaps"
  bottom: "gt_num"
  bottom: "cont"
  top: "supervised_loss_refined"
  include {
    phase: TEST
  }
  tracker_loss_param {
    object_num: 6
  }
}
I0122 12:23:26.301440 32121 layer_factory.hpp:76] Creating layer images
I0122 12:23:26.301447 32121 net.cpp:107] Creating Layer images
I0122 12:23:26.301450 32121 net.cpp:412] images -> image
I0122 12:23:26.301456 32121 net.cpp:412] images -> ilabel
I0122 12:23:26.301462 32121 image_data_layer.cpp:37] Opening file ./tracker_model/data/SegTrackv2_hdf5_t4/images.txt
I0122 12:23:26.301609 32121 image_data_layer.cpp:52] A total of 316 images.
I0122 12:23:26.305408 32121 image_data_layer.cpp:79] output data size: 4,3,500,500
I0122 12:23:26.318954 32121 net.cpp:151] Setting up images
I0122 12:23:26.318974 32121 net.cpp:158] Top shape: 4 3 500 500 (3000000)
I0122 12:23:26.318976 32121 net.cpp:158] Top shape: 4 (4)
I0122 12:23:26.318979 32121 net.cpp:166] Memory required for data: 12000016
I0122 12:23:26.318982 32121 layer_factory.hpp:76] Creating layer image_images_0_split
I0122 12:23:26.318991 32121 net.cpp:107] Creating Layer image_images_0_split
I0122 12:23:26.318994 32121 net.cpp:455] image_images_0_split <- image
I0122 12:23:26.318997 32121 net.cpp:412] image_images_0_split -> image_images_0_split_0
I0122 12:23:26.319002 32121 net.cpp:412] image_images_0_split -> image_images_0_split_1
I0122 12:23:26.319049 32121 net.cpp:151] Setting up image_images_0_split
I0122 12:23:26.319054 32121 net.cpp:158] Top shape: 4 3 500 500 (3000000)
I0122 12:23:26.319056 32121 net.cpp:158] Top shape: 4 3 500 500 (3000000)
I0122 12:23:26.319058 32121 net.cpp:166] Memory required for data: 36000016
I0122 12:23:26.319061 32121 layer_factory.hpp:76] Creating layer data
I0122 12:23:26.319067 32121 net.cpp:107] Creating Layer data
I0122 12:23:26.319070 32121 net.cpp:412] data -> cont
I0122 12:23:26.319075 32121 net.cpp:412] data -> mask_size
I0122 12:23:26.319079 32121 net.cpp:412] data -> spixel_data
I0122 12:23:26.319084 32121 net.cpp:412] data -> spixel_ptr
I0122 12:23:26.319088 32121 net.cpp:412] data -> spixel_num
I0122 12:23:26.319093 32121 net.cpp:412] data -> seg_data
I0122 12:23:26.319097 32121 net.cpp:412] data -> seg_ptr
I0122 12:23:26.319102 32121 net.cpp:412] data -> seg_num
I0122 12:23:26.319105 32121 net.cpp:412] data -> seg_coef
I0122 12:23:26.319109 32121 net.cpp:412] data -> overlaps
I0122 12:23:26.319114 32121 net.cpp:412] data -> gt_num
I0122 12:23:26.319118 32121 net.cpp:412] data -> gt_overlaps
I0122 12:23:26.319123 32121 hdf5_data_layer.cpp:80] Loading list of HDF5 filenames from: ./tracker_model/data/SegTrackv2_hdf5_t4/seq_data.txt
I0122 12:23:26.319149 32121 hdf5_data_layer.cpp:94] Number of HDF5 files: 20
I0122 12:23:26.615231 32121 net.cpp:151] Setting up data
I0122 12:23:26.615248 32121 net.cpp:158] Top shape: 4 1 (4)
I0122 12:23:26.615252 32121 net.cpp:158] Top shape: 4 1 2 (8)
I0122 12:23:26.615255 32121 net.cpp:158] Top shape: 4 1 230400 2 (1843200)
I0122 12:23:26.615257 32121 net.cpp:158] Top shape: 4 1 9778 (39112)
I0122 12:23:26.615260 32121 net.cpp:158] Top shape: 4 1 (4)
I0122 12:23:26.615263 32121 net.cpp:158] Top shape: 4 1 3102361 (12409444)
I0122 12:23:26.615265 32121 net.cpp:158] Top shape: 4 1 1801 (7204)
I0122 12:23:26.615268 32121 net.cpp:158] Top shape: 4 1 (4)
I0122 12:23:26.615270 32121 net.cpp:158] Top shape: 4 1 3102361 (12409444)
I0122 12:23:26.615273 32121 net.cpp:158] Top shape: 4 1 1800 1800 (12960000)
I0122 12:23:26.615275 32121 net.cpp:158] Top shape: 4 1 (4)
I0122 12:23:26.615278 32121 net.cpp:158] Top shape: 4 1 6 1800 (43200)
I0122 12:23:26.615280 32121 net.cpp:166] Memory required for data: 194846528
I0122 12:23:26.615290 32121 layer_factory.hpp:76] Creating layer cont_data_0_split
I0122 12:23:26.615298 32121 net.cpp:107] Creating Layer cont_data_0_split
I0122 12:23:26.615300 32121 net.cpp:455] cont_data_0_split <- cont
I0122 12:23:26.615306 32121 net.cpp:412] cont_data_0_split -> cont_data_0_split_0
I0122 12:23:26.615314 32121 net.cpp:412] cont_data_0_split -> cont_data_0_split_1
I0122 12:23:26.615319 32121 net.cpp:412] cont_data_0_split -> cont_data_0_split_2
I0122 12:23:26.615350 32121 net.cpp:151] Setting up cont_data_0_split
I0122 12:23:26.615355 32121 net.cpp:158] Top shape: 4 1 (4)
I0122 12:23:26.615357 32121 net.cpp:158] Top shape: 4 1 (4)
I0122 12:23:26.615360 32121 net.cpp:158] Top shape: 4 1 (4)
I0122 12:23:26.615361 32121 net.cpp:166] Memory required for data: 194846576
I0122 12:23:26.615363 32121 layer_factory.hpp:76] Creating layer seg_num_data_7_split
I0122 12:23:26.615367 32121 net.cpp:107] Creating Layer seg_num_data_7_split
I0122 12:23:26.615370 32121 net.cpp:455] seg_num_data_7_split <- seg_num
I0122 12:23:26.615373 32121 net.cpp:412] seg_num_data_7_split -> seg_num_data_7_split_0
I0122 12:23:26.615377 32121 net.cpp:412] seg_num_data_7_split -> seg_num_data_7_split_1
I0122 12:23:26.615396 32121 net.cpp:151] Setting up seg_num_data_7_split
I0122 12:23:26.615401 32121 net.cpp:158] Top shape: 4 1 (4)
I0122 12:23:26.615403 32121 net.cpp:158] Top shape: 4 1 (4)
I0122 12:23:26.615406 32121 net.cpp:166] Memory required for data: 194846608
I0122 12:23:26.615407 32121 layer_factory.hpp:76] Creating layer gt_num_data_10_split
I0122 12:23:26.615409 32121 net.cpp:107] Creating Layer gt_num_data_10_split
I0122 12:23:26.615411 32121 net.cpp:455] gt_num_data_10_split <- gt_num
I0122 12:23:26.615414 32121 net.cpp:412] gt_num_data_10_split -> gt_num_data_10_split_0
I0122 12:23:26.615418 32121 net.cpp:412] gt_num_data_10_split -> gt_num_data_10_split_1
I0122 12:23:26.615437 32121 net.cpp:151] Setting up gt_num_data_10_split
I0122 12:23:26.615442 32121 net.cpp:158] Top shape: 4 1 (4)
I0122 12:23:26.615443 32121 net.cpp:158] Top shape: 4 1 (4)
I0122 12:23:26.615445 32121 net.cpp:166] Memory required for data: 194846640
I0122 12:23:26.615447 32121 layer_factory.hpp:76] Creating layer gt_overlaps_data_11_split
I0122 12:23:26.615449 32121 net.cpp:107] Creating Layer gt_overlaps_data_11_split
I0122 12:23:26.615453 32121 net.cpp:455] gt_overlaps_data_11_split <- gt_overlaps
I0122 12:23:26.615455 32121 net.cpp:412] gt_overlaps_data_11_split -> gt_overlaps_data_11_split_0
I0122 12:23:26.615458 32121 net.cpp:412] gt_overlaps_data_11_split -> gt_overlaps_data_11_split_1
I0122 12:23:26.615478 32121 net.cpp:151] Setting up gt_overlaps_data_11_split
I0122 12:23:26.615481 32121 net.cpp:158] Top shape: 4 1 6 1800 (43200)
I0122 12:23:26.615484 32121 net.cpp:158] Top shape: 4 1 6 1800 (43200)
I0122 12:23:26.615486 32121 net.cpp:166] Memory required for data: 195192240
I0122 12:23:26.615489 32121 layer_factory.hpp:76] Creating layer silent_ilabel
I0122 12:23:26.615491 32121 net.cpp:107] Creating Layer silent_ilabel
I0122 12:23:26.615494 32121 net.cpp:455] silent_ilabel <- ilabel
I0122 12:23:26.615496 32121 net.cpp:151] Setting up silent_ilabel
I0122 12:23:26.615509 32121 net.cpp:166] Memory required for data: 195192240
I0122 12:23:26.615510 32121 layer_factory.hpp:76] Creating layer conv1
I0122 12:23:26.615517 32121 net.cpp:107] Creating Layer conv1
I0122 12:23:26.615520 32121 net.cpp:455] conv1 <- image_images_0_split_0
I0122 12:23:26.615523 32121 net.cpp:412] conv1 -> conv1
I0122 12:23:26.616777 32121 net.cpp:151] Setting up conv1
I0122 12:23:26.616786 32121 net.cpp:158] Top shape: 4 96 173 173 (11492736)
I0122 12:23:26.616802 32121 net.cpp:166] Memory required for data: 241163184
I0122 12:23:26.616809 32121 layer_factory.hpp:76] Creating layer relu1
I0122 12:23:26.616818 32121 net.cpp:107] Creating Layer relu1
I0122 12:23:26.616822 32121 net.cpp:455] relu1 <- conv1
I0122 12:23:26.616824 32121 net.cpp:398] relu1 -> conv1 (in-place)
I0122 12:23:26.617013 32121 net.cpp:151] Setting up relu1
I0122 12:23:26.617020 32121 net.cpp:158] Top shape: 4 96 173 173 (11492736)
I0122 12:23:26.617036 32121 net.cpp:166] Memory required for data: 287134128
I0122 12:23:26.617039 32121 layer_factory.hpp:76] Creating layer pool1
I0122 12:23:26.617043 32121 net.cpp:107] Creating Layer pool1
I0122 12:23:26.617045 32121 net.cpp:455] pool1 <- conv1
I0122 12:23:26.617049 32121 net.cpp:412] pool1 -> pool1
I0122 12:23:26.617167 32121 net.cpp:151] Setting up pool1
I0122 12:23:26.617172 32121 net.cpp:158] Top shape: 4 96 86 86 (2840064)
I0122 12:23:26.617175 32121 net.cpp:166] Memory required for data: 298494384
I0122 12:23:26.617177 32121 layer_factory.hpp:76] Creating layer norm1
I0122 12:23:26.617182 32121 net.cpp:107] Creating Layer norm1
I0122 12:23:26.617184 32121 net.cpp:455] norm1 <- pool1
I0122 12:23:26.617187 32121 net.cpp:412] norm1 -> norm1
I0122 12:23:26.617393 32121 net.cpp:151] Setting up norm1
I0122 12:23:26.617399 32121 net.cpp:158] Top shape: 4 96 86 86 (2840064)
I0122 12:23:26.617416 32121 net.cpp:166] Memory required for data: 309854640
I0122 12:23:26.617419 32121 layer_factory.hpp:76] Creating layer conv2
I0122 12:23:26.617424 32121 net.cpp:107] Creating Layer conv2
I0122 12:23:26.617425 32121 net.cpp:455] conv2 <- norm1
I0122 12:23:26.617429 32121 net.cpp:412] conv2 -> conv2
I0122 12:23:26.624156 32121 cudnn_conv_layer.cpp:198] Reallocating workspace storage: 28800
I0122 12:23:26.624172 32121 net.cpp:151] Setting up conv2
I0122 12:23:26.624176 32121 net.cpp:158] Top shape: 4 256 86 86 (7573504)
I0122 12:23:26.624178 32121 net.cpp:166] Memory required for data: 340148656
I0122 12:23:26.624184 32121 layer_factory.hpp:76] Creating layer relu2
I0122 12:23:26.624188 32121 net.cpp:107] Creating Layer relu2
I0122 12:23:26.624191 32121 net.cpp:455] relu2 <- conv2
I0122 12:23:26.624194 32121 net.cpp:398] relu2 -> conv2 (in-place)
I0122 12:23:26.624300 32121 net.cpp:151] Setting up relu2
I0122 12:23:26.624305 32121 net.cpp:158] Top shape: 4 256 86 86 (7573504)
I0122 12:23:26.624306 32121 net.cpp:166] Memory required for data: 370442672
I0122 12:23:26.624308 32121 layer_factory.hpp:76] Creating layer pool2
I0122 12:23:26.624312 32121 net.cpp:107] Creating Layer pool2
I0122 12:23:26.624315 32121 net.cpp:455] pool2 <- conv2
I0122 12:23:26.624317 32121 net.cpp:412] pool2 -> pool2
I0122 12:23:26.624532 32121 net.cpp:151] Setting up pool2
I0122 12:23:26.624539 32121 net.cpp:158] Top shape: 4 256 43 43 (1893376)
I0122 12:23:26.624555 32121 net.cpp:166] Memory required for data: 378016176
I0122 12:23:26.624557 32121 layer_factory.hpp:76] Creating layer norm2
I0122 12:23:26.624562 32121 net.cpp:107] Creating Layer norm2
I0122 12:23:26.624563 32121 net.cpp:455] norm2 <- pool2
I0122 12:23:26.624567 32121 net.cpp:412] norm2 -> norm2
I0122 12:23:26.624785 32121 net.cpp:151] Setting up norm2
I0122 12:23:26.624791 32121 net.cpp:158] Top shape: 4 256 43 43 (1893376)
I0122 12:23:26.624807 32121 net.cpp:166] Memory required for data: 385589680
I0122 12:23:26.624810 32121 layer_factory.hpp:76] Creating layer conv3
I0122 12:23:26.624816 32121 net.cpp:107] Creating Layer conv3
I0122 12:23:26.624819 32121 net.cpp:455] conv3 <- norm2
I0122 12:23:26.624822 32121 net.cpp:412] conv3 -> conv3
I0122 12:23:26.641862 32121 cudnn_conv_layer.cpp:198] Reallocating workspace storage: 27648
I0122 12:23:26.641893 32121 net.cpp:151] Setting up conv3
I0122 12:23:26.641901 32121 net.cpp:158] Top shape: 4 384 43 43 (2840064)
I0122 12:23:26.641906 32121 net.cpp:166] Memory required for data: 396949936
I0122 12:23:26.641913 32121 layer_factory.hpp:76] Creating layer relu3
I0122 12:23:26.641921 32121 net.cpp:107] Creating Layer relu3
I0122 12:23:26.641926 32121 net.cpp:455] relu3 <- conv3
I0122 12:23:26.641929 32121 net.cpp:398] relu3 -> conv3 (in-place)
I0122 12:23:26.642173 32121 net.cpp:151] Setting up relu3
I0122 12:23:26.642181 32121 net.cpp:158] Top shape: 4 384 43 43 (2840064)
I0122 12:23:26.642184 32121 net.cpp:166] Memory required for data: 408310192
I0122 12:23:26.642186 32121 layer_factory.hpp:76] Creating layer conv4
I0122 12:23:26.642192 32121 net.cpp:107] Creating Layer conv4
I0122 12:23:26.642195 32121 net.cpp:455] conv4 <- conv3
I0122 12:23:26.642199 32121 net.cpp:412] conv4 -> conv4
I0122 12:23:26.655514 32121 net.cpp:151] Setting up conv4
I0122 12:23:26.655542 32121 net.cpp:158] Top shape: 4 384 43 43 (2840064)
I0122 12:23:26.655545 32121 net.cpp:166] Memory required for data: 419670448
I0122 12:23:26.655550 32121 layer_factory.hpp:76] Creating layer relu4
I0122 12:23:26.655556 32121 net.cpp:107] Creating Layer relu4
I0122 12:23:26.655560 32121 net.cpp:455] relu4 <- conv4
I0122 12:23:26.655565 32121 net.cpp:398] relu4 -> conv4 (in-place)
I0122 12:23:26.655755 32121 net.cpp:151] Setting up relu4
I0122 12:23:26.655762 32121 net.cpp:158] Top shape: 4 384 43 43 (2840064)
I0122 12:23:26.655764 32121 net.cpp:166] Memory required for data: 431030704
I0122 12:23:26.655767 32121 layer_factory.hpp:76] Creating layer conv5
I0122 12:23:26.655772 32121 net.cpp:107] Creating Layer conv5
I0122 12:23:26.655776 32121 net.cpp:455] conv5 <- conv4
I0122 12:23:26.655778 32121 net.cpp:412] conv5 -> conv5
I0122 12:23:26.664906 32121 net.cpp:151] Setting up conv5
I0122 12:23:26.664914 32121 net.cpp:158] Top shape: 4 256 43 43 (1893376)
I0122 12:23:26.664930 32121 net.cpp:166] Memory required for data: 438604208
I0122 12:23:26.664938 32121 layer_factory.hpp:76] Creating layer relu5
I0122 12:23:26.664942 32121 net.cpp:107] Creating Layer relu5
I0122 12:23:26.664945 32121 net.cpp:455] relu5 <- conv5
I0122 12:23:26.664948 32121 net.cpp:398] relu5 -> conv5 (in-place)
I0122 12:23:26.665150 32121 net.cpp:151] Setting up relu5
I0122 12:23:26.665158 32121 net.cpp:158] Top shape: 4 256 43 43 (1893376)
I0122 12:23:26.665174 32121 net.cpp:166] Memory required for data: 446177712
I0122 12:23:26.665175 32121 layer_factory.hpp:76] Creating layer pool5
I0122 12:23:26.665180 32121 net.cpp:107] Creating Layer pool5
I0122 12:23:26.665184 32121 net.cpp:455] pool5 <- conv5
I0122 12:23:26.665187 32121 net.cpp:412] pool5 -> pool5
I0122 12:23:26.665318 32121 net.cpp:151] Setting up pool5
I0122 12:23:26.665323 32121 net.cpp:158] Top shape: 4 256 21 21 (451584)
I0122 12:23:26.665324 32121 net.cpp:166] Memory required for data: 447984048
I0122 12:23:26.665326 32121 layer_factory.hpp:76] Creating layer fc6
I0122 12:23:26.665331 32121 net.cpp:107] Creating Layer fc6
I0122 12:23:26.665334 32121 net.cpp:455] fc6 <- pool5
I0122 12:23:26.665338 32121 net.cpp:412] fc6 -> fc6
I0122 12:23:27.351899 32121 cudnn_conv_layer.cpp:198] Reallocating workspace storage: 110592
I0122 12:23:27.351943 32121 net.cpp:151] Setting up fc6
I0122 12:23:27.351950 32121 net.cpp:158] Top shape: 4 4096 16 16 (4194304)
I0122 12:23:27.351953 32121 net.cpp:166] Memory required for data: 464761264
I0122 12:23:27.351958 32121 layer_factory.hpp:76] Creating layer relu6
I0122 12:23:27.351965 32121 net.cpp:107] Creating Layer relu6
I0122 12:23:27.351969 32121 net.cpp:455] relu6 <- fc6
I0122 12:23:27.351972 32121 net.cpp:398] relu6 -> fc6 (in-place)
I0122 12:23:27.352172 32121 net.cpp:151] Setting up relu6
I0122 12:23:27.352180 32121 net.cpp:158] Top shape: 4 4096 16 16 (4194304)
I0122 12:23:27.352181 32121 net.cpp:166] Memory required for data: 481538480
I0122 12:23:27.352195 32121 layer_factory.hpp:76] Creating layer fc7
I0122 12:23:27.352202 32121 net.cpp:107] Creating Layer fc7
I0122 12:23:27.352205 32121 net.cpp:455] fc7 <- fc6
I0122 12:23:27.352210 32121 net.cpp:412] fc7 -> fc7
I0122 12:23:27.658455 32121 cudnn_conv_layer.cpp:198] Reallocating workspace storage: 49152
I0122 12:23:27.658489 32121 net.cpp:151] Setting up fc7
I0122 12:23:27.658495 32121 net.cpp:158] Top shape: 4 4096 16 16 (4194304)
I0122 12:23:27.658498 32121 net.cpp:166] Memory required for data: 498315696
I0122 12:23:27.658504 32121 layer_factory.hpp:76] Creating layer relu7
I0122 12:23:27.658510 32121 net.cpp:107] Creating Layer relu7
I0122 12:23:27.658514 32121 net.cpp:455] relu7 <- fc7
I0122 12:23:27.658524 32121 net.cpp:398] relu7 -> fc7 (in-place)
I0122 12:23:27.658738 32121 net.cpp:151] Setting up relu7
I0122 12:23:27.658745 32121 net.cpp:158] Top shape: 4 4096 16 16 (4194304)
I0122 12:23:27.658761 32121 net.cpp:166] Memory required for data: 515092912
I0122 12:23:27.658763 32121 layer_factory.hpp:76] Creating layer deconv-1
I0122 12:23:27.658769 32121 net.cpp:107] Creating Layer deconv-1
I0122 12:23:27.658772 32121 net.cpp:455] deconv-1 <- fc7
I0122 12:23:27.658776 32121 net.cpp:412] deconv-1 -> up-fc7
I0122 12:23:27.942550 32121 net.cpp:151] Setting up deconv-1
I0122 12:23:27.942580 32121 net.cpp:158] Top shape: 4 256 543 543 (301925376)
I0122 12:23:27.942582 32121 net.cpp:166] Memory required for data: 1722794416
I0122 12:23:27.942589 32121 layer_factory.hpp:76] Creating layer crop
I0122 12:23:27.942595 32121 net.cpp:107] Creating Layer crop
I0122 12:23:27.942603 32121 net.cpp:455] crop <- up-fc7
I0122 12:23:27.942612 32121 net.cpp:455] crop <- image_images_0_split_1
I0122 12:23:27.942616 32121 net.cpp:412] crop -> conv-feature
I0122 12:23:27.942656 32121 net.cpp:151] Setting up crop
I0122 12:23:27.942662 32121 net.cpp:158] Top shape: 4 256 500 500 (256000000)
I0122 12:23:27.942663 32121 net.cpp:166] Memory required for data: 2746794416
I0122 12:23:27.942665 32121 layer_factory.hpp:76] Creating layer spixel_pooling1
I0122 12:23:27.942669 32121 net.cpp:107] Creating Layer spixel_pooling1
I0122 12:23:27.942672 32121 net.cpp:455] spixel_pooling1 <- conv-feature
I0122 12:23:27.942675 32121 net.cpp:455] spixel_pooling1 <- spixel_data
I0122 12:23:27.942677 32121 net.cpp:455] spixel_pooling1 <- spixel_ptr
I0122 12:23:27.942680 32121 net.cpp:455] spixel_pooling1 <- spixel_num
I0122 12:23:27.942682 32121 net.cpp:455] spixel_pooling1 <- mask_size
I0122 12:23:27.942687 32121 net.cpp:412] spixel_pooling1 -> spixel_feature
I0122 12:23:27.942708 32121 net.cpp:151] Setting up spixel_pooling1
I0122 12:23:27.942713 32121 net.cpp:158] Top shape: 4 1 9777 256 (10011648)
I0122 12:23:27.942714 32121 net.cpp:166] Memory required for data: 2786841008
I0122 12:23:27.942716 32121 layer_factory.hpp:76] Creating layer rpixel_pooling1
I0122 12:23:27.942720 32121 net.cpp:107] Creating Layer rpixel_pooling1
I0122 12:23:27.942723 32121 net.cpp:455] rpixel_pooling1 <- spixel_feature
I0122 12:23:27.942725 32121 net.cpp:455] rpixel_pooling1 <- seg_data
I0122 12:23:27.942728 32121 net.cpp:455] rpixel_pooling1 <- seg_ptr
I0122 12:23:27.942730 32121 net.cpp:455] rpixel_pooling1 <- seg_num_data_7_split_0
I0122 12:23:27.942733 32121 net.cpp:455] rpixel_pooling1 <- seg_coef
I0122 12:23:27.942736 32121 net.cpp:412] rpixel_pooling1 -> seg_feature
I0122 12:23:27.942751 32121 net.cpp:151] Setting up rpixel_pooling1
I0122 12:23:27.942755 32121 net.cpp:158] Top shape: 4 1 1800 256 (1843200)
I0122 12:23:27.942757 32121 net.cpp:166] Memory required for data: 2794213808
I0122 12:23:27.942759 32121 layer_factory.hpp:76] Creating layer tracker
I0122 12:23:27.942764 32121 net.cpp:107] Creating Layer tracker
I0122 12:23:27.942767 32121 net.cpp:455] tracker <- seg_feature
I0122 12:23:27.942770 32121 net.cpp:455] tracker <- overlaps
I0122 12:23:27.942772 32121 net.cpp:455] tracker <- seg_num_data_7_split_1
I0122 12:23:27.942775 32121 net.cpp:455] tracker <- cont_data_0_split_0
I0122 12:23:27.942778 32121 net.cpp:412] tracker -> v
I0122 12:23:27.942782 32121 net.cpp:412] tracker -> vtilde
I0122 12:23:27.942800 32121 recurrent_layer.cpp:42] Initializing recurrent layer: assuming input batch contains 4 timesteps of 1 independent streams.
I0122 12:23:27.943428 32121 net.cpp:49] Initializing net from parameters: 
input: "x"
input: "overlaps"
input: "seg_num"
input: "cont"
input: "c_0"
input: "h_0"
input: "s_0"
force_backward: true
input_shape {
  dim: 4
  dim: 1
  dim: 1800
  dim: 256
}
input_shape {
  dim: 4
  dim: 1
  dim: 1800
  dim: 1800
}
input_shape {
  dim: 4
  dim: 1
}
input_shape {
  dim: 4
  dim: 1
}
input_shape {
  dim: 1
  dim: 1
  dim: 1800
  dim: 256
}
input_shape {
  dim: 1
  dim: 1
  dim: 256
  dim: 256
}
input_shape {
  dim: 1
  dim: 1
  dim: 1
}
layer {
  name: "tracker_cont_slice"
  type: "Slice"
  bottom: "cont"
  top: "cont_1"
  top: "cont_2"
  top: "cont_3"
  top: "cont_4"
  slice_param {
    axis: 0
  }
}
layer {
  name: "tracker_x_slice"
  type: "Slice"
  bottom: "x"
  top: "x_1"
  top: "x_2"
  top: "x_3"
  top: "x_4"
  slice_param {
    axis: 0
  }
}
layer {
  name: "tracker_overlaps_slice"
  type: "Slice"
  bottom: "overlaps"
  top: "overlaps_1"
  top: "overlaps_2"
  top: "overlaps_3"
  top: "overlaps_4"
  slice_param {
    axis: 0
  }
}
layer {
  name: "tracker_seg_num_slice"
  type: "Slice"
  bottom: "seg_num"
  top: "nseg_1"
  top: "nseg_2"
  top: "nseg_3"
  top: "nseg_4"
  slice_param {
    axis: 0
  }
}
layer {
  name: "tracker_overlaps_split_1"
  type: "Split"
  bottom: "overlaps_1"
  top: "overlaps1_1"
  top: "overlaps2_1"
}
layer {
  name: "tracker_x_split_1"
  type: "Split"
  bottom: "x_1"
  top: "x1_1"
  top: "x2_1"
  top: "x3_1"
  top: "x4_1"
}
layer {
  name: "tracker_cont_split_1"
  type: "Split"
  bottom: "cont_1"
  top: "cont1_1"
  top: "cont2_1"
  top: "cont3_1"
  top: "cont4_1"
}
layer {
  name: "tracker_h_split_0"
  type: "Split"
  bottom: "h_0"
  top: "h1_0"
  top: "h2_0"
}
layer {
  name: "tracker_c_split_0"
  type: "Split"
  bottom: "c_0"
  top: "c1_0"
  top: "c2_0"
}
layer {
  name: "tracker_s_cont_0"
  type: "Scalar"
  bottom: "s_0"
  bottom: "cont4_1"
  top: "s_cont_0"
  scalar_param {
    axis: 0
  }
}
layer {
  name: "tracker_s_cont_split_0"
  type: "Split"
  bottom: "s_cont_0"
  top: "s1_cont_0"
  top: "s2_cont_0"
}
layer {
  name: "tracker_hm1_0"
  type: "MatInv"
  bottom: "h1_0"
  bottom: "s1_cont_0"
  top: "hm1_0"
  matinv_param {
    lambda: 10000
  }
}
layer {
  name: "tracker_w_0"
  type: "MatMult"
  bottom: "c1_0"
  bottom: "hm1_0"
  top: "w_0"
}
layer {
  name: "tracker_v_1"
  type: "MatMult"
  bottom: "w_0"
  bottom: "x_1"
  top: "v_1"
  matmult_param {
    transpose_b: true
  }
}
layer {
  name: "tracker_rename_overlaps_1"
  type: "Split"
  bottom: "overlaps1_1"
  top: "s_overlaps_1"
}
layer {
  name: "tracker_v_cont_1"
  type: "Switch"
  bottom: "s_overlaps_1"
  bottom: "v_1"
  bottom: "cont1_1"
  top: "v_cont_1"
  switch_param {
    axis: 2
  }
}
layer {
  name: "tracker_v_split_1"
  type: "Split"
  bottom: "v_cont_1"
  top: "v1_1"
  top: "v3_1"
  top: "v4_1"
  top: "v2_1"
}
layer {
  name: "tracker_vtilde_1"
  type: "TrackerMatching"
  bottom: "v4_1"
  bottom: "overlaps2_1"
  bottom: "nseg_1"
  top: "vtilde_1"
}
layer {
  name: "tracker_vtilde_split_1"
  type: "Split"
  bottom: "vtilde_1"
  top: "vtilde1_1"
}
layer {
  name: "tracker_reshape1_1"
  type: "Reshape"
  bottom: "v1_1"
  top: "vr_1"
  reshape_param {
    shape {
      dim: 1
      dim: 1
      dim: 1800
      dim: 1800
    }
  }
}
layer {
  name: "tracker_max_1"
  type: "Pooling"
  bottom: "vr_1"
  top: "mr_1"
  pooling_param {
    pool: MAX
    kernel_h: 1800
    kernel_w: 1
  }
}
layer {
  name: "tracker_reshape2_1"
  type: "Reshape"
  bottom: "mr_1"
  top: "m_1"
  reshape_param {
    shape {
      dim: 1
      dim: 1
      dim: 1800
    }
  }
}
layer {
  name: "tracker_m_split_1"
  type: "Split"
  bottom: "m_1"
  top: "m1_1"
  top: "m2_1"
}
layer {
  name: "tracker_concat_s_elemens_1"
  type: "Concat"
  bottom: "m2_1"
  bottom: "s2_cont_0"
  top: "s_elem_1"
  concat_param {
    axis: 2
  }
}
layer {
  name: "tracker_sum_s_elemens_1"
  type: "Reduction"
  bottom: "s_elem_1"
  top: "ns_1"
  concat_param {
    axis: 2
  }
}
layer {
  name: "tracker_s_reshape_1"
  type: "Reshape"
  bottom: "ns_1"
  top: "s_1"
  reshape_param {
    shape {
      dim: 1
      dim: 1
      dim: 1
    }
  }
}
layer {
  name: "tracker_mx_1"
  type: "MatMult"
  bottom: "m1_1"
  bottom: "x2_1"
  top: "mx_1"
  matmult_param {
    diagonal_input: true
  }
}
layer {
  name: "tracker_mx_split_1"
  type: "Split"
  bottom: "mx_1"
  top: "mx1_1"
  top: "mx2_1"
}
layer {
  name: "tracker_xmx_1"
  type: "MatMult"
  bottom: "x3_1"
  bottom: "mx1_1"
  top: "xmx_1"
  matmult_param {
    transpose_a: true
  }
}
layer {
  name: "tracker_h_cont_0"
  type: "Scalar"
  bottom: "h2_0"
  bottom: "cont2_1"
  top: "h_cont_0"
  scalar_param {
    axis: 0
  }
}
layer {
  name: "tracker_h_1"
  type: "Eltwise"
  bottom: "h_cont_0"
  bottom: "xmx_1"
  top: "h_1"
  eltwise_param {
    operation: SUM
  }
}
layer {
  name: "tracker_vmx_1"
  type: "MatMult"
  bottom: "v2_1"
  bottom: "mx2_1"
  top: "vmx_1"
}
layer {
  name: "tracker_c_cont_0"
  type: "Scalar"
  bottom: "c2_0"
  bottom: "cont3_1"
  top: "c_cont_0"
  scalar_param {
    axis: 0
  }
}
layer {
  name: "tracker_c_1"
  type: "Eltwise"
  bottom: "c_cont_0"
  bottom: "vmx_1"
  top: "c_1"
  eltwise_param {
    operation: SUM
  }
}
layer {
  name: "tracker_overlaps_split_2"
  type: "Split"
  bottom: "overlaps_2"
  top: "overlaps1_2"
  top: "overlaps2_2"
}
layer {
  name: "tracker_x_split_2"
  type: "Split"
  bottom: "x_2"
  top: "x1_2"
  top: "x2_2"
  top: "x3_2"
  top: "x4_2"
}
layer {
  name: "tracker_cont_split_2"
  type: "Split"
  bottom: "cont_2"
  top: "cont1_2"
  top: "cont2_2"
  top: "cont3_2"
  top: "cont4_2"
}
layer {
  name: "tracker_h_split_1"
  type: "Split"
  bottom: "h_1"
  top: "h1_1"
  top: "h2_1"
}
layer {
  name: "tracker_c_split_1"
  type: "Split"
  bottom: "c_1"
  top: "c1_1"
  top: "c2_1"
}
layer {
  name: "tracker_s_cont_1"
  type: "Scalar"
  bottom: "s_1"
  bottom: "cont4_2"
  top: "s_cont_1"
  scalar_param {
    axis: 0
  }
}
layer {
  name: "tracker_s_cont_split_1"
  type: "Split"
  bottom: "s_cont_1"
  top: "s1_cont_1"
  top: "s2_cont_1"
}
layer {
  name: "tracker_hm1_1"
  type: "MatInv"
  bottom: "h1_1"
  bottom: "s1_cont_1"
  top: "hm1_1"
  matinv_param {
    lambda: 10000
  }
}
layer {
  name: "tracker_w_1"
  type: "MatMult"
  bottom: "c1_1"
  bottom: "hm1_1"
  top: "w_1"
}
layer {
  name: "tracker_v_2"
  type: "MatMult"
  bottom: "w_1"
  bottom: "x_2"
  top: "v_2"
  matmult_param {
    transpose_b: true
  }
}
layer {
  name: "tracker_rename_overlaps_2"
  type: "Split"
  bottom: "overlaps1_2"
  top: "s_overlaps_2"
}
layer {
  name: "tracker_v_cont_2"
  type: "Switch"
  bottom: "s_overlaps_2"
  bottom: "v_2"
  bottom: "cont1_2"
  top: "v_cont_2"
  switch_param {
    axis: 2
  }
}
layer {
  name: "tracker_v_split_2"
  type: "Split"
  bottom: "v_cont_2"
  top: "v1_2"
  top: "v3_2"
  top: "v4_2"
  top: "v2_2"
}
layer {
  name: "tracker_vtilde_2"
  type: "TrackerMatching"
  bottom: "v4_2"
  bottom: "overlaps2_2"
  bottom: "nseg_2"
  top: "vtilde_2"
}
layer {
  name: "tracker_vtilde_split_2"
  type: "Split"
  bottom: "vtilde_2"
  top: "vtilde1_2"
}
layer {
  name: "tracker_reshape1_2"
  type: "Reshape"
  bottom: "v1_2"
  top: "vr_2"
  reshape_param {
    shape {
      dim: 1
      dim: 1
      dim: 1800
      dim: 1800
    }
  }
}
layer {
  name: "tracker_max_2"
  type: "Pooling"
  bottom: "vr_2"
  top: "mr_2"
  pooling_param {
    pool: MAX
    kernel_h: 1800
    kernel_w: 1
  }
}
layer {
  name: "tracker_reshape2_2"
  type: "Reshape"
  bottom: "mr_2"
  top: "m_2"
  reshape_param {
    shape {
      dim: 1
      dim: 1
      dim: 1800
    }
  }
}
layer {
  name: "tracker_m_split_2"
  type: "Split"
  bottom: "m_2"
  top: "m1_2"
  top: "m2_2"
}
layer {
  name: "tracker_concat_s_elemens_2"
  type: "Concat"
  bottom: "m2_2"
  bottom: "s2_cont_1"
  top: "s_elem_2"
  concat_param {
    axis: 2
  }
}
layer {
  name: "tracker_sum_s_elemens_2"
  type: "Reduction"
  bottom: "s_elem_2"
  top: "ns_2"
  concat_param {
    axis: 2
  }
}
layer {
  name: "tracker_s_reshape_2"
  type: "Reshape"
  bottom: "ns_2"
  top: "s_2"
  reshape_param {
    shape {
      dim: 1
      dim: 1
      dim: 1
    }
  }
}
layer {
  name: "tracker_mx_2"
  type: "MatMult"
  bottom: "m1_2"
  bottom: "x2_2"
  top: "mx_2"
  matmult_param {
    diagonal_input: true
  }
}
layer {
  name: "tracker_mx_split_2"
  type: "Split"
  bottom: "mx_2"
  top: "mx1_2"
  top: "mx2_2"
}
layer {
  name: "tracker_xmx_2"
  type: "MatMult"
  bottom: "x3_2"
  bottom: "mx1_2"
  top: "xmx_2"
  matmult_param {
    transpose_a: true
  }
}
layer {
  name: "tracker_h_cont_1"
  type: "Scalar"
  bottom: "h2_1"
  bottom: "cont2_2"
  top: "h_cont_1"
  scalar_param {
    axis: 0
  }
}
layer {
  name: "tracker_h_2"
  type: "Eltwise"
  bottom: "h_cont_1"
  bottom: "xmx_2"
  top: "h_2"
  eltwise_param {
    operation: SUM
  }
}
layer {
  name: "tracker_vmx_2"
  type: "MatMult"
  bottom: "v2_2"
  bottom: "mx2_2"
  top: "vmx_2"
}
layer {
  name: "tracker_c_cont_1"
  type: "Scalar"
  bottom: "c2_1"
  bottom: "cont3_2"
  top: "c_cont_1"
  scalar_param {
    axis: 0
  }
}
layer {
  name: "tracker_c_2"
  type: "Eltwise"
  bottom: "c_cont_1"
  bottom: "vmx_2"
  top: "c_2"
  eltwise_param {
    operation: SUM
  }
}
layer {
  name: "tracker_overlaps_split_3"
  type: "Split"
  bottom: "overlaps_3"
  top: "overlaps1_3"
  top: "overlaps2_3"
}
layer {
  name: "tracker_x_split_3"
  type: "Split"
  bottom: "x_3"
  top: "x1_3"
  top: "x2_3"
  top: "x3_3"
  top: "x4_3"
}
layer {
  name: "tracker_cont_split_3"
  type: "Split"
  bottom: "cont_3"
  top: "cont1_3"
  top: "cont2_3"
  top: "cont3_3"
  top: "cont4_3"
}
layer {
  name: "tracker_h_split_2"
  type: "Split"
  bottom: "h_2"
  top: "h1_2"
  top: "h2_2"
}
layer {
  name: "tracker_c_split_2"
  type: "Split"
  bottom: "c_2"
  top: "c1_2"
  top: "c2_2"
}
layer {
  name: "tracker_s_cont_2"
  type: "Scalar"
  bottom: "s_2"
  bottom: "cont4_3"
  top: "s_cont_2"
  scalar_param {
    axis: 0
  }
}
layer {
  name: "tracker_s_cont_split_2"
  type: "Split"
  bottom: "s_cont_2"
  top: "s1_cont_2"
  top: "s2_cont_2"
}
layer {
  name: "tracker_hm1_2"
  type: "MatInv"
  bottom: "h1_2"
  bottom: "s1_cont_2"
  top: "hm1_2"
  matinv_param {
    lambda: 10000
  }
}
layer {
  name: "tracker_w_2"
  type: "MatMult"
  bottom: "c1_2"
  bottom: "hm1_2"
  top: "w_2"
}
layer {
  name: "tracker_v_3"
  type: "MatMult"
  bottom: "w_2"
  bottom: "x_3"
  top: "v_3"
  matmult_param {
    transpose_b: true
  }
}
layer {
  name: "tracker_rename_overlaps_3"
  type: "Split"
  bottom: "overlaps1_3"
  top: "s_overlaps_3"
}
layer {
  name: "tracker_v_cont_3"
  type: "Switch"
  bottom: "s_overlaps_3"
  bottom: "v_3"
  bottom: "cont1_3"
  top: "v_cont_3"
  switch_param {
    axis: 2
  }
}
layer {
  name: "tracker_v_split_3"
  type: "Split"
  bottom: "v_cont_3"
  top: "v1_3"
  top: "v3_3"
  top: "v4_3"
  top: "v2_3"
}
layer {
  name: "tracker_vtilde_3"
  type: "TrackerMatching"
  bottom: "v4_3"
  bottom: "overlaps2_3"
  bottom: "nseg_3"
  top: "vtilde_3"
}
layer {
  name: "tracker_vtilde_split_3"
  type: "Split"
  bottom: "vtilde_3"
  top: "vtilde1_3"
}
layer {
  name: "tracker_reshape1_3"
  type: "Reshape"
  bottom: "v1_3"
  top: "vr_3"
  reshape_param {
    shape {
      dim: 1
      dim: 1
      dim: 1800
      dim: 1800
    }
  }
}
layer {
  name: "tracker_max_3"
  type: "Pooling"
  bottom: "vr_3"
  top: "mr_3"
  pooling_param {
    pool: MAX
    kernel_h: 1800
    kernel_w: 1
  }
}
layer {
  name: "tracker_reshape2_3"
  type: "Reshape"
  bottom: "mr_3"
  top: "m_3"
  reshape_param {
    shape {
      dim: 1
      dim: 1
      dim: 1800
    }
  }
}
layer {
  name: "tracker_m_split_3"
  type: "Split"
  bottom: "m_3"
  top: "m1_3"
  top: "m2_3"
}
layer {
  name: "tracker_concat_s_elemens_3"
  type: "Concat"
  bottom: "m2_3"
  bottom: "s2_cont_2"
  top: "s_elem_3"
  concat_param {
    axis: 2
  }
}
layer {
  name: "tracker_sum_s_elemens_3"
  type: "Reduction"
  bottom: "s_elem_3"
  top: "ns_3"
  concat_param {
    axis: 2
  }
}
layer {
  name: "tracker_s_reshape_3"
  type: "Reshape"
  bottom: "ns_3"
  top: "s_3"
  reshape_param {
    shape {
      dim: 1
      dim: 1
      dim: 1
    }
  }
}
layer {
  name: "tracker_mx_3"
  type: "MatMult"
  bottom: "m1_3"
  bottom: "x2_3"
  top: "mx_3"
  matmult_param {
    diagonal_input: true
  }
}
layer {
  name: "tracker_mx_split_3"
  type: "Split"
  bottom: "mx_3"
  top: "mx1_3"
  top: "mx2_3"
}
layer {
  name: "tracker_xmx_3"
  type: "MatMult"
  bottom: "x3_3"
  bottom: "mx1_3"
  top: "xmx_3"
  matmult_param {
    transpose_a: true
  }
}
layer {
  name: "tracker_h_cont_2"
  type: "Scalar"
  bottom: "h2_2"
  bottom: "cont2_3"
  top: "h_cont_2"
  scalar_param {
    axis: 0
  }
}
layer {
  name: "tracker_h_3"
  type: "Eltwise"
  bottom: "h_cont_2"
  bottom: "xmx_3"
  top: "h_3"
  eltwise_param {
    operation: SUM
  }
}
layer {
  name: "tracker_vmx_3"
  type: "MatMult"
  bottom: "v2_3"
  bottom: "mx2_3"
  top: "vmx_3"
}
layer {
  name: "tracker_c_cont_2"
  type: "Scalar"
  bottom: "c2_2"
  bottom: "cont3_3"
  top: "c_cont_2"
  scalar_param {
    axis: 0
  }
}
layer {
  name: "tracker_c_3"
  type: "Eltwise"
  bottom: "c_cont_2"
  bottom: "vmx_3"
  top: "c_3"
  eltwise_param {
    operation: SUM
  }
}
layer {
  name: "tracker_overlaps_split_4"
  type: "Split"
  bottom: "overlaps_4"
  top: "overlaps1_4"
  top: "overlaps2_4"
}
layer {
  name: "tracker_x_split_4"
  type: "Split"
  bottom: "x_4"
  top: "x1_4"
  top: "x2_4"
  top: "x3_4"
  top: "x4_4"
}
layer {
  name: "tracker_cont_split_4"
  type: "Split"
  bottom: "cont_4"
  top: "cont1_4"
  top: "cont2_4"
  top: "cont3_4"
  top: "cont4_4"
}
layer {
  name: "tracker_h_split_3"
  type: "Split"
  bottom: "h_3"
  top: "h1_3"
  top: "h2_3"
}
layer {
  name: "tracker_c_split_3"
  type: "Split"
  bottom: "c_3"
  top: "c1_3"
  top: "c2_3"
}
layer {
  name: "tracker_s_cont_3"
  type: "Scalar"
  bottom: "s_3"
  bottom: "cont4_4"
  top: "s_cont_3"
  scalar_param {
    axis: 0
  }
}
layer {
  name: "tracker_s_cont_split_3"
  type: "Split"
  bottom: "s_cont_3"
  top: "s1_cont_3"
  top: "s2_cont_3"
}
layer {
  name: "tracker_hm1_3"
  type: "MatInv"
  bottom: "h1_3"
  bottom: "s1_cont_3"
  top: "hm1_3"
  matinv_param {
    lambda: 10000
  }
}
layer {
  name: "tracker_w_3"
  type: "MatMult"
  bottom: "c1_3"
  bottom: "hm1_3"
  top: "w_3"
}
layer {
  name: "tracker_v_4"
  type: "MatMult"
  bottom: "w_3"
  bottom: "x_4"
  top: "v_4"
  matmult_param {
    transpose_b: true
  }
}
layer {
  name: "tracker_rename_overlaps_4"
  type: "Split"
  bottom: "overlaps1_4"
  top: "s_overlaps_4"
}
layer {
  name: "tracker_v_cont_4"
  type: "Switch"
  bottom: "s_overlaps_4"
  bottom: "v_4"
  bottom: "cont1_4"
  top: "v_cont_4"
  switch_param {
    axis: 2
  }
}
layer {
  name: "tracker_v_split_4"
  type: "Split"
  bottom: "v_cont_4"
  top: "v1_4"
  top: "v3_4"
  top: "v4_4"
  top: "v2_4"
}
layer {
  name: "tracker_vtilde_4"
  type: "TrackerMatching"
  bottom: "v4_4"
  bottom: "overlaps2_4"
  bottom: "nseg_4"
  top: "vtilde_4"
}
layer {
  name: "tracker_vtilde_split_4"
  type: "Split"
  bottom: "vtilde_4"
  top: "vtilde1_4"
}
layer {
  name: "tracker_reshape1_4"
  type: "Reshape"
  bottom: "v1_4"
  top: "vr_4"
  reshape_param {
    shape {
      dim: 1
      dim: 1
      dim: 1800
      dim: 1800
    }
  }
}
layer {
  name: "tracker_max_4"
  type: "Pooling"
  bottom: "vr_4"
  top: "mr_4"
  pooling_param {
    pool: MAX
    kernel_h: 1800
    kernel_w: 1
  }
}
layer {
  name: "tracker_reshape2_4"
  type: "Reshape"
  bottom: "mr_4"
  top: "m_4"
  reshape_param {
    shape {
      dim: 1
      dim: 1
      dim: 1800
    }
  }
}
layer {
  name: "tracker_m_split_4"
  type: "Split"
  bottom: "m_4"
  top: "m1_4"
  top: "m2_4"
}
layer {
  name: "tracker_concat_s_elemens_4"
  type: "Concat"
  bottom: "m2_4"
  bottom: "s2_cont_3"
  top: "s_elem_4"
  concat_param {
    axis: 2
  }
}
layer {
  name: "tracker_sum_s_elemens_4"
  type: "Reduction"
  bottom: "s_elem_4"
  top: "ns_4"
  concat_param {
    axis: 2
  }
}
layer {
  name: "tracker_s_reshape_4"
  type: "Reshape"
  bottom: "ns_4"
  top: "s_4"
  reshape_param {
    shape {
      dim: 1
      dim: 1
      dim: 1
    }
  }
}
layer {
  name: "tracker_mx_4"
  type: "MatMult"
  bottom: "m1_4"
  bottom: "x2_4"
  top: "mx_4"
  matmult_param {
    diagonal_input: true
  }
}
layer {
  name: "tracker_mx_split_4"
  type: "Split"
  bottom: "mx_4"
  top: "mx1_4"
  top: "mx2_4"
}
layer {
  name: "tracker_xmx_4"
  type: "MatMult"
  bottom: "x3_4"
  bottom: "mx1_4"
  top: "xmx_4"
  matmult_param {
    transpose_a: true
  }
}
layer {
  name: "tracker_h_cont_3"
  type: "Scalar"
  bottom: "h2_3"
  bottom: "cont2_4"
  top: "h_cont_3"
  scalar_param {
    axis: 0
  }
}
layer {
  name: "tracker_h_4"
  type: "Eltwise"
  bottom: "h_cont_3"
  bottom: "xmx_4"
  top: "h_4"
  eltwise_param {
    operation: SUM
  }
}
layer {
  name: "tracker_vmx_4"
  type: "MatMult"
  bottom: "v2_4"
  bottom: "mx2_4"
  top: "vmx_4"
}
layer {
  name: "tracker_c_cont_3"
  type: "Scalar"
  bottom: "c2_3"
  bottom: "cont3_4"
  top: "c_cont_3"
  scalar_param {
    axis: 0
  }
}
layer {
  name: "tracker_c_4"
  type: "Eltwise"
  bottom: "c_cont_3"
  bottom: "vmx_4"
  top: "c_4"
  eltwise_param {
    operation: SUM
  }
}
layer {
  name: "tracker_v_concat"
  type: "Concat"
  bottom: "v3_1"
  bottom: "v3_2"
  bottom: "v3_3"
  bottom: "v3_4"
  top: "v"
  concat_param {
    axis: 0
  }
}
layer {
  name: "tracker_vtilde_concat"
  type: "Concat"
  bottom: "vtilde1_1"
  bottom: "vtilde1_2"
  bottom: "vtilde1_3"
  bottom: "vtilde1_4"
  top: "vtilde"
  concat_param {
    axis: 0
  }
}
I0122 12:23:27.943845 32121 net.cpp:414] Input 0 -> x
I0122 12:23:27.943871 32121 net.cpp:414] Input 1 -> overlaps
I0122 12:23:27.943886 32121 net.cpp:414] Input 2 -> seg_num
I0122 12:23:27.943902 32121 net.cpp:414] Input 3 -> cont
I0122 12:23:27.943917 32121 net.cpp:414] Input 4 -> c_0
I0122 12:23:27.943931 32121 net.cpp:414] Input 5 -> h_0
I0122 12:23:27.943944 32121 net.cpp:414] Input 6 -> s_0
I0122 12:23:27.943969 32121 layer_factory.hpp:76] Creating layer tracker_cont_slice
I0122 12:23:27.943974 32121 net.cpp:107] Creating Layer tracker_cont_slice
I0122 12:23:27.943975 32121 net.cpp:455] tracker_cont_slice <- cont
I0122 12:23:27.943980 32121 net.cpp:412] tracker_cont_slice -> cont_1
I0122 12:23:27.943985 32121 net.cpp:412] tracker_cont_slice -> cont_2
I0122 12:23:27.943990 32121 net.cpp:412] tracker_cont_slice -> cont_3
I0122 12:23:27.943994 32121 net.cpp:412] tracker_cont_slice -> cont_4
I0122 12:23:27.944035 32121 net.cpp:151] Setting up tracker_cont_slice
I0122 12:23:27.944038 32121 net.cpp:158] Top shape: 1 1 (1)
I0122 12:23:27.944041 32121 net.cpp:158] Top shape: 1 1 (1)
I0122 12:23:27.944043 32121 net.cpp:158] Top shape: 1 1 (1)
I0122 12:23:27.944046 32121 net.cpp:158] Top shape: 1 1 (1)
I0122 12:23:27.944047 32121 net.cpp:166] Memory required for data: 16
I0122 12:23:27.944051 32121 layer_factory.hpp:76] Creating layer tracker_x_slice
I0122 12:23:27.944053 32121 net.cpp:107] Creating Layer tracker_x_slice
I0122 12:23:27.944056 32121 net.cpp:455] tracker_x_slice <- x
I0122 12:23:27.944058 32121 net.cpp:412] tracker_x_slice -> x_1
I0122 12:23:27.944062 32121 net.cpp:412] tracker_x_slice -> x_2
I0122 12:23:27.944066 32121 net.cpp:412] tracker_x_slice -> x_3
I0122 12:23:27.944069 32121 net.cpp:412] tracker_x_slice -> x_4
I0122 12:23:27.944108 32121 net.cpp:151] Setting up tracker_x_slice
I0122 12:23:27.944111 32121 net.cpp:158] Top shape: 1 1 1800 256 (460800)
I0122 12:23:27.944113 32121 net.cpp:158] Top shape: 1 1 1800 256 (460800)
I0122 12:23:27.944116 32121 net.cpp:158] Top shape: 1 1 1800 256 (460800)
I0122 12:23:27.944118 32121 net.cpp:158] Top shape: 1 1 1800 256 (460800)
I0122 12:23:27.944120 32121 net.cpp:166] Memory required for data: 7372816
I0122 12:23:27.944123 32121 layer_factory.hpp:76] Creating layer x_1_tracker_x_slice_0_split
I0122 12:23:27.944125 32121 net.cpp:107] Creating Layer x_1_tracker_x_slice_0_split
I0122 12:23:27.944128 32121 net.cpp:455] x_1_tracker_x_slice_0_split <- x_1
I0122 12:23:27.944130 32121 net.cpp:412] x_1_tracker_x_slice_0_split -> x_1_tracker_x_slice_0_split_0
I0122 12:23:27.944133 32121 net.cpp:412] x_1_tracker_x_slice_0_split -> x_1_tracker_x_slice_0_split_1
I0122 12:23:27.944157 32121 net.cpp:151] Setting up x_1_tracker_x_slice_0_split
I0122 12:23:27.944165 32121 net.cpp:158] Top shape: 1 1 1800 256 (460800)
I0122 12:23:27.944169 32121 net.cpp:158] Top shape: 1 1 1800 256 (460800)
I0122 12:23:27.944170 32121 net.cpp:166] Memory required for data: 11059216
I0122 12:23:27.944172 32121 layer_factory.hpp:76] Creating layer x_2_tracker_x_slice_1_split
I0122 12:23:27.944175 32121 net.cpp:107] Creating Layer x_2_tracker_x_slice_1_split
I0122 12:23:27.944177 32121 net.cpp:455] x_2_tracker_x_slice_1_split <- x_2
I0122 12:23:27.944180 32121 net.cpp:412] x_2_tracker_x_slice_1_split -> x_2_tracker_x_slice_1_split_0
I0122 12:23:27.944185 32121 net.cpp:412] x_2_tracker_x_slice_1_split -> x_2_tracker_x_slice_1_split_1
I0122 12:23:27.944210 32121 net.cpp:151] Setting up x_2_tracker_x_slice_1_split
I0122 12:23:27.944212 32121 net.cpp:158] Top shape: 1 1 1800 256 (460800)
I0122 12:23:27.944216 32121 net.cpp:158] Top shape: 1 1 1800 256 (460800)
I0122 12:23:27.944216 32121 net.cpp:166] Memory required for data: 14745616
I0122 12:23:27.944218 32121 layer_factory.hpp:76] Creating layer x_3_tracker_x_slice_2_split
I0122 12:23:27.944222 32121 net.cpp:107] Creating Layer x_3_tracker_x_slice_2_split
I0122 12:23:27.944224 32121 net.cpp:455] x_3_tracker_x_slice_2_split <- x_3
I0122 12:23:27.944227 32121 net.cpp:412] x_3_tracker_x_slice_2_split -> x_3_tracker_x_slice_2_split_0
I0122 12:23:27.944231 32121 net.cpp:412] x_3_tracker_x_slice_2_split -> x_3_tracker_x_slice_2_split_1
I0122 12:23:27.944254 32121 net.cpp:151] Setting up x_3_tracker_x_slice_2_split
I0122 12:23:27.944258 32121 net.cpp:158] Top shape: 1 1 1800 256 (460800)
I0122 12:23:27.944260 32121 net.cpp:158] Top shape: 1 1 1800 256 (460800)
I0122 12:23:27.944262 32121 net.cpp:166] Memory required for data: 18432016
I0122 12:23:27.944264 32121 layer_factory.hpp:76] Creating layer x_4_tracker_x_slice_3_split
I0122 12:23:27.944267 32121 net.cpp:107] Creating Layer x_4_tracker_x_slice_3_split
I0122 12:23:27.944268 32121 net.cpp:455] x_4_tracker_x_slice_3_split <- x_4
I0122 12:23:27.944272 32121 net.cpp:412] x_4_tracker_x_slice_3_split -> x_4_tracker_x_slice_3_split_0
I0122 12:23:27.944275 32121 net.cpp:412] x_4_tracker_x_slice_3_split -> x_4_tracker_x_slice_3_split_1
I0122 12:23:27.944298 32121 net.cpp:151] Setting up x_4_tracker_x_slice_3_split
I0122 12:23:27.944301 32121 net.cpp:158] Top shape: 1 1 1800 256 (460800)
I0122 12:23:27.944304 32121 net.cpp:158] Top shape: 1 1 1800 256 (460800)
I0122 12:23:27.944306 32121 net.cpp:166] Memory required for data: 22118416
I0122 12:23:27.944308 32121 layer_factory.hpp:76] Creating layer tracker_overlaps_slice
I0122 12:23:27.944310 32121 net.cpp:107] Creating Layer tracker_overlaps_slice
I0122 12:23:27.944313 32121 net.cpp:455] tracker_overlaps_slice <- overlaps
I0122 12:23:27.944315 32121 net.cpp:412] tracker_overlaps_slice -> overlaps_1
I0122 12:23:27.944320 32121 net.cpp:412] tracker_overlaps_slice -> overlaps_2
I0122 12:23:27.944324 32121 net.cpp:412] tracker_overlaps_slice -> overlaps_3
I0122 12:23:27.944327 32121 net.cpp:412] tracker_overlaps_slice -> overlaps_4
I0122 12:23:27.944367 32121 net.cpp:151] Setting up tracker_overlaps_slice
I0122 12:23:27.944371 32121 net.cpp:158] Top shape: 1 1 1800 1800 (3240000)
I0122 12:23:27.944373 32121 net.cpp:158] Top shape: 1 1 1800 1800 (3240000)
I0122 12:23:27.944375 32121 net.cpp:158] Top shape: 1 1 1800 1800 (3240000)
I0122 12:23:27.944378 32121 net.cpp:158] Top shape: 1 1 1800 1800 (3240000)
I0122 12:23:27.944380 32121 net.cpp:166] Memory required for data: 73958416
I0122 12:23:27.944381 32121 layer_factory.hpp:76] Creating layer tracker_seg_num_slice
I0122 12:23:27.944386 32121 net.cpp:107] Creating Layer tracker_seg_num_slice
I0122 12:23:27.944387 32121 net.cpp:455] tracker_seg_num_slice <- seg_num
I0122 12:23:27.944391 32121 net.cpp:412] tracker_seg_num_slice -> nseg_1
I0122 12:23:27.944394 32121 net.cpp:412] tracker_seg_num_slice -> nseg_2
I0122 12:23:27.944398 32121 net.cpp:412] tracker_seg_num_slice -> nseg_3
I0122 12:23:27.944401 32121 net.cpp:412] tracker_seg_num_slice -> nseg_4
I0122 12:23:27.944445 32121 net.cpp:151] Setting up tracker_seg_num_slice
I0122 12:23:27.944449 32121 net.cpp:158] Top shape: 1 1 (1)
I0122 12:23:27.944452 32121 net.cpp:158] Top shape: 1 1 (1)
I0122 12:23:27.944454 32121 net.cpp:158] Top shape: 1 1 (1)
I0122 12:23:27.944456 32121 net.cpp:158] Top shape: 1 1 (1)
I0122 12:23:27.944458 32121 net.cpp:166] Memory required for data: 73958432
I0122 12:23:27.944460 32121 layer_factory.hpp:76] Creating layer tracker_overlaps_split_1
I0122 12:23:27.944463 32121 net.cpp:107] Creating Layer tracker_overlaps_split_1
I0122 12:23:27.944465 32121 net.cpp:455] tracker_overlaps_split_1 <- overlaps_1
I0122 12:23:27.944468 32121 net.cpp:412] tracker_overlaps_split_1 -> overlaps1_1
I0122 12:23:27.944471 32121 net.cpp:412] tracker_overlaps_split_1 -> overlaps2_1
I0122 12:23:27.944496 32121 net.cpp:151] Setting up tracker_overlaps_split_1
I0122 12:23:27.944499 32121 net.cpp:158] Top shape: 1 1 1800 1800 (3240000)
I0122 12:23:27.944502 32121 net.cpp:158] Top shape: 1 1 1800 1800 (3240000)
I0122 12:23:27.944504 32121 net.cpp:166] Memory required for data: 99878432
I0122 12:23:27.944505 32121 layer_factory.hpp:76] Creating layer tracker_x_split_1
I0122 12:23:27.944509 32121 net.cpp:107] Creating Layer tracker_x_split_1
I0122 12:23:27.944511 32121 net.cpp:455] tracker_x_split_1 <- x_1_tracker_x_slice_0_split_0
I0122 12:23:27.944514 32121 net.cpp:412] tracker_x_split_1 -> x1_1
I0122 12:23:27.944519 32121 net.cpp:412] tracker_x_split_1 -> x2_1
I0122 12:23:27.944521 32121 net.cpp:412] tracker_x_split_1 -> x3_1
I0122 12:23:27.944525 32121 net.cpp:412] tracker_x_split_1 -> x4_1
I0122 12:23:27.944562 32121 net.cpp:151] Setting up tracker_x_split_1
I0122 12:23:27.944566 32121 net.cpp:158] Top shape: 1 1 1800 256 (460800)
I0122 12:23:27.944568 32121 net.cpp:158] Top shape: 1 1 1800 256 (460800)
I0122 12:23:27.944571 32121 net.cpp:158] Top shape: 1 1 1800 256 (460800)
I0122 12:23:27.944573 32121 net.cpp:158] Top shape: 1 1 1800 256 (460800)
I0122 12:23:27.944574 32121 net.cpp:166] Memory required for data: 107251232
I0122 12:23:27.944576 32121 layer_factory.hpp:76] Creating layer tracker_cont_split_1
I0122 12:23:27.944579 32121 net.cpp:107] Creating Layer tracker_cont_split_1
I0122 12:23:27.944581 32121 net.cpp:455] tracker_cont_split_1 <- cont_1
I0122 12:23:27.944584 32121 net.cpp:412] tracker_cont_split_1 -> cont1_1
I0122 12:23:27.944587 32121 net.cpp:412] tracker_cont_split_1 -> cont2_1
I0122 12:23:27.944591 32121 net.cpp:412] tracker_cont_split_1 -> cont3_1
I0122 12:23:27.944594 32121 net.cpp:412] tracker_cont_split_1 -> cont4_1
I0122 12:23:27.944633 32121 net.cpp:151] Setting up tracker_cont_split_1
I0122 12:23:27.944636 32121 net.cpp:158] Top shape: 1 1 (1)
I0122 12:23:27.944638 32121 net.cpp:158] Top shape: 1 1 (1)
I0122 12:23:27.944640 32121 net.cpp:158] Top shape: 1 1 (1)
I0122 12:23:27.944643 32121 net.cpp:158] Top shape: 1 1 (1)
I0122 12:23:27.944644 32121 net.cpp:166] Memory required for data: 107251248
I0122 12:23:27.944646 32121 layer_factory.hpp:76] Creating layer tracker_h_split_0
I0122 12:23:27.944648 32121 net.cpp:107] Creating Layer tracker_h_split_0
I0122 12:23:27.944650 32121 net.cpp:455] tracker_h_split_0 <- h_0
I0122 12:23:27.944653 32121 net.cpp:412] tracker_h_split_0 -> h1_0
I0122 12:23:27.944658 32121 net.cpp:412] tracker_h_split_0 -> h2_0
I0122 12:23:27.944679 32121 net.cpp:151] Setting up tracker_h_split_0
I0122 12:23:27.944682 32121 net.cpp:158] Top shape: 1 1 256 256 (65536)
I0122 12:23:27.944685 32121 net.cpp:158] Top shape: 1 1 256 256 (65536)
I0122 12:23:27.944687 32121 net.cpp:166] Memory required for data: 107775536
I0122 12:23:27.944689 32121 layer_factory.hpp:76] Creating layer tracker_c_split_0
I0122 12:23:27.944692 32121 net.cpp:107] Creating Layer tracker_c_split_0
I0122 12:23:27.944694 32121 net.cpp:455] tracker_c_split_0 <- c_0
I0122 12:23:27.944696 32121 net.cpp:412] tracker_c_split_0 -> c1_0
I0122 12:23:27.944700 32121 net.cpp:412] tracker_c_split_0 -> c2_0
I0122 12:23:27.944722 32121 net.cpp:151] Setting up tracker_c_split_0
I0122 12:23:27.944725 32121 net.cpp:158] Top shape: 1 1 1800 256 (460800)
I0122 12:23:27.944732 32121 net.cpp:158] Top shape: 1 1 1800 256 (460800)
I0122 12:23:27.944735 32121 net.cpp:166] Memory required for data: 111461936
I0122 12:23:27.944736 32121 layer_factory.hpp:76] Creating layer tracker_s_cont_0
I0122 12:23:27.944749 32121 net.cpp:107] Creating Layer tracker_s_cont_0
I0122 12:23:27.944751 32121 net.cpp:455] tracker_s_cont_0 <- s_0
I0122 12:23:27.944754 32121 net.cpp:455] tracker_s_cont_0 <- cont4_1
I0122 12:23:27.944757 32121 net.cpp:412] tracker_s_cont_0 -> s_cont_0
I0122 12:23:27.944802 32121 net.cpp:151] Setting up tracker_s_cont_0
I0122 12:23:27.944805 32121 net.cpp:158] Top shape: 1 1 1 (1)
I0122 12:23:27.944808 32121 net.cpp:166] Memory required for data: 111461940
I0122 12:23:27.944809 32121 layer_factory.hpp:76] Creating layer tracker_s_cont_split_0
I0122 12:23:27.944811 32121 net.cpp:107] Creating Layer tracker_s_cont_split_0
I0122 12:23:27.944814 32121 net.cpp:455] tracker_s_cont_split_0 <- s_cont_0
I0122 12:23:27.944816 32121 net.cpp:412] tracker_s_cont_split_0 -> s1_cont_0
I0122 12:23:27.944820 32121 net.cpp:412] tracker_s_cont_split_0 -> s2_cont_0
I0122 12:23:27.944845 32121 net.cpp:151] Setting up tracker_s_cont_split_0
I0122 12:23:27.944849 32121 net.cpp:158] Top shape: 1 1 1 (1)
I0122 12:23:27.944851 32121 net.cpp:158] Top shape: 1 1 1 (1)
I0122 12:23:27.944854 32121 net.cpp:166] Memory required for data: 111461948
I0122 12:23:27.944854 32121 layer_factory.hpp:76] Creating layer tracker_hm1_0
I0122 12:23:27.944859 32121 net.cpp:107] Creating Layer tracker_hm1_0
I0122 12:23:27.944860 32121 net.cpp:455] tracker_hm1_0 <- h1_0
I0122 12:23:27.944864 32121 net.cpp:455] tracker_hm1_0 <- s1_cont_0
I0122 12:23:27.944866 32121 net.cpp:412] tracker_hm1_0 -> hm1_0
I0122 12:23:27.944892 32121 net.cpp:151] Setting up tracker_hm1_0
I0122 12:23:27.944895 32121 net.cpp:158] Top shape: 1 1 256 256 (65536)
I0122 12:23:27.944897 32121 net.cpp:166] Memory required for data: 111724092
I0122 12:23:27.944898 32121 layer_factory.hpp:76] Creating layer tracker_w_0
I0122 12:23:27.944905 32121 net.cpp:107] Creating Layer tracker_w_0
I0122 12:23:27.944907 32121 net.cpp:455] tracker_w_0 <- c1_0
I0122 12:23:27.944910 32121 net.cpp:455] tracker_w_0 <- hm1_0
I0122 12:23:27.944912 32121 net.cpp:412] tracker_w_0 -> w_0
I0122 12:23:27.944927 32121 net.cpp:151] Setting up tracker_w_0
I0122 12:23:27.944931 32121 net.cpp:158] Top shape: 1 1 1800 256 (460800)
I0122 12:23:27.944932 32121 net.cpp:166] Memory required for data: 113567292
I0122 12:23:27.944934 32121 layer_factory.hpp:76] Creating layer tracker_v_1
I0122 12:23:27.944937 32121 net.cpp:107] Creating Layer tracker_v_1
I0122 12:23:27.944941 32121 net.cpp:455] tracker_v_1 <- w_0
I0122 12:23:27.944942 32121 net.cpp:455] tracker_v_1 <- x_1_tracker_x_slice_0_split_1
I0122 12:23:27.944946 32121 net.cpp:412] tracker_v_1 -> v_1
I0122 12:23:27.944959 32121 net.cpp:151] Setting up tracker_v_1
I0122 12:23:27.944962 32121 net.cpp:158] Top shape: 1 1 1800 1800 (3240000)
I0122 12:23:27.944964 32121 net.cpp:166] Memory required for data: 126527292
I0122 12:23:27.944967 32121 layer_factory.hpp:76] Creating layer tracker_rename_overlaps_1
I0122 12:23:27.944969 32121 net.cpp:107] Creating Layer tracker_rename_overlaps_1
I0122 12:23:27.944972 32121 net.cpp:455] tracker_rename_overlaps_1 <- overlaps1_1
I0122 12:23:27.944974 32121 net.cpp:412] tracker_rename_overlaps_1 -> s_overlaps_1
I0122 12:23:27.944988 32121 net.cpp:151] Setting up tracker_rename_overlaps_1
I0122 12:23:27.944991 32121 net.cpp:158] Top shape: 1 1 1800 1800 (3240000)
I0122 12:23:27.944993 32121 net.cpp:166] Memory required for data: 139487292
I0122 12:23:27.944994 32121 layer_factory.hpp:76] Creating layer tracker_v_cont_1
I0122 12:23:27.944998 32121 net.cpp:107] Creating Layer tracker_v_cont_1
I0122 12:23:27.944999 32121 net.cpp:455] tracker_v_cont_1 <- s_overlaps_1
I0122 12:23:27.945003 32121 net.cpp:455] tracker_v_cont_1 <- v_1
I0122 12:23:27.945004 32121 net.cpp:455] tracker_v_cont_1 <- cont1_1
I0122 12:23:27.945009 32121 net.cpp:412] tracker_v_cont_1 -> v_cont_1
I0122 12:23:27.945030 32121 net.cpp:151] Setting up tracker_v_cont_1
I0122 12:23:27.945034 32121 net.cpp:158] Top shape: 1 1 1800 1800 (3240000)
I0122 12:23:27.945036 32121 net.cpp:166] Memory required for data: 152447292
I0122 12:23:27.945039 32121 layer_factory.hpp:76] Creating layer tracker_v_split_1
I0122 12:23:27.945041 32121 net.cpp:107] Creating Layer tracker_v_split_1
I0122 12:23:27.945044 32121 net.cpp:455] tracker_v_split_1 <- v_cont_1
I0122 12:23:27.945046 32121 net.cpp:412] tracker_v_split_1 -> v1_1
I0122 12:23:27.945050 32121 net.cpp:412] tracker_v_split_1 -> v3_1
I0122 12:23:27.945053 32121 net.cpp:412] tracker_v_split_1 -> v4_1
I0122 12:23:27.945058 32121 net.cpp:412] tracker_v_split_1 -> v2_1
I0122 12:23:27.945096 32121 net.cpp:151] Setting up tracker_v_split_1
I0122 12:23:27.945099 32121 net.cpp:158] Top shape: 1 1 1800 1800 (3240000)
I0122 12:23:27.945101 32121 net.cpp:158] Top shape: 1 1 1800 1800 (3240000)
I0122 12:23:27.945104 32121 net.cpp:158] Top shape: 1 1 1800 1800 (3240000)
I0122 12:23:27.945106 32121 net.cpp:158] Top shape: 1 1 1800 1800 (3240000)
I0122 12:23:27.945108 32121 net.cpp:166] Memory required for data: 204287292
I0122 12:23:27.945109 32121 layer_factory.hpp:76] Creating layer tracker_vtilde_1
I0122 12:23:27.945112 32121 net.cpp:107] Creating Layer tracker_vtilde_1
I0122 12:23:27.945116 32121 net.cpp:455] tracker_vtilde_1 <- v4_1
I0122 12:23:27.945117 32121 net.cpp:455] tracker_vtilde_1 <- overlaps2_1
I0122 12:23:27.945121 32121 net.cpp:455] tracker_vtilde_1 <- nseg_1
I0122 12:23:27.945123 32121 net.cpp:412] tracker_vtilde_1 -> vtilde_1
I0122 12:23:27.945147 32121 net.cpp:151] Setting up tracker_vtilde_1
I0122 12:23:27.945150 32121 net.cpp:158] Top shape: 1 1 1800 1800 (3240000)
I0122 12:23:27.945152 32121 net.cpp:166] Memory required for data: 217247292
I0122 12:23:27.945153 32121 layer_factory.hpp:76] Creating layer tracker_vtilde_split_1
I0122 12:23:27.945158 32121 net.cpp:107] Creating Layer tracker_vtilde_split_1
I0122 12:23:27.945159 32121 net.cpp:455] tracker_vtilde_split_1 <- vtilde_1
I0122 12:23:27.945163 32121 net.cpp:412] tracker_vtilde_split_1 -> vtilde1_1
I0122 12:23:27.945176 32121 net.cpp:151] Setting up tracker_vtilde_split_1
I0122 12:23:27.945179 32121 net.cpp:158] Top shape: 1 1 1800 1800 (3240000)
I0122 12:23:27.945181 32121 net.cpp:166] Memory required for data: 230207292
I0122 12:23:27.945183 32121 layer_factory.hpp:76] Creating layer tracker_reshape1_1
I0122 12:23:27.945186 32121 net.cpp:107] Creating Layer tracker_reshape1_1
I0122 12:23:27.945189 32121 net.cpp:455] tracker_reshape1_1 <- v1_1
I0122 12:23:27.945191 32121 net.cpp:412] tracker_reshape1_1 -> vr_1
I0122 12:23:27.945207 32121 net.cpp:151] Setting up tracker_reshape1_1
I0122 12:23:27.945210 32121 net.cpp:158] Top shape: 1 1 1800 1800 (3240000)
I0122 12:23:27.945212 32121 net.cpp:166] Memory required for data: 243167292
I0122 12:23:27.945214 32121 layer_factory.hpp:76] Creating layer tracker_max_1
I0122 12:23:27.945217 32121 net.cpp:107] Creating Layer tracker_max_1
I0122 12:23:27.945219 32121 net.cpp:455] tracker_max_1 <- vr_1
I0122 12:23:27.945224 32121 net.cpp:412] tracker_max_1 -> mr_1
I0122 12:23:27.945528 32121 net.cpp:151] Setting up tracker_max_1
I0122 12:23:27.945534 32121 net.cpp:158] Top shape: 1 1 1 1800 (1800)
I0122 12:23:27.945536 32121 net.cpp:166] Memory required for data: 243174492
I0122 12:23:27.945538 32121 layer_factory.hpp:76] Creating layer tracker_reshape2_1
I0122 12:23:27.945543 32121 net.cpp:107] Creating Layer tracker_reshape2_1
I0122 12:23:27.945544 32121 net.cpp:455] tracker_reshape2_1 <- mr_1
I0122 12:23:27.945549 32121 net.cpp:412] tracker_reshape2_1 -> m_1
I0122 12:23:27.945565 32121 net.cpp:151] Setting up tracker_reshape2_1
I0122 12:23:27.945569 32121 net.cpp:158] Top shape: 1 1 1800 (1800)
I0122 12:23:27.945570 32121 net.cpp:166] Memory required for data: 243181692
I0122 12:23:27.945572 32121 layer_factory.hpp:76] Creating layer tracker_m_split_1
I0122 12:23:27.945575 32121 net.cpp:107] Creating Layer tracker_m_split_1
I0122 12:23:27.945577 32121 net.cpp:455] tracker_m_split_1 <- m_1
I0122 12:23:27.945585 32121 net.cpp:412] tracker_m_split_1 -> m1_1
I0122 12:23:27.945590 32121 net.cpp:412] tracker_m_split_1 -> m2_1
I0122 12:23:27.945616 32121 net.cpp:151] Setting up tracker_m_split_1
I0122 12:23:27.945618 32121 net.cpp:158] Top shape: 1 1 1800 (1800)
I0122 12:23:27.945621 32121 net.cpp:158] Top shape: 1 1 1800 (1800)
I0122 12:23:27.945623 32121 net.cpp:166] Memory required for data: 243196092
I0122 12:23:27.945626 32121 layer_factory.hpp:76] Creating layer tracker_concat_s_elemens_1
I0122 12:23:27.945628 32121 net.cpp:107] Creating Layer tracker_concat_s_elemens_1
I0122 12:23:27.945631 32121 net.cpp:455] tracker_concat_s_elemens_1 <- m2_1
I0122 12:23:27.945633 32121 net.cpp:455] tracker_concat_s_elemens_1 <- s2_cont_0
I0122 12:23:27.945636 32121 net.cpp:412] tracker_concat_s_elemens_1 -> s_elem_1
I0122 12:23:27.945655 32121 net.cpp:151] Setting up tracker_concat_s_elemens_1
I0122 12:23:27.945659 32121 net.cpp:158] Top shape: 1 1 1801 (1801)
I0122 12:23:27.945662 32121 net.cpp:166] Memory required for data: 243203296
I0122 12:23:27.945663 32121 layer_factory.hpp:76] Creating layer tracker_sum_s_elemens_1
I0122 12:23:27.945667 32121 net.cpp:107] Creating Layer tracker_sum_s_elemens_1
I0122 12:23:27.945668 32121 net.cpp:455] tracker_sum_s_elemens_1 <- s_elem_1
I0122 12:23:27.945672 32121 net.cpp:412] tracker_sum_s_elemens_1 -> ns_1
I0122 12:23:27.945699 32121 net.cpp:151] Setting up tracker_sum_s_elemens_1
I0122 12:23:27.945703 32121 net.cpp:158] Top shape: (1)
I0122 12:23:27.945704 32121 net.cpp:166] Memory required for data: 243203300
I0122 12:23:27.945706 32121 layer_factory.hpp:76] Creating layer tracker_s_reshape_1
I0122 12:23:27.945710 32121 net.cpp:107] Creating Layer tracker_s_reshape_1
I0122 12:23:27.945713 32121 net.cpp:455] tracker_s_reshape_1 <- ns_1
I0122 12:23:27.945715 32121 net.cpp:412] tracker_s_reshape_1 -> s_1
I0122 12:23:27.945732 32121 net.cpp:151] Setting up tracker_s_reshape_1
I0122 12:23:27.945735 32121 net.cpp:158] Top shape: 1 1 1 (1)
I0122 12:23:27.945737 32121 net.cpp:166] Memory required for data: 243203304
I0122 12:23:27.945739 32121 layer_factory.hpp:76] Creating layer tracker_mx_1
I0122 12:23:27.945742 32121 net.cpp:107] Creating Layer tracker_mx_1
I0122 12:23:27.945744 32121 net.cpp:455] tracker_mx_1 <- m1_1
I0122 12:23:27.945746 32121 net.cpp:455] tracker_mx_1 <- x2_1
I0122 12:23:27.945750 32121 net.cpp:412] tracker_mx_1 -> mx_1
I0122 12:23:27.945765 32121 net.cpp:151] Setting up tracker_mx_1
I0122 12:23:27.945768 32121 net.cpp:158] Top shape: 1 1 1800 256 (460800)
I0122 12:23:27.945770 32121 net.cpp:166] Memory required for data: 245046504
I0122 12:23:27.945772 32121 layer_factory.hpp:76] Creating layer tracker_mx_split_1
I0122 12:23:27.945776 32121 net.cpp:107] Creating Layer tracker_mx_split_1
I0122 12:23:27.945780 32121 net.cpp:455] tracker_mx_split_1 <- mx_1
I0122 12:23:27.945781 32121 net.cpp:412] tracker_mx_split_1 -> mx1_1
I0122 12:23:27.945785 32121 net.cpp:412] tracker_mx_split_1 -> mx2_1
I0122 12:23:27.945809 32121 net.cpp:151] Setting up tracker_mx_split_1
I0122 12:23:27.945813 32121 net.cpp:158] Top shape: 1 1 1800 256 (460800)
I0122 12:23:27.945816 32121 net.cpp:158] Top shape: 1 1 1800 256 (460800)
I0122 12:23:27.945817 32121 net.cpp:166] Memory required for data: 248732904
I0122 12:23:27.945819 32121 layer_factory.hpp:76] Creating layer tracker_xmx_1
I0122 12:23:27.945823 32121 net.cpp:107] Creating Layer tracker_xmx_1
I0122 12:23:27.945825 32121 net.cpp:455] tracker_xmx_1 <- x3_1
I0122 12:23:27.945828 32121 net.cpp:455] tracker_xmx_1 <- mx1_1
I0122 12:23:27.945832 32121 net.cpp:412] tracker_xmx_1 -> xmx_1
I0122 12:23:27.945847 32121 net.cpp:151] Setting up tracker_xmx_1
I0122 12:23:27.945849 32121 net.cpp:158] Top shape: 1 1 256 256 (65536)
I0122 12:23:27.945852 32121 net.cpp:166] Memory required for data: 248995048
I0122 12:23:27.945853 32121 layer_factory.hpp:76] Creating layer tracker_h_cont_0
I0122 12:23:27.945857 32121 net.cpp:107] Creating Layer tracker_h_cont_0
I0122 12:23:27.945858 32121 net.cpp:455] tracker_h_cont_0 <- h2_0
I0122 12:23:27.945865 32121 net.cpp:455] tracker_h_cont_0 <- cont2_1
I0122 12:23:27.945868 32121 net.cpp:412] tracker_h_cont_0 -> h_cont_0
I0122 12:23:27.945948 32121 net.cpp:151] Setting up tracker_h_cont_0
I0122 12:23:27.945953 32121 net.cpp:158] Top shape: 1 1 256 256 (65536)
I0122 12:23:27.945955 32121 net.cpp:166] Memory required for data: 249257192
I0122 12:23:27.945956 32121 layer_factory.hpp:76] Creating layer tracker_h_1
I0122 12:23:27.945960 32121 net.cpp:107] Creating Layer tracker_h_1
I0122 12:23:27.945962 32121 net.cpp:455] tracker_h_1 <- h_cont_0
I0122 12:23:27.945966 32121 net.cpp:455] tracker_h_1 <- xmx_1
I0122 12:23:27.945967 32121 net.cpp:412] tracker_h_1 -> h_1
I0122 12:23:27.945986 32121 net.cpp:151] Setting up tracker_h_1
I0122 12:23:27.945989 32121 net.cpp:158] Top shape: 1 1 256 256 (65536)
I0122 12:23:27.945991 32121 net.cpp:166] Memory required for data: 249519336
I0122 12:23:27.945993 32121 layer_factory.hpp:76] Creating layer tracker_vmx_1
I0122 12:23:27.945996 32121 net.cpp:107] Creating Layer tracker_vmx_1
I0122 12:23:27.945997 32121 net.cpp:455] tracker_vmx_1 <- v2_1
I0122 12:23:27.946001 32121 net.cpp:455] tracker_vmx_1 <- mx2_1
I0122 12:23:27.946003 32121 net.cpp:412] tracker_vmx_1 -> vmx_1
I0122 12:23:27.946019 32121 net.cpp:151] Setting up tracker_vmx_1
I0122 12:23:27.946023 32121 net.cpp:158] Top shape: 1 1 1800 256 (460800)
I0122 12:23:27.946025 32121 net.cpp:166] Memory required for data: 251362536
I0122 12:23:27.946027 32121 layer_factory.hpp:76] Creating layer tracker_c_cont_0
I0122 12:23:27.946030 32121 net.cpp:107] Creating Layer tracker_c_cont_0
I0122 12:23:27.946033 32121 net.cpp:455] tracker_c_cont_0 <- c2_0
I0122 12:23:27.946034 32121 net.cpp:455] tracker_c_cont_0 <- cont3_1
I0122 12:23:27.946038 32121 net.cpp:412] tracker_c_cont_0 -> c_cont_0
I0122 12:23:27.946596 32121 net.cpp:151] Setting up tracker_c_cont_0
I0122 12:23:27.946604 32121 net.cpp:158] Top shape: 1 1 1800 256 (460800)
I0122 12:23:27.946606 32121 net.cpp:166] Memory required for data: 253205736
I0122 12:23:27.946609 32121 layer_factory.hpp:76] Creating layer tracker_c_1
I0122 12:23:27.946612 32121 net.cpp:107] Creating Layer tracker_c_1
I0122 12:23:27.946614 32121 net.cpp:455] tracker_c_1 <- c_cont_0
I0122 12:23:27.946617 32121 net.cpp:455] tracker_c_1 <- vmx_1
I0122 12:23:27.946621 32121 net.cpp:412] tracker_c_1 -> c_1
I0122 12:23:27.946641 32121 net.cpp:151] Setting up tracker_c_1
I0122 12:23:27.946645 32121 net.cpp:158] Top shape: 1 1 1800 256 (460800)
I0122 12:23:27.946646 32121 net.cpp:166] Memory required for data: 255048936
I0122 12:23:27.946648 32121 layer_factory.hpp:76] Creating layer tracker_overlaps_split_2
I0122 12:23:27.946651 32121 net.cpp:107] Creating Layer tracker_overlaps_split_2
I0122 12:23:27.946653 32121 net.cpp:455] tracker_overlaps_split_2 <- overlaps_2
I0122 12:23:27.946656 32121 net.cpp:412] tracker_overlaps_split_2 -> overlaps1_2
I0122 12:23:27.946660 32121 net.cpp:412] tracker_overlaps_split_2 -> overlaps2_2
I0122 12:23:27.946686 32121 net.cpp:151] Setting up tracker_overlaps_split_2
I0122 12:23:27.946691 32121 net.cpp:158] Top shape: 1 1 1800 1800 (3240000)
I0122 12:23:27.946693 32121 net.cpp:158] Top shape: 1 1 1800 1800 (3240000)
I0122 12:23:27.946694 32121 net.cpp:166] Memory required for data: 280968936
I0122 12:23:27.946696 32121 layer_factory.hpp:76] Creating layer tracker_x_split_2
I0122 12:23:27.946699 32121 net.cpp:107] Creating Layer tracker_x_split_2
I0122 12:23:27.946702 32121 net.cpp:455] tracker_x_split_2 <- x_2_tracker_x_slice_1_split_0
I0122 12:23:27.946705 32121 net.cpp:412] tracker_x_split_2 -> x1_2
I0122 12:23:27.946709 32121 net.cpp:412] tracker_x_split_2 -> x2_2
I0122 12:23:27.946713 32121 net.cpp:412] tracker_x_split_2 -> x3_2
I0122 12:23:27.946717 32121 net.cpp:412] tracker_x_split_2 -> x4_2
I0122 12:23:27.946756 32121 net.cpp:151] Setting up tracker_x_split_2
I0122 12:23:27.946760 32121 net.cpp:158] Top shape: 1 1 1800 256 (460800)
I0122 12:23:27.946763 32121 net.cpp:158] Top shape: 1 1 1800 256 (460800)
I0122 12:23:27.946765 32121 net.cpp:158] Top shape: 1 1 1800 256 (460800)
I0122 12:23:27.946774 32121 net.cpp:158] Top shape: 1 1 1800 256 (460800)
I0122 12:23:27.946776 32121 net.cpp:166] Memory required for data: 288341736
I0122 12:23:27.946779 32121 layer_factory.hpp:76] Creating layer tracker_cont_split_2
I0122 12:23:27.946780 32121 net.cpp:107] Creating Layer tracker_cont_split_2
I0122 12:23:27.946784 32121 net.cpp:455] tracker_cont_split_2 <- cont_2
I0122 12:23:27.946786 32121 net.cpp:412] tracker_cont_split_2 -> cont1_2
I0122 12:23:27.946789 32121 net.cpp:412] tracker_cont_split_2 -> cont2_2
I0122 12:23:27.946794 32121 net.cpp:412] tracker_cont_split_2 -> cont3_2
I0122 12:23:27.946797 32121 net.cpp:412] tracker_cont_split_2 -> cont4_2
I0122 12:23:27.946841 32121 net.cpp:151] Setting up tracker_cont_split_2
I0122 12:23:27.946846 32121 net.cpp:158] Top shape: 1 1 (1)
I0122 12:23:27.946847 32121 net.cpp:158] Top shape: 1 1 (1)
I0122 12:23:27.946849 32121 net.cpp:158] Top shape: 1 1 (1)
I0122 12:23:27.946852 32121 net.cpp:158] Top shape: 1 1 (1)
I0122 12:23:27.946853 32121 net.cpp:166] Memory required for data: 288341752
I0122 12:23:27.946856 32121 layer_factory.hpp:76] Creating layer tracker_h_split_1
I0122 12:23:27.946858 32121 net.cpp:107] Creating Layer tracker_h_split_1
I0122 12:23:27.946861 32121 net.cpp:455] tracker_h_split_1 <- h_1
I0122 12:23:27.946863 32121 net.cpp:412] tracker_h_split_1 -> h1_1
I0122 12:23:27.946866 32121 net.cpp:412] tracker_h_split_1 -> h2_1
I0122 12:23:27.946890 32121 net.cpp:151] Setting up tracker_h_split_1
I0122 12:23:27.946894 32121 net.cpp:158] Top shape: 1 1 256 256 (65536)
I0122 12:23:27.946897 32121 net.cpp:158] Top shape: 1 1 256 256 (65536)
I0122 12:23:27.946898 32121 net.cpp:166] Memory required for data: 288866040
I0122 12:23:27.946900 32121 layer_factory.hpp:76] Creating layer tracker_c_split_1
I0122 12:23:27.946903 32121 net.cpp:107] Creating Layer tracker_c_split_1
I0122 12:23:27.946905 32121 net.cpp:455] tracker_c_split_1 <- c_1
I0122 12:23:27.946908 32121 net.cpp:412] tracker_c_split_1 -> c1_1
I0122 12:23:27.946913 32121 net.cpp:412] tracker_c_split_1 -> c2_1
I0122 12:23:27.946938 32121 net.cpp:151] Setting up tracker_c_split_1
I0122 12:23:27.946941 32121 net.cpp:158] Top shape: 1 1 1800 256 (460800)
I0122 12:23:27.946944 32121 net.cpp:158] Top shape: 1 1 1800 256 (460800)
I0122 12:23:27.946946 32121 net.cpp:166] Memory required for data: 292552440
I0122 12:23:27.946948 32121 layer_factory.hpp:76] Creating layer tracker_s_cont_1
I0122 12:23:27.946950 32121 net.cpp:107] Creating Layer tracker_s_cont_1
I0122 12:23:27.946954 32121 net.cpp:455] tracker_s_cont_1 <- s_1
I0122 12:23:27.946955 32121 net.cpp:455] tracker_s_cont_1 <- cont4_2
I0122 12:23:27.946959 32121 net.cpp:412] tracker_s_cont_1 -> s_cont_1
I0122 12:23:27.947000 32121 net.cpp:151] Setting up tracker_s_cont_1
I0122 12:23:27.947005 32121 net.cpp:158] Top shape: 1 1 1 (1)
I0122 12:23:27.947006 32121 net.cpp:166] Memory required for data: 292552444
I0122 12:23:27.947008 32121 layer_factory.hpp:76] Creating layer tracker_s_cont_split_1
I0122 12:23:27.947010 32121 net.cpp:107] Creating Layer tracker_s_cont_split_1
I0122 12:23:27.947012 32121 net.cpp:455] tracker_s_cont_split_1 <- s_cont_1
I0122 12:23:27.947016 32121 net.cpp:412] tracker_s_cont_split_1 -> s1_cont_1
I0122 12:23:27.947019 32121 net.cpp:412] tracker_s_cont_split_1 -> s2_cont_1
I0122 12:23:27.947043 32121 net.cpp:151] Setting up tracker_s_cont_split_1
I0122 12:23:27.947047 32121 net.cpp:158] Top shape: 1 1 1 (1)
I0122 12:23:27.947049 32121 net.cpp:158] Top shape: 1 1 1 (1)
I0122 12:23:27.947052 32121 net.cpp:166] Memory required for data: 292552452
I0122 12:23:27.947053 32121 layer_factory.hpp:76] Creating layer tracker_hm1_1
I0122 12:23:27.947057 32121 net.cpp:107] Creating Layer tracker_hm1_1
I0122 12:23:27.947059 32121 net.cpp:455] tracker_hm1_1 <- h1_1
I0122 12:23:27.947062 32121 net.cpp:455] tracker_hm1_1 <- s1_cont_1
I0122 12:23:27.947065 32121 net.cpp:412] tracker_hm1_1 -> hm1_1
I0122 12:23:27.947089 32121 net.cpp:151] Setting up tracker_hm1_1
I0122 12:23:27.947093 32121 net.cpp:158] Top shape: 1 1 256 256 (65536)
I0122 12:23:27.947101 32121 net.cpp:166] Memory required for data: 292814596
I0122 12:23:27.947103 32121 layer_factory.hpp:76] Creating layer tracker_w_1
I0122 12:23:27.947108 32121 net.cpp:107] Creating Layer tracker_w_1
I0122 12:23:27.947109 32121 net.cpp:455] tracker_w_1 <- c1_1
I0122 12:23:27.947113 32121 net.cpp:455] tracker_w_1 <- hm1_1
I0122 12:23:27.947115 32121 net.cpp:412] tracker_w_1 -> w_1
I0122 12:23:27.947130 32121 net.cpp:151] Setting up tracker_w_1
I0122 12:23:27.947134 32121 net.cpp:158] Top shape: 1 1 1800 256 (460800)
I0122 12:23:27.947136 32121 net.cpp:166] Memory required for data: 294657796
I0122 12:23:27.947137 32121 layer_factory.hpp:76] Creating layer tracker_v_2
I0122 12:23:27.947140 32121 net.cpp:107] Creating Layer tracker_v_2
I0122 12:23:27.947142 32121 net.cpp:455] tracker_v_2 <- w_1
I0122 12:23:27.947145 32121 net.cpp:455] tracker_v_2 <- x_2_tracker_x_slice_1_split_1
I0122 12:23:27.947149 32121 net.cpp:412] tracker_v_2 -> v_2
I0122 12:23:27.947165 32121 net.cpp:151] Setting up tracker_v_2
I0122 12:23:27.947167 32121 net.cpp:158] Top shape: 1 1 1800 1800 (3240000)
I0122 12:23:27.947170 32121 net.cpp:166] Memory required for data: 307617796
I0122 12:23:27.947171 32121 layer_factory.hpp:76] Creating layer tracker_rename_overlaps_2
I0122 12:23:27.947175 32121 net.cpp:107] Creating Layer tracker_rename_overlaps_2
I0122 12:23:27.947176 32121 net.cpp:455] tracker_rename_overlaps_2 <- overlaps1_2
I0122 12:23:27.947180 32121 net.cpp:412] tracker_rename_overlaps_2 -> s_overlaps_2
I0122 12:23:27.947193 32121 net.cpp:151] Setting up tracker_rename_overlaps_2
I0122 12:23:27.947197 32121 net.cpp:158] Top shape: 1 1 1800 1800 (3240000)
I0122 12:23:27.947199 32121 net.cpp:166] Memory required for data: 320577796
I0122 12:23:27.947201 32121 layer_factory.hpp:76] Creating layer tracker_v_cont_2
I0122 12:23:27.947204 32121 net.cpp:107] Creating Layer tracker_v_cont_2
I0122 12:23:27.947206 32121 net.cpp:455] tracker_v_cont_2 <- s_overlaps_2
I0122 12:23:27.947209 32121 net.cpp:455] tracker_v_cont_2 <- v_2
I0122 12:23:27.947211 32121 net.cpp:455] tracker_v_cont_2 <- cont1_2
I0122 12:23:27.947214 32121 net.cpp:412] tracker_v_cont_2 -> v_cont_2
I0122 12:23:27.947229 32121 net.cpp:151] Setting up tracker_v_cont_2
I0122 12:23:27.947233 32121 net.cpp:158] Top shape: 1 1 1800 1800 (3240000)
I0122 12:23:27.947235 32121 net.cpp:166] Memory required for data: 333537796
I0122 12:23:27.947237 32121 layer_factory.hpp:76] Creating layer tracker_v_split_2
I0122 12:23:27.947240 32121 net.cpp:107] Creating Layer tracker_v_split_2
I0122 12:23:27.947242 32121 net.cpp:455] tracker_v_split_2 <- v_cont_2
I0122 12:23:27.947247 32121 net.cpp:412] tracker_v_split_2 -> v1_2
I0122 12:23:27.947250 32121 net.cpp:412] tracker_v_split_2 -> v3_2
I0122 12:23:27.947253 32121 net.cpp:412] tracker_v_split_2 -> v4_2
I0122 12:23:27.947257 32121 net.cpp:412] tracker_v_split_2 -> v2_2
I0122 12:23:27.947295 32121 net.cpp:151] Setting up tracker_v_split_2
I0122 12:23:27.947299 32121 net.cpp:158] Top shape: 1 1 1800 1800 (3240000)
I0122 12:23:27.947302 32121 net.cpp:158] Top shape: 1 1 1800 1800 (3240000)
I0122 12:23:27.947304 32121 net.cpp:158] Top shape: 1 1 1800 1800 (3240000)
I0122 12:23:27.947307 32121 net.cpp:158] Top shape: 1 1 1800 1800 (3240000)
I0122 12:23:27.947309 32121 net.cpp:166] Memory required for data: 385377796
I0122 12:23:27.947310 32121 layer_factory.hpp:76] Creating layer tracker_vtilde_2
I0122 12:23:27.947315 32121 net.cpp:107] Creating Layer tracker_vtilde_2
I0122 12:23:27.947317 32121 net.cpp:455] tracker_vtilde_2 <- v4_2
I0122 12:23:27.947319 32121 net.cpp:455] tracker_vtilde_2 <- overlaps2_2
I0122 12:23:27.947322 32121 net.cpp:455] tracker_vtilde_2 <- nseg_2
I0122 12:23:27.947325 32121 net.cpp:412] tracker_vtilde_2 -> vtilde_2
I0122 12:23:27.947348 32121 net.cpp:151] Setting up tracker_vtilde_2
I0122 12:23:27.947352 32121 net.cpp:158] Top shape: 1 1 1800 1800 (3240000)
I0122 12:23:27.947355 32121 net.cpp:166] Memory required for data: 398337796
I0122 12:23:27.947356 32121 layer_factory.hpp:76] Creating layer tracker_vtilde_split_2
I0122 12:23:27.947363 32121 net.cpp:107] Creating Layer tracker_vtilde_split_2
I0122 12:23:27.947365 32121 net.cpp:455] tracker_vtilde_split_2 <- vtilde_2
I0122 12:23:27.947370 32121 net.cpp:412] tracker_vtilde_split_2 -> vtilde1_2
I0122 12:23:27.947384 32121 net.cpp:151] Setting up tracker_vtilde_split_2
I0122 12:23:27.947388 32121 net.cpp:158] Top shape: 1 1 1800 1800 (3240000)
I0122 12:23:27.947391 32121 net.cpp:166] Memory required for data: 411297796
I0122 12:23:27.947391 32121 layer_factory.hpp:76] Creating layer tracker_reshape1_2
I0122 12:23:27.947396 32121 net.cpp:107] Creating Layer tracker_reshape1_2
I0122 12:23:27.947397 32121 net.cpp:455] tracker_reshape1_2 <- v1_2
I0122 12:23:27.947402 32121 net.cpp:412] tracker_reshape1_2 -> vr_2
I0122 12:23:27.947417 32121 net.cpp:151] Setting up tracker_reshape1_2
I0122 12:23:27.947420 32121 net.cpp:158] Top shape: 1 1 1800 1800 (3240000)
I0122 12:23:27.947422 32121 net.cpp:166] Memory required for data: 424257796
I0122 12:23:27.947423 32121 layer_factory.hpp:76] Creating layer tracker_max_2
I0122 12:23:27.947427 32121 net.cpp:107] Creating Layer tracker_max_2
I0122 12:23:27.947429 32121 net.cpp:455] tracker_max_2 <- vr_2
I0122 12:23:27.947432 32121 net.cpp:412] tracker_max_2 -> mr_2
I0122 12:23:27.947674 32121 net.cpp:151] Setting up tracker_max_2
I0122 12:23:27.947681 32121 net.cpp:158] Top shape: 1 1 1 1800 (1800)
I0122 12:23:27.947685 32121 net.cpp:166] Memory required for data: 424264996
I0122 12:23:27.947686 32121 layer_factory.hpp:76] Creating layer tracker_reshape2_2
I0122 12:23:27.947690 32121 net.cpp:107] Creating Layer tracker_reshape2_2
I0122 12:23:27.947692 32121 net.cpp:455] tracker_reshape2_2 <- mr_2
I0122 12:23:27.947696 32121 net.cpp:412] tracker_reshape2_2 -> m_2
I0122 12:23:27.947713 32121 net.cpp:151] Setting up tracker_reshape2_2
I0122 12:23:27.947717 32121 net.cpp:158] Top shape: 1 1 1800 (1800)
I0122 12:23:27.947720 32121 net.cpp:166] Memory required for data: 424272196
I0122 12:23:27.947721 32121 layer_factory.hpp:76] Creating layer tracker_m_split_2
I0122 12:23:27.947724 32121 net.cpp:107] Creating Layer tracker_m_split_2
I0122 12:23:27.947726 32121 net.cpp:455] tracker_m_split_2 <- m_2
I0122 12:23:27.947729 32121 net.cpp:412] tracker_m_split_2 -> m1_2
I0122 12:23:27.947733 32121 net.cpp:412] tracker_m_split_2 -> m2_2
I0122 12:23:27.947758 32121 net.cpp:151] Setting up tracker_m_split_2
I0122 12:23:27.947762 32121 net.cpp:158] Top shape: 1 1 1800 (1800)
I0122 12:23:27.947765 32121 net.cpp:158] Top shape: 1 1 1800 (1800)
I0122 12:23:27.947767 32121 net.cpp:166] Memory required for data: 424286596
I0122 12:23:27.947768 32121 layer_factory.hpp:76] Creating layer tracker_concat_s_elemens_2
I0122 12:23:27.947772 32121 net.cpp:107] Creating Layer tracker_concat_s_elemens_2
I0122 12:23:27.947774 32121 net.cpp:455] tracker_concat_s_elemens_2 <- m2_2
I0122 12:23:27.947777 32121 net.cpp:455] tracker_concat_s_elemens_2 <- s2_cont_1
I0122 12:23:27.947780 32121 net.cpp:412] tracker_concat_s_elemens_2 -> s_elem_2
I0122 12:23:27.947796 32121 net.cpp:151] Setting up tracker_concat_s_elemens_2
I0122 12:23:27.947800 32121 net.cpp:158] Top shape: 1 1 1801 (1801)
I0122 12:23:27.947803 32121 net.cpp:166] Memory required for data: 424293800
I0122 12:23:27.947804 32121 layer_factory.hpp:76] Creating layer tracker_sum_s_elemens_2
I0122 12:23:27.947808 32121 net.cpp:107] Creating Layer tracker_sum_s_elemens_2
I0122 12:23:27.947809 32121 net.cpp:455] tracker_sum_s_elemens_2 <- s_elem_2
I0122 12:23:27.947813 32121 net.cpp:412] tracker_sum_s_elemens_2 -> ns_2
I0122 12:23:27.947844 32121 net.cpp:151] Setting up tracker_sum_s_elemens_2
I0122 12:23:27.947849 32121 net.cpp:158] Top shape: (1)
I0122 12:23:27.947850 32121 net.cpp:166] Memory required for data: 424293804
I0122 12:23:27.947852 32121 layer_factory.hpp:76] Creating layer tracker_s_reshape_2
I0122 12:23:27.947856 32121 net.cpp:107] Creating Layer tracker_s_reshape_2
I0122 12:23:27.947859 32121 net.cpp:455] tracker_s_reshape_2 <- ns_2
I0122 12:23:27.947861 32121 net.cpp:412] tracker_s_reshape_2 -> s_2
I0122 12:23:27.947885 32121 net.cpp:151] Setting up tracker_s_reshape_2
I0122 12:23:27.947890 32121 net.cpp:158] Top shape: 1 1 1 (1)
I0122 12:23:27.947891 32121 net.cpp:166] Memory required for data: 424293808
I0122 12:23:27.947893 32121 layer_factory.hpp:76] Creating layer tracker_mx_2
I0122 12:23:27.947896 32121 net.cpp:107] Creating Layer tracker_mx_2
I0122 12:23:27.947898 32121 net.cpp:455] tracker_mx_2 <- m1_2
I0122 12:23:27.947901 32121 net.cpp:455] tracker_mx_2 <- x2_2
I0122 12:23:27.947906 32121 net.cpp:412] tracker_mx_2 -> mx_2
I0122 12:23:27.947921 32121 net.cpp:151] Setting up tracker_mx_2
I0122 12:23:27.947926 32121 net.cpp:158] Top shape: 1 1 1800 256 (460800)
I0122 12:23:27.947927 32121 net.cpp:166] Memory required for data: 426137008
I0122 12:23:27.947929 32121 layer_factory.hpp:76] Creating layer tracker_mx_split_2
I0122 12:23:27.947932 32121 net.cpp:107] Creating Layer tracker_mx_split_2
I0122 12:23:27.947934 32121 net.cpp:455] tracker_mx_split_2 <- mx_2
I0122 12:23:27.947937 32121 net.cpp:412] tracker_mx_split_2 -> mx1_2
I0122 12:23:27.947942 32121 net.cpp:412] tracker_mx_split_2 -> mx2_2
I0122 12:23:27.947964 32121 net.cpp:151] Setting up tracker_mx_split_2
I0122 12:23:27.947968 32121 net.cpp:158] Top shape: 1 1 1800 256 (460800)
I0122 12:23:27.947970 32121 net.cpp:158] Top shape: 1 1 1800 256 (460800)
I0122 12:23:27.947973 32121 net.cpp:166] Memory required for data: 429823408
I0122 12:23:27.947974 32121 layer_factory.hpp:76] Creating layer tracker_xmx_2
I0122 12:23:27.947978 32121 net.cpp:107] Creating Layer tracker_xmx_2
I0122 12:23:27.947980 32121 net.cpp:455] tracker_xmx_2 <- x3_2
I0122 12:23:27.947983 32121 net.cpp:455] tracker_xmx_2 <- mx1_2
I0122 12:23:27.947986 32121 net.cpp:412] tracker_xmx_2 -> xmx_2
I0122 12:23:27.948000 32121 net.cpp:151] Setting up tracker_xmx_2
I0122 12:23:27.948004 32121 net.cpp:158] Top shape: 1 1 256 256 (65536)
I0122 12:23:27.948006 32121 net.cpp:166] Memory required for data: 430085552
I0122 12:23:27.948009 32121 layer_factory.hpp:76] Creating layer tracker_h_cont_1
I0122 12:23:27.948011 32121 net.cpp:107] Creating Layer tracker_h_cont_1
I0122 12:23:27.948014 32121 net.cpp:455] tracker_h_cont_1 <- h2_1
I0122 12:23:27.948016 32121 net.cpp:455] tracker_h_cont_1 <- cont2_2
I0122 12:23:27.948020 32121 net.cpp:412] tracker_h_cont_1 -> h_cont_1
I0122 12:23:27.948325 32121 net.cpp:151] Setting up tracker_h_cont_1
I0122 12:23:27.948333 32121 net.cpp:158] Top shape: 1 1 256 256 (65536)
I0122 12:23:27.948334 32121 net.cpp:166] Memory required for data: 430347696
I0122 12:23:27.948338 32121 layer_factory.hpp:76] Creating layer tracker_h_2
I0122 12:23:27.948343 32121 net.cpp:107] Creating Layer tracker_h_2
I0122 12:23:27.948348 32121 net.cpp:455] tracker_h_2 <- h_cont_1
I0122 12:23:27.948350 32121 net.cpp:455] tracker_h_2 <- xmx_2
I0122 12:23:27.948354 32121 net.cpp:412] tracker_h_2 -> h_2
I0122 12:23:27.948374 32121 net.cpp:151] Setting up tracker_h_2
I0122 12:23:27.948377 32121 net.cpp:158] Top shape: 1 1 256 256 (65536)
I0122 12:23:27.948379 32121 net.cpp:166] Memory required for data: 430609840
I0122 12:23:27.948381 32121 layer_factory.hpp:76] Creating layer tracker_vmx_2
I0122 12:23:27.948385 32121 net.cpp:107] Creating Layer tracker_vmx_2
I0122 12:23:27.948386 32121 net.cpp:455] tracker_vmx_2 <- v2_2
I0122 12:23:27.948389 32121 net.cpp:455] tracker_vmx_2 <- mx2_2
I0122 12:23:27.948391 32121 net.cpp:412] tracker_vmx_2 -> vmx_2
I0122 12:23:27.948408 32121 net.cpp:151] Setting up tracker_vmx_2
I0122 12:23:27.948412 32121 net.cpp:158] Top shape: 1 1 1800 256 (460800)
I0122 12:23:27.948415 32121 net.cpp:166] Memory required for data: 432453040
I0122 12:23:27.948415 32121 layer_factory.hpp:76] Creating layer tracker_c_cont_1
I0122 12:23:27.948418 32121 net.cpp:107] Creating Layer tracker_c_cont_1
I0122 12:23:27.948421 32121 net.cpp:455] tracker_c_cont_1 <- c2_1
I0122 12:23:27.948423 32121 net.cpp:455] tracker_c_cont_1 <- cont3_2
I0122 12:23:27.948426 32121 net.cpp:412] tracker_c_cont_1 -> c_cont_1
I0122 12:23:27.948945 32121 net.cpp:151] Setting up tracker_c_cont_1
I0122 12:23:27.948951 32121 net.cpp:158] Top shape: 1 1 1800 256 (460800)
I0122 12:23:27.948959 32121 net.cpp:166] Memory required for data: 434296240
I0122 12:23:27.948962 32121 layer_factory.hpp:76] Creating layer tracker_c_2
I0122 12:23:27.948966 32121 net.cpp:107] Creating Layer tracker_c_2
I0122 12:23:27.948968 32121 net.cpp:455] tracker_c_2 <- c_cont_1
I0122 12:23:27.948971 32121 net.cpp:455] tracker_c_2 <- vmx_2
I0122 12:23:27.948976 32121 net.cpp:412] tracker_c_2 -> c_2
I0122 12:23:27.948995 32121 net.cpp:151] Setting up tracker_c_2
I0122 12:23:27.948999 32121 net.cpp:158] Top shape: 1 1 1800 256 (460800)
I0122 12:23:27.949002 32121 net.cpp:166] Memory required for data: 436139440
I0122 12:23:27.949003 32121 layer_factory.hpp:76] Creating layer tracker_overlaps_split_3
I0122 12:23:27.949007 32121 net.cpp:107] Creating Layer tracker_overlaps_split_3
I0122 12:23:27.949008 32121 net.cpp:455] tracker_overlaps_split_3 <- overlaps_3
I0122 12:23:27.949012 32121 net.cpp:412] tracker_overlaps_split_3 -> overlaps1_3
I0122 12:23:27.949017 32121 net.cpp:412] tracker_overlaps_split_3 -> overlaps2_3
I0122 12:23:27.949041 32121 net.cpp:151] Setting up tracker_overlaps_split_3
I0122 12:23:27.949045 32121 net.cpp:158] Top shape: 1 1 1800 1800 (3240000)
I0122 12:23:27.949048 32121 net.cpp:158] Top shape: 1 1 1800 1800 (3240000)
I0122 12:23:27.949050 32121 net.cpp:166] Memory required for data: 462059440
I0122 12:23:27.949053 32121 layer_factory.hpp:76] Creating layer tracker_x_split_3
I0122 12:23:27.949055 32121 net.cpp:107] Creating Layer tracker_x_split_3
I0122 12:23:27.949059 32121 net.cpp:455] tracker_x_split_3 <- x_3_tracker_x_slice_2_split_0
I0122 12:23:27.949061 32121 net.cpp:412] tracker_x_split_3 -> x1_3
I0122 12:23:27.949065 32121 net.cpp:412] tracker_x_split_3 -> x2_3
I0122 12:23:27.949069 32121 net.cpp:412] tracker_x_split_3 -> x3_3
I0122 12:23:27.949072 32121 net.cpp:412] tracker_x_split_3 -> x4_3
I0122 12:23:27.949112 32121 net.cpp:151] Setting up tracker_x_split_3
I0122 12:23:27.949116 32121 net.cpp:158] Top shape: 1 1 1800 256 (460800)
I0122 12:23:27.949118 32121 net.cpp:158] Top shape: 1 1 1800 256 (460800)
I0122 12:23:27.949121 32121 net.cpp:158] Top shape: 1 1 1800 256 (460800)
I0122 12:23:27.949123 32121 net.cpp:158] Top shape: 1 1 1800 256 (460800)
I0122 12:23:27.949126 32121 net.cpp:166] Memory required for data: 469432240
I0122 12:23:27.949127 32121 layer_factory.hpp:76] Creating layer tracker_cont_split_3
I0122 12:23:27.949129 32121 net.cpp:107] Creating Layer tracker_cont_split_3
I0122 12:23:27.949132 32121 net.cpp:455] tracker_cont_split_3 <- cont_3
I0122 12:23:27.949136 32121 net.cpp:412] tracker_cont_split_3 -> cont1_3
I0122 12:23:27.949139 32121 net.cpp:412] tracker_cont_split_3 -> cont2_3
I0122 12:23:27.949149 32121 net.cpp:412] tracker_cont_split_3 -> cont3_3
I0122 12:23:27.949154 32121 net.cpp:412] tracker_cont_split_3 -> cont4_3
I0122 12:23:27.949196 32121 net.cpp:151] Setting up tracker_cont_split_3
I0122 12:23:27.949200 32121 net.cpp:158] Top shape: 1 1 (1)
I0122 12:23:27.949203 32121 net.cpp:158] Top shape: 1 1 (1)
I0122 12:23:27.949205 32121 net.cpp:158] Top shape: 1 1 (1)
I0122 12:23:27.949208 32121 net.cpp:158] Top shape: 1 1 (1)
I0122 12:23:27.949209 32121 net.cpp:166] Memory required for data: 469432256
I0122 12:23:27.949211 32121 layer_factory.hpp:76] Creating layer tracker_h_split_2
I0122 12:23:27.949214 32121 net.cpp:107] Creating Layer tracker_h_split_2
I0122 12:23:27.949216 32121 net.cpp:455] tracker_h_split_2 <- h_2
I0122 12:23:27.949219 32121 net.cpp:412] tracker_h_split_2 -> h1_2
I0122 12:23:27.949223 32121 net.cpp:412] tracker_h_split_2 -> h2_2
I0122 12:23:27.949246 32121 net.cpp:151] Setting up tracker_h_split_2
I0122 12:23:27.949250 32121 net.cpp:158] Top shape: 1 1 256 256 (65536)
I0122 12:23:27.949254 32121 net.cpp:158] Top shape: 1 1 256 256 (65536)
I0122 12:23:27.949255 32121 net.cpp:166] Memory required for data: 469956544
I0122 12:23:27.949257 32121 layer_factory.hpp:76] Creating layer tracker_c_split_2
I0122 12:23:27.949260 32121 net.cpp:107] Creating Layer tracker_c_split_2
I0122 12:23:27.949262 32121 net.cpp:455] tracker_c_split_2 <- c_2
I0122 12:23:27.949271 32121 net.cpp:412] tracker_c_split_2 -> c1_2
I0122 12:23:27.949275 32121 net.cpp:412] tracker_c_split_2 -> c2_2
I0122 12:23:27.949300 32121 net.cpp:151] Setting up tracker_c_split_2
I0122 12:23:27.949304 32121 net.cpp:158] Top shape: 1 1 1800 256 (460800)
I0122 12:23:27.949306 32121 net.cpp:158] Top shape: 1 1 1800 256 (460800)
I0122 12:23:27.949308 32121 net.cpp:166] Memory required for data: 473642944
I0122 12:23:27.949311 32121 layer_factory.hpp:76] Creating layer tracker_s_cont_2
I0122 12:23:27.949313 32121 net.cpp:107] Creating Layer tracker_s_cont_2
I0122 12:23:27.949316 32121 net.cpp:455] tracker_s_cont_2 <- s_2
I0122 12:23:27.949318 32121 net.cpp:455] tracker_s_cont_2 <- cont4_3
I0122 12:23:27.949321 32121 net.cpp:412] tracker_s_cont_2 -> s_cont_2
I0122 12:23:27.949364 32121 net.cpp:151] Setting up tracker_s_cont_2
I0122 12:23:27.949368 32121 net.cpp:158] Top shape: 1 1 1 (1)
I0122 12:23:27.949370 32121 net.cpp:166] Memory required for data: 473642948
I0122 12:23:27.949373 32121 layer_factory.hpp:76] Creating layer tracker_s_cont_split_2
I0122 12:23:27.949375 32121 net.cpp:107] Creating Layer tracker_s_cont_split_2
I0122 12:23:27.949378 32121 net.cpp:455] tracker_s_cont_split_2 <- s_cont_2
I0122 12:23:27.949380 32121 net.cpp:412] tracker_s_cont_split_2 -> s1_cont_2
I0122 12:23:27.949383 32121 net.cpp:412] tracker_s_cont_split_2 -> s2_cont_2
I0122 12:23:27.949409 32121 net.cpp:151] Setting up tracker_s_cont_split_2
I0122 12:23:27.949412 32121 net.cpp:158] Top shape: 1 1 1 (1)
I0122 12:23:27.949414 32121 net.cpp:158] Top shape: 1 1 1 (1)
I0122 12:23:27.949416 32121 net.cpp:166] Memory required for data: 473642956
I0122 12:23:27.949419 32121 layer_factory.hpp:76] Creating layer tracker_hm1_2
I0122 12:23:27.949421 32121 net.cpp:107] Creating Layer tracker_hm1_2
I0122 12:23:27.949424 32121 net.cpp:455] tracker_hm1_2 <- h1_2
I0122 12:23:27.949426 32121 net.cpp:455] tracker_hm1_2 <- s1_cont_2
I0122 12:23:27.949429 32121 net.cpp:412] tracker_hm1_2 -> hm1_2
I0122 12:23:27.949455 32121 net.cpp:151] Setting up tracker_hm1_2
I0122 12:23:27.949457 32121 net.cpp:158] Top shape: 1 1 256 256 (65536)
I0122 12:23:27.949460 32121 net.cpp:166] Memory required for data: 473905100
I0122 12:23:27.949461 32121 layer_factory.hpp:76] Creating layer tracker_w_2
I0122 12:23:27.949465 32121 net.cpp:107] Creating Layer tracker_w_2
I0122 12:23:27.949467 32121 net.cpp:455] tracker_w_2 <- c1_2
I0122 12:23:27.949470 32121 net.cpp:455] tracker_w_2 <- hm1_2
I0122 12:23:27.949473 32121 net.cpp:412] tracker_w_2 -> w_2
I0122 12:23:27.949488 32121 net.cpp:151] Setting up tracker_w_2
I0122 12:23:27.949492 32121 net.cpp:158] Top shape: 1 1 1800 256 (460800)
I0122 12:23:27.949494 32121 net.cpp:166] Memory required for data: 475748300
I0122 12:23:27.949496 32121 layer_factory.hpp:76] Creating layer tracker_v_3
I0122 12:23:27.949498 32121 net.cpp:107] Creating Layer tracker_v_3
I0122 12:23:27.949501 32121 net.cpp:455] tracker_v_3 <- w_2
I0122 12:23:27.949503 32121 net.cpp:455] tracker_v_3 <- x_3_tracker_x_slice_2_split_1
I0122 12:23:27.949507 32121 net.cpp:412] tracker_v_3 -> v_3
I0122 12:23:27.949522 32121 net.cpp:151] Setting up tracker_v_3
I0122 12:23:27.949525 32121 net.cpp:158] Top shape: 1 1 1800 1800 (3240000)
I0122 12:23:27.949527 32121 net.cpp:166] Memory required for data: 488708300
I0122 12:23:27.949529 32121 layer_factory.hpp:76] Creating layer tracker_rename_overlaps_3
I0122 12:23:27.949532 32121 net.cpp:107] Creating Layer tracker_rename_overlaps_3
I0122 12:23:27.949534 32121 net.cpp:455] tracker_rename_overlaps_3 <- overlaps1_3
I0122 12:23:27.949537 32121 net.cpp:412] tracker_rename_overlaps_3 -> s_overlaps_3
I0122 12:23:27.949553 32121 net.cpp:151] Setting up tracker_rename_overlaps_3
I0122 12:23:27.949556 32121 net.cpp:158] Top shape: 1 1 1800 1800 (3240000)
I0122 12:23:27.949558 32121 net.cpp:166] Memory required for data: 501668300
I0122 12:23:27.949560 32121 layer_factory.hpp:76] Creating layer tracker_v_cont_3
I0122 12:23:27.949563 32121 net.cpp:107] Creating Layer tracker_v_cont_3
I0122 12:23:27.949570 32121 net.cpp:455] tracker_v_cont_3 <- s_overlaps_3
I0122 12:23:27.949573 32121 net.cpp:455] tracker_v_cont_3 <- v_3
I0122 12:23:27.949575 32121 net.cpp:455] tracker_v_cont_3 <- cont1_3
I0122 12:23:27.949579 32121 net.cpp:412] tracker_v_cont_3 -> v_cont_3
I0122 12:23:27.949595 32121 net.cpp:151] Setting up tracker_v_cont_3
I0122 12:23:27.949599 32121 net.cpp:158] Top shape: 1 1 1800 1800 (3240000)
I0122 12:23:27.949601 32121 net.cpp:166] Memory required for data: 514628300
I0122 12:23:27.949602 32121 layer_factory.hpp:76] Creating layer tracker_v_split_3
I0122 12:23:27.949605 32121 net.cpp:107] Creating Layer tracker_v_split_3
I0122 12:23:27.949607 32121 net.cpp:455] tracker_v_split_3 <- v_cont_3
I0122 12:23:27.949612 32121 net.cpp:412] tracker_v_split_3 -> v1_3
I0122 12:23:27.949616 32121 net.cpp:412] tracker_v_split_3 -> v3_3
I0122 12:23:27.949620 32121 net.cpp:412] tracker_v_split_3 -> v4_3
I0122 12:23:27.949623 32121 net.cpp:412] tracker_v_split_3 -> v2_3
I0122 12:23:27.949664 32121 net.cpp:151] Setting up tracker_v_split_3
I0122 12:23:27.949668 32121 net.cpp:158] Top shape: 1 1 1800 1800 (3240000)
I0122 12:23:27.949671 32121 net.cpp:158] Top shape: 1 1 1800 1800 (3240000)
I0122 12:23:27.949672 32121 net.cpp:158] Top shape: 1 1 1800 1800 (3240000)
I0122 12:23:27.949676 32121 net.cpp:158] Top shape: 1 1 1800 1800 (3240000)
I0122 12:23:27.949677 32121 net.cpp:166] Memory required for data: 566468300
I0122 12:23:27.949678 32121 layer_factory.hpp:76] Creating layer tracker_vtilde_3
I0122 12:23:27.949682 32121 net.cpp:107] Creating Layer tracker_vtilde_3
I0122 12:23:27.949684 32121 net.cpp:455] tracker_vtilde_3 <- v4_3
I0122 12:23:27.949687 32121 net.cpp:455] tracker_vtilde_3 <- overlaps2_3
I0122 12:23:27.949689 32121 net.cpp:455] tracker_vtilde_3 <- nseg_3
I0122 12:23:27.949692 32121 net.cpp:412] tracker_vtilde_3 -> vtilde_3
I0122 12:23:27.949717 32121 net.cpp:151] Setting up tracker_vtilde_3
I0122 12:23:27.949720 32121 net.cpp:158] Top shape: 1 1 1800 1800 (3240000)
I0122 12:23:27.949723 32121 net.cpp:166] Memory required for data: 579428300
I0122 12:23:27.949724 32121 layer_factory.hpp:76] Creating layer tracker_vtilde_split_3
I0122 12:23:27.949728 32121 net.cpp:107] Creating Layer tracker_vtilde_split_3
I0122 12:23:27.949729 32121 net.cpp:455] tracker_vtilde_split_3 <- vtilde_3
I0122 12:23:27.949733 32121 net.cpp:412] tracker_vtilde_split_3 -> vtilde1_3
I0122 12:23:27.949746 32121 net.cpp:151] Setting up tracker_vtilde_split_3
I0122 12:23:27.949750 32121 net.cpp:158] Top shape: 1 1 1800 1800 (3240000)
I0122 12:23:27.949753 32121 net.cpp:166] Memory required for data: 592388300
I0122 12:23:27.949753 32121 layer_factory.hpp:76] Creating layer tracker_reshape1_3
I0122 12:23:27.949758 32121 net.cpp:107] Creating Layer tracker_reshape1_3
I0122 12:23:27.949759 32121 net.cpp:455] tracker_reshape1_3 <- v1_3
I0122 12:23:27.949764 32121 net.cpp:412] tracker_reshape1_3 -> vr_3
I0122 12:23:27.949779 32121 net.cpp:151] Setting up tracker_reshape1_3
I0122 12:23:27.949781 32121 net.cpp:158] Top shape: 1 1 1800 1800 (3240000)
I0122 12:23:27.949784 32121 net.cpp:166] Memory required for data: 605348300
I0122 12:23:27.949785 32121 layer_factory.hpp:76] Creating layer tracker_max_3
I0122 12:23:27.949789 32121 net.cpp:107] Creating Layer tracker_max_3
I0122 12:23:27.949790 32121 net.cpp:455] tracker_max_3 <- vr_3
I0122 12:23:27.949793 32121 net.cpp:412] tracker_max_3 -> mr_3
I0122 12:23:27.950047 32121 net.cpp:151] Setting up tracker_max_3
I0122 12:23:27.950054 32121 net.cpp:158] Top shape: 1 1 1 1800 (1800)
I0122 12:23:27.950057 32121 net.cpp:166] Memory required for data: 605355500
I0122 12:23:27.950058 32121 layer_factory.hpp:76] Creating layer tracker_reshape2_3
I0122 12:23:27.950062 32121 net.cpp:107] Creating Layer tracker_reshape2_3
I0122 12:23:27.950064 32121 net.cpp:455] tracker_reshape2_3 <- mr_3
I0122 12:23:27.950068 32121 net.cpp:412] tracker_reshape2_3 -> m_3
I0122 12:23:27.950085 32121 net.cpp:151] Setting up tracker_reshape2_3
I0122 12:23:27.950090 32121 net.cpp:158] Top shape: 1 1 1800 (1800)
I0122 12:23:27.950098 32121 net.cpp:166] Memory required for data: 605362700
I0122 12:23:27.950100 32121 layer_factory.hpp:76] Creating layer tracker_m_split_3
I0122 12:23:27.950103 32121 net.cpp:107] Creating Layer tracker_m_split_3
I0122 12:23:27.950105 32121 net.cpp:455] tracker_m_split_3 <- m_3
I0122 12:23:27.950109 32121 net.cpp:412] tracker_m_split_3 -> m1_3
I0122 12:23:27.950112 32121 net.cpp:412] tracker_m_split_3 -> m2_3
I0122 12:23:27.950139 32121 net.cpp:151] Setting up tracker_m_split_3
I0122 12:23:27.950142 32121 net.cpp:158] Top shape: 1 1 1800 (1800)
I0122 12:23:27.950145 32121 net.cpp:158] Top shape: 1 1 1800 (1800)
I0122 12:23:27.950147 32121 net.cpp:166] Memory required for data: 605377100
I0122 12:23:27.950150 32121 layer_factory.hpp:76] Creating layer tracker_concat_s_elemens_3
I0122 12:23:27.950152 32121 net.cpp:107] Creating Layer tracker_concat_s_elemens_3
I0122 12:23:27.950155 32121 net.cpp:455] tracker_concat_s_elemens_3 <- m2_3
I0122 12:23:27.950157 32121 net.cpp:455] tracker_concat_s_elemens_3 <- s2_cont_2
I0122 12:23:27.950162 32121 net.cpp:412] tracker_concat_s_elemens_3 -> s_elem_3
I0122 12:23:27.950183 32121 net.cpp:151] Setting up tracker_concat_s_elemens_3
I0122 12:23:27.950187 32121 net.cpp:158] Top shape: 1 1 1801 (1801)
I0122 12:23:27.950189 32121 net.cpp:166] Memory required for data: 605384304
I0122 12:23:27.950191 32121 layer_factory.hpp:76] Creating layer tracker_sum_s_elemens_3
I0122 12:23:27.950194 32121 net.cpp:107] Creating Layer tracker_sum_s_elemens_3
I0122 12:23:27.950196 32121 net.cpp:455] tracker_sum_s_elemens_3 <- s_elem_3
I0122 12:23:27.950199 32121 net.cpp:412] tracker_sum_s_elemens_3 -> ns_3
I0122 12:23:27.950228 32121 net.cpp:151] Setting up tracker_sum_s_elemens_3
I0122 12:23:27.950232 32121 net.cpp:158] Top shape: (1)
I0122 12:23:27.950233 32121 net.cpp:166] Memory required for data: 605384308
I0122 12:23:27.950235 32121 layer_factory.hpp:76] Creating layer tracker_s_reshape_3
I0122 12:23:27.950238 32121 net.cpp:107] Creating Layer tracker_s_reshape_3
I0122 12:23:27.950240 32121 net.cpp:455] tracker_s_reshape_3 <- ns_3
I0122 12:23:27.950244 32121 net.cpp:412] tracker_s_reshape_3 -> s_3
I0122 12:23:27.950261 32121 net.cpp:151] Setting up tracker_s_reshape_3
I0122 12:23:27.950265 32121 net.cpp:158] Top shape: 1 1 1 (1)
I0122 12:23:27.950268 32121 net.cpp:166] Memory required for data: 605384312
I0122 12:23:27.950269 32121 layer_factory.hpp:76] Creating layer tracker_mx_3
I0122 12:23:27.950273 32121 net.cpp:107] Creating Layer tracker_mx_3
I0122 12:23:27.950275 32121 net.cpp:455] tracker_mx_3 <- m1_3
I0122 12:23:27.950278 32121 net.cpp:455] tracker_mx_3 <- x2_3
I0122 12:23:27.950281 32121 net.cpp:412] tracker_mx_3 -> mx_3
I0122 12:23:27.950297 32121 net.cpp:151] Setting up tracker_mx_3
I0122 12:23:27.950302 32121 net.cpp:158] Top shape: 1 1 1800 256 (460800)
I0122 12:23:27.950304 32121 net.cpp:166] Memory required for data: 607227512
I0122 12:23:27.950306 32121 layer_factory.hpp:76] Creating layer tracker_mx_split_3
I0122 12:23:27.950309 32121 net.cpp:107] Creating Layer tracker_mx_split_3
I0122 12:23:27.950311 32121 net.cpp:455] tracker_mx_split_3 <- mx_3
I0122 12:23:27.950314 32121 net.cpp:412] tracker_mx_split_3 -> mx1_3
I0122 12:23:27.950317 32121 net.cpp:412] tracker_mx_split_3 -> mx2_3
I0122 12:23:27.950341 32121 net.cpp:151] Setting up tracker_mx_split_3
I0122 12:23:27.950345 32121 net.cpp:158] Top shape: 1 1 1800 256 (460800)
I0122 12:23:27.950348 32121 net.cpp:158] Top shape: 1 1 1800 256 (460800)
I0122 12:23:27.950350 32121 net.cpp:166] Memory required for data: 610913912
I0122 12:23:27.950352 32121 layer_factory.hpp:76] Creating layer tracker_xmx_3
I0122 12:23:27.950355 32121 net.cpp:107] Creating Layer tracker_xmx_3
I0122 12:23:27.950356 32121 net.cpp:455] tracker_xmx_3 <- x3_3
I0122 12:23:27.950361 32121 net.cpp:455] tracker_xmx_3 <- mx1_3
I0122 12:23:27.950363 32121 net.cpp:412] tracker_xmx_3 -> xmx_3
I0122 12:23:27.950378 32121 net.cpp:151] Setting up tracker_xmx_3
I0122 12:23:27.950382 32121 net.cpp:158] Top shape: 1 1 256 256 (65536)
I0122 12:23:27.950389 32121 net.cpp:166] Memory required for data: 611176056
I0122 12:23:27.950392 32121 layer_factory.hpp:76] Creating layer tracker_h_cont_2
I0122 12:23:27.950394 32121 net.cpp:107] Creating Layer tracker_h_cont_2
I0122 12:23:27.950397 32121 net.cpp:455] tracker_h_cont_2 <- h2_2
I0122 12:23:27.950399 32121 net.cpp:455] tracker_h_cont_2 <- cont2_3
I0122 12:23:27.950403 32121 net.cpp:412] tracker_h_cont_2 -> h_cont_2
I0122 12:23:27.950459 32121 net.cpp:151] Setting up tracker_h_cont_2
I0122 12:23:27.950462 32121 net.cpp:158] Top shape: 1 1 256 256 (65536)
I0122 12:23:27.950464 32121 net.cpp:166] Memory required for data: 611438200
I0122 12:23:27.950466 32121 layer_factory.hpp:76] Creating layer tracker_h_3
I0122 12:23:27.950469 32121 net.cpp:107] Creating Layer tracker_h_3
I0122 12:23:27.950472 32121 net.cpp:455] tracker_h_3 <- h_cont_2
I0122 12:23:27.950475 32121 net.cpp:455] tracker_h_3 <- xmx_3
I0122 12:23:27.950479 32121 net.cpp:412] tracker_h_3 -> h_3
I0122 12:23:27.950495 32121 net.cpp:151] Setting up tracker_h_3
I0122 12:23:27.950500 32121 net.cpp:158] Top shape: 1 1 256 256 (65536)
I0122 12:23:27.950500 32121 net.cpp:166] Memory required for data: 611700344
I0122 12:23:27.950502 32121 layer_factory.hpp:76] Creating layer tracker_vmx_3
I0122 12:23:27.950505 32121 net.cpp:107] Creating Layer tracker_vmx_3
I0122 12:23:27.950507 32121 net.cpp:455] tracker_vmx_3 <- v2_3
I0122 12:23:27.950510 32121 net.cpp:455] tracker_vmx_3 <- mx2_3
I0122 12:23:27.950513 32121 net.cpp:412] tracker_vmx_3 -> vmx_3
I0122 12:23:27.950530 32121 net.cpp:151] Setting up tracker_vmx_3
I0122 12:23:27.950533 32121 net.cpp:158] Top shape: 1 1 1800 256 (460800)
I0122 12:23:27.950536 32121 net.cpp:166] Memory required for data: 613543544
I0122 12:23:27.950537 32121 layer_factory.hpp:76] Creating layer tracker_c_cont_2
I0122 12:23:27.950541 32121 net.cpp:107] Creating Layer tracker_c_cont_2
I0122 12:23:27.950543 32121 net.cpp:455] tracker_c_cont_2 <- c2_2
I0122 12:23:27.950546 32121 net.cpp:455] tracker_c_cont_2 <- cont3_3
I0122 12:23:27.950549 32121 net.cpp:412] tracker_c_cont_2 -> c_cont_2
I0122 12:23:27.951066 32121 net.cpp:151] Setting up tracker_c_cont_2
I0122 12:23:27.951073 32121 net.cpp:158] Top shape: 1 1 1800 256 (460800)
I0122 12:23:27.951076 32121 net.cpp:166] Memory required for data: 615386744
I0122 12:23:27.951077 32121 layer_factory.hpp:76] Creating layer tracker_c_3
I0122 12:23:27.951081 32121 net.cpp:107] Creating Layer tracker_c_3
I0122 12:23:27.951083 32121 net.cpp:455] tracker_c_3 <- c_cont_2
I0122 12:23:27.951087 32121 net.cpp:455] tracker_c_3 <- vmx_3
I0122 12:23:27.951092 32121 net.cpp:412] tracker_c_3 -> c_3
I0122 12:23:27.951110 32121 net.cpp:151] Setting up tracker_c_3
I0122 12:23:27.951114 32121 net.cpp:158] Top shape: 1 1 1800 256 (460800)
I0122 12:23:27.951117 32121 net.cpp:166] Memory required for data: 617229944
I0122 12:23:27.951118 32121 layer_factory.hpp:76] Creating layer tracker_overlaps_split_4
I0122 12:23:27.951122 32121 net.cpp:107] Creating Layer tracker_overlaps_split_4
I0122 12:23:27.951123 32121 net.cpp:455] tracker_overlaps_split_4 <- overlaps_4
I0122 12:23:27.951128 32121 net.cpp:412] tracker_overlaps_split_4 -> overlaps1_4
I0122 12:23:27.951131 32121 net.cpp:412] tracker_overlaps_split_4 -> overlaps2_4
I0122 12:23:27.951156 32121 net.cpp:151] Setting up tracker_overlaps_split_4
I0122 12:23:27.951159 32121 net.cpp:158] Top shape: 1 1 1800 1800 (3240000)
I0122 12:23:27.951162 32121 net.cpp:158] Top shape: 1 1 1800 1800 (3240000)
I0122 12:23:27.951164 32121 net.cpp:166] Memory required for data: 643149944
I0122 12:23:27.951166 32121 layer_factory.hpp:76] Creating layer tracker_x_split_4
I0122 12:23:27.951171 32121 net.cpp:107] Creating Layer tracker_x_split_4
I0122 12:23:27.951174 32121 net.cpp:455] tracker_x_split_4 <- x_4_tracker_x_slice_3_split_0
I0122 12:23:27.951176 32121 net.cpp:412] tracker_x_split_4 -> x1_4
I0122 12:23:27.951180 32121 net.cpp:412] tracker_x_split_4 -> x2_4
I0122 12:23:27.951184 32121 net.cpp:412] tracker_x_split_4 -> x3_4
I0122 12:23:27.951187 32121 net.cpp:412] tracker_x_split_4 -> x4_4
I0122 12:23:27.951234 32121 net.cpp:151] Setting up tracker_x_split_4
I0122 12:23:27.951239 32121 net.cpp:158] Top shape: 1 1 1800 256 (460800)
I0122 12:23:27.951241 32121 net.cpp:158] Top shape: 1 1 1800 256 (460800)
I0122 12:23:27.951244 32121 net.cpp:158] Top shape: 1 1 1800 256 (460800)
I0122 12:23:27.951246 32121 net.cpp:158] Top shape: 1 1 1800 256 (460800)
I0122 12:23:27.951248 32121 net.cpp:166] Memory required for data: 650522744
I0122 12:23:27.951251 32121 layer_factory.hpp:76] Creating layer tracker_cont_split_4
I0122 12:23:27.951253 32121 net.cpp:107] Creating Layer tracker_cont_split_4
I0122 12:23:27.951256 32121 net.cpp:455] tracker_cont_split_4 <- cont_4
I0122 12:23:27.951258 32121 net.cpp:412] tracker_cont_split_4 -> cont1_4
I0122 12:23:27.951262 32121 net.cpp:412] tracker_cont_split_4 -> cont2_4
I0122 12:23:27.951266 32121 net.cpp:412] tracker_cont_split_4 -> cont3_4
I0122 12:23:27.951269 32121 net.cpp:412] tracker_cont_split_4 -> cont4_4
I0122 12:23:27.951313 32121 net.cpp:151] Setting up tracker_cont_split_4
I0122 12:23:27.951316 32121 net.cpp:158] Top shape: 1 1 (1)
I0122 12:23:27.951319 32121 net.cpp:158] Top shape: 1 1 (1)
I0122 12:23:27.951321 32121 net.cpp:158] Top shape: 1 1 (1)
I0122 12:23:27.951323 32121 net.cpp:158] Top shape: 1 1 (1)
I0122 12:23:27.951325 32121 net.cpp:166] Memory required for data: 650522760
I0122 12:23:27.951328 32121 layer_factory.hpp:76] Creating layer tracker_h_split_3
I0122 12:23:27.951330 32121 net.cpp:107] Creating Layer tracker_h_split_3
I0122 12:23:27.951333 32121 net.cpp:455] tracker_h_split_3 <- h_3
I0122 12:23:27.951336 32121 net.cpp:412] tracker_h_split_3 -> h1_3
I0122 12:23:27.951339 32121 net.cpp:412] tracker_h_split_3 -> h2_3
I0122 12:23:27.951364 32121 net.cpp:151] Setting up tracker_h_split_3
I0122 12:23:27.951366 32121 net.cpp:158] Top shape: 1 1 256 256 (65536)
I0122 12:23:27.951370 32121 net.cpp:158] Top shape: 1 1 256 256 (65536)
I0122 12:23:27.951371 32121 net.cpp:166] Memory required for data: 651047048
I0122 12:23:27.951373 32121 layer_factory.hpp:76] Creating layer tracker_c_split_3
I0122 12:23:27.951376 32121 net.cpp:107] Creating Layer tracker_c_split_3
I0122 12:23:27.951380 32121 net.cpp:455] tracker_c_split_3 <- c_3
I0122 12:23:27.951382 32121 net.cpp:412] tracker_c_split_3 -> c1_3
I0122 12:23:27.951385 32121 net.cpp:412] tracker_c_split_3 -> c2_3
I0122 12:23:27.951409 32121 net.cpp:151] Setting up tracker_c_split_3
I0122 12:23:27.951413 32121 net.cpp:158] Top shape: 1 1 1800 256 (460800)
I0122 12:23:27.951416 32121 net.cpp:158] Top shape: 1 1 1800 256 (460800)
I0122 12:23:27.951417 32121 net.cpp:166] Memory required for data: 654733448
I0122 12:23:27.951419 32121 layer_factory.hpp:76] Creating layer tracker_s_cont_3
I0122 12:23:27.951422 32121 net.cpp:107] Creating Layer tracker_s_cont_3
I0122 12:23:27.951426 32121 net.cpp:455] tracker_s_cont_3 <- s_3
I0122 12:23:27.951427 32121 net.cpp:455] tracker_s_cont_3 <- cont4_4
I0122 12:23:27.951431 32121 net.cpp:412] tracker_s_cont_3 -> s_cont_3
I0122 12:23:27.951474 32121 net.cpp:151] Setting up tracker_s_cont_3
I0122 12:23:27.951478 32121 net.cpp:158] Top shape: 1 1 1 (1)
I0122 12:23:27.951480 32121 net.cpp:166] Memory required for data: 654733452
I0122 12:23:27.951483 32121 layer_factory.hpp:76] Creating layer tracker_s_cont_split_3
I0122 12:23:27.951485 32121 net.cpp:107] Creating Layer tracker_s_cont_split_3
I0122 12:23:27.951488 32121 net.cpp:455] tracker_s_cont_split_3 <- s_cont_3
I0122 12:23:27.951490 32121 net.cpp:412] tracker_s_cont_split_3 -> s1_cont_3
I0122 12:23:27.951493 32121 net.cpp:412] tracker_s_cont_split_3 -> s2_cont_3
I0122 12:23:27.951519 32121 net.cpp:151] Setting up tracker_s_cont_split_3
I0122 12:23:27.951522 32121 net.cpp:158] Top shape: 1 1 1 (1)
I0122 12:23:27.951525 32121 net.cpp:158] Top shape: 1 1 1 (1)
I0122 12:23:27.951527 32121 net.cpp:166] Memory required for data: 654733460
I0122 12:23:27.951529 32121 layer_factory.hpp:76] Creating layer tracker_hm1_3
I0122 12:23:27.951531 32121 net.cpp:107] Creating Layer tracker_hm1_3
I0122 12:23:27.951534 32121 net.cpp:455] tracker_hm1_3 <- h1_3
I0122 12:23:27.951541 32121 net.cpp:455] tracker_hm1_3 <- s1_cont_3
I0122 12:23:27.951545 32121 net.cpp:412] tracker_hm1_3 -> hm1_3
I0122 12:23:27.951570 32121 net.cpp:151] Setting up tracker_hm1_3
I0122 12:23:27.951573 32121 net.cpp:158] Top shape: 1 1 256 256 (65536)
I0122 12:23:27.951575 32121 net.cpp:166] Memory required for data: 654995604
I0122 12:23:27.951577 32121 layer_factory.hpp:76] Creating layer tracker_w_3
I0122 12:23:27.951581 32121 net.cpp:107] Creating Layer tracker_w_3
I0122 12:23:27.951583 32121 net.cpp:455] tracker_w_3 <- c1_3
I0122 12:23:27.951586 32121 net.cpp:455] tracker_w_3 <- hm1_3
I0122 12:23:27.951589 32121 net.cpp:412] tracker_w_3 -> w_3
I0122 12:23:27.951604 32121 net.cpp:151] Setting up tracker_w_3
I0122 12:23:27.951608 32121 net.cpp:158] Top shape: 1 1 1800 256 (460800)
I0122 12:23:27.951611 32121 net.cpp:166] Memory required for data: 656838804
I0122 12:23:27.951612 32121 layer_factory.hpp:76] Creating layer tracker_v_4
I0122 12:23:27.951617 32121 net.cpp:107] Creating Layer tracker_v_4
I0122 12:23:27.951618 32121 net.cpp:455] tracker_v_4 <- w_3
I0122 12:23:27.951622 32121 net.cpp:455] tracker_v_4 <- x_4_tracker_x_slice_3_split_1
I0122 12:23:27.951624 32121 net.cpp:412] tracker_v_4 -> v_4
I0122 12:23:27.951639 32121 net.cpp:151] Setting up tracker_v_4
I0122 12:23:27.951643 32121 net.cpp:158] Top shape: 1 1 1800 1800 (3240000)
I0122 12:23:27.951644 32121 net.cpp:166] Memory required for data: 669798804
I0122 12:23:27.951647 32121 layer_factory.hpp:76] Creating layer tracker_rename_overlaps_4
I0122 12:23:27.951649 32121 net.cpp:107] Creating Layer tracker_rename_overlaps_4
I0122 12:23:27.951652 32121 net.cpp:455] tracker_rename_overlaps_4 <- overlaps1_4
I0122 12:23:27.951658 32121 net.cpp:412] tracker_rename_overlaps_4 -> s_overlaps_4
I0122 12:23:27.951671 32121 net.cpp:151] Setting up tracker_rename_overlaps_4
I0122 12:23:27.951675 32121 net.cpp:158] Top shape: 1 1 1800 1800 (3240000)
I0122 12:23:27.951678 32121 net.cpp:166] Memory required for data: 682758804
I0122 12:23:27.951679 32121 layer_factory.hpp:76] Creating layer tracker_v_cont_4
I0122 12:23:27.951683 32121 net.cpp:107] Creating Layer tracker_v_cont_4
I0122 12:23:27.951684 32121 net.cpp:455] tracker_v_cont_4 <- s_overlaps_4
I0122 12:23:27.951688 32121 net.cpp:455] tracker_v_cont_4 <- v_4
I0122 12:23:27.951689 32121 net.cpp:455] tracker_v_cont_4 <- cont1_4
I0122 12:23:27.951692 32121 net.cpp:412] tracker_v_cont_4 -> v_cont_4
I0122 12:23:27.951709 32121 net.cpp:151] Setting up tracker_v_cont_4
I0122 12:23:27.951712 32121 net.cpp:158] Top shape: 1 1 1800 1800 (3240000)
I0122 12:23:27.951715 32121 net.cpp:166] Memory required for data: 695718804
I0122 12:23:27.951716 32121 layer_factory.hpp:76] Creating layer tracker_v_split_4
I0122 12:23:27.951719 32121 net.cpp:107] Creating Layer tracker_v_split_4
I0122 12:23:27.951721 32121 net.cpp:455] tracker_v_split_4 <- v_cont_4
I0122 12:23:27.951725 32121 net.cpp:412] tracker_v_split_4 -> v1_4
I0122 12:23:27.951728 32121 net.cpp:412] tracker_v_split_4 -> v3_4
I0122 12:23:27.951732 32121 net.cpp:412] tracker_v_split_4 -> v4_4
I0122 12:23:27.951737 32121 net.cpp:412] tracker_v_split_4 -> v2_4
I0122 12:23:27.951779 32121 net.cpp:151] Setting up tracker_v_split_4
I0122 12:23:27.951783 32121 net.cpp:158] Top shape: 1 1 1800 1800 (3240000)
I0122 12:23:27.951786 32121 net.cpp:158] Top shape: 1 1 1800 1800 (3240000)
I0122 12:23:27.951788 32121 net.cpp:158] Top shape: 1 1 1800 1800 (3240000)
I0122 12:23:27.951791 32121 net.cpp:158] Top shape: 1 1 1800 1800 (3240000)
I0122 12:23:27.951792 32121 net.cpp:166] Memory required for data: 747558804
I0122 12:23:27.951794 32121 layer_factory.hpp:76] Creating layer tracker_vtilde_4
I0122 12:23:27.951797 32121 net.cpp:107] Creating Layer tracker_vtilde_4
I0122 12:23:27.951799 32121 net.cpp:455] tracker_vtilde_4 <- v4_4
I0122 12:23:27.951802 32121 net.cpp:455] tracker_vtilde_4 <- overlaps2_4
I0122 12:23:27.951804 32121 net.cpp:455] tracker_vtilde_4 <- nseg_4
I0122 12:23:27.951808 32121 net.cpp:412] tracker_vtilde_4 -> vtilde_4
I0122 12:23:27.951838 32121 net.cpp:151] Setting up tracker_vtilde_4
I0122 12:23:27.951843 32121 net.cpp:158] Top shape: 1 1 1800 1800 (3240000)
I0122 12:23:27.951844 32121 net.cpp:166] Memory required for data: 760518804
I0122 12:23:27.951845 32121 layer_factory.hpp:76] Creating layer tracker_vtilde_split_4
I0122 12:23:27.951850 32121 net.cpp:107] Creating Layer tracker_vtilde_split_4
I0122 12:23:27.951853 32121 net.cpp:455] tracker_vtilde_split_4 <- vtilde_4
I0122 12:23:27.951855 32121 net.cpp:412] tracker_vtilde_split_4 -> vtilde1_4
I0122 12:23:27.951869 32121 net.cpp:151] Setting up tracker_vtilde_split_4
I0122 12:23:27.951874 32121 net.cpp:158] Top shape: 1 1 1800 1800 (3240000)
I0122 12:23:27.951875 32121 net.cpp:166] Memory required for data: 773478804
I0122 12:23:27.951877 32121 layer_factory.hpp:76] Creating layer tracker_reshape1_4
I0122 12:23:27.951881 32121 net.cpp:107] Creating Layer tracker_reshape1_4
I0122 12:23:27.951884 32121 net.cpp:455] tracker_reshape1_4 <- v1_4
I0122 12:23:27.951886 32121 net.cpp:412] tracker_reshape1_4 -> vr_4
I0122 12:23:27.951901 32121 net.cpp:151] Setting up tracker_reshape1_4
I0122 12:23:27.951905 32121 net.cpp:158] Top shape: 1 1 1800 1800 (3240000)
I0122 12:23:27.951907 32121 net.cpp:166] Memory required for data: 786438804
I0122 12:23:27.951910 32121 layer_factory.hpp:76] Creating layer tracker_max_4
I0122 12:23:27.951915 32121 net.cpp:107] Creating Layer tracker_max_4
I0122 12:23:27.951916 32121 net.cpp:455] tracker_max_4 <- vr_4
I0122 12:23:27.951920 32121 net.cpp:412] tracker_max_4 -> mr_4
I0122 12:23:27.952059 32121 net.cpp:151] Setting up tracker_max_4
I0122 12:23:27.952064 32121 net.cpp:158] Top shape: 1 1 1 1800 (1800)
I0122 12:23:27.952066 32121 net.cpp:166] Memory required for data: 786446004
I0122 12:23:27.952069 32121 layer_factory.hpp:76] Creating layer tracker_reshape2_4
I0122 12:23:27.952071 32121 net.cpp:107] Creating Layer tracker_reshape2_4
I0122 12:23:27.952075 32121 net.cpp:455] tracker_reshape2_4 <- mr_4
I0122 12:23:27.952077 32121 net.cpp:412] tracker_reshape2_4 -> m_4
I0122 12:23:27.952093 32121 net.cpp:151] Setting up tracker_reshape2_4
I0122 12:23:27.952097 32121 net.cpp:158] Top shape: 1 1 1800 (1800)
I0122 12:23:27.952100 32121 net.cpp:166] Memory required for data: 786453204
I0122 12:23:27.952101 32121 layer_factory.hpp:76] Creating layer tracker_m_split_4
I0122 12:23:27.952105 32121 net.cpp:107] Creating Layer tracker_m_split_4
I0122 12:23:27.952107 32121 net.cpp:455] tracker_m_split_4 <- m_4
I0122 12:23:27.952111 32121 net.cpp:412] tracker_m_split_4 -> m1_4
I0122 12:23:27.952114 32121 net.cpp:412] tracker_m_split_4 -> m2_4
I0122 12:23:27.952142 32121 net.cpp:151] Setting up tracker_m_split_4
I0122 12:23:27.952146 32121 net.cpp:158] Top shape: 1 1 1800 (1800)
I0122 12:23:27.952148 32121 net.cpp:158] Top shape: 1 1 1800 (1800)
I0122 12:23:27.952149 32121 net.cpp:166] Memory required for data: 786467604
I0122 12:23:27.952152 32121 layer_factory.hpp:76] Creating layer tracker_concat_s_elemens_4
I0122 12:23:27.952154 32121 net.cpp:107] Creating Layer tracker_concat_s_elemens_4
I0122 12:23:27.952157 32121 net.cpp:455] tracker_concat_s_elemens_4 <- m2_4
I0122 12:23:27.952159 32121 net.cpp:455] tracker_concat_s_elemens_4 <- s2_cont_3
I0122 12:23:27.952162 32121 net.cpp:412] tracker_concat_s_elemens_4 -> s_elem_4
I0122 12:23:27.952179 32121 net.cpp:151] Setting up tracker_concat_s_elemens_4
I0122 12:23:27.952183 32121 net.cpp:158] Top shape: 1 1 1801 (1801)
I0122 12:23:27.952184 32121 net.cpp:166] Memory required for data: 786474808
I0122 12:23:27.952186 32121 layer_factory.hpp:76] Creating layer tracker_sum_s_elemens_4
I0122 12:23:27.952190 32121 net.cpp:107] Creating Layer tracker_sum_s_elemens_4
I0122 12:23:27.952193 32121 net.cpp:455] tracker_sum_s_elemens_4 <- s_elem_4
I0122 12:23:27.952195 32121 net.cpp:412] tracker_sum_s_elemens_4 -> ns_4
I0122 12:23:27.952224 32121 net.cpp:151] Setting up tracker_sum_s_elemens_4
I0122 12:23:27.952227 32121 net.cpp:158] Top shape: (1)
I0122 12:23:27.952229 32121 net.cpp:166] Memory required for data: 786474812
I0122 12:23:27.952237 32121 layer_factory.hpp:76] Creating layer tracker_s_reshape_4
I0122 12:23:27.952240 32121 net.cpp:107] Creating Layer tracker_s_reshape_4
I0122 12:23:27.952242 32121 net.cpp:455] tracker_s_reshape_4 <- ns_4
I0122 12:23:27.952246 32121 net.cpp:412] tracker_s_reshape_4 -> s_4
I0122 12:23:27.952263 32121 net.cpp:151] Setting up tracker_s_reshape_4
I0122 12:23:27.952268 32121 net.cpp:158] Top shape: 1 1 1 (1)
I0122 12:23:27.952270 32121 net.cpp:166] Memory required for data: 786474816
I0122 12:23:27.952271 32121 layer_factory.hpp:76] Creating layer tracker_mx_4
I0122 12:23:27.952275 32121 net.cpp:107] Creating Layer tracker_mx_4
I0122 12:23:27.952277 32121 net.cpp:455] tracker_mx_4 <- m1_4
I0122 12:23:27.952280 32121 net.cpp:455] tracker_mx_4 <- x2_4
I0122 12:23:27.952282 32121 net.cpp:412] tracker_mx_4 -> mx_4
I0122 12:23:27.952299 32121 net.cpp:151] Setting up tracker_mx_4
I0122 12:23:27.952303 32121 net.cpp:158] Top shape: 1 1 1800 256 (460800)
I0122 12:23:27.952306 32121 net.cpp:166] Memory required for data: 788318016
I0122 12:23:27.952307 32121 layer_factory.hpp:76] Creating layer tracker_mx_split_4
I0122 12:23:27.952311 32121 net.cpp:107] Creating Layer tracker_mx_split_4
I0122 12:23:27.952313 32121 net.cpp:455] tracker_mx_split_4 <- mx_4
I0122 12:23:27.952316 32121 net.cpp:412] tracker_mx_split_4 -> mx1_4
I0122 12:23:27.952319 32121 net.cpp:412] tracker_mx_split_4 -> mx2_4
I0122 12:23:27.952344 32121 net.cpp:151] Setting up tracker_mx_split_4
I0122 12:23:27.952348 32121 net.cpp:158] Top shape: 1 1 1800 256 (460800)
I0122 12:23:27.952350 32121 net.cpp:158] Top shape: 1 1 1800 256 (460800)
I0122 12:23:27.952353 32121 net.cpp:166] Memory required for data: 792004416
I0122 12:23:27.952354 32121 layer_factory.hpp:76] Creating layer tracker_xmx_4
I0122 12:23:27.952358 32121 net.cpp:107] Creating Layer tracker_xmx_4
I0122 12:23:27.952359 32121 net.cpp:455] tracker_xmx_4 <- x3_4
I0122 12:23:27.952363 32121 net.cpp:455] tracker_xmx_4 <- mx1_4
I0122 12:23:27.952365 32121 net.cpp:412] tracker_xmx_4 -> xmx_4
I0122 12:23:27.952380 32121 net.cpp:151] Setting up tracker_xmx_4
I0122 12:23:27.952384 32121 net.cpp:158] Top shape: 1 1 256 256 (65536)
I0122 12:23:27.952386 32121 net.cpp:166] Memory required for data: 792266560
I0122 12:23:27.952389 32121 layer_factory.hpp:76] Creating layer tracker_h_cont_3
I0122 12:23:27.952391 32121 net.cpp:107] Creating Layer tracker_h_cont_3
I0122 12:23:27.952394 32121 net.cpp:455] tracker_h_cont_3 <- h2_3
I0122 12:23:27.952396 32121 net.cpp:455] tracker_h_cont_3 <- cont2_4
I0122 12:23:27.952399 32121 net.cpp:412] tracker_h_cont_3 -> h_cont_3
I0122 12:23:27.952457 32121 net.cpp:151] Setting up tracker_h_cont_3
I0122 12:23:27.952462 32121 net.cpp:158] Top shape: 1 1 256 256 (65536)
I0122 12:23:27.952464 32121 net.cpp:166] Memory required for data: 792528704
I0122 12:23:27.952466 32121 layer_factory.hpp:76] Creating layer tracker_h_4
I0122 12:23:27.952469 32121 net.cpp:107] Creating Layer tracker_h_4
I0122 12:23:27.952471 32121 net.cpp:455] tracker_h_4 <- h_cont_3
I0122 12:23:27.952474 32121 net.cpp:455] tracker_h_4 <- xmx_4
I0122 12:23:27.952476 32121 net.cpp:412] tracker_h_4 -> h_4
I0122 12:23:27.952494 32121 net.cpp:151] Setting up tracker_h_4
I0122 12:23:27.952497 32121 net.cpp:158] Top shape: 1 1 256 256 (65536)
I0122 12:23:27.952499 32121 net.cpp:166] Memory required for data: 792790848
I0122 12:23:27.952502 32121 layer_factory.hpp:76] Creating layer tracker_vmx_4
I0122 12:23:27.952504 32121 net.cpp:107] Creating Layer tracker_vmx_4
I0122 12:23:27.952507 32121 net.cpp:455] tracker_vmx_4 <- v2_4
I0122 12:23:27.952509 32121 net.cpp:455] tracker_vmx_4 <- mx2_4
I0122 12:23:27.952512 32121 net.cpp:412] tracker_vmx_4 -> vmx_4
I0122 12:23:27.952528 32121 net.cpp:151] Setting up tracker_vmx_4
I0122 12:23:27.952533 32121 net.cpp:158] Top shape: 1 1 1800 256 (460800)
I0122 12:23:27.952534 32121 net.cpp:166] Memory required for data: 794634048
I0122 12:23:27.952536 32121 layer_factory.hpp:76] Creating layer tracker_c_cont_3
I0122 12:23:27.952539 32121 net.cpp:107] Creating Layer tracker_c_cont_3
I0122 12:23:27.952546 32121 net.cpp:455] tracker_c_cont_3 <- c2_3
I0122 12:23:27.952549 32121 net.cpp:455] tracker_c_cont_3 <- cont3_4
I0122 12:23:27.952553 32121 net.cpp:412] tracker_c_cont_3 -> c_cont_3
I0122 12:23:27.953081 32121 net.cpp:151] Setting up tracker_c_cont_3
I0122 12:23:27.953088 32121 net.cpp:158] Top shape: 1 1 1800 256 (460800)
I0122 12:23:27.953090 32121 net.cpp:166] Memory required for data: 796477248
I0122 12:23:27.953093 32121 layer_factory.hpp:76] Creating layer tracker_c_4
I0122 12:23:27.953096 32121 net.cpp:107] Creating Layer tracker_c_4
I0122 12:23:27.953099 32121 net.cpp:455] tracker_c_4 <- c_cont_3
I0122 12:23:27.953104 32121 net.cpp:455] tracker_c_4 <- vmx_4
I0122 12:23:27.953107 32121 net.cpp:412] tracker_c_4 -> c_4
I0122 12:23:27.953127 32121 net.cpp:151] Setting up tracker_c_4
I0122 12:23:27.953131 32121 net.cpp:158] Top shape: 1 1 1800 256 (460800)
I0122 12:23:27.953133 32121 net.cpp:166] Memory required for data: 798320448
I0122 12:23:27.953135 32121 layer_factory.hpp:76] Creating layer tracker_v_concat
I0122 12:23:27.953146 32121 net.cpp:107] Creating Layer tracker_v_concat
I0122 12:23:27.953150 32121 net.cpp:455] tracker_v_concat <- v3_1
I0122 12:23:27.953152 32121 net.cpp:455] tracker_v_concat <- v3_2
I0122 12:23:27.953155 32121 net.cpp:455] tracker_v_concat <- v3_3
I0122 12:23:27.953157 32121 net.cpp:455] tracker_v_concat <- v3_4
I0122 12:23:27.953161 32121 net.cpp:412] tracker_v_concat -> v
I0122 12:23:27.953176 32121 net.cpp:151] Setting up tracker_v_concat
I0122 12:23:27.953181 32121 net.cpp:158] Top shape: 4 1 1800 1800 (12960000)
I0122 12:23:27.953182 32121 net.cpp:166] Memory required for data: 850160448
I0122 12:23:27.953186 32121 layer_factory.hpp:76] Creating layer tracker_vtilde_concat
I0122 12:23:27.953189 32121 net.cpp:107] Creating Layer tracker_vtilde_concat
I0122 12:23:27.953191 32121 net.cpp:455] tracker_vtilde_concat <- vtilde1_1
I0122 12:23:27.953194 32121 net.cpp:455] tracker_vtilde_concat <- vtilde1_2
I0122 12:23:27.953197 32121 net.cpp:455] tracker_vtilde_concat <- vtilde1_3
I0122 12:23:27.953199 32121 net.cpp:455] tracker_vtilde_concat <- vtilde1_4
I0122 12:23:27.953202 32121 net.cpp:412] tracker_vtilde_concat -> vtilde
I0122 12:23:27.953217 32121 net.cpp:151] Setting up tracker_vtilde_concat
I0122 12:23:27.953222 32121 net.cpp:158] Top shape: 4 1 1800 1800 (12960000)
I0122 12:23:27.953223 32121 net.cpp:166] Memory required for data: 902000448
I0122 12:23:27.953225 32121 net.cpp:229] tracker_vtilde_concat does not need backward computation.
I0122 12:23:27.953227 32121 net.cpp:229] tracker_v_concat does not need backward computation.
I0122 12:23:27.953230 32121 net.cpp:229] tracker_c_4 does not need backward computation.
I0122 12:23:27.953233 32121 net.cpp:229] tracker_c_cont_3 does not need backward computation.
…
I0122 12:23:27.953558 32121 net.cpp:271] This network produces output x1_3
I0122 12:23:27.953559 32121 net.cpp:271] This network produces output x1_4
I0122 12:23:27.953562 32121 net.cpp:271] This network produces output x4_1
I0122 12:23:27.953563 32121 net.cpp:271] This network produces output x4_2
I0122 12:23:27.953565 32121 net.cpp:271] This network produces output x4_3
I0122 12:23:27.953567 32121 net.cpp:271] This network produces output x4_4
I0122 12:23:27.953645 32121 net.cpp:284] Network initialization done.
I0122 12:23:27.954577 32121 net.cpp:151] Setting up tracker
I0122 12:23:27.954591 32121 net.cpp:158] Top shape: 4 1 1800 1800 (12960000)
I0122 12:23:27.954596 32121 net.cpp:158] Top shape: 4 1 1800 1800 (12960000)
I0122 12:23:27.954598 32121 net.cpp:166] Memory required for data: 2897893808
I0122 12:23:27.954602 32121 layer_factory.hpp:76] Creating layer trackerLoss
I0122 12:23:27.954613 32121 net.cpp:107] Creating Layer trackerLoss
I0122 12:23:27.954619 32121 net.cpp:455] trackerLoss <- v
I0122 12:23:27.954634 32121 net.cpp:455] trackerLoss <- gt_overlaps_data_11_split_0
I0122 12:23:27.954641 32121 net.cpp:455] trackerLoss <- gt_num_data_10_split_0
I0122 12:23:27.954648 32121 net.cpp:455] trackerLoss <- cont_data_0_split_1
I0122 12:23:27.954655 32121 net.cpp:412] trackerLoss -> supervised_loss
I0122 12:23:27.954664 32121 recurrent_layer.cpp:42] Initializing recurrent layer: assuming input batch contains 4 timesteps of 1 independent streams.
I0122 12:23:27.954860 32121 net.cpp:49] Initializing net from parameters: 
input: "v"
input: "gt_overlaps"
input: "gt_num"
input: "cont"
input: "o_0"
force_backward: true
input_shape {
  dim: 4
  dim: 1
  dim: 1800
  dim: 1800
}
input_shape {
  dim: 4
  dim: 1
  dim: 6
  dim: 1800
}
input_shape {
  dim: 4
  dim: 1
}
input_shape {
  dim: 4
  dim: 1
}
input_shape {
  dim: 1
  dim: 1
  dim: 6
  dim: 1
}
layer {
  name: "trackerLoss_gt_overlaps_split"
  type: "Split"
  bottom: "gt_overlaps"
  top: "gt1_overlaps"
  top: "gt2_overlaps"
}
layer {
  name: "trackerLoss_reshape0"
  type: "Reshape"
  bottom: "gt1_overlaps"
  top: "rgt1_overlaps"
  reshape_param {
    shape {
      dim: 4
      dim: 6
      dim: 1
      dim: 1800
    }
  }
}
layer {
  name: "trackerLoss_best_seg_match"
  type: "Pooling"
  bottom: "rgt1_overlaps"
  top: "tmp"
  top: "rbest_track"
  pooling_param {
    pool: MAX
    global_pooling: true
  }
}
layer {
  name: "trackerLoss_silent_tmp"
  type: "Silence"
  bottom: "tmp"
}
layer {
  name: "trackerLoss_reshape_best_track"
  type: "Reshape"
  bottom: "rbest_track"
  top: "best_track"
  reshape_param {
    shape {
      dim: 4
      dim: 1
      dim: 6
      dim: 1
    }
  }
}
layer {
  name: "trackerLoss_cont_slice"
  type: "Slice"
  bottom: "cont"
  top: "cont_1"
  top: "cont_2"
  top: "cont_3"
  top: "cont_4"
  slice_param {
    axis: 0
  }
}
layer {
  name: "trackerLoss_best_track_slice"
  type: "Slice"
  bottom: "best_track"
  top: "bt_1"
  top: "bt_2"
  top: "bt_3"
  top: "bt_4"
  slice_param {
    axis: 0
  }
}
layer {
  name: "trackerLoss_o_cont_0"
  type: "Switch"
  bottom: "bt_1"
  bottom: "o_0"
  bottom: "cont_1"
  top: "new_o_1"
  switch_param {
    axis: 2
  }
}
layer {
  name: "trackerLoss_o_split_1"
  type: "Split"
  bottom: "new_o_1"
  top: "o_1"
  top: "track_1"
}
layer {
  name: "trackerLoss_o_cont_1"
  type: "Switch"
  bottom: "bt_2"
  bottom: "o_1"
  bottom: "cont_2"
  top: "new_o_2"
  switch_param {
    axis: 2
  }
}
layer {
  name: "trackerLoss_o_split_2"
  type: "Split"
  bottom: "new_o_2"
  top: "o_2"
  top: "track_2"
}
layer {
  name: "trackerLoss_o_cont_2"
  type: "Switch"
  bottom: "bt_3"
  bottom: "o_2"
  bottom: "cont_3"
  top: "new_o_3"
  switch_param {
    axis: 2
  }
}
layer {
  name: "trackerLoss_o_split_3"
  type: "Split"
  bottom: "new_o_3"
  top: "o_3"
  top: "track_3"
}
layer {
  name: "trackerLoss_o_cont_3"
  type: "Switch"
  bottom: "bt_4"
  bottom: "o_3"
  bottom: "cont_4"
  top: "new_o_4"
  switch_param {
    axis: 2
  }
}
layer {
  name: "trackerLoss_o_split_4"
  type: "Split"
  bottom: "new_o_4"
  top: "o_4"
  top: "track_4"
}
layer {
  name: "trackerLoss_ob_concat"
  type: "Concat"
  bottom: "track_1"
  bottom: "track_2"
  bottom: "track_3"
  bottom: "track_4"
  top: "O"
  concat_param {
    axis: 0
  }
}
layer {
  name: "trackerLoss_reshape1"
  type: "Reshape"
  bottom: "O"
  top: "rO"
  reshape_param {
    shape {
      dim: 4
      dim: 1
      dim: 6
    }
  }
}
layer {
  name: "trackerLoss_hotmult"
  type: "HotMult"
  bottom: "rO"
  bottom: "v"
  bottom: "gt_num"
  top: "gt_bar"
  hotmult_param {
    mode: "ROW"
  }
}
layer {
  name: "trackerLoss_reshape2"
  type: "Reshape"
  bottom: "gt_bar"
  top: "rgt_bar"
  reshape_param {
    shape {
      dim: -1
      dim: 1
      dim: 1
      dim: 1
    }
  }
}
layer {
  name: "trackerLoss_reshape3"
  type: "Reshape"
  bottom: "gt2_overlaps"
  top: "rgt2_overlaps"
  reshape_param {
    shape {
      dim: -1
      dim: 1
      dim: 1
      dim: 1
    }
  }
}
layer {
  name: "trackerLoss_loss"
  type: "EuclideanLoss"
  bottom: "rgt2_overlaps"
  bottom: "rgt_bar"
  top: "loss"
}
I0122 12:23:27.954960 32121 net.cpp:414] Input 0 -> v
I0122 12:23:27.954987 32121 net.cpp:414] Input 1 -> gt_overlaps
I0122 12:23:27.955003 32121 net.cpp:414] Input 2 -> gt_num
I0122 12:23:27.955018 32121 net.cpp:414] Input 3 -> cont
I0122 12:23:27.955034 32121 net.cpp:414] Input 4 -> o_0
I0122 12:23:27.955051 32121 layer_factory.hpp:76] Creating layer trackerLoss_gt_overlaps_split
I0122 12:23:27.955056 32121 net.cpp:107] Creating Layer trackerLoss_gt_overlaps_split
I0122 12:23:27.955059 32121 net.cpp:455] trackerLoss_gt_overlaps_split <- gt_overlaps
I0122 12:23:27.955061 32121 net.cpp:412] trackerLoss_gt_overlaps_split -> gt1_overlaps
I0122 12:23:27.955066 32121 net.cpp:412] trackerLoss_gt_overlaps_split -> gt2_overlaps
I0122 12:23:27.955090 32121 net.cpp:151] Setting up trackerLoss_gt_overlaps_split
I0122 12:23:27.955095 32121 net.cpp:158] Top shape: 4 1 6 1800 (43200)
I0122 12:23:27.955097 32121 net.cpp:158] Top shape: 4 1 6 1800 (43200)
I0122 12:23:27.955099 32121 net.cpp:166] Memory required for data: 345600
I0122 12:23:27.955101 32121 layer_factory.hpp:76] Creating layer trackerLoss_reshape0
I0122 12:23:27.955106 32121 net.cpp:107] Creating Layer trackerLoss_reshape0
I0122 12:23:27.955107 32121 net.cpp:455] trackerLoss_reshape0 <- gt1_overlaps
I0122 12:23:27.955111 32121 net.cpp:412] trackerLoss_reshape0 -> rgt1_overlaps
I0122 12:23:27.955127 32121 net.cpp:151] Setting up trackerLoss_reshape0
I0122 12:23:27.955129 32121 net.cpp:158] Top shape: 4 6 1 1800 (43200)
I0122 12:23:27.955132 32121 net.cpp:166] Memory required for data: 518400
I0122 12:23:27.955133 32121 layer_factory.hpp:76] Creating layer trackerLoss_best_seg_match
I0122 12:23:27.955135 32121 layer_factory.cpp:58] cuDNN does not support multiple tops. Using Caffe's own pooling layer.
I0122 12:23:27.955139 32121 net.cpp:107] Creating Layer trackerLoss_best_seg_match
I0122 12:23:27.955142 32121 net.cpp:455] trackerLoss_best_seg_match <- rgt1_overlaps
I0122 12:23:27.955144 32121 net.cpp:412] trackerLoss_best_seg_match -> tmp
I0122 12:23:27.955148 32121 net.cpp:412] trackerLoss_best_seg_match -> rbest_track
I0122 12:23:27.955173 32121 net.cpp:151] Setting up trackerLoss_best_seg_match
I0122 12:23:27.955176 32121 net.cpp:158] Top shape: 4 6 1 1 (24)
I0122 12:23:27.955179 32121 net.cpp:158] Top shape: 4 6 1 1 (24)
I0122 12:23:27.955181 32121 net.cpp:166] Memory required for data: 518592
I0122 12:23:27.955183 32121 layer_factory.hpp:76] Creating layer trackerLoss_silent_tmp
I0122 12:23:27.955185 32121 net.cpp:107] Creating Layer trackerLoss_silent_tmp
I0122 12:23:27.955188 32121 net.cpp:455] trackerLoss_silent_tmp <- tmp
I0122 12:23:27.955190 32121 net.cpp:151] Setting up trackerLoss_silent_tmp
I0122 12:23:27.955193 32121 net.cpp:166] Memory required for data: 518592
I0122 12:23:27.955194 32121 layer_factory.hpp:76] Creating layer trackerLoss_reshape_best_track
I0122 12:23:27.955198 32121 net.cpp:107] Creating Layer trackerLoss_reshape_best_track
I0122 12:23:27.955199 32121 net.cpp:455] trackerLoss_reshape_best_track <- rbest_track
I0122 12:23:27.955202 32121 net.cpp:412] trackerLoss_reshape_best_track -> best_track
I0122 12:23:27.955217 32121 net.cpp:151] Setting up trackerLoss_reshape_best_track
I0122 12:23:27.955220 32121 net.cpp:158] Top shape: 4 1 6 1 (24)
I0122 12:23:27.955222 32121 net.cpp:166] Memory required for data: 518688
I0122 12:23:27.955224 32121 layer_factory.hpp:76] Creating layer trackerLoss_cont_slice
I0122 12:23:27.955227 32121 net.cpp:107] Creating Layer trackerLoss_cont_slice
I0122 12:23:27.955229 32121 net.cpp:455] trackerLoss_cont_slice <- cont
I0122 12:23:27.955232 32121 net.cpp:412] trackerLoss_cont_slice -> cont_1
I0122 12:23:27.955236 32121 net.cpp:412] trackerLoss_cont_slice -> cont_2
I0122 12:23:27.955240 32121 net.cpp:412] trackerLoss_cont_slice -> cont_3
I0122 12:23:27.955243 32121 net.cpp:412] trackerLoss_cont_slice -> cont_4
I0122 12:23:27.955286 32121 net.cpp:151] Setting up trackerLoss_cont_slice
I0122 12:23:27.955288 32121 net.cpp:158] Top shape: 1 1 (1)
I0122 12:23:27.955291 32121 net.cpp:158] Top shape: 1 1 (1)
I0122 12:23:27.955299 32121 net.cpp:158] Top shape: 1 1 (1)
I0122 12:23:27.955302 32121 net.cpp:158] Top shape: 1 1 (1)
I0122 12:23:27.955303 32121 net.cpp:166] Memory required for data: 518704
I0122 12:23:27.955306 32121 layer_factory.hpp:76] Creating layer trackerLoss_best_track_slice
I0122 12:23:27.955308 32121 net.cpp:107] Creating Layer trackerLoss_best_track_slice
I0122 12:23:27.955310 32121 net.cpp:455] trackerLoss_best_track_slice <- best_track
I0122 12:23:27.955314 32121 net.cpp:412] trackerLoss_best_track_slice -> bt_1
I0122 12:23:27.955317 32121 net.cpp:412] trackerLoss_best_track_slice -> bt_2
I0122 12:23:27.955322 32121 net.cpp:412] trackerLoss_best_track_slice -> bt_3
I0122 12:23:27.955327 32121 net.cpp:412] trackerLoss_best_track_slice -> bt_4
I0122 12:23:27.955368 32121 net.cpp:151] Setting up trackerLoss_best_track_slice
I0122 12:23:27.955371 32121 net.cpp:158] Top shape: 1 1 6 1 (6)
I0122 12:23:27.955374 32121 net.cpp:158] Top shape: 1 1 6 1 (6)
I0122 12:23:27.955376 32121 net.cpp:158] Top shape: 1 1 6 1 (6)
I0122 12:23:27.955379 32121 net.cpp:158] Top shape: 1 1 6 1 (6)
I0122 12:23:27.955381 32121 net.cpp:166] Memory required for data: 518800
I0122 12:23:27.955384 32121 layer_factory.hpp:76] Creating layer trackerLoss_o_cont_0
I0122 12:23:27.955386 32121 net.cpp:107] Creating Layer trackerLoss_o_cont_0
I0122 12:23:27.955389 32121 net.cpp:455] trackerLoss_o_cont_0 <- bt_1
I0122 12:23:27.955391 32121 net.cpp:455] trackerLoss_o_cont_0 <- o_0
I0122 12:23:27.955394 32121 net.cpp:455] trackerLoss_o_cont_0 <- cont_1
I0122 12:23:27.955396 32121 net.cpp:412] trackerLoss_o_cont_0 -> new_o_1
I0122 12:23:27.955412 32121 net.cpp:151] Setting up trackerLoss_o_cont_0
I0122 12:23:27.955416 32121 net.cpp:158] Top shape: 1 1 6 1 (6)
I0122 12:23:27.955418 32121 net.cpp:166] Memory required for data: 518824
I0122 12:23:27.955420 32121 layer_factory.hpp:76] Creating layer trackerLoss_o_split_1
I0122 12:23:27.955425 32121 net.cpp:107] Creating Layer trackerLoss_o_split_1
I0122 12:23:27.955426 32121 net.cpp:455] trackerLoss_o_split_1 <- new_o_1
I0122 12:23:27.955430 32121 net.cpp:412] trackerLoss_o_split_1 -> o_1
I0122 12:23:27.955433 32121 net.cpp:412] trackerLoss_o_split_1 -> track_1
I0122 12:23:27.955457 32121 net.cpp:151] Setting up trackerLoss_o_split_1
I0122 12:23:27.955461 32121 net.cpp:158] Top shape: 1 1 6 1 (6)
I0122 12:23:27.955464 32121 net.cpp:158] Top shape: 1 1 6 1 (6)
I0122 12:23:27.955466 32121 net.cpp:166] Memory required for data: 518872
I0122 12:23:27.955468 32121 layer_factory.hpp:76] Creating layer trackerLoss_o_cont_1
I0122 12:23:27.955471 32121 net.cpp:107] Creating Layer trackerLoss_o_cont_1
I0122 12:23:27.955473 32121 net.cpp:455] trackerLoss_o_cont_1 <- bt_2
I0122 12:23:27.955476 32121 net.cpp:455] trackerLoss_o_cont_1 <- o_1
I0122 12:23:27.955478 32121 net.cpp:455] trackerLoss_o_cont_1 <- cont_2
I0122 12:23:27.955482 32121 net.cpp:412] trackerLoss_o_cont_1 -> new_o_2
I0122 12:23:27.955497 32121 net.cpp:151] Setting up trackerLoss_o_cont_1
I0122 12:23:27.955500 32121 net.cpp:158] Top shape: 1 1 6 1 (6)
I0122 12:23:27.955502 32121 net.cpp:166] Memory required for data: 518896
I0122 12:23:27.955504 32121 layer_factory.hpp:76] Creating layer trackerLoss_o_split_2
I0122 12:23:27.955507 32121 net.cpp:107] Creating Layer trackerLoss_o_split_2
I0122 12:23:27.955509 32121 net.cpp:455] trackerLoss_o_split_2 <- new_o_2
I0122 12:23:27.955512 32121 net.cpp:412] trackerLoss_o_split_2 -> o_2
I0122 12:23:27.955515 32121 net.cpp:412] trackerLoss_o_split_2 -> track_2
I0122 12:23:27.955538 32121 net.cpp:151] Setting up trackerLoss_o_split_2
I0122 12:23:27.955543 32121 net.cpp:158] Top shape: 1 1 6 1 (6)
I0122 12:23:27.955545 32121 net.cpp:158] Top shape: 1 1 6 1 (6)
I0122 12:23:27.955548 32121 net.cpp:166] Memory required for data: 518944
I0122 12:23:27.955549 32121 layer_factory.hpp:76] Creating layer trackerLoss_o_cont_2
I0122 12:23:27.955552 32121 net.cpp:107] Creating Layer trackerLoss_o_cont_2
I0122 12:23:27.955554 32121 net.cpp:455] trackerLoss_o_cont_2 <- bt_3
I0122 12:23:27.955557 32121 net.cpp:455] trackerLoss_o_cont_2 <- o_2
I0122 12:23:27.955564 32121 net.cpp:455] trackerLoss_o_cont_2 <- cont_3
I0122 12:23:27.955567 32121 net.cpp:412] trackerLoss_o_cont_2 -> new_o_3
I0122 12:23:27.955584 32121 net.cpp:151] Setting up trackerLoss_o_cont_2
I0122 12:23:27.955587 32121 net.cpp:158] Top shape: 1 1 6 1 (6)
I0122 12:23:27.955590 32121 net.cpp:166] Memory required for data: 518968
I0122 12:23:27.955591 32121 layer_factory.hpp:76] Creating layer trackerLoss_o_split_3
I0122 12:23:27.955595 32121 net.cpp:107] Creating Layer trackerLoss_o_split_3
I0122 12:23:27.955596 32121 net.cpp:455] trackerLoss_o_split_3 <- new_o_3
I0122 12:23:27.955600 32121 net.cpp:412] trackerLoss_o_split_3 -> o_3
I0122 12:23:27.955602 32121 net.cpp:412] trackerLoss_o_split_3 -> track_3
I0122 12:23:27.955626 32121 net.cpp:151] Setting up trackerLoss_o_split_3
I0122 12:23:27.955631 32121 net.cpp:158] Top shape: 1 1 6 1 (6)
I0122 12:23:27.955633 32121 net.cpp:158] Top shape: 1 1 6 1 (6)
I0122 12:23:27.955636 32121 net.cpp:166] Memory required for data: 519016
I0122 12:23:27.955637 32121 layer_factory.hpp:76] Creating layer trackerLoss_o_cont_3
I0122 12:23:27.955641 32121 net.cpp:107] Creating Layer trackerLoss_o_cont_3
I0122 12:23:27.955642 32121 net.cpp:455] trackerLoss_o_cont_3 <- bt_4
I0122 12:23:27.955646 32121 net.cpp:455] trackerLoss_o_cont_3 <- o_3
I0122 12:23:27.955648 32121 net.cpp:455] trackerLoss_o_cont_3 <- cont_4
I0122 12:23:27.955651 32121 net.cpp:412] trackerLoss_o_cont_3 -> new_o_4
I0122 12:23:27.955667 32121 net.cpp:151] Setting up trackerLoss_o_cont_3
I0122 12:23:27.955670 32121 net.cpp:158] Top shape: 1 1 6 1 (6)
I0122 12:23:27.955672 32121 net.cpp:166] Memory required for data: 519040
I0122 12:23:27.955674 32121 layer_factory.hpp:76] Creating layer trackerLoss_o_split_4
I0122 12:23:27.955677 32121 net.cpp:107] Creating Layer trackerLoss_o_split_4
I0122 12:23:27.955679 32121 net.cpp:455] trackerLoss_o_split_4 <- new_o_4
I0122 12:23:27.955682 32121 net.cpp:412] trackerLoss_o_split_4 -> o_4
I0122 12:23:27.955687 32121 net.cpp:412] trackerLoss_o_split_4 -> track_4
I0122 12:23:27.955710 32121 net.cpp:151] Setting up trackerLoss_o_split_4
I0122 12:23:27.955714 32121 net.cpp:158] Top shape: 1 1 6 1 (6)
I0122 12:23:27.955718 32121 net.cpp:158] Top shape: 1 1 6 1 (6)
I0122 12:23:27.955718 32121 net.cpp:166] Memory required for data: 519088
I0122 12:23:27.955720 32121 layer_factory.hpp:76] Creating layer trackerLoss_ob_concat
I0122 12:23:27.955724 32121 net.cpp:107] Creating Layer trackerLoss_ob_concat
I0122 12:23:27.955726 32121 net.cpp:455] trackerLoss_ob_concat <- track_1
I0122 12:23:27.955729 32121 net.cpp:455] trackerLoss_ob_concat <- track_2
I0122 12:23:27.955731 32121 net.cpp:455] trackerLoss_ob_concat <- track_3
I0122 12:23:27.955734 32121 net.cpp:455] trackerLoss_ob_concat <- track_4
I0122 12:23:27.955736 32121 net.cpp:412] trackerLoss_ob_concat -> O
I0122 12:23:27.955751 32121 net.cpp:151] Setting up trackerLoss_ob_concat
I0122 12:23:27.955755 32121 net.cpp:158] Top shape: 4 1 6 1 (24)
I0122 12:23:27.955757 32121 net.cpp:166] Memory required for data: 519184
I0122 12:23:27.955760 32121 layer_factory.hpp:76] Creating layer trackerLoss_reshape1
I0122 12:23:27.955763 32121 net.cpp:107] Creating Layer trackerLoss_reshape1
I0122 12:23:27.955765 32121 net.cpp:455] trackerLoss_reshape1 <- O
I0122 12:23:27.955768 32121 net.cpp:412] trackerLoss_reshape1 -> rO
I0122 12:23:27.955785 32121 net.cpp:151] Setting up trackerLoss_reshape1
I0122 12:23:27.955790 32121 net.cpp:158] Top shape: 4 1 6 (24)
I0122 12:23:27.955791 32121 net.cpp:166] Memory required for data: 519280
I0122 12:23:27.955793 32121 layer_factory.hpp:76] Creating layer trackerLoss_hotmult
I0122 12:23:27.955797 32121 net.cpp:107] Creating Layer trackerLoss_hotmult
I0122 12:23:27.955799 32121 net.cpp:455] trackerLoss_hotmult <- rO
I0122 12:23:27.955802 32121 net.cpp:455] trackerLoss_hotmult <- v
I0122 12:23:27.955804 32121 net.cpp:455] trackerLoss_hotmult <- gt_num
I0122 12:23:27.955807 32121 net.cpp:412] trackerLoss_hotmult -> gt_bar
I0122 12:23:27.955828 32121 net.cpp:151] Setting up trackerLoss_hotmult
I0122 12:23:27.955837 32121 net.cpp:158] Top shape: 4 1 6 1800 (43200)
I0122 12:23:27.955839 32121 net.cpp:166] Memory required for data: 692080
I0122 12:23:27.955842 32121 layer_factory.hpp:76] Creating layer trackerLoss_reshape2
I0122 12:23:27.955844 32121 net.cpp:107] Creating Layer trackerLoss_reshape2
I0122 12:23:27.955847 32121 net.cpp:455] trackerLoss_reshape2 <- gt_bar
I0122 12:23:27.955849 32121 net.cpp:412] trackerLoss_reshape2 -> rgt_bar
I0122 12:23:27.955867 32121 net.cpp:151] Setting up trackerLoss_reshape2
I0122 12:23:27.955870 32121 net.cpp:158] Top shape: 43200 1 1 1 (43200)
I0122 12:23:27.955873 32121 net.cpp:166] Memory required for data: 864880
I0122 12:23:27.955874 32121 layer_factory.hpp:76] Creating layer trackerLoss_reshape3
I0122 12:23:27.955878 32121 net.cpp:107] Creating Layer trackerLoss_reshape3
I0122 12:23:27.955879 32121 net.cpp:455] trackerLoss_reshape3 <- gt2_overlaps
I0122 12:23:27.955883 32121 net.cpp:412] trackerLoss_reshape3 -> rgt2_overlaps
I0122 12:23:27.955898 32121 net.cpp:151] Setting up trackerLoss_reshape3
I0122 12:23:27.955901 32121 net.cpp:158] Top shape: 43200 1 1 1 (43200)
I0122 12:23:27.955904 32121 net.cpp:166] Memory required for data: 1037680
I0122 12:23:27.955905 32121 layer_factory.hpp:76] Creating layer trackerLoss_loss
I0122 12:23:27.955909 32121 net.cpp:107] Creating Layer trackerLoss_loss
I0122 12:23:27.955910 32121 net.cpp:455] trackerLoss_loss <- rgt2_overlaps
I0122 12:23:27.955914 32121 net.cpp:455] trackerLoss_loss <- rgt_bar
I0122 12:23:27.955916 32121 net.cpp:412] trackerLoss_loss -> loss
…
I0122 12:23:27.956130 32121 recurrent_layer.cpp:42] Initializing recurrent layer: assuming input batch contains 4 timesteps of 1 independent streams.
I0122 12:23:27.956248 32121 net.cpp:49] Initializing net from parameters: 
input: "v"
input: "gt_overlaps"
input: "gt_num"
input: "cont"
input: "o_0"
force_backward: true
input_shape {
  dim: 4
  dim: 1
  dim: 1800
  dim: 1800
}
input_shape {
  dim: 4
  dim: 1
  dim: 6
  dim: 1800
}
input_shape {
  dim: 4
  dim: 1
}
input_shape {
  dim: 4
  dim: 1
}
input_shape {
  dim: 1
  dim: 1
  dim: 6
  dim: 1
}
layer {
  name: "trackerLoss_refined_gt_overlaps_split"
  type: "Split"
  bottom: "gt_overlaps"
  top: "gt1_overlaps"
  top: "gt2_overlaps"
}
layer {
  name: "trackerLoss_refined_reshape0"
  type: "Reshape"
  bottom: "gt1_overlaps"
  top: "rgt1_overlaps"
  reshape_param {
    shape {
      dim: 4
      dim: 6
      dim: 1
      dim: 1800
    }
  }
}
layer {
  name: "trackerLoss_refined_best_seg_match"
  type: "Pooling"
  bottom: "rgt1_overlaps"
  top: "tmp"
  top: "rbest_track"
  pooling_param {
    pool: MAX
    global_pooling: true
  }
}
layer {
  name: "trackerLoss_refined_silent_tmp"
  type: "Silence"
  bottom: "tmp"
}
layer {
  name: "trackerLoss_refined_reshape_best_track"
  type: "Reshape"
  bottom: "rbest_track"
  top: "best_track"
  reshape_param {
    shape {
      dim: 4
      dim: 1
      dim: 6
      dim: 1
    }
  }
}
layer {
  name: "trackerLoss_refined_cont_slice"
  type: "Slice"
  bottom: "cont"
  top: "cont_1"
  top: "cont_2"
  top: "cont_3"
  top: "cont_4"
  slice_param {
    axis: 0
  }
}
layer {
  name: "trackerLoss_refined_best_track_slice"
  type: "Slice"
  bottom: "best_track"
  top: "bt_1"
  top: "bt_2"
  top: "bt_3"
  top: "bt_4"
  slice_param {
    axis: 0
  }
}
layer {
  name: "trackerLoss_refined_o_cont_0"
  type: "Switch"
  bottom: "bt_1"
  bottom: "o_0"
  bottom: "cont_1"
  top: "new_o_1"
  switch_param {
    axis: 2
  }
}
layer {
  name: "trackerLoss_refined_o_split_1"
  type: "Split"
  bottom: "new_o_1"
  top: "o_1"
  top: "track_1"
}
layer {
  name: "trackerLoss_refined_o_cont_1"
  type: "Switch"
  bottom: "bt_2"
  bottom: "o_1"
  bottom: "cont_2"
  top: "new_o_2"
  switch_param {
    axis: 2
  }
}
layer {
  name: "trackerLoss_refined_o_split_2"
  type: "Split"
  bottom: "new_o_2"
  top: "o_2"
  top: "track_2"
}
layer {
  name: "trackerLoss_refined_o_cont_2"
  type: "Switch"
  bottom: "bt_3"
  bottom: "o_2"
  bottom: "cont_3"
  top: "new_o_3"
  switch_param {
    axis: 2
  }
}
layer {
  name: "trackerLoss_refined_o_split_3"
  type: "Split"
  bottom: "new_o_3"
  top: "o_3"
  top: "track_3"
}
layer {
  name: "trackerLoss_refined_o_cont_3"
  type: "Switch"
  bottom: "bt_4"
  bottom: "o_3"
  bottom: "cont_4"
  top: "new_o_4"
  switch_param {
    axis: 2
  }
}
layer {
  name: "trackerLoss_refined_o_split_4"
  type: "Split"
  bottom: "new_o_4"
  top: "o_4"
  top: "track_4"
}
layer {
  name: "trackerLoss_refined_ob_concat"
  type: "Concat"
  bottom: "track_1"
  bottom: "track_2"
  bottom: "track_3"
  bottom: "track_4"
  top: "O"
  concat_param {
    axis: 0
  }
}
layer {
  name: "trackerLoss_refined_reshape1"
  type: "Reshape"
  bottom: "O"
  top: "rO"
  reshape_param {
    shape {
      dim: 4
      dim: 1
      dim: 6
    }
  }
}
layer {
  name: "trackerLoss_refined_hotmult"
  type: "HotMult"
  bottom: "rO"
  bottom: "v"
  bottom: "gt_num"
  top: "gt_bar"
  hotmult_param {
    mode: "ROW"
  }
}
layer {
  name: "trackerLoss_refined_reshape2"
  type: "Reshape"
  bottom: "gt_bar"
  top: "rgt_bar"
  reshape_param {
    shape {
      dim: -1
      dim: 1
      dim: 1
      dim: 1
    }
  }
}
layer {
  name: "trackerLoss_refined_reshape3"
  type: "Reshape"
  bottom: "gt2_overlaps"
  top: "rgt2_overlaps"
  reshape_param {
    shape {
      dim: -1
      dim: 1
      dim: 1
      dim: 1
    }
  }
}
layer {
  name: "trackerLoss_refined_loss"
  type: "EuclideanLoss"
  bottom: "rgt2_overlaps"
  bottom: "rgt_bar"
  top: "loss"
}
I0122 12:23:27.956313 32121 net.cpp:414] Input 0 -> v
I0122 12:23:27.956336 32121 net.cpp:414] Input 1 -> gt_overlaps
I0122 12:23:27.956351 32121 net.cpp:414] Input 2 -> gt_num
I0122 12:23:27.956367 32121 net.cpp:414] Input 3 -> cont
I0122 12:23:27.956379 32121 net.cpp:414] Input 4 -> o_0
I0122 12:23:27.956395 32121 layer_factory.hpp:76] Creating layer trackerLoss_refined_gt_overlaps_split
I0122 12:23:27.956399 32121 net.cpp:107] Creating Layer trackerLoss_refined_gt_overlaps_split
I0122 12:23:27.956401 32121 net.cpp:455] trackerLoss_refined_gt_overlaps_split <- gt_overlaps
I0122 12:23:27.956404 32121 net.cpp:412] trackerLoss_refined_gt_overlaps_split -> gt1_overlaps
I0122 12:23:27.956409 32121 net.cpp:412] trackerLoss_refined_gt_overlaps_split -> gt2_overlaps
I0122 12:23:27.956434 32121 net.cpp:151] Setting up trackerLoss_refined_gt_overlaps_split
I0122 12:23:27.956436 32121 net.cpp:158] Top shape: 4 1 6 1800 (43200)
I0122 12:23:27.956439 32121 net.cpp:158] Top shape: 4 1 6 1800 (43200)
I0122 12:23:27.956441 32121 net.cpp:166] Memory required for data: 345600
I0122 12:23:27.956444 32121 layer_factory.hpp:76] Creating layer trackerLoss_refined_reshape0
I0122 12:23:27.956447 32121 net.cpp:107] Creating Layer trackerLoss_refined_reshape0
I0122 12:23:27.956449 32121 net.cpp:455] trackerLoss_refined_reshape0 <- gt1_overlaps
I0122 12:23:27.956452 32121 net.cpp:412] trackerLoss_refined_reshape0 -> rgt1_overlaps
I0122 12:23:27.956468 32121 net.cpp:151] Setting up trackerLoss_refined_reshape0
I0122 12:23:27.956471 32121 net.cpp:158] Top shape: 4 6 1 1800 (43200)
I0122 12:23:27.956473 32121 net.cpp:166] Memory required for data: 518400
I0122 12:23:27.956475 32121 layer_factory.hpp:76] Creating layer trackerLoss_refined_best_seg_match
I0122 12:23:27.956478 32121 layer_factory.cpp:58] cuDNN does not support multiple tops. Using Caffe's own pooling layer.
I0122 12:23:27.956481 32121 net.cpp:107] Creating Layer trackerLoss_refined_best_seg_match
I0122 12:23:27.956483 32121 net.cpp:455] trackerLoss_refined_best_seg_match <- rgt1_overlaps
I0122 12:23:27.956485 32121 net.cpp:412] trackerLoss_refined_best_seg_match -> tmp
I0122 12:23:27.956490 32121 net.cpp:412] trackerLoss_refined_best_seg_match -> rbest_track
I0122 12:23:27.956514 32121 net.cpp:151] Setting up trackerLoss_refined_best_seg_match
I0122 12:23:27.956517 32121 net.cpp:158] Top shape: 4 6 1 1 (24)
I0122 12:23:27.956521 32121 net.cpp:158] Top shape: 4 6 1 1 (24)
I0122 12:23:27.956522 32121 net.cpp:166] Memory required for data: 518592
I0122 12:23:27.956524 32121 layer_factory.hpp:76] Creating layer trackerLoss_refined_silent_tmp
I0122 12:23:27.956526 32121 net.cpp:107] Creating Layer trackerLoss_refined_silent_tmp
I0122 12:23:27.956528 32121 net.cpp:455] trackerLoss_refined_silent_tmp <- tmp
I0122 12:23:27.956532 32121 net.cpp:151] Setting up trackerLoss_refined_silent_tmp
I0122 12:23:27.956533 32121 net.cpp:166] Memory required for data: 518592
I0122 12:23:27.956534 32121 layer_factory.hpp:76] Creating layer trackerLoss_refined_reshape_best_track
I0122 12:23:27.956537 32121 net.cpp:107] Creating Layer trackerLoss_refined_reshape_best_track
I0122 12:23:27.956540 32121 net.cpp:455] trackerLoss_refined_reshape_best_track <- rbest_track
I0122 12:23:27.956542 32121 net.cpp:412] trackerLoss_refined_reshape_best_track -> best_track
I0122 12:23:27.956557 32121 net.cpp:151] Setting up trackerLoss_refined_reshape_best_track
I0122 12:23:27.956568 32121 net.cpp:158] Top shape: 4 1 6 1 (24)
I0122 12:23:27.956569 32121 net.cpp:166] Memory required for data: 518688
I0122 12:23:27.956571 32121 layer_factory.hpp:76] Creating layer trackerLoss_refined_cont_slice
I0122 12:23:27.956574 32121 net.cpp:107] Creating Layer trackerLoss_refined_cont_slice
I0122 12:23:27.956578 32121 net.cpp:455] trackerLoss_refined_cont_slice <- cont
I0122 12:23:27.956580 32121 net.cpp:412] trackerLoss_refined_cont_slice -> cont_1
I0122 12:23:27.956584 32121 net.cpp:412] trackerLoss_refined_cont_slice -> cont_2
I0122 12:23:27.956588 32121 net.cpp:412] trackerLoss_refined_cont_slice -> cont_3
I0122 12:23:27.956591 32121 net.cpp:412] trackerLoss_refined_cont_slice -> cont_4
I0122 12:23:27.956634 32121 net.cpp:151] Setting up trackerLoss_refined_cont_slice
I0122 12:23:27.956636 32121 net.cpp:158] Top shape: 1 1 (1)
I0122 12:23:27.956640 32121 net.cpp:158] Top shape: 1 1 (1)
I0122 12:23:27.956642 32121 net.cpp:158] Top shape: 1 1 (1)
I0122 12:23:27.956645 32121 net.cpp:158] Top shape: 1 1 (1)
I0122 12:23:27.956646 32121 net.cpp:166] Memory required for data: 518704
I0122 12:23:27.956648 32121 layer_factory.hpp:76] Creating layer trackerLoss_refined_best_track_slice
I0122 12:23:27.956651 32121 net.cpp:107] Creating Layer trackerLoss_refined_best_track_slice
I0122 12:23:27.956653 32121 net.cpp:455] trackerLoss_refined_best_track_slice <- best_track
I0122 12:23:27.956656 32121 net.cpp:412] trackerLoss_refined_best_track_slice -> bt_1
I0122 12:23:27.956660 32121 net.cpp:412] trackerLoss_refined_best_track_slice -> bt_2
I0122 12:23:27.956665 32121 net.cpp:412] trackerLoss_refined_best_track_slice -> bt_3
I0122 12:23:27.956670 32121 net.cpp:412] trackerLoss_refined_best_track_slice -> bt_4
I0122 12:23:27.956709 32121 net.cpp:151] Setting up trackerLoss_refined_best_track_slice
I0122 12:23:27.956712 32121 net.cpp:158] Top shape: 1 1 6 1 (6)
I0122 12:23:27.956714 32121 net.cpp:158] Top shape: 1 1 6 1 (6)
I0122 12:23:27.956717 32121 net.cpp:158] Top shape: 1 1 6 1 (6)
I0122 12:23:27.956719 32121 net.cpp:158] Top shape: 1 1 6 1 (6)
I0122 12:23:27.956722 32121 net.cpp:166] Memory required for data: 518800
I0122 12:23:27.956723 32121 layer_factory.hpp:76] Creating layer trackerLoss_refined_o_cont_0
I0122 12:23:27.956727 32121 net.cpp:107] Creating Layer trackerLoss_refined_o_cont_0
I0122 12:23:27.956728 32121 net.cpp:455] trackerLoss_refined_o_cont_0 <- bt_1
I0122 12:23:27.956732 32121 net.cpp:455] trackerLoss_refined_o_cont_0 <- o_0
I0122 12:23:27.956733 32121 net.cpp:455] trackerLoss_refined_o_cont_0 <- cont_1
I0122 12:23:27.956737 32121 net.cpp:412] trackerLoss_refined_o_cont_0 -> new_o_1
I0122 12:23:27.956751 32121 net.cpp:151] Setting up trackerLoss_refined_o_cont_0
I0122 12:23:27.956754 32121 net.cpp:158] Top shape: 1 1 6 1 (6)
I0122 12:23:27.956756 32121 net.cpp:166] Memory required for data: 518824
I0122 12:23:27.956758 32121 layer_factory.hpp:76] Creating layer trackerLoss_refined_o_split_1
I0122 12:23:27.956761 32121 net.cpp:107] Creating Layer trackerLoss_refined_o_split_1
I0122 12:23:27.956763 32121 net.cpp:455] trackerLoss_refined_o_split_1 <- new_o_1
I0122 12:23:27.956766 32121 net.cpp:412] trackerLoss_refined_o_split_1 -> o_1
I0122 12:23:27.956769 32121 net.cpp:412] trackerLoss_refined_o_split_1 -> track_1
I0122 12:23:27.956792 32121 net.cpp:151] Setting up trackerLoss_refined_o_split_1
I0122 12:23:27.956796 32121 net.cpp:158] Top shape: 1 1 6 1 (6)
I0122 12:23:27.956799 32121 net.cpp:158] Top shape: 1 1 6 1 (6)
I0122 12:23:27.956801 32121 net.cpp:166] Memory required for data: 518872
I0122 12:23:27.956804 32121 layer_factory.hpp:76] Creating layer trackerLoss_refined_o_cont_1
I0122 12:23:27.956806 32121 net.cpp:107] Creating Layer trackerLoss_refined_o_cont_1
I0122 12:23:27.956809 32121 net.cpp:455] trackerLoss_refined_o_cont_1 <- bt_2
I0122 12:23:27.956811 32121 net.cpp:455] trackerLoss_refined_o_cont_1 <- o_1
I0122 12:23:27.956815 32121 net.cpp:455] trackerLoss_refined_o_cont_1 <- cont_2
I0122 12:23:27.956817 32121 net.cpp:412] trackerLoss_refined_o_cont_1 -> new_o_2
I0122 12:23:27.956840 32121 net.cpp:151] Setting up trackerLoss_refined_o_cont_1
I0122 12:23:27.956843 32121 net.cpp:158] Top shape: 1 1 6 1 (6)
I0122 12:23:27.956845 32121 net.cpp:166] Memory required for data: 518896
I0122 12:23:27.956847 32121 layer_factory.hpp:76] Creating layer trackerLoss_refined_o_split_2
I0122 12:23:27.956851 32121 net.cpp:107] Creating Layer trackerLoss_refined_o_split_2
I0122 12:23:27.956852 32121 net.cpp:455] trackerLoss_refined_o_split_2 <- new_o_2
I0122 12:23:27.956856 32121 net.cpp:412] trackerLoss_refined_o_split_2 -> o_2
I0122 12:23:27.956858 32121 net.cpp:412] trackerLoss_refined_o_split_2 -> track_2
I0122 12:23:27.956881 32121 net.cpp:151] Setting up trackerLoss_refined_o_split_2
I0122 12:23:27.956886 32121 net.cpp:158] Top shape: 1 1 6 1 (6)
I0122 12:23:27.956888 32121 net.cpp:158] Top shape: 1 1 6 1 (6)
I0122 12:23:27.956890 32121 net.cpp:166] Memory required for data: 518944
I0122 12:23:27.956892 32121 layer_factory.hpp:76] Creating layer trackerLoss_refined_o_cont_2
I0122 12:23:27.956895 32121 net.cpp:107] Creating Layer trackerLoss_refined_o_cont_2
I0122 12:23:27.956897 32121 net.cpp:455] trackerLoss_refined_o_cont_2 <- bt_3
I0122 12:23:27.956900 32121 net.cpp:455] trackerLoss_refined_o_cont_2 <- o_2
I0122 12:23:27.956902 32121 net.cpp:455] trackerLoss_refined_o_cont_2 <- cont_3
I0122 12:23:27.956905 32121 net.cpp:412] trackerLoss_refined_o_cont_2 -> new_o_3
I0122 12:23:27.956919 32121 net.cpp:151] Setting up trackerLoss_refined_o_cont_2
I0122 12:23:27.956923 32121 net.cpp:158] Top shape: 1 1 6 1 (6)
I0122 12:23:27.956925 32121 net.cpp:166] Memory required for data: 518968
I0122 12:23:27.956928 32121 layer_factory.hpp:76] Creating layer trackerLoss_refined_o_split_3
I0122 12:23:27.956930 32121 net.cpp:107] Creating Layer trackerLoss_refined_o_split_3
I0122 12:23:27.956933 32121 net.cpp:455] trackerLoss_refined_o_split_3 <- new_o_3
I0122 12:23:27.956935 32121 net.cpp:412] trackerLoss_refined_o_split_3 -> o_3
I0122 12:23:27.956938 32121 net.cpp:412] trackerLoss_refined_o_split_3 -> track_3
I0122 12:23:27.956961 32121 net.cpp:151] Setting up trackerLoss_refined_o_split_3
I0122 12:23:27.956965 32121 net.cpp:158] Top shape: 1 1 6 1 (6)
I0122 12:23:27.956969 32121 net.cpp:158] Top shape: 1 1 6 1 (6)
I0122 12:23:27.956970 32121 net.cpp:166] Memory required for data: 519016
I0122 12:23:27.956972 32121 layer_factory.hpp:76] Creating layer trackerLoss_refined_o_cont_3
I0122 12:23:27.956975 32121 net.cpp:107] Creating Layer trackerLoss_refined_o_cont_3
I0122 12:23:27.956977 32121 net.cpp:455] trackerLoss_refined_o_cont_3 <- bt_4
I0122 12:23:27.956980 32121 net.cpp:455] trackerLoss_refined_o_cont_3 <- o_3
I0122 12:23:27.956982 32121 net.cpp:455] trackerLoss_refined_o_cont_3 <- cont_4
I0122 12:23:27.956985 32121 net.cpp:412] trackerLoss_refined_o_cont_3 -> new_o_4
I0122 12:23:27.957000 32121 net.cpp:151] Setting up trackerLoss_refined_o_cont_3
I0122 12:23:27.957003 32121 net.cpp:158] Top shape: 1 1 6 1 (6)
I0122 12:23:27.957005 32121 net.cpp:166] Memory required for data: 519040
I0122 12:23:27.957007 32121 layer_factory.hpp:76] Creating layer trackerLoss_refined_o_split_4
I0122 12:23:27.957010 32121 net.cpp:107] Creating Layer trackerLoss_refined_o_split_4
I0122 12:23:27.957012 32121 net.cpp:455] trackerLoss_refined_o_split_4 <- new_o_4
I0122 12:23:27.957015 32121 net.cpp:412] trackerLoss_refined_o_split_4 -> o_4
I0122 12:23:27.957018 32121 net.cpp:412] trackerLoss_refined_o_split_4 -> track_4
I0122 12:23:27.957041 32121 net.cpp:151] Setting up trackerLoss_refined_o_split_4
I0122 12:23:27.957044 32121 net.cpp:158] Top shape: 1 1 6 1 (6)
I0122 12:23:27.957047 32121 net.cpp:158] Top shape: 1 1 6 1 (6)
I0122 12:23:27.957049 32121 net.cpp:166] Memory required for data: 519088
I0122 12:23:27.957051 32121 layer_factory.hpp:76] Creating layer trackerLoss_refined_ob_concat
I0122 12:23:27.957053 32121 net.cpp:107] Creating Layer trackerLoss_refined_ob_concat
I0122 12:23:27.957056 32121 net.cpp:455] trackerLoss_refined_ob_concat <- track_1
I0122 12:23:27.957058 32121 net.cpp:455] trackerLoss_refined_ob_concat <- track_2
I0122 12:23:27.957065 32121 net.cpp:455] trackerLoss_refined_ob_concat <- track_3
I0122 12:23:27.957067 32121 net.cpp:455] trackerLoss_refined_ob_concat <- track_4
I0122 12:23:27.957070 32121 net.cpp:412] trackerLoss_refined_ob_concat -> O
I0122 12:23:27.957085 32121 net.cpp:151] Setting up trackerLoss_refined_ob_concat
I0122 12:23:27.957089 32121 net.cpp:158] Top shape: 4 1 6 1 (24)
I0122 12:23:27.957092 32121 net.cpp:166] Memory required for data: 519184
I0122 12:23:27.957093 32121 layer_factory.hpp:76] Creating layer trackerLoss_refined_reshape1
I0122 12:23:27.957098 32121 net.cpp:107] Creating Layer trackerLoss_refined_reshape1
I0122 12:23:27.957099 32121 net.cpp:455] trackerLoss_refined_reshape1 <- O
I0122 12:23:27.957103 32121 net.cpp:412] trackerLoss_refined_reshape1 -> rO
I0122 12:23:27.957119 32121 net.cpp:151] Setting up trackerLoss_refined_reshape1
I0122 12:23:27.957123 32121 net.cpp:158] Top shape: 4 1 6 (24)
I0122 12:23:27.957125 32121 net.cpp:166] Memory required for data: 519280
I0122 12:23:27.957128 32121 layer_factory.hpp:76] Creating layer trackerLoss_refined_hotmult
I0122 12:23:27.957130 32121 net.cpp:107] Creating Layer trackerLoss_refined_hotmult
I0122 12:23:27.957132 32121 net.cpp:455] trackerLoss_refined_hotmult <- rO
I0122 12:23:27.957135 32121 net.cpp:455] trackerLoss_refined_hotmult <- v
I0122 12:23:27.957137 32121 net.cpp:455] trackerLoss_refined_hotmult <- gt_num
I0122 12:23:27.957140 32121 net.cpp:412] trackerLoss_refined_hotmult -> gt_bar
I0122 12:23:27.957156 32121 net.cpp:151] Setting up trackerLoss_refined_hotmult
I0122 12:23:27.957160 32121 net.cpp:158] Top shape: 4 1 6 1800 (43200)
I0122 12:23:27.957162 32121 net.cpp:166] Memory required for data: 692080
I0122 12:23:27.957165 32121 layer_factory.hpp:76] Creating layer trackerLoss_refined_reshape2
I0122 12:23:27.957167 32121 net.cpp:107] Creating Layer trackerLoss_refined_reshape2
I0122 12:23:27.957170 32121 net.cpp:455] trackerLoss_refined_reshape2 <- gt_bar
I0122 12:23:27.957172 32121 net.cpp:412] trackerLoss_refined_reshape2 -> rgt_bar
I0122 12:23:27.957187 32121 net.cpp:151] Setting up trackerLoss_refined_reshape2
I0122 12:23:27.957191 32121 net.cpp:158] Top shape: 43200 1 1 1 (43200)
I0122 12:23:27.957193 32121 net.cpp:166] Memory required for data: 864880
I0122 12:23:27.957195 32121 layer_factory.hpp:76] Creating layer trackerLoss_refined_reshape3
I0122 12:23:27.957197 32121 net.cpp:107] Creating Layer trackerLoss_refined_reshape3
I0122 12:23:27.957200 32121 net.cpp:455] trackerLoss_refined_reshape3 <- gt2_overlaps
I0122 12:23:27.957202 32121 net.cpp:412] trackerLoss_refined_reshape3 -> rgt2_overlaps
I0122 12:23:27.957217 32121 net.cpp:151] Setting up trackerLoss_refined_reshape3
I0122 12:23:27.957221 32121 net.cpp:158] Top shape: 43200 1 1 1 (43200)
I0122 12:23:27.957223 32121 net.cpp:166] Memory required for data: 1037680
I0122 12:23:27.957226 32121 layer_factory.hpp:76] Creating layer trackerLoss_refined_loss
I0122 12:23:27.957228 32121 net.cpp:107] Creating Layer trackerLoss_refined_loss
I0122 12:23:27.957231 32121 net.cpp:455] trackerLoss_refined_loss <- rgt2_overlaps
I0122 12:23:27.957232 32121 net.cpp:455] trackerLoss_refined_loss <- rgt_bar
…
