…
    mean_value: 122.67892
  }
  image_data_param {
    source: "./tracker_model/data/SegTrackv2_hdf5_t0/images.txt"
    batch_size: 2
    shuffle: false
  }
}
layer {
  name: "data"
  type: "HDF5Data"
  top: "cont"
  top: "mask_size"
  top: "spixel_data"
  top: "spixel_ptr"
  top: "spixel_num"
  top: "seg_data"
  top: "seg_ptr"
  top: "seg_num"
  top: "seg_coef"
  top: "overlaps"
  top: "gt_num"
  top: "gt_overlaps"
  include {
    phase: TRAIN
  }
  hdf5_data_param {
    source: "./tracker_model/data/SegTrackv2_hdf5_t0/seq_data.txt"
    batch_size: 2
  }
}
layer {
  name: "silent_cont"
  type: "Silence"
  bottom: "cont"
  include {
    phase: TRAIN
  }
}
layer {
  name: "silent_gt_overlaps"
  type: "Silence"
  bottom: "gt_overlaps"
  include {
    phase: TRAIN
  }
}
layer {
  name: "silent_gt_overlaps"
  type: "Silence"
  bottom: "gt_num"
  include {
    phase: TRAIN
  }
}
layer {
  name: "silent_ilabel"
  type: "Silence"
  bottom: "ilabel"
}
layer {
  name: "conv1"
  type: "Convolution"
  bottom: "image"
  top: "conv1"
  param {
    lr_mult: 1
    decay_mult: 1
  }
  param {
    lr_mult: 2
    decay_mult: 0
  }
  convolution_param {
    num_output: 96
    pad: 100
    kernel_size: 11
    stride: 4
    weight_filler {
      type: "gaussian"
      std: 0.01
    }
    bias_filler {
      type: "constant"
      value: 0
    }
  }
}
layer {
  name: "relu1"
  type: "ReLU"
  bottom: "conv1"
  top: "conv1"
}
layer {
  name: "pool1"
  type: "Pooling"
  bottom: "conv1"
  top: "pool1"
  pooling_param {
    pool: MAX
    kernel_size: 3
    stride: 2
  }
}
layer {
  name: "norm1"
  type: "LRN"
  bottom: "pool1"
  top: "norm1"
  lrn_param {
    local_size: 5
    alpha: 0.0001
    beta: 0.75
  }
}
layer {
  name: "conv2"
  type: "Convolution"
  bottom: "norm1"
  top: "conv2"
  param {
    lr_mult: 1
    decay_mult: 1
  }
  param {
    lr_mult: 2
    decay_mult: 0
  }
  convolution_param {
    num_output: 256
    pad: 2
    kernel_size: 5
    group: 2
    weight_filler {
      type: "gaussian"
      std: 0.01
    }
    bias_filler {
      type: "constant"
      value: 1
    }
  }
}
layer {
  name: "relu2"
  type: "ReLU"
  bottom: "conv2"
  top: "conv2"
}
layer {
  name: "pool2"
  type: "Pooling"
  bottom: "conv2"
  top: "pool2"
  pooling_param {
    pool: MAX
    kernel_size: 3
    stride: 2
  }
}
layer {
  name: "norm2"
  type: "LRN"
  bottom: "pool2"
  top: "norm2"
  lrn_param {
    local_size: 5
    alpha: 0.0001
    beta: 0.75
  }
}
layer {
  name: "conv3"
  type: "Convolution"
  bottom: "norm2"
  top: "conv3"
  param {
    lr_mult: 1
    decay_mult: 1
  }
  param {
    lr_mult: 2
    decay_mult: 0
  }
  convolution_param {
    num_output: 384
    pad: 1
    kernel_size: 3
    weight_filler {
      type: "gaussian"
      std: 0.01
    }
    bias_filler {
      type: "constant"
      value: 0
    }
  }
}
layer {
  name: "relu3"
  type: "ReLU"
  bottom: "conv3"
  top: "conv3"
}
layer {
  name: "conv4"
  type: "Convolution"
  bottom: "conv3"
  top: "conv4"
  param {
    lr_mult: 1
    decay_mult: 1
  }
  param {
    lr_mult: 2
    decay_mult: 0
  }
  convolution_param {
    num_output: 384
    pad: 1
    kernel_size: 3
    group: 2
    weight_filler {
      type: "gaussian"
      std: 0.01
    }
    bias_filler {
      type: "constant"
      value: 1
    }
  }
}
layer {
  name: "relu4"
  type: "ReLU"
  bottom: "conv4"
  top: "conv4"
}
layer {
  name: "conv5"
  type: "Convolution"
  bottom: "conv4"
  top: "conv5"
  param {
    lr_mult: 1
    decay_mult: 1
  }
  param {
    lr_mult: 2
    decay_mult: 0
  }
  convolution_param {
    num_output: 256
    pad: 1
    kernel_size: 3
    group: 2
    weight_filler {
      type: "gaussian"
      std: 0.01
    }
    bias_filler {
      type: "constant"
      value: 1
    }
  }
}
layer {
  name: "relu5"
  type: "ReLU"
  bottom: "conv5"
  top: "conv5"
}
layer {
  name: "pool5"
  type: "Pooling"
  bottom: "conv5"
  top: "pool5"
  pooling_param {
    pool: MAX
    kernel_size: 3
    stride: 2
  }
}
layer {
  name: "fc6"
  type: "Convolution"
  bottom: "pool5"
  top: "fc6"
  param {
    lr_mult: 1
    decay_mult: 1
  }
  param {
    lr_mult: 2
    decay_mult: 0
  }
  convolution_param {
    num_output: 4096
    kernel_size: 6
    weight_filler {
      type: "gaussian"
      std: 0.005
    }
    bias_filler {
      type: "constant"
      value: 1
    }
  }
}
layer {
  name: "relu6"
  type: "ReLU"
  bottom: "fc6"
  top: "fc6"
}
layer {
  name: "fc7"
  type: "Convolution"
  bottom: "fc6"
  top: "fc7"
  param {
    lr_mult: 1
    decay_mult: 1
  }
  param {
    lr_mult: 2
    decay_mult: 0
  }
  convolution_param {
    num_output: 4096
    kernel_size: 1
    weight_filler {
      type: "gaussian"
      std: 0.005
    }
    bias_filler {
      type: "constant"
      value: 1
    }
  }
}
layer {
  name: "relu7"
  type: "ReLU"
  bottom: "fc7"
  top: "fc7"
}
layer {
  name: "deconv-1"
  type: "Deconvolution"
  bottom: "fc7"
  top: "up-fc7"
  param {
    lr_mult: 0
    decay_mult: 0
  }
  convolution_param {
    num_output: 256
    bias_term: false
    kernel_size: 63
    group: 256
    stride: 32
    weight_filler {
      type: "bilinear"
    }
  }
}
layer {
  name: "crop"
  type: "Crop"
  bottom: "up-fc7"
  bottom: "image"
  top: "conv-feature"
}
layer {
  name: "spixel_pooling1"
  type: "SuperpixelPooling"
  bottom: "conv-feature"
  bottom: "spixel_data"
  bottom: "spixel_ptr"
  bottom: "spixel_num"
  bottom: "mask_size"
  top: "spixel_feature"
}
layer {
  name: "rpixel_pooling1"
  type: "RowPooling"
  bottom: "spixel_feature"
  bottom: "seg_data"
  bottom: "seg_ptr"
  bottom: "seg_num"
  bottom: "seg_coef"
  top: "seg_feature"
}
layer {
  name: "xtx"
  type: "MatMult"
  bottom: "seg_feature"
  bottom: "seg_feature"
  top: "v"
  include {
    phase: TRAIN
  }
  matmult_param {
    transpose_b: true
  }
}
layer {
  name: "reshape_v"
  type: "Reshape"
  bottom: "v"
  top: "rv"
  include {
    phase: TRAIN
  }
  reshape_param {
    shape {
      dim: -1
    }
    num_axes: 2
  }
}
layer {
  name: "reshape_overlaps"
  type: "Reshape"
  bottom: "overlaps"
  top: "roverlaps"
  include {
    phase: TRAIN
  }
  propagate_down: false
  reshape_param {
    shape {
      dim: -1
    }
    num_axes: 2
  }
}
layer {
  name: "euclideanLoss"
  type: "EuclideanLoss"
  bottom: "rv"
  bottom: "roverlaps"
  top: "unsupervised_loss"
  include {
    phase: TRAIN
  }
  propagate_down: true
  propagate_down: false
}
I0122 12:17:28.202967 31600 layer_factory.hpp:76] Creating layer images
I0122 12:17:28.202989 31600 net.cpp:107] Creating Layer images
I0122 12:17:28.202994 31600 net.cpp:412] images -> image
I0122 12:17:28.203271 31600 net.cpp:412] images -> ilabel
I0122 12:17:28.203871 31600 image_data_layer.cpp:37] Opening file ./tracker_model/data/SegTrackv2_hdf5_t0/images.txt
I0122 12:17:28.204591 31600 image_data_layer.cpp:52] A total of 606 images.
I0122 12:17:28.216763 31600 image_data_layer.cpp:79] output data size: 2,3,500,500
I0122 12:17:28.223644 31600 net.cpp:151] Setting up images
I0122 12:17:28.223672 31600 net.cpp:158] Top shape: 2 3 500 500 (1500000)
I0122 12:17:28.223676 31600 net.cpp:158] Top shape: 2 (2)
I0122 12:17:28.223680 31600 net.cpp:166] Memory required for data: 6000008
I0122 12:17:28.223685 31600 layer_factory.hpp:76] Creating layer image_images_0_split
I0122 12:17:28.223695 31600 net.cpp:107] Creating Layer image_images_0_split
I0122 12:17:28.223700 31600 net.cpp:455] image_images_0_split <- image
I0122 12:17:28.223707 31600 net.cpp:412] image_images_0_split -> image_images_0_split_0
I0122 12:17:28.223714 31600 net.cpp:412] image_images_0_split -> image_images_0_split_1
I0122 12:17:28.223742 31600 net.cpp:151] Setting up image_images_0_split
I0122 12:17:28.223747 31600 net.cpp:158] Top shape: 2 3 500 500 (1500000)
I0122 12:17:28.223750 31600 net.cpp:158] Top shape: 2 3 500 500 (1500000)
I0122 12:17:28.223752 31600 net.cpp:166] Memory required for data: 18000008
I0122 12:17:28.223754 31600 layer_factory.hpp:76] Creating layer data
I0122 12:17:28.224017 31600 net.cpp:107] Creating Layer data
I0122 12:17:28.224022 31600 net.cpp:412] data -> cont
I0122 12:17:28.224030 31600 net.cpp:412] data -> mask_size
I0122 12:17:28.224035 31600 net.cpp:412] data -> spixel_data
I0122 12:17:28.224040 31600 net.cpp:412] data -> spixel_ptr
I0122 12:17:28.224043 31600 net.cpp:412] data -> spixel_num
I0122 12:17:28.224048 31600 net.cpp:412] data -> seg_data
I0122 12:17:28.224052 31600 net.cpp:412] data -> seg_ptr
I0122 12:17:28.224057 31600 net.cpp:412] data -> seg_num
I0122 12:17:28.224061 31600 net.cpp:412] data -> seg_coef
I0122 12:17:28.224067 31600 net.cpp:412] data -> overlaps
I0122 12:17:28.224071 31600 net.cpp:412] data -> gt_num
I0122 12:17:28.224076 31600 net.cpp:412] data -> gt_overlaps
I0122 12:17:28.224083 31600 hdf5_data_layer.cpp:80] Loading list of HDF5 filenames from: ./tracker_model/data/SegTrackv2_hdf5_t0/seq_data.txt
I0122 12:17:28.224267 31600 hdf5_data_layer.cpp:94] Number of HDF5 files: 38
I0122 12:17:28.228603 31600 hdf5.cpp:35] Datatype class: H5T_INTEGER
I0122 12:17:28.363962 31600 hdf5.cpp:32] Datatype class: H5T_FLOAT
I0122 12:17:28.527204 31600 net.cpp:151] Setting up data
I0122 12:17:28.527245 31600 net.cpp:158] Top shape: 2 1 (2)
I0122 12:17:28.527247 31600 net.cpp:158] Top shape: 2 1 2 (4)
I0122 12:17:28.527251 31600 net.cpp:158] Top shape: 2 1 230400 2 (921600)
I0122 12:17:28.527253 31600 net.cpp:158] Top shape: 2 1 9778 (19556)
I0122 12:17:28.527256 31600 net.cpp:158] Top shape: 2 1 (2)
I0122 12:17:28.527258 31600 net.cpp:158] Top shape: 2 1 3102361 (6204722)
I0122 12:17:28.527261 31600 net.cpp:158] Top shape: 2 1 1801 (3602)
I0122 12:17:28.527263 31600 net.cpp:158] Top shape: 2 1 (2)
I0122 12:17:28.527266 31600 net.cpp:158] Top shape: 2 1 3102361 (6204722)
I0122 12:17:28.527271 31600 net.cpp:158] Top shape: 2 1 1800 1800 (6480000)
I0122 12:17:28.527276 31600 net.cpp:158] Top shape: 2 1 (2)
I0122 12:17:28.527279 31600 net.cpp:158] Top shape: 2 1 6 1800 (21600)
I0122 12:17:28.527281 31600 net.cpp:166] Memory required for data: 97423264
I0122 12:17:28.527287 31600 layer_factory.hpp:76] Creating layer silent_cont
I0122 12:17:28.527295 31600 net.cpp:107] Creating Layer silent_cont
I0122 12:17:28.527298 31600 net.cpp:455] silent_cont <- cont
I0122 12:17:28.527305 31600 net.cpp:151] Setting up silent_cont
I0122 12:17:28.527307 31600 net.cpp:166] Memory required for data: 97423264
…
I0122 12:17:28.527348 31600 net.cpp:107] Creating Layer silent_ilabel
I0122 12:17:28.527349 31600 net.cpp:455] silent_ilabel <- ilabel
I0122 12:17:28.527353 31600 net.cpp:151] Setting up silent_ilabel
I0122 12:17:28.527354 31600 net.cpp:166] Memory required for data: 97423264
I0122 12:17:28.527355 31600 layer_factory.hpp:76] Creating layer conv1
I0122 12:17:28.527367 31600 net.cpp:107] Creating Layer conv1
I0122 12:17:28.527370 31600 net.cpp:455] conv1 <- image_images_0_split_0
I0122 12:17:28.527374 31600 net.cpp:412] conv1 -> conv1
I0122 12:17:28.670853 31600 net.cpp:151] Setting up conv1
I0122 12:17:28.670886 31600 net.cpp:158] Top shape: 2 96 173 173 (5746368)
I0122 12:17:28.670893 31600 net.cpp:166] Memory required for data: 120408736
I0122 12:17:28.670914 31600 layer_factory.hpp:76] Creating layer relu1
I0122 12:17:28.670933 31600 net.cpp:107] Creating Layer relu1
I0122 12:17:28.670935 31600 net.cpp:455] relu1 <- conv1
I0122 12:17:28.670941 31600 net.cpp:398] relu1 -> conv1 (in-place)
I0122 12:17:28.671056 31600 net.cpp:151] Setting up relu1
I0122 12:17:28.671062 31600 net.cpp:158] Top shape: 2 96 173 173 (5746368)
I0122 12:17:28.671064 31600 net.cpp:166] Memory required for data: 143394208
I0122 12:17:28.671066 31600 layer_factory.hpp:76] Creating layer pool1
I0122 12:17:28.671072 31600 net.cpp:107] Creating Layer pool1
I0122 12:17:28.671077 31600 net.cpp:455] pool1 <- conv1
I0122 12:17:28.671082 31600 net.cpp:412] pool1 -> pool1
I0122 12:17:28.671602 31600 net.cpp:151] Setting up pool1
I0122 12:17:28.671609 31600 net.cpp:158] Top shape: 2 96 86 86 (1420032)
I0122 12:17:28.671613 31600 net.cpp:166] Memory required for data: 149074336
I0122 12:17:28.671630 31600 layer_factory.hpp:76] Creating layer norm1
I0122 12:17:28.671643 31600 net.cpp:107] Creating Layer norm1
I0122 12:17:28.671648 31600 net.cpp:455] norm1 <- pool1
I0122 12:17:28.671654 31600 net.cpp:412] norm1 -> norm1
I0122 12:17:28.671883 31600 net.cpp:151] Setting up norm1
I0122 12:17:28.671891 31600 net.cpp:158] Top shape: 2 96 86 86 (1420032)
I0122 12:17:28.671895 31600 net.cpp:166] Memory required for data: 154754464
I0122 12:17:28.671911 31600 layer_factory.hpp:76] Creating layer conv2
I0122 12:17:28.671928 31600 net.cpp:107] Creating Layer conv2
I0122 12:17:28.671933 31600 net.cpp:455] conv2 <- norm1
I0122 12:17:28.671943 31600 net.cpp:412] conv2 -> conv2
I0122 12:17:28.678820 31600 cudnn_conv_layer.cpp:198] Reallocating workspace storage: 28800
I0122 12:17:28.678853 31600 net.cpp:151] Setting up conv2
I0122 12:17:28.678865 31600 net.cpp:158] Top shape: 2 256 86 86 (3786752)
I0122 12:17:28.678870 31600 net.cpp:166] Memory required for data: 169901472
I0122 12:17:28.678880 31600 layer_factory.hpp:76] Creating layer relu2
I0122 12:17:28.678896 31600 net.cpp:107] Creating Layer relu2
I0122 12:17:28.678901 31600 net.cpp:455] relu2 <- conv2
I0122 12:17:28.678906 31600 net.cpp:398] relu2 -> conv2 (in-place)
I0122 12:17:28.679110 31600 net.cpp:151] Setting up relu2
I0122 12:17:28.679117 31600 net.cpp:158] Top shape: 2 256 86 86 (3786752)
I0122 12:17:28.679121 31600 net.cpp:166] Memory required for data: 185048480
I0122 12:17:28.679138 31600 layer_factory.hpp:76] Creating layer pool2
I0122 12:17:28.679147 31600 net.cpp:107] Creating Layer pool2
I0122 12:17:28.679152 31600 net.cpp:455] pool2 <- conv2
I0122 12:17:28.679157 31600 net.cpp:412] pool2 -> pool2
I0122 12:17:28.679281 31600 net.cpp:151] Setting up pool2
I0122 12:17:28.679289 31600 net.cpp:158] Top shape: 2 256 43 43 (946688)
I0122 12:17:28.679293 31600 net.cpp:166] Memory required for data: 188835232
I0122 12:17:28.679296 31600 layer_factory.hpp:76] Creating layer norm2
I0122 12:17:28.679313 31600 net.cpp:107] Creating Layer norm2
I0122 12:17:28.679318 31600 net.cpp:455] norm2 <- pool2
I0122 12:17:28.679325 31600 net.cpp:412] norm2 -> norm2
I0122 12:17:28.679550 31600 net.cpp:151] Setting up norm2
I0122 12:17:28.679558 31600 net.cpp:158] Top shape: 2 256 43 43 (946688)
I0122 12:17:28.679561 31600 net.cpp:166] Memory required for data: 192621984
I0122 12:17:28.679579 31600 layer_factory.hpp:76] Creating layer conv3
I0122 12:17:28.679587 31600 net.cpp:107] Creating Layer conv3
I0122 12:17:28.679591 31600 net.cpp:455] conv3 <- norm2
I0122 12:17:28.679599 31600 net.cpp:412] conv3 -> conv3
I0122 12:17:28.696905 31600 cudnn_conv_layer.cpp:198] Reallocating workspace storage: 27648
I0122 12:17:28.696928 31600 net.cpp:151] Setting up conv3
I0122 12:17:28.696949 31600 net.cpp:158] Top shape: 2 384 43 43 (1420032)
I0122 12:17:28.696952 31600 net.cpp:166] Memory required for data: 198302112
I0122 12:17:28.696964 31600 layer_factory.hpp:76] Creating layer relu3
I0122 12:17:28.696979 31600 net.cpp:107] Creating Layer relu3
I0122 12:17:28.696985 31600 net.cpp:455] relu3 <- conv3
I0122 12:17:28.696990 31600 net.cpp:398] relu3 -> conv3 (in-place)
I0122 12:17:28.697118 31600 net.cpp:151] Setting up relu3
I0122 12:17:28.697124 31600 net.cpp:158] Top shape: 2 384 43 43 (1420032)
I0122 12:17:28.697129 31600 net.cpp:166] Memory required for data: 203982240
I0122 12:17:28.697131 31600 layer_factory.hpp:76] Creating layer conv4
I0122 12:17:28.697141 31600 net.cpp:107] Creating Layer conv4
I0122 12:17:28.697145 31600 net.cpp:455] conv4 <- conv3
I0122 12:17:28.697152 31600 net.cpp:412] conv4 -> conv4
I0122 12:17:28.710551 31600 net.cpp:151] Setting up conv4
I0122 12:17:28.710566 31600 net.cpp:158] Top shape: 2 384 43 43 (1420032)
I0122 12:17:28.710571 31600 net.cpp:166] Memory required for data: 209662368
I0122 12:17:28.710590 31600 layer_factory.hpp:76] Creating layer relu4
I0122 12:17:28.710602 31600 net.cpp:107] Creating Layer relu4
I0122 12:17:28.710605 31600 net.cpp:455] relu4 <- conv4
I0122 12:17:28.710613 31600 net.cpp:398] relu4 -> conv4 (in-place)
I0122 12:17:28.710733 31600 net.cpp:151] Setting up relu4
I0122 12:17:28.710741 31600 net.cpp:158] Top shape: 2 384 43 43 (1420032)
I0122 12:17:28.710743 31600 net.cpp:166] Memory required for data: 215342496
I0122 12:17:28.710747 31600 layer_factory.hpp:76] Creating layer conv5
I0122 12:17:28.710769 31600 net.cpp:107] Creating Layer conv5
I0122 12:17:28.710786 31600 net.cpp:455] conv5 <- conv4
I0122 12:17:28.710794 31600 net.cpp:412] conv5 -> conv5
I0122 12:17:28.720168 31600 net.cpp:151] Setting up conv5
I0122 12:17:28.720196 31600 net.cpp:158] Top shape: 2 256 43 43 (946688)
I0122 12:17:28.720201 31600 net.cpp:166] Memory required for data: 219129248
I0122 12:17:28.720212 31600 layer_factory.hpp:76] Creating layer relu5
I0122 12:17:28.720224 31600 net.cpp:107] Creating Layer relu5
I0122 12:17:28.720228 31600 net.cpp:455] relu5 <- conv5
I0122 12:17:28.720233 31600 net.cpp:398] relu5 -> conv5 (in-place)
I0122 12:17:28.720335 31600 net.cpp:151] Setting up relu5
I0122 12:17:28.720342 31600 net.cpp:158] Top shape: 2 256 43 43 (946688)
I0122 12:17:28.720345 31600 net.cpp:166] Memory required for data: 222916000
I0122 12:17:28.720346 31600 layer_factory.hpp:76] Creating layer pool5
I0122 12:17:28.720350 31600 net.cpp:107] Creating Layer pool5
I0122 12:17:28.720352 31600 net.cpp:455] pool5 <- conv5
I0122 12:17:28.720356 31600 net.cpp:412] pool5 -> pool5
I0122 12:17:28.720556 31600 net.cpp:151] Setting up pool5
I0122 12:17:28.720563 31600 net.cpp:158] Top shape: 2 256 21 21 (225792)
I0122 12:17:28.720566 31600 net.cpp:166] Memory required for data: 223819168
I0122 12:17:28.720567 31600 layer_factory.hpp:76] Creating layer fc6
I0122 12:17:28.720572 31600 net.cpp:107] Creating Layer fc6
I0122 12:17:28.720576 31600 net.cpp:455] fc6 <- pool5
I0122 12:17:28.720579 31600 net.cpp:412] fc6 -> fc6
I0122 12:17:29.411072 31600 cudnn_conv_layer.cpp:198] Reallocating workspace storage: 110592
I0122 12:17:29.411191 31600 net.cpp:151] Setting up fc6
I0122 12:17:29.411208 31600 net.cpp:158] Top shape: 2 4096 16 16 (2097152)
I0122 12:17:29.411211 31600 net.cpp:166] Memory required for data: 232207776
I0122 12:17:29.411218 31600 layer_factory.hpp:76] Creating layer relu6
I0122 12:17:29.411226 31600 net.cpp:107] Creating Layer relu6
I0122 12:17:29.411228 31600 net.cpp:455] relu6 <- fc6
I0122 12:17:29.411232 31600 net.cpp:398] relu6 -> fc6 (in-place)
I0122 12:17:29.411352 31600 net.cpp:151] Setting up relu6
I0122 12:17:29.411357 31600 net.cpp:158] Top shape: 2 4096 16 16 (2097152)
I0122 12:17:29.411360 31600 net.cpp:166] Memory required for data: 240596384
I0122 12:17:29.411363 31600 layer_factory.hpp:76] Creating layer fc7
I0122 12:17:29.411370 31600 net.cpp:107] Creating Layer fc7
I0122 12:17:29.411372 31600 net.cpp:455] fc7 <- fc6
I0122 12:17:29.411376 31600 net.cpp:412] fc7 -> fc7
I0122 12:17:29.718386 31600 cudnn_conv_layer.cpp:198] Reallocating workspace storage: 49152
I0122 12:17:29.718421 31600 net.cpp:151] Setting up fc7
I0122 12:17:29.718432 31600 net.cpp:158] Top shape: 2 4096 16 16 (2097152)
I0122 12:17:29.718436 31600 net.cpp:166] Memory required for data: 248984992
I0122 12:17:29.718449 31600 layer_factory.hpp:76] Creating layer relu7
I0122 12:17:29.718461 31600 net.cpp:107] Creating Layer relu7
I0122 12:17:29.718464 31600 net.cpp:455] relu7 <- fc7
I0122 12:17:29.718468 31600 net.cpp:398] relu7 -> fc7 (in-place)
I0122 12:17:29.718663 31600 net.cpp:151] Setting up relu7
I0122 12:17:29.718669 31600 net.cpp:158] Top shape: 2 4096 16 16 (2097152)
I0122 12:17:29.718672 31600 net.cpp:166] Memory required for data: 257373600
I0122 12:17:29.718674 31600 layer_factory.hpp:76] Creating layer deconv-1
I0122 12:17:29.718680 31600 net.cpp:107] Creating Layer deconv-1
I0122 12:17:29.718683 31600 net.cpp:455] deconv-1 <- fc7
I0122 12:17:29.718688 31600 net.cpp:412] deconv-1 -> up-fc7
I0122 12:17:30.003252 31600 net.cpp:151] Setting up deconv-1
I0122 12:17:30.003284 31600 net.cpp:158] Top shape: 2 256 543 543 (150962688)
I0122 12:17:30.003288 31600 net.cpp:166] Memory required for data: 861224352
I0122 12:17:30.003301 31600 layer_factory.hpp:76] Creating layer crop
I0122 12:17:30.003526 31600 net.cpp:107] Creating Layer crop
I0122 12:17:30.003550 31600 net.cpp:455] crop <- up-fc7
I0122 12:17:30.003557 31600 net.cpp:455] crop <- image_images_0_split_1
I0122 12:17:30.003562 31600 net.cpp:412] crop -> conv-feature
I0122 12:17:30.003612 31600 net.cpp:151] Setting up crop
I0122 12:17:30.003618 31600 net.cpp:158] Top shape: 2 256 500 500 (128000000)
I0122 12:17:30.003619 31600 net.cpp:166] Memory required for data: 1373224352
I0122 12:17:30.003621 31600 layer_factory.hpp:76] Creating layer spixel_pooling1
I0122 12:17:30.003626 31600 net.cpp:107] Creating Layer spixel_pooling1
I0122 12:17:30.003628 31600 net.cpp:455] spixel_pooling1 <- conv-feature
I0122 12:17:30.003631 31600 net.cpp:455] spixel_pooling1 <- spixel_data
I0122 12:17:30.003635 31600 net.cpp:455] spixel_pooling1 <- spixel_ptr
I0122 12:17:30.003638 31600 net.cpp:455] spixel_pooling1 <- spixel_num
I0122 12:17:30.003640 31600 net.cpp:455] spixel_pooling1 <- mask_size
I0122 12:17:30.003643 31600 net.cpp:412] spixel_pooling1 -> spixel_feature
I0122 12:17:30.003659 31600 net.cpp:151] Setting up spixel_pooling1
I0122 12:17:30.003661 31600 net.cpp:158] Top shape: 2 1 9777 256 (5005824)
I0122 12:17:30.003664 31600 net.cpp:166] Memory required for data: 1393247648
I0122 12:17:30.003665 31600 layer_factory.hpp:76] Creating layer rpixel_pooling1
I0122 12:17:30.003669 31600 net.cpp:107] Creating Layer rpixel_pooling1
I0122 12:17:30.003671 31600 net.cpp:455] rpixel_pooling1 <- spixel_feature
I0122 12:17:30.003674 31600 net.cpp:455] rpixel_pooling1 <- seg_data
I0122 12:17:30.003676 31600 net.cpp:455] rpixel_pooling1 <- seg_ptr
I0122 12:17:30.003679 31600 net.cpp:455] rpixel_pooling1 <- seg_num
I0122 12:17:30.003681 31600 net.cpp:455] rpixel_pooling1 <- seg_coef
I0122 12:17:30.003684 31600 net.cpp:412] rpixel_pooling1 -> seg_feature
I0122 12:17:30.003697 31600 net.cpp:151] Setting up rpixel_pooling1
I0122 12:17:30.003701 31600 net.cpp:158] Top shape: 2 1 1800 256 (921600)
I0122 12:17:30.003712 31600 net.cpp:166] Memory required for data: 1396934048
I0122 12:17:30.003715 31600 layer_factory.hpp:76] Creating layer seg_feature_rpixel_pooling1_0_split
I0122 12:17:30.003718 31600 net.cpp:107] Creating Layer seg_feature_rpixel_pooling1_0_split
I0122 12:17:30.003720 31600 net.cpp:455] seg_feature_rpixel_pooling1_0_split <- seg_feature
I0122 12:17:30.003723 31600 net.cpp:412] seg_feature_rpixel_pooling1_0_split -> seg_feature_rpixel_pooling1_0_split_0
I0122 12:17:30.003731 31600 net.cpp:412] seg_feature_rpixel_pooling1_0_split -> seg_feature_rpixel_pooling1_0_split_1
I0122 12:17:30.003762 31600 net.cpp:151] Setting up seg_feature_rpixel_pooling1_0_split
I0122 12:17:30.003770 31600 net.cpp:158] Top shape: 2 1 1800 256 (921600)
I0122 12:17:30.003774 31600 net.cpp:158] Top shape: 2 1 1800 256 (921600)
I0122 12:17:30.003778 31600 net.cpp:166] Memory required for data: 1404306848
I0122 12:17:30.003782 31600 layer_factory.hpp:76] Creating layer xtx
I0122 12:17:30.003798 31600 net.cpp:107] Creating Layer xtx
I0122 12:17:30.003803 31600 net.cpp:455] xtx <- seg_feature_rpixel_pooling1_0_split_0
I0122 12:17:30.003806 31600 net.cpp:455] xtx <- seg_feature_rpixel_pooling1_0_split_1
I0122 12:17:30.003811 31600 net.cpp:412] xtx -> v
I0122 12:17:30.003836 31600 net.cpp:151] Setting up xtx
I0122 12:17:30.003842 31600 net.cpp:158] Top shape: 2 1 1800 1800 (6480000)
I0122 12:17:30.003845 31600 net.cpp:166] Memory required for data: 1430226848
I0122 12:17:30.003849 31600 layer_factory.hpp:76] Creating layer reshape_v
I0122 12:17:30.003859 31600 net.cpp:107] Creating Layer reshape_v
I0122 12:17:30.003865 31600 net.cpp:455] reshape_v <- v
I0122 12:17:30.003875 31600 net.cpp:412] reshape_v -> rv
I0122 12:17:30.003901 31600 net.cpp:151] Setting up reshape_v
I0122 12:17:30.003911 31600 net.cpp:158] Top shape: 2 1800 1800 (6480000)
I0122 12:17:30.003916 31600 net.cpp:166] Memory required for data: 1456146848
I0122 12:17:30.003919 31600 layer_factory.hpp:76] Creating layer reshape_overlaps
I0122 12:17:30.003926 31600 net.cpp:107] Creating Layer reshape_overlaps
I0122 12:17:30.003929 31600 net.cpp:455] reshape_overlaps <- overlaps
I0122 12:17:30.003936 31600 net.cpp:412] reshape_overlaps -> roverlaps
I0122 12:17:30.003957 31600 net.cpp:151] Setting up reshape_overlaps
I0122 12:17:30.003962 31600 net.cpp:158] Top shape: 2 1800 1800 (6480000)
I0122 12:17:30.003965 31600 net.cpp:166] Memory required for data: 1482066848
I0122 12:17:30.003968 31600 layer_factory.hpp:76] Creating layer euclideanLoss
I0122 12:17:30.003974 31600 net.cpp:107] Creating Layer euclideanLoss
I0122 12:17:30.003978 31600 net.cpp:455] euclideanLoss <- rv
I0122 12:17:30.003983 31600 net.cpp:455] euclideanLoss <- roverlaps
I0122 12:17:30.003989 31600 net.cpp:412] euclideanLoss -> unsupervised_loss
…
    mean_value: 122.67892
  }
  image_data_param {
    source: "./tracker_model/data/SegTrackv2_hdf5_t4/images.txt"
    batch_size: 4
    shuffle: false
  }
}
layer {
  name: "data"
  type: "HDF5Data"
  top: "cont"
  top: "mask_size"
  top: "spixel_data"
  top: "spixel_ptr"
  top: "spixel_num"
  top: "seg_data"
  top: "seg_ptr"
  top: "seg_num"
  top: "seg_coef"
  top: "overlaps"
  top: "gt_num"
  top: "gt_overlaps"
  include {
    phase: TEST
  }
  hdf5_data_param {
    source: "./tracker_model/data/SegTrackv2_hdf5_t4/seq_data.txt"
    batch_size: 4
  }
}
layer {
  name: "silent_ilabel"
  type: "Silence"
  bottom: "ilabel"
}
layer {
  name: "conv1"
  type: "Convolution"
  bottom: "image"
  top: "conv1"
  param {
    lr_mult: 1
    decay_mult: 1
  }
  param {
    lr_mult: 2
    decay_mult: 0
  }
  convolution_param {
    num_output: 96
    pad: 100
    kernel_size: 11
    stride: 4
    weight_filler {
      type: "gaussian"
      std: 0.01
    }
    bias_filler {
      type: "constant"
      value: 0
    }
  }
}
layer {
  name: "relu1"
  type: "ReLU"
  bottom: "conv1"
  top: "conv1"
}
layer {
  name: "pool1"
  type: "Pooling"
  bottom: "conv1"
  top: "pool1"
  pooling_param {
    pool: MAX
    kernel_size: 3
    stride: 2
  }
}
layer {
  name: "norm1"
  type: "LRN"
  bottom: "pool1"
  top: "norm1"
  lrn_param {
    local_size: 5
    alpha: 0.0001
    beta: 0.75
  }
}
layer {
  name: "conv2"
  type: "Convolution"
  bottom: "norm1"
  top: "conv2"
  param {
    lr_mult: 1
    decay_mult: 1
  }
  param {
    lr_mult: 2
    decay_mult: 0
  }
  convolution_param {
    num_output: 256
    pad: 2
    kernel_size: 5
    group: 2
    weight_filler {
      type: "gaussian"
      std: 0.01
    }
    bias_filler {
      type: "constant"
      value: 1
    }
  }
}
layer {
  name: "relu2"
  type: "ReLU"
  bottom: "conv2"
  top: "conv2"
}
layer {
  name: "pool2"
  type: "Pooling"
  bottom: "conv2"
  top: "pool2"
  pooling_param {
    pool: MAX
    kernel_size: 3
    stride: 2
  }
}
layer {
  name: "norm2"
  type: "LRN"
  bottom: "pool2"
  top: "norm2"
  lrn_param {
    local_size: 5
    alpha: 0.0001
    beta: 0.75
  }
}
layer {
  name: "conv3"
  type: "Convolution"
  bottom: "norm2"
  top: "conv3"
  param {
    lr_mult: 1
    decay_mult: 1
  }
  param {
    lr_mult: 2
    decay_mult: 0
  }
  convolution_param {
    num_output: 384
    pad: 1
    kernel_size: 3
    weight_filler {
      type: "gaussian"
      std: 0.01
    }
    bias_filler {
      type: "constant"
      value: 0
    }
  }
}
layer {
  name: "relu3"
  type: "ReLU"
  bottom: "conv3"
  top: "conv3"
}
layer {
  name: "conv4"
  type: "Convolution"
  bottom: "conv3"
  top: "conv4"
  param {
    lr_mult: 1
    decay_mult: 1
  }
  param {
    lr_mult: 2
    decay_mult: 0
  }
  convolution_param {
    num_output: 384
    pad: 1
    kernel_size: 3
    group: 2
    weight_filler {
      type: "gaussian"
      std: 0.01
    }
    bias_filler {
      type: "constant"
      value: 1
    }
  }
}
layer {
  name: "relu4"
  type: "ReLU"
  bottom: "conv4"
  top: "conv4"
}
layer {
  name: "conv5"
  type: "Convolution"
  bottom: "conv4"
  top: "conv5"
  param {
    lr_mult: 1
    decay_mult: 1
  }
  param {
    lr_mult: 2
    decay_mult: 0
  }
  convolution_param {
    num_output: 256
    pad: 1
    kernel_size: 3
    group: 2
    weight_filler {
      type: "gaussian"
      std: 0.01
    }
    bias_filler {
      type: "constant"
      value: 1
    }
  }
}
layer {
  name: "relu5"
  type: "ReLU"
  bottom: "conv5"
  top: "conv5"
}
layer {
  name: "pool5"
  type: "Pooling"
  bottom: "conv5"
  top: "pool5"
  pooling_param {
    pool: MAX
    kernel_size: 3
    stride: 2
  }
}
layer {
  name: "fc6"
  type: "Convolution"
  bottom: "pool5"
  top: "fc6"
  param {
    lr_mult: 1
    decay_mult: 1
  }
  param {
    lr_mult: 2
    decay_mult: 0
  }
  convolution_param {
    num_output: 4096
    kernel_size: 6
    weight_filler {
      type: "gaussian"
      std: 0.005
    }
    bias_filler {
      type: "constant"
      value: 1
    }
  }
}
layer {
  name: "relu6"
  type: "ReLU"
  bottom: "fc6"
  top: "fc6"
}
layer {
  name: "fc7"
  type: "Convolution"
  bottom: "fc6"
  top: "fc7"
  param {
    lr_mult: 1
    decay_mult: 1
  }
  param {
    lr_mult: 2
    decay_mult: 0
  }
  convolution_param {
    num_output: 4096
    kernel_size: 1
    weight_filler {
      type: "gaussian"
      std: 0.005
    }
    bias_filler {
      type: "constant"
      value: 1
    }
  }
}
layer {
  name: "relu7"
  type: "ReLU"
  bottom: "fc7"
  top: "fc7"
}
layer {
  name: "deconv-1"
  type: "Deconvolution"
  bottom: "fc7"
  top: "up-fc7"
  param {
    lr_mult: 0
    decay_mult: 0
  }
  convolution_param {
    num_output: 256
    bias_term: false
    kernel_size: 63
    group: 256
    stride: 32
    weight_filler {
      type: "bilinear"
    }
  }
}
layer {
  name: "crop"
  type: "Crop"
  bottom: "up-fc7"
  bottom: "image"
  top: "conv-feature"
}
layer {
  name: "spixel_pooling1"
  type: "SuperpixelPooling"
  bottom: "conv-feature"
  bottom: "spixel_data"
  bottom: "spixel_ptr"
  bottom: "spixel_num"
  bottom: "mask_size"
  top: "spixel_feature"
}
layer {
  name: "rpixel_pooling1"
  type: "RowPooling"
  bottom: "spixel_feature"
  bottom: "seg_data"
  bottom: "seg_ptr"
  bottom: "seg_num"
  bottom: "seg_coef"
  top: "seg_feature"
}
layer {
  name: "tracker"
  type: "Tracker"
  bottom: "seg_feature"
  bottom: "overlaps"
  bottom: "seg_num"
  bottom: "cont"
  top: "v"
  top: "vtilde"
  include {
    phase: TEST
  }
  tracker_param {
    num_track: 1800
    feature_dim: 256
    lambda: 10000
    use_softmax: false
    use_vtilde_in_c: false
  }
}
layer {
  name: "trackerLoss"
  type: "TrackerLoss"
  bottom: "v"
  bottom: "gt_overlaps"
  bottom: "gt_num"
  bottom: "cont"
  top: "supervised_loss"
  include {
    phase: TEST
  }
  tracker_loss_param {
    object_num: 6
  }
}
layer {
  name: "trackerLoss_refined"
  type: "TrackerLoss"
  bottom: "vtilde"
  bottom: "gt_overlaps"
  bottom: "gt_num"
  bottom: "cont"
  top: "supervised_loss_refined"
  include {
    phase: TEST
  }
  tracker_loss_param {
    object_num: 6
  }
}
I0122 12:17:30.005389 31600 layer_factory.hpp:76] Creating layer images
I0122 12:17:30.005401 31600 net.cpp:107] Creating Layer images
I0122 12:17:30.005406 31600 net.cpp:412] images -> image
I0122 12:17:30.005415 31600 net.cpp:412] images -> ilabel
I0122 12:17:30.005424 31600 image_data_layer.cpp:37] Opening file ./tracker_model/data/SegTrackv2_hdf5_t4/images.txt
I0122 12:17:30.006070 31600 image_data_layer.cpp:52] A total of 316 images.
I0122 12:17:30.009888 31600 image_data_layer.cpp:79] output data size: 4,3,500,500
I0122 12:17:30.023241 31600 net.cpp:151] Setting up images
I0122 12:17:30.023259 31600 net.cpp:158] Top shape: 4 3 500 500 (3000000)
I0122 12:17:30.023264 31600 net.cpp:158] Top shape: 4 (4)
I0122 12:17:30.023268 31600 net.cpp:166] Memory required for data: 12000016
I0122 12:17:30.023273 31600 layer_factory.hpp:76] Creating layer image_images_0_split
I0122 12:17:30.023284 31600 net.cpp:107] Creating Layer image_images_0_split
I0122 12:17:30.023289 31600 net.cpp:455] image_images_0_split <- image
I0122 12:17:30.023295 31600 net.cpp:412] image_images_0_split -> image_images_0_split_0
I0122 12:17:30.023304 31600 net.cpp:412] image_images_0_split -> image_images_0_split_1
I0122 12:17:30.023344 31600 net.cpp:151] Setting up image_images_0_split
I0122 12:17:30.023350 31600 net.cpp:158] Top shape: 4 3 500 500 (3000000)
I0122 12:17:30.023355 31600 net.cpp:158] Top shape: 4 3 500 500 (3000000)
I0122 12:17:30.023358 31600 net.cpp:166] Memory required for data: 36000016
I0122 12:17:30.023362 31600 layer_factory.hpp:76] Creating layer data
I0122 12:17:30.023381 31600 net.cpp:107] Creating Layer data
I0122 12:17:30.023386 31600 net.cpp:412] data -> cont
I0122 12:17:30.023396 31600 net.cpp:412] data -> mask_size
I0122 12:17:30.023406 31600 net.cpp:412] data -> spixel_data
I0122 12:17:30.023416 31600 net.cpp:412] data -> spixel_ptr
I0122 12:17:30.023423 31600 net.cpp:412] data -> spixel_num
I0122 12:17:30.023433 31600 net.cpp:412] data -> seg_data
I0122 12:17:30.023442 31600 net.cpp:412] data -> seg_ptr
I0122 12:17:30.023448 31600 net.cpp:412] data -> seg_num
I0122 12:17:30.023457 31600 net.cpp:412] data -> seg_coef
I0122 12:17:30.023464 31600 net.cpp:412] data -> overlaps
I0122 12:17:30.023473 31600 net.cpp:412] data -> gt_num
I0122 12:17:30.023479 31600 net.cpp:412] data -> gt_overlaps
I0122 12:17:30.023488 31600 hdf5_data_layer.cpp:80] Loading list of HDF5 filenames from: ./tracker_model/data/SegTrackv2_hdf5_t4/seq_data.txt
I0122 12:17:30.023666 31600 hdf5_data_layer.cpp:94] Number of HDF5 files: 20
I0122 12:17:31.625273 31600 net.cpp:151] Setting up data
I0122 12:17:31.625291 31600 net.cpp:158] Top shape: 4 1 (4)
I0122 12:17:31.625296 31600 net.cpp:158] Top shape: 4 1 2 (8)
I0122 12:17:31.625300 31600 net.cpp:158] Top shape: 4 1 230400 2 (1843200)
I0122 12:17:31.625318 31600 net.cpp:158] Top shape: 4 1 9778 (39112)
I0122 12:17:31.625321 31600 net.cpp:158] Top shape: 4 1 (4)
I0122 12:17:31.625325 31600 net.cpp:158] Top shape: 4 1 3102361 (12409444)
I0122 12:17:31.625329 31600 net.cpp:158] Top shape: 4 1 1801 (7204)
I0122 12:17:31.625334 31600 net.cpp:158] Top shape: 4 1 (4)
I0122 12:17:31.625339 31600 net.cpp:158] Top shape: 4 1 3102361 (12409444)
I0122 12:17:31.625342 31600 net.cpp:158] Top shape: 4 1 1800 1800 (12960000)
I0122 12:17:31.625347 31600 net.cpp:158] Top shape: 4 1 (4)
I0122 12:17:31.625351 31600 net.cpp:158] Top shape: 4 1 6 1800 (43200)
I0122 12:17:31.625355 31600 net.cpp:166] Memory required for data: 194846528
I0122 12:17:31.625361 31600 layer_factory.hpp:76] Creating layer cont_data_0_split
I0122 12:17:31.625370 31600 net.cpp:107] Creating Layer cont_data_0_split
I0122 12:17:31.625380 31600 net.cpp:455] cont_data_0_split <- cont
I0122 12:17:31.625391 31600 net.cpp:412] cont_data_0_split -> cont_data_0_split_0
I0122 12:17:31.625403 31600 net.cpp:412] cont_data_0_split -> cont_data_0_split_1
I0122 12:17:31.625411 31600 net.cpp:412] cont_data_0_split -> cont_data_0_split_2
I0122 12:17:31.625448 31600 net.cpp:151] Setting up cont_data_0_split
I0122 12:17:31.625454 31600 net.cpp:158] Top shape: 4 1 (4)
I0122 12:17:31.625459 31600 net.cpp:158] Top shape: 4 1 (4)
I0122 12:17:31.625463 31600 net.cpp:158] Top shape: 4 1 (4)
I0122 12:17:31.625466 31600 net.cpp:166] Memory required for data: 194846576
I0122 12:17:31.625470 31600 layer_factory.hpp:76] Creating layer seg_num_data_7_split
I0122 12:17:31.625476 31600 net.cpp:107] Creating Layer seg_num_data_7_split
I0122 12:17:31.625480 31600 net.cpp:455] seg_num_data_7_split <- seg_num
I0122 12:17:31.625486 31600 net.cpp:412] seg_num_data_7_split -> seg_num_data_7_split_0
I0122 12:17:31.625493 31600 net.cpp:412] seg_num_data_7_split -> seg_num_data_7_split_1
I0122 12:17:31.625519 31600 net.cpp:151] Setting up seg_num_data_7_split
I0122 12:17:31.625524 31600 net.cpp:158] Top shape: 4 1 (4)
I0122 12:17:31.625529 31600 net.cpp:158] Top shape: 4 1 (4)
I0122 12:17:31.625531 31600 net.cpp:166] Memory required for data: 194846608
I0122 12:17:31.625535 31600 layer_factory.hpp:76] Creating layer gt_num_data_10_split
I0122 12:17:31.625540 31600 net.cpp:107] Creating Layer gt_num_data_10_split
I0122 12:17:31.625543 31600 net.cpp:455] gt_num_data_10_split <- gt_num
I0122 12:17:31.625550 31600 net.cpp:412] gt_num_data_10_split -> gt_num_data_10_split_0
I0122 12:17:31.625555 31600 net.cpp:412] gt_num_data_10_split -> gt_num_data_10_split_1
I0122 12:17:31.625582 31600 net.cpp:151] Setting up gt_num_data_10_split
I0122 12:17:31.625588 31600 net.cpp:158] Top shape: 4 1 (4)
I0122 12:17:31.625592 31600 net.cpp:158] Top shape: 4 1 (4)
I0122 12:17:31.625596 31600 net.cpp:166] Memory required for data: 194846640
I0122 12:17:31.625598 31600 layer_factory.hpp:76] Creating layer gt_overlaps_data_11_split
I0122 12:17:31.625603 31600 net.cpp:107] Creating Layer gt_overlaps_data_11_split
I0122 12:17:31.625607 31600 net.cpp:455] gt_overlaps_data_11_split <- gt_overlaps
I0122 12:17:31.625612 31600 net.cpp:412] gt_overlaps_data_11_split -> gt_overlaps_data_11_split_0
I0122 12:17:31.625618 31600 net.cpp:412] gt_overlaps_data_11_split -> gt_overlaps_data_11_split_1
I0122 12:17:31.625646 31600 net.cpp:151] Setting up gt_overlaps_data_11_split
I0122 12:17:31.625653 31600 net.cpp:158] Top shape: 4 1 6 1800 (43200)
I0122 12:17:31.625656 31600 net.cpp:158] Top shape: 4 1 6 1800 (43200)
I0122 12:17:31.625659 31600 net.cpp:166] Memory required for data: 195192240
I0122 12:17:31.625663 31600 layer_factory.hpp:76] Creating layer silent_ilabel
I0122 12:17:31.625669 31600 net.cpp:107] Creating Layer silent_ilabel
I0122 12:17:31.625672 31600 net.cpp:455] silent_ilabel <- ilabel
I0122 12:17:31.625676 31600 net.cpp:151] Setting up silent_ilabel
I0122 12:17:31.625691 31600 net.cpp:166] Memory required for data: 195192240
I0122 12:17:31.625695 31600 layer_factory.hpp:76] Creating layer conv1
I0122 12:17:31.625705 31600 net.cpp:107] Creating Layer conv1
I0122 12:17:31.625710 31600 net.cpp:455] conv1 <- image_images_0_split_0
I0122 12:17:31.625716 31600 net.cpp:412] conv1 -> conv1
I0122 12:17:31.626976 31600 net.cpp:151] Setting up conv1
I0122 12:17:31.626986 31600 net.cpp:158] Top shape: 4 96 173 173 (11492736)
I0122 12:17:31.626989 31600 net.cpp:166] Memory required for data: 241163184
I0122 12:17:31.626999 31600 layer_factory.hpp:76] Creating layer relu1
I0122 12:17:31.627007 31600 net.cpp:107] Creating Layer relu1
I0122 12:17:31.627010 31600 net.cpp:455] relu1 <- conv1
I0122 12:17:31.627017 31600 net.cpp:398] relu1 -> conv1 (in-place)
I0122 12:17:31.627203 31600 net.cpp:151] Setting up relu1
I0122 12:17:31.627212 31600 net.cpp:158] Top shape: 4 96 173 173 (11492736)
I0122 12:17:31.627215 31600 net.cpp:166] Memory required for data: 287134128
I0122 12:17:31.627219 31600 layer_factory.hpp:76] Creating layer pool1
I0122 12:17:31.627226 31600 net.cpp:107] Creating Layer pool1
I0122 12:17:31.627230 31600 net.cpp:455] pool1 <- conv1
I0122 12:17:31.627236 31600 net.cpp:412] pool1 -> pool1
I0122 12:17:31.627358 31600 net.cpp:151] Setting up pool1
I0122 12:17:31.627365 31600 net.cpp:158] Top shape: 4 96 86 86 (2840064)
I0122 12:17:31.627369 31600 net.cpp:166] Memory required for data: 298494384
I0122 12:17:31.627373 31600 layer_factory.hpp:76] Creating layer norm1
I0122 12:17:31.627380 31600 net.cpp:107] Creating Layer norm1
I0122 12:17:31.627384 31600 net.cpp:455] norm1 <- pool1
I0122 12:17:31.627389 31600 net.cpp:412] norm1 -> norm1
I0122 12:17:31.627589 31600 net.cpp:151] Setting up norm1
I0122 12:17:31.627598 31600 net.cpp:158] Top shape: 4 96 86 86 (2840064)
I0122 12:17:31.627600 31600 net.cpp:166] Memory required for data: 309854640
I0122 12:17:31.627604 31600 layer_factory.hpp:76] Creating layer conv2
I0122 12:17:31.627612 31600 net.cpp:107] Creating Layer conv2
I0122 12:17:31.627616 31600 net.cpp:455] conv2 <- norm1
I0122 12:17:31.627622 31600 net.cpp:412] conv2 -> conv2
I0122 12:17:31.634341 31600 cudnn_conv_layer.cpp:198] Reallocating workspace storage: 28800
I0122 12:17:31.634358 31600 net.cpp:151] Setting up conv2
I0122 12:17:31.634366 31600 net.cpp:158] Top shape: 4 256 86 86 (7573504)
I0122 12:17:31.634368 31600 net.cpp:166] Memory required for data: 340148656
I0122 12:17:31.634380 31600 layer_factory.hpp:76] Creating layer relu2
I0122 12:17:31.634388 31600 net.cpp:107] Creating Layer relu2
I0122 12:17:31.634392 31600 net.cpp:455] relu2 <- conv2
I0122 12:17:31.634398 31600 net.cpp:398] relu2 -> conv2 (in-place)
I0122 12:17:31.634507 31600 net.cpp:151] Setting up relu2
I0122 12:17:31.634515 31600 net.cpp:158] Top shape: 4 256 86 86 (7573504)
I0122 12:17:31.634517 31600 net.cpp:166] Memory required for data: 370442672
I0122 12:17:31.634521 31600 layer_factory.hpp:76] Creating layer pool2
I0122 12:17:31.634527 31600 net.cpp:107] Creating Layer pool2
I0122 12:17:31.634531 31600 net.cpp:455] pool2 <- conv2
I0122 12:17:31.634536 31600 net.cpp:412] pool2 -> pool2
I0122 12:17:31.634747 31600 net.cpp:151] Setting up pool2
I0122 12:17:31.634754 31600 net.cpp:158] Top shape: 4 256 43 43 (1893376)
I0122 12:17:31.634757 31600 net.cpp:166] Memory required for data: 378016176
I0122 12:17:31.634762 31600 layer_factory.hpp:76] Creating layer norm2
I0122 12:17:31.634768 31600 net.cpp:107] Creating Layer norm2
I0122 12:17:31.634771 31600 net.cpp:455] norm2 <- pool2
I0122 12:17:31.634776 31600 net.cpp:412] norm2 -> norm2
I0122 12:17:31.634996 31600 net.cpp:151] Setting up norm2
I0122 12:17:31.635004 31600 net.cpp:158] Top shape: 4 256 43 43 (1893376)
I0122 12:17:31.635009 31600 net.cpp:166] Memory required for data: 385589680
I0122 12:17:31.635011 31600 layer_factory.hpp:76] Creating layer conv3
I0122 12:17:31.635022 31600 net.cpp:107] Creating Layer conv3
I0122 12:17:31.635026 31600 net.cpp:455] conv3 <- norm2
I0122 12:17:31.635033 31600 net.cpp:412] conv3 -> conv3
I0122 12:17:31.651851 31600 cudnn_conv_layer.cpp:198] Reallocating workspace storage: 27648
I0122 12:17:31.651871 31600 net.cpp:151] Setting up conv3
I0122 12:17:31.651880 31600 net.cpp:158] Top shape: 4 384 43 43 (2840064)
I0122 12:17:31.651882 31600 net.cpp:166] Memory required for data: 396949936
I0122 12:17:31.651895 31600 layer_factory.hpp:76] Creating layer relu3
I0122 12:17:31.651903 31600 net.cpp:107] Creating Layer relu3
I0122 12:17:31.651909 31600 net.cpp:455] relu3 <- conv3
I0122 12:17:31.651916 31600 net.cpp:398] relu3 -> conv3 (in-place)
I0122 12:17:31.652127 31600 net.cpp:151] Setting up relu3
I0122 12:17:31.652135 31600 net.cpp:158] Top shape: 4 384 43 43 (2840064)
I0122 12:17:31.652139 31600 net.cpp:166] Memory required for data: 408310192
I0122 12:17:31.652143 31600 layer_factory.hpp:76] Creating layer conv4
I0122 12:17:31.652151 31600 net.cpp:107] Creating Layer conv4
I0122 12:17:31.652155 31600 net.cpp:455] conv4 <- conv3
I0122 12:17:31.652164 31600 net.cpp:412] conv4 -> conv4
I0122 12:17:31.665529 31600 net.cpp:151] Setting up conv4
I0122 12:17:31.665546 31600 net.cpp:158] Top shape: 4 384 43 43 (2840064)
I0122 12:17:31.665549 31600 net.cpp:166] Memory required for data: 419670448
I0122 12:17:31.665557 31600 layer_factory.hpp:76] Creating layer relu4
I0122 12:17:31.665565 31600 net.cpp:107] Creating Layer relu4
I0122 12:17:31.665570 31600 net.cpp:455] relu4 <- conv4
I0122 12:17:31.665576 31600 net.cpp:398] relu4 -> conv4 (in-place)
I0122 12:17:31.665777 31600 net.cpp:151] Setting up relu4
I0122 12:17:31.665787 31600 net.cpp:158] Top shape: 4 384 43 43 (2840064)
I0122 12:17:31.665791 31600 net.cpp:166] Memory required for data: 431030704
I0122 12:17:31.665796 31600 layer_factory.hpp:76] Creating layer conv5
I0122 12:17:31.665802 31600 net.cpp:107] Creating Layer conv5
I0122 12:17:31.665807 31600 net.cpp:455] conv5 <- conv4
I0122 12:17:31.665815 31600 net.cpp:412] conv5 -> conv5
I0122 12:17:31.674981 31600 net.cpp:151] Setting up conv5
I0122 12:17:31.674991 31600 net.cpp:158] Top shape: 4 256 43 43 (1893376)
I0122 12:17:31.674995 31600 net.cpp:166] Memory required for data: 438604208
I0122 12:17:31.675009 31600 layer_factory.hpp:76] Creating layer relu5
I0122 12:17:31.675015 31600 net.cpp:107] Creating Layer relu5
I0122 12:17:31.675024 31600 net.cpp:455] relu5 <- conv5
I0122 12:17:31.675029 31600 net.cpp:398] relu5 -> conv5 (in-place)
I0122 12:17:31.675226 31600 net.cpp:151] Setting up relu5
I0122 12:17:31.675235 31600 net.cpp:158] Top shape: 4 256 43 43 (1893376)
I0122 12:17:31.675238 31600 net.cpp:166] Memory required for data: 446177712
I0122 12:17:31.675242 31600 layer_factory.hpp:76] Creating layer pool5
I0122 12:17:31.675251 31600 net.cpp:107] Creating Layer pool5
I0122 12:17:31.675254 31600 net.cpp:455] pool5 <- conv5
I0122 12:17:31.675261 31600 net.cpp:412] pool5 -> pool5
I0122 12:17:31.675398 31600 net.cpp:151] Setting up pool5
I0122 12:17:31.675406 31600 net.cpp:158] Top shape: 4 256 21 21 (451584)
I0122 12:17:31.675410 31600 net.cpp:166] Memory required for data: 447984048
I0122 12:17:31.675413 31600 layer_factory.hpp:76] Creating layer fc6
I0122 12:17:31.675423 31600 net.cpp:107] Creating Layer fc6
I0122 12:17:31.675427 31600 net.cpp:455] fc6 <- pool5
I0122 12:17:31.675433 31600 net.cpp:412] fc6 -> fc6
I0122 12:17:32.364069 31600 cudnn_conv_layer.cpp:198] Reallocating workspace storage: 110592
I0122 12:17:32.364091 31600 net.cpp:151] Setting up fc6
I0122 12:17:32.364114 31600 net.cpp:158] Top shape: 4 4096 16 16 (4194304)
I0122 12:17:32.364116 31600 net.cpp:166] Memory required for data: 464761264
I0122 12:17:32.364125 31600 layer_factory.hpp:76] Creating layer relu6
I0122 12:17:32.364133 31600 net.cpp:107] Creating Layer relu6
I0122 12:17:32.364140 31600 net.cpp:455] relu6 <- fc6
I0122 12:17:32.364147 31600 net.cpp:398] relu6 -> fc6 (in-place)
I0122 12:17:32.364369 31600 net.cpp:151] Setting up relu6
I0122 12:17:32.364377 31600 net.cpp:158] Top shape: 4 4096 16 16 (4194304)
I0122 12:17:32.364380 31600 net.cpp:166] Memory required for data: 481538480
I0122 12:17:32.364410 31600 layer_factory.hpp:76] Creating layer fc7
I0122 12:17:32.364420 31600 net.cpp:107] Creating Layer fc7
I0122 12:17:32.364428 31600 net.cpp:455] fc7 <- fc6
I0122 12:17:32.364435 31600 net.cpp:412] fc7 -> fc7
I0122 12:17:32.671759 31600 cudnn_conv_layer.cpp:198] Reallocating workspace storage: 49152
I0122 12:17:32.671782 31600 net.cpp:151] Setting up fc7
I0122 12:17:32.671789 31600 net.cpp:158] Top shape: 4 4096 16 16 (4194304)
I0122 12:17:32.671792 31600 net.cpp:166] Memory required for data: 498315696
I0122 12:17:32.671800 31600 layer_factory.hpp:76] Creating layer relu7
I0122 12:17:32.671810 31600 net.cpp:107] Creating Layer relu7
I0122 12:17:32.671815 31600 net.cpp:455] relu7 <- fc7
I0122 12:17:32.671823 31600 net.cpp:398] relu7 -> fc7 (in-place)
I0122 12:17:32.672046 31600 net.cpp:151] Setting up relu7
I0122 12:17:32.672055 31600 net.cpp:158] Top shape: 4 4096 16 16 (4194304)
I0122 12:17:32.672058 31600 net.cpp:166] Memory required for data: 515092912
I0122 12:17:32.672061 31600 layer_factory.hpp:76] Creating layer deconv-1
I0122 12:17:32.672072 31600 net.cpp:107] Creating Layer deconv-1
I0122 12:17:32.672076 31600 net.cpp:455] deconv-1 <- fc7
I0122 12:17:32.672082 31600 net.cpp:412] deconv-1 -> up-fc7
I0122 12:17:32.956284 31600 net.cpp:151] Setting up deconv-1
I0122 12:17:32.956301 31600 net.cpp:158] Top shape: 4 256 543 543 (301925376)
I0122 12:17:32.956305 31600 net.cpp:166] Memory required for data: 1722794416
I0122 12:17:32.956326 31600 layer_factory.hpp:76] Creating layer crop
I0122 12:17:32.956336 31600 net.cpp:107] Creating Layer crop
I0122 12:17:32.956341 31600 net.cpp:455] crop <- up-fc7
I0122 12:17:32.956346 31600 net.cpp:455] crop <- image_images_0_split_1
I0122 12:17:32.956353 31600 net.cpp:412] crop -> conv-feature
I0122 12:17:32.956399 31600 net.cpp:151] Setting up crop
I0122 12:17:32.956406 31600 net.cpp:158] Top shape: 4 256 500 500 (256000000)
I0122 12:17:32.956409 31600 net.cpp:166] Memory required for data: 2746794416
I0122 12:17:32.956413 31600 layer_factory.hpp:76] Creating layer spixel_pooling1
I0122 12:17:32.956420 31600 net.cpp:107] Creating Layer spixel_pooling1
I0122 12:17:32.956424 31600 net.cpp:455] spixel_pooling1 <- conv-feature
I0122 12:17:32.956429 31600 net.cpp:455] spixel_pooling1 <- spixel_data
I0122 12:17:32.956434 31600 net.cpp:455] spixel_pooling1 <- spixel_ptr
I0122 12:17:32.956439 31600 net.cpp:455] spixel_pooling1 <- spixel_num
I0122 12:17:32.956442 31600 net.cpp:455] spixel_pooling1 <- mask_size
I0122 12:17:32.956449 31600 net.cpp:412] spixel_pooling1 -> spixel_feature
I0122 12:17:32.956471 31600 net.cpp:151] Setting up spixel_pooling1
I0122 12:17:32.956477 31600 net.cpp:158] Top shape: 4 1 9777 256 (10011648)
I0122 12:17:32.956480 31600 net.cpp:166] Memory required for data: 2786841008
I0122 12:17:32.956483 31600 layer_factory.hpp:76] Creating layer rpixel_pooling1
I0122 12:17:32.956493 31600 net.cpp:107] Creating Layer rpixel_pooling1
I0122 12:17:32.956497 31600 net.cpp:455] rpixel_pooling1 <- spixel_feature
I0122 12:17:32.956502 31600 net.cpp:455] rpixel_pooling1 <- seg_data
I0122 12:17:32.956506 31600 net.cpp:455] rpixel_pooling1 <- seg_ptr
I0122 12:17:32.956511 31600 net.cpp:455] rpixel_pooling1 <- seg_num_data_7_split_0
I0122 12:17:32.956516 31600 net.cpp:455] rpixel_pooling1 <- seg_coef
I0122 12:17:32.956521 31600 net.cpp:412] rpixel_pooling1 -> seg_feature
I0122 12:17:32.956544 31600 net.cpp:151] Setting up rpixel_pooling1
I0122 12:17:32.956549 31600 net.cpp:158] Top shape: 4 1 1800 256 (1843200)
I0122 12:17:32.956553 31600 net.cpp:166] Memory required for data: 2794213808
I0122 12:17:32.956557 31600 layer_factory.hpp:76] Creating layer tracker
I0122 12:17:32.956564 31600 net.cpp:107] Creating Layer tracker
I0122 12:17:32.956568 31600 net.cpp:455] tracker <- seg_feature
I0122 12:17:32.956573 31600 net.cpp:455] tracker <- overlaps
I0122 12:17:32.956578 31600 net.cpp:455] tracker <- seg_num_data_7_split_1
I0122 12:17:32.956583 31600 net.cpp:455] tracker <- cont_data_0_split_0
I0122 12:17:32.956588 31600 net.cpp:412] tracker -> v
I0122 12:17:32.956595 31600 net.cpp:412] tracker -> vtilde
I0122 12:17:32.956615 31600 recurrent_layer.cpp:42] Initializing recurrent layer: assuming input batch contains 4 timesteps of 1 independent streams.
I0122 12:17:32.957248 31600 net.cpp:49] Initializing net from parameters: 
input: "x"
input: "overlaps"
input: "seg_num"
input: "cont"
input: "c_0"
input: "h_0"
input: "s_0"
force_backward: true
input_shape {
  dim: 4
  dim: 1
  dim: 1800
  dim: 256
}
input_shape {
  dim: 4
  dim: 1
  dim: 1800
  dim: 1800
}
input_shape {
  dim: 4
  dim: 1
}
input_shape {
  dim: 4
  dim: 1
}
input_shape {
  dim: 1
  dim: 1
  dim: 1800
  dim: 256
}
input_shape {
  dim: 1
  dim: 1
  dim: 256
  dim: 256
}
input_shape {
  dim: 1
  dim: 1
  dim: 1
}
layer {
  name: "tracker_cont_slice"
  type: "Slice"
  bottom: "cont"
  top: "cont_1"
  top: "cont_2"
  top: "cont_3"
  top: "cont_4"
  slice_param {
    axis: 0
  }
}
layer {
  name: "tracker_x_slice"
  type: "Slice"
  bottom: "x"
  top: "x_1"
  top: "x_2"
  top: "x_3"
  top: "x_4"
  slice_param {
    axis: 0
  }
}
layer {
  name: "tracker_overlaps_slice"
  type: "Slice"
  bottom: "overlaps"
  top: "overlaps_1"
  top: "overlaps_2"
  top: "overlaps_3"
  top: "overlaps_4"
  slice_param {
    axis: 0
  }
}
layer {
  name: "tracker_seg_num_slice"
  type: "Slice"
  bottom: "seg_num"
  top: "nseg_1"
  top: "nseg_2"
  top: "nseg_3"
  top: "nseg_4"
  slice_param {
    axis: 0
  }
}
layer {
  name: "tracker_overlaps_split_1"
  type: "Split"
  bottom: "overlaps_1"
  top: "overlaps1_1"
  top: "overlaps2_1"
}
layer {
  name: "tracker_x_split_1"
  type: "Split"
  bottom: "x_1"
  top: "x1_1"
  top: "x2_1"
  top: "x3_1"
  top: "x4_1"
}
layer {
  name: "tracker_cont_split_1"
  type: "Split"
  bottom: "cont_1"
  top: "cont1_1"
  top: "cont2_1"
  top: "cont3_1"
  top: "cont4_1"
}
layer {
  name: "tracker_h_split_0"
  type: "Split"
  bottom: "h_0"
  top: "h1_0"
  top: "h2_0"
}
layer {
  name: "tracker_c_split_0"
  type: "Split"
  bottom: "c_0"
  top: "c1_0"
  top: "c2_0"
}
layer {
  name: "tracker_s_cont_0"
  type: "Scalar"
  bottom: "s_0"
  bottom: "cont4_1"
  top: "s_cont_0"
  scalar_param {
    axis: 0
  }
}
layer {
  name: "tracker_s_cont_split_0"
  type: "Split"
  bottom: "s_cont_0"
  top: "s1_cont_0"
  top: "s2_cont_0"
}
layer {
  name: "tracker_hm1_0"
  type: "MatInv"
  bottom: "h1_0"
  bottom: "s1_cont_0"
  top: "hm1_0"
  matinv_param {
    lambda: 10000
  }
}
layer {
  name: "tracker_w_0"
  type: "MatMult"
  bottom: "c1_0"
  bottom: "hm1_0"
  top: "w_0"
}
layer {
  name: "tracker_v_1"
  type: "MatMult"
  bottom: "w_0"
  bottom: "x_1"
  top: "v_1"
  matmult_param {
    transpose_b: true
  }
}
layer {
  name: "tracker_rename_overlaps_1"
  type: "Split"
  bottom: "overlaps1_1"
  top: "s_overlaps_1"
}
layer {
  name: "tracker_v_cont_1"
  type: "Switch"
  bottom: "s_overlaps_1"
  bottom: "v_1"
  bottom: "cont1_1"
  top: "v_cont_1"
  switch_param {
    axis: 2
  }
}
layer {
  name: "tracker_v_split_1"
  type: "Split"
  bottom: "v_cont_1"
  top: "v1_1"
  top: "v3_1"
  top: "v4_1"
  top: "v2_1"
}
layer {
  name: "tracker_vtilde_1"
  type: "TrackerMatching"
  bottom: "v4_1"
  bottom: "overlaps2_1"
  bottom: "nseg_1"
  top: "vtilde_1"
}
layer {
  name: "tracker_vtilde_split_1"
  type: "Split"
  bottom: "vtilde_1"
  top: "vtilde1_1"
}
layer {
  name: "tracker_reshape1_1"
  type: "Reshape"
  bottom: "v1_1"
  top: "vr_1"
  reshape_param {
    shape {
      dim: 1
      dim: 1
      dim: 1800
      dim: 1800
    }
  }
}
layer {
  name: "tracker_max_1"
  type: "Pooling"
  bottom: "vr_1"
  top: "mr_1"
  pooling_param {
    pool: MAX
    kernel_h: 1800
    kernel_w: 1
  }
}
layer {
  name: "tracker_reshape2_1"
  type: "Reshape"
  bottom: "mr_1"
  top: "m_1"
  reshape_param {
    shape {
      dim: 1
      dim: 1
      dim: 1800
    }
  }
}
layer {
  name: "tracker_m_split_1"
  type: "Split"
  bottom: "m_1"
  top: "m1_1"
  top: "m2_1"
}
layer {
  name: "tracker_concat_s_elemens_1"
  type: "Concat"
  bottom: "m2_1"
  bottom: "s2_cont_0"
  top: "s_elem_1"
  concat_param {
    axis: 2
  }
}
layer {
  name: "tracker_sum_s_elemens_1"
  type: "Reduction"
  bottom: "s_elem_1"
  top: "ns_1"
  concat_param {
    axis: 2
  }
}
layer {
  name: "tracker_s_reshape_1"
  type: "Reshape"
  bottom: "ns_1"
  top: "s_1"
  reshape_param {
    shape {
      dim: 1
      dim: 1
      dim: 1
    }
  }
}
layer {
  name: "tracker_mx_1"
  type: "MatMult"
  bottom: "m1_1"
  bottom: "x2_1"
  top: "mx_1"
  matmult_param {
    diagonal_input: true
  }
}
layer {
  name: "tracker_mx_split_1"
  type: "Split"
  bottom: "mx_1"
  top: "mx1_1"
  top: "mx2_1"
}
layer {
  name: "tracker_xmx_1"
  type: "MatMult"
  bottom: "x3_1"
  bottom: "mx1_1"
  top: "xmx_1"
  matmult_param {
    transpose_a: true
  }
}
layer {
  name: "tracker_h_cont_0"
  type: "Scalar"
  bottom: "h2_0"
  bottom: "cont2_1"
  top: "h_cont_0"
  scalar_param {
    axis: 0
  }
}
layer {
  name: "tracker_h_1"
  type: "Eltwise"
  bottom: "h_cont_0"
  bottom: "xmx_1"
  top: "h_1"
  eltwise_param {
    operation: SUM
  }
}
layer {
  name: "tracker_vmx_1"
  type: "MatMult"
  bottom: "v2_1"
  bottom: "mx2_1"
  top: "vmx_1"
}
layer {
  name: "tracker_c_cont_0"
  type: "Scalar"
  bottom: "c2_0"
  bottom: "cont3_1"
  top: "c_cont_0"
  scalar_param {
    axis: 0
  }
}
layer {
  name: "tracker_c_1"
  type: "Eltwise"
  bottom: "c_cont_0"
  bottom: "vmx_1"
  top: "c_1"
  eltwise_param {
    operation: SUM
  }
}
layer {
  name: "tracker_overlaps_split_2"
  type: "Split"
  bottom: "overlaps_2"
  top: "overlaps1_2"
  top: "overlaps2_2"
}
layer {
  name: "tracker_x_split_2"
  type: "Split"
  bottom: "x_2"
  top: "x1_2"
  top: "x2_2"
  top: "x3_2"
  top: "x4_2"
}
layer {
  name: "tracker_cont_split_2"
  type: "Split"
  bottom: "cont_2"
  top: "cont1_2"
  top: "cont2_2"
  top: "cont3_2"
  top: "cont4_2"
}
layer {
  name: "tracker_h_split_1"
  type: "Split"
  bottom: "h_1"
  top: "h1_1"
  top: "h2_1"
}
layer {
  name: "tracker_c_split_1"
  type: "Split"
  bottom: "c_1"
  top: "c1_1"
  top: "c2_1"
}
layer {
  name: "tracker_s_cont_1"
  type: "Scalar"
  bottom: "s_1"
  bottom: "cont4_2"
  top: "s_cont_1"
  scalar_param {
    axis: 0
  }
}
layer {
  name: "tracker_s_cont_split_1"
  type: "Split"
  bottom: "s_cont_1"
  top: "s1_cont_1"
  top: "s2_cont_1"
}
layer {
  name: "tracker_hm1_1"
  type: "MatInv"
  bottom: "h1_1"
  bottom: "s1_cont_1"
  top: "hm1_1"
  matinv_param {
    lambda: 10000
  }
}
layer {
  name: "tracker_w_1"
  type: "MatMult"
  bottom: "c1_1"
  bottom: "hm1_1"
  top: "w_1"
}
layer {
  name: "tracker_v_2"
  type: "MatMult"
  bottom: "w_1"
  bottom: "x_2"
  top: "v_2"
  matmult_param {
    transpose_b: true
  }
}
layer {
  name: "tracker_rename_overlaps_2"
  type: "Split"
  bottom: "overlaps1_2"
  top: "s_overlaps_2"
}
layer {
  name: "tracker_v_cont_2"
  type: "Switch"
  bottom: "s_overlaps_2"
  bottom: "v_2"
  bottom: "cont1_2"
  top: "v_cont_2"
  switch_param {
    axis: 2
  }
}
layer {
  name: "tracker_v_split_2"
  type: "Split"
  bottom: "v_cont_2"
  top: "v1_2"
  top: "v3_2"
  top: "v4_2"
  top: "v2_2"
}
layer {
  name: "tracker_vtilde_2"
  type: "TrackerMatching"
  bottom: "v4_2"
  bottom: "overlaps2_2"
  bottom: "nseg_2"
  top: "vtilde_2"
}
layer {
  name: "tracker_vtilde_split_2"
  type: "Split"
  bottom: "vtilde_2"
  top: "vtilde1_2"
}
layer {
  name: "tracker_reshape1_2"
  type: "Reshape"
  bottom: "v1_2"
  top: "vr_2"
  reshape_param {
    shape {
      dim: 1
      dim: 1
      dim: 1800
      dim: 1800
    }
  }
}
layer {
  name: "tracker_max_2"
  type: "Pooling"
  bottom: "vr_2"
  top: "mr_2"
  pooling_param {
    pool: MAX
    kernel_h: 1800
    kernel_w: 1
  }
}
layer {
  name: "tracker_reshape2_2"
  type: "Reshape"
  bottom: "mr_2"
  top: "m_2"
  reshape_param {
    shape {
      dim: 1
      dim: 1
      dim: 1800
    }
  }
}
layer {
  name: "tracker_m_split_2"
  type: "Split"
  bottom: "m_2"
  top: "m1_2"
  top: "m2_2"
}
layer {
  name: "tracker_concat_s_elemens_2"
  type: "Concat"
  bottom: "m2_2"
  bottom: "s2_cont_1"
  top: "s_elem_2"
  concat_param {
    axis: 2
  }
}
layer {
  name: "tracker_sum_s_elemens_2"
  type: "Reduction"
  bottom: "s_elem_2"
  top: "ns_2"
  concat_param {
    axis: 2
  }
}
layer {
  name: "tracker_s_reshape_2"
  type: "Reshape"
  bottom: "ns_2"
  top: "s_2"
  reshape_param {
    shape {
      dim: 1
      dim: 1
      dim: 1
    }
  }
}
layer {
  name: "tracker_mx_2"
  type: "MatMult"
  bottom: "m1_2"
  bottom: "x2_2"
  top: "mx_2"
  matmult_param {
    diagonal_input: true
  }
}
layer {
  name: "tracker_mx_split_2"
  type: "Split"
  bottom: "mx_2"
  top: "mx1_2"
  top: "mx2_2"
}
layer {
  name: "tracker_xmx_2"
  type: "MatMult"
  bottom: "x3_2"
  bottom: "mx1_2"
  top: "xmx_2"
  matmult_param {
    transpose_a: true
  }
}
layer {
  name: "tracker_h_cont_1"
  type: "Scalar"
  bottom: "h2_1"
  bottom: "cont2_2"
  top: "h_cont_1"
  scalar_param {
    axis: 0
  }
}
layer {
  name: "tracker_h_2"
  type: "Eltwise"
  bottom: "h_cont_1"
  bottom: "xmx_2"
  top: "h_2"
  eltwise_param {
    operation: SUM
  }
}
layer {
  name: "tracker_vmx_2"
  type: "MatMult"
  bottom: "v2_2"
  bottom: "mx2_2"
  top: "vmx_2"
}
layer {
  name: "tracker_c_cont_1"
  type: "Scalar"
  bottom: "c2_1"
  bottom: "cont3_2"
  top: "c_cont_1"
  scalar_param {
    axis: 0
  }
}
layer {
  name: "tracker_c_2"
  type: "Eltwise"
  bottom: "c_cont_1"
  bottom: "vmx_2"
  top: "c_2"
  eltwise_param {
    operation: SUM
  }
}
layer {
  name: "tracker_overlaps_split_3"
  type: "Split"
  bottom: "overlaps_3"
  top: "overlaps1_3"
  top: "overlaps2_3"
}
layer {
  name: "tracker_x_split_3"
  type: "Split"
  bottom: "x_3"
  top: "x1_3"
  top: "x2_3"
  top: "x3_3"
  top: "x4_3"
}
layer {
  name: "tracker_cont_split_3"
  type: "Split"
  bottom: "cont_3"
  top: "cont1_3"
  top: "cont2_3"
  top: "cont3_3"
  top: "cont4_3"
}
layer {
  name: "tracker_h_split_2"
  type: "Split"
  bottom: "h_2"
  top: "h1_2"
  top: "h2_2"
}
layer {
  name: "tracker_c_split_2"
  type: "Split"
  bottom: "c_2"
  top: "c1_2"
  top: "c2_2"
}
layer {
  name: "tracker_s_cont_2"
  type: "Scalar"
  bottom: "s_2"
  bottom: "cont4_3"
  top: "s_cont_2"
  scalar_param {
    axis: 0
  }
}
layer {
  name: "tracker_s_cont_split_2"
  type: "Split"
  bottom: "s_cont_2"
  top: "s1_cont_2"
  top: "s2_cont_2"
}
layer {
  name: "tracker_hm1_2"
  type: "MatInv"
  bottom: "h1_2"
  bottom: "s1_cont_2"
  top: "hm1_2"
  matinv_param {
    lambda: 10000
  }
}
layer {
  name: "tracker_w_2"
  type: "MatMult"
  bottom: "c1_2"
  bottom: "hm1_2"
  top: "w_2"
}
layer {
  name: "tracker_v_3"
  type: "MatMult"
  bottom: "w_2"
  bottom: "x_3"
  top: "v_3"
  matmult_param {
    transpose_b: true
  }
}
layer {
  name: "tracker_rename_overlaps_3"
  type: "Split"
  bottom: "overlaps1_3"
  top: "s_overlaps_3"
}
layer {
  name: "tracker_v_cont_3"
  type: "Switch"
  bottom: "s_overlaps_3"
  bottom: "v_3"
  bottom: "cont1_3"
  top: "v_cont_3"
  switch_param {
    axis: 2
  }
}
layer {
  name: "tracker_v_split_3"
  type: "Split"
  bottom: "v_cont_3"
  top: "v1_3"
  top: "v3_3"
  top: "v4_3"
  top: "v2_3"
}
layer {
  name: "tracker_vtilde_3"
  type: "TrackerMatching"
  bottom: "v4_3"
  bottom: "overlaps2_3"
  bottom: "nseg_3"
  top: "vtilde_3"
}
layer {
  name: "tracker_vtilde_split_3"
  type: "Split"
  bottom: "vtilde_3"
  top: "vtilde1_3"
}
layer {
  name: "tracker_reshape1_3"
  type: "Reshape"
  bottom: "v1_3"
  top: "vr_3"
  reshape_param {
    shape {
      dim: 1
      dim: 1
      dim: 1800
      dim: 1800
    }
  }
}
layer {
  name: "tracker_max_3"
  type: "Pooling"
  bottom: "vr_3"
  top: "mr_3"
  pooling_param {
    pool: MAX
    kernel_h: 1800
    kernel_w: 1
  }
}
layer {
  name: "tracker_reshape2_3"
  type: "Reshape"
  bottom: "mr_3"
  top: "m_3"
  reshape_param {
    shape {
      dim: 1
      dim: 1
      dim: 1800
    }
  }
}
layer {
  name: "tracker_m_split_3"
  type: "Split"
  bottom: "m_3"
  top: "m1_3"
  top: "m2_3"
}
layer {
  name: "tracker_concat_s_elemens_3"
  type: "Concat"
  bottom: "m2_3"
  bottom: "s2_cont_2"
  top: "s_elem_3"
  concat_param {
    axis: 2
  }
}
layer {
  name: "tracker_sum_s_elemens_3"
  type: "Reduction"
  bottom: "s_elem_3"
  top: "ns_3"
  concat_param {
    axis: 2
  }
}
layer {
  name: "tracker_s_reshape_3"
  type: "Reshape"
  bottom: "ns_3"
  top: "s_3"
  reshape_param {
    shape {
      dim: 1
      dim: 1
      dim: 1
    }
  }
}
layer {
  name: "tracker_mx_3"
  type: "MatMult"
  bottom: "m1_3"
  bottom: "x2_3"
  top: "mx_3"
  matmult_param {
    diagonal_input: true
  }
}
layer {
  name: "tracker_mx_split_3"
  type: "Split"
  bottom: "mx_3"
  top: "mx1_3"
  top: "mx2_3"
}
layer {
  name: "tracker_xmx_3"
  type: "MatMult"
  bottom: "x3_3"
  bottom: "mx1_3"
  top: "xmx_3"
  matmult_param {
    transpose_a: true
  }
}
layer {
  name: "tracker_h_cont_2"
  type: "Scalar"
  bottom: "h2_2"
  bottom: "cont2_3"
  top: "h_cont_2"
  scalar_param {
    axis: 0
  }
}
layer {
  name: "tracker_h_3"
  type: "Eltwise"
  bottom: "h_cont_2"
  bottom: "xmx_3"
  top: "h_3"
  eltwise_param {
    operation: SUM
  }
}
layer {
  name: "tracker_vmx_3"
  type: "MatMult"
  bottom: "v2_3"
  bottom: "mx2_3"
  top: "vmx_3"
}
layer {
  name: "tracker_c_cont_2"
  type: "Scalar"
  bottom: "c2_2"
  bottom: "cont3_3"
  top: "c_cont_2"
  scalar_param {
    axis: 0
  }
}
layer {
  name: "tracker_c_3"
  type: "Eltwise"
  bottom: "c_cont_2"
  bottom: "vmx_3"
  top: "c_3"
  eltwise_param {
    operation: SUM
  }
}
layer {
  name: "tracker_overlaps_split_4"
  type: "Split"
  bottom: "overlaps_4"
  top: "overlaps1_4"
  top: "overlaps2_4"
}
layer {
  name: "tracker_x_split_4"
  type: "Split"
  bottom: "x_4"
  top: "x1_4"
  top: "x2_4"
  top: "x3_4"
  top: "x4_4"
}
layer {
  name: "tracker_cont_split_4"
  type: "Split"
  bottom: "cont_4"
  top: "cont1_4"
  top: "cont2_4"
  top: "cont3_4"
  top: "cont4_4"
}
layer {
  name: "tracker_h_split_3"
  type: "Split"
  bottom: "h_3"
  top: "h1_3"
  top: "h2_3"
}
layer {
  name: "tracker_c_split_3"
  type: "Split"
  bottom: "c_3"
  top: "c1_3"
  top: "c2_3"
}
layer {
  name: "tracker_s_cont_3"
  type: "Scalar"
  bottom: "s_3"
  bottom: "cont4_4"
  top: "s_cont_3"
  scalar_param {
    axis: 0
  }
}
layer {
  name: "tracker_s_cont_split_3"
  type: "Split"
  bottom: "s_cont_3"
  top: "s1_cont_3"
  top: "s2_cont_3"
}
layer {
  name: "tracker_hm1_3"
  type: "MatInv"
  bottom: "h1_3"
  bottom: "s1_cont_3"
  top: "hm1_3"
  matinv_param {
    lambda: 10000
  }
}
layer {
  name: "tracker_w_3"
  type: "MatMult"
  bottom: "c1_3"
  bottom: "hm1_3"
  top: "w_3"
}
layer {
  name: "tracker_v_4"
  type: "MatMult"
  bottom: "w_3"
  bottom: "x_4"
  top: "v_4"
  matmult_param {
    transpose_b: true
  }
}
layer {
  name: "tracker_rename_overlaps_4"
  type: "Split"
  bottom: "overlaps1_4"
  top: "s_overlaps_4"
}
layer {
  name: "tracker_v_cont_4"
  type: "Switch"
  bottom: "s_overlaps_4"
  bottom: "v_4"
  bottom: "cont1_4"
  top: "v_cont_4"
  switch_param {
    axis: 2
  }
}
layer {
  name: "tracker_v_split_4"
  type: "Split"
  bottom: "v_cont_4"
  top: "v1_4"
  top: "v3_4"
  top: "v4_4"
  top: "v2_4"
}
layer {
  name: "tracker_vtilde_4"
  type: "TrackerMatching"
  bottom: "v4_4"
  bottom: "overlaps2_4"
  bottom: "nseg_4"
  top: "vtilde_4"
}
layer {
  name: "tracker_vtilde_split_4"
  type: "Split"
  bottom: "vtilde_4"
  top: "vtilde1_4"
}
layer {
  name: "tracker_reshape1_4"
  type: "Reshape"
  bottom: "v1_4"
  top: "vr_4"
  reshape_param {
    shape {
      dim: 1
      dim: 1
      dim: 1800
      dim: 1800
    }
  }
}
layer {
  name: "tracker_max_4"
  type: "Pooling"
  bottom: "vr_4"
  top: "mr_4"
  pooling_param {
    pool: MAX
    kernel_h: 1800
    kernel_w: 1
  }
}
layer {
  name: "tracker_reshape2_4"
  type: "Reshape"
  bottom: "mr_4"
  top: "m_4"
  reshape_param {
    shape {
      dim: 1
      dim: 1
      dim: 1800
    }
  }
}
layer {
  name: "tracker_m_split_4"
  type: "Split"
  bottom: "m_4"
  top: "m1_4"
  top: "m2_4"
}
layer {
  name: "tracker_concat_s_elemens_4"
  type: "Concat"
  bottom: "m2_4"
  bottom: "s2_cont_3"
  top: "s_elem_4"
  concat_param {
    axis: 2
  }
}
layer {
  name: "tracker_sum_s_elemens_4"
  type: "Reduction"
  bottom: "s_elem_4"
  top: "ns_4"
  concat_param {
    axis: 2
  }
}
layer {
  name: "tracker_s_reshape_4"
  type: "Reshape"
  bottom: "ns_4"
  top: "s_4"
  reshape_param {
    shape {
      dim: 1
      dim: 1
      dim: 1
    }
  }
}
layer {
  name: "tracker_mx_4"
  type: "MatMult"
  bottom: "m1_4"
  bottom: "x2_4"
  top: "mx_4"
  matmult_param {
    diagonal_input: true
  }
}
layer {
  name: "tracker_mx_split_4"
  type: "Split"
  bottom: "mx_4"
  top: "mx1_4"
  top: "mx2_4"
}
layer {
  name: "tracker_xmx_4"
  type: "MatMult"
  bottom: "x3_4"
  bottom: "mx1_4"
  top: "xmx_4"
  matmult_param {
    transpose_a: true
  }
}
layer {
  name: "tracker_h_cont_3"
  type: "Scalar"
  bottom: "h2_3"
  bottom: "cont2_4"
  top: "h_cont_3"
  scalar_param {
    axis: 0
  }
}
layer {
  name: "tracker_h_4"
  type: "Eltwise"
  bottom: "h_cont_3"
  bottom: "xmx_4"
  top: "h_4"
  eltwise_param {
    operation: SUM
  }
}
layer {
  name: "tracker_vmx_4"
  type: "MatMult"
  bottom: "v2_4"
  bottom: "mx2_4"
  top: "vmx_4"
}
layer {
  name: "tracker_c_cont_3"
  type: "Scalar"
  bottom: "c2_3"
  bottom: "cont3_4"
  top: "c_cont_3"
  scalar_param {
    axis: 0
  }
}
layer {
  name: "tracker_c_4"
  type: "Eltwise"
  bottom: "c_cont_3"
  bottom: "vmx_4"
  top: "c_4"
  eltwise_param {
    operation: SUM
  }
}
layer {
  name: "tracker_v_concat"
  type: "Concat"
  bottom: "v3_1"
  bottom: "v3_2"
  bottom: "v3_3"
  bottom: "v3_4"
  top: "v"
  concat_param {
    axis: 0
  }
}
layer {
  name: "tracker_vtilde_concat"
  type: "Concat"
  bottom: "vtilde1_1"
  bottom: "vtilde1_2"
  bottom: "vtilde1_3"
  bottom: "vtilde1_4"
  top: "vtilde"
  concat_param {
    axis: 0
  }
}
I0122 12:17:32.957840 31600 net.cpp:414] Input 0 -> x
I0122 12:17:32.957872 31600 net.cpp:414] Input 1 -> overlaps
I0122 12:17:32.957895 31600 net.cpp:414] Input 2 -> seg_num
I0122 12:17:32.957916 31600 net.cpp:414] Input 3 -> cont
I0122 12:17:32.957938 31600 net.cpp:414] Input 4 -> c_0
I0122 12:17:32.957958 31600 net.cpp:414] Input 5 -> h_0
I0122 12:17:32.957978 31600 net.cpp:414] Input 6 -> s_0
I0122 12:17:32.958014 31600 layer_factory.hpp:76] Creating layer tracker_cont_slice
I0122 12:17:32.958021 31600 net.cpp:107] Creating Layer tracker_cont_slice
I0122 12:17:32.958024 31600 net.cpp:455] tracker_cont_slice <- cont
I0122 12:17:32.958030 31600 net.cpp:412] tracker_cont_slice -> cont_1
I0122 12:17:32.958039 31600 net.cpp:412] tracker_cont_slice -> cont_2
I0122 12:17:32.958045 31600 net.cpp:412] tracker_cont_slice -> cont_3
I0122 12:17:32.958052 31600 net.cpp:412] tracker_cont_slice -> cont_4
I0122 12:17:32.958111 31600 net.cpp:151] Setting up tracker_cont_slice
I0122 12:17:32.958117 31600 net.cpp:158] Top shape: 1 1 (1)
I0122 12:17:32.958122 31600 net.cpp:158] Top shape: 1 1 (1)
I0122 12:17:32.958125 31600 net.cpp:158] Top shape: 1 1 (1)
I0122 12:17:32.958129 31600 net.cpp:158] Top shape: 1 1 (1)
I0122 12:17:32.958132 31600 net.cpp:166] Memory required for data: 16
I0122 12:17:32.958137 31600 layer_factory.hpp:76] Creating layer tracker_x_slice
I0122 12:17:32.958142 31600 net.cpp:107] Creating Layer tracker_x_slice
I0122 12:17:32.958145 31600 net.cpp:455] tracker_x_slice <- x
I0122 12:17:32.958150 31600 net.cpp:412] tracker_x_slice -> x_1
I0122 12:17:32.958158 31600 net.cpp:412] tracker_x_slice -> x_2
I0122 12:17:32.958166 31600 net.cpp:412] tracker_x_slice -> x_3
I0122 12:17:32.958173 31600 net.cpp:412] tracker_x_slice -> x_4
I0122 12:17:32.958231 31600 net.cpp:151] Setting up tracker_x_slice
I0122 12:17:32.958237 31600 net.cpp:158] Top shape: 1 1 1800 256 (460800)
I0122 12:17:32.958242 31600 net.cpp:158] Top shape: 1 1 1800 256 (460800)
I0122 12:17:32.958246 31600 net.cpp:158] Top shape: 1 1 1800 256 (460800)
I0122 12:17:32.958250 31600 net.cpp:158] Top shape: 1 1 1800 256 (460800)
I0122 12:17:32.958253 31600 net.cpp:166] Memory required for data: 7372816
I0122 12:17:32.958257 31600 layer_factory.hpp:76] Creating layer x_1_tracker_x_slice_0_split
I0122 12:17:32.958266 31600 net.cpp:107] Creating Layer x_1_tracker_x_slice_0_split
I0122 12:17:32.958268 31600 net.cpp:455] x_1_tracker_x_slice_0_split <- x_1
I0122 12:17:32.958273 31600 net.cpp:412] x_1_tracker_x_slice_0_split -> x_1_tracker_x_slice_0_split_0
I0122 12:17:32.958279 31600 net.cpp:412] x_1_tracker_x_slice_0_split -> x_1_tracker_x_slice_0_split_1
I0122 12:17:32.958317 31600 net.cpp:151] Setting up x_1_tracker_x_slice_0_split
I0122 12:17:32.958329 31600 net.cpp:158] Top shape: 1 1 1800 256 (460800)
I0122 12:17:32.958334 31600 net.cpp:158] Top shape: 1 1 1800 256 (460800)
I0122 12:17:32.958338 31600 net.cpp:166] Memory required for data: 11059216
I0122 12:17:32.958341 31600 layer_factory.hpp:76] Creating layer x_2_tracker_x_slice_1_split
I0122 12:17:32.958346 31600 net.cpp:107] Creating Layer x_2_tracker_x_slice_1_split
I0122 12:17:32.958349 31600 net.cpp:455] x_2_tracker_x_slice_1_split <- x_2
I0122 12:17:32.958355 31600 net.cpp:412] x_2_tracker_x_slice_1_split -> x_2_tracker_x_slice_1_split_0
I0122 12:17:32.958361 31600 net.cpp:412] x_2_tracker_x_slice_1_split -> x_2_tracker_x_slice_1_split_1
I0122 12:17:32.958397 31600 net.cpp:151] Setting up x_2_tracker_x_slice_1_split
I0122 12:17:32.958402 31600 net.cpp:158] Top shape: 1 1 1800 256 (460800)
I0122 12:17:32.958407 31600 net.cpp:158] Top shape: 1 1 1800 256 (460800)
I0122 12:17:32.958410 31600 net.cpp:166] Memory required for data: 14745616
I0122 12:17:32.958413 31600 layer_factory.hpp:76] Creating layer x_3_tracker_x_slice_2_split
I0122 12:17:32.958418 31600 net.cpp:107] Creating Layer x_3_tracker_x_slice_2_split
I0122 12:17:32.958422 31600 net.cpp:455] x_3_tracker_x_slice_2_split <- x_3
I0122 12:17:32.958427 31600 net.cpp:412] x_3_tracker_x_slice_2_split -> x_3_tracker_x_slice_2_split_0
I0122 12:17:32.958433 31600 net.cpp:412] x_3_tracker_x_slice_2_split -> x_3_tracker_x_slice_2_split_1
I0122 12:17:32.958467 31600 net.cpp:151] Setting up x_3_tracker_x_slice_2_split
I0122 12:17:32.958472 31600 net.cpp:158] Top shape: 1 1 1800 256 (460800)
I0122 12:17:32.958477 31600 net.cpp:158] Top shape: 1 1 1800 256 (460800)
I0122 12:17:32.958480 31600 net.cpp:166] Memory required for data: 18432016
I0122 12:17:32.958483 31600 layer_factory.hpp:76] Creating layer x_4_tracker_x_slice_3_split
I0122 12:17:32.958487 31600 net.cpp:107] Creating Layer x_4_tracker_x_slice_3_split
I0122 12:17:32.958492 31600 net.cpp:455] x_4_tracker_x_slice_3_split <- x_4
I0122 12:17:32.958495 31600 net.cpp:412] x_4_tracker_x_slice_3_split -> x_4_tracker_x_slice_3_split_0
I0122 12:17:32.958501 31600 net.cpp:412] x_4_tracker_x_slice_3_split -> x_4_tracker_x_slice_3_split_1
I0122 12:17:32.958535 31600 net.cpp:151] Setting up x_4_tracker_x_slice_3_split
I0122 12:17:32.958539 31600 net.cpp:158] Top shape: 1 1 1800 256 (460800)
I0122 12:17:32.958544 31600 net.cpp:158] Top shape: 1 1 1800 256 (460800)
I0122 12:17:32.958547 31600 net.cpp:166] Memory required for data: 22118416
I0122 12:17:32.958550 31600 layer_factory.hpp:76] Creating layer tracker_overlaps_slice
I0122 12:17:32.958555 31600 net.cpp:107] Creating Layer tracker_overlaps_slice
I0122 12:17:32.958559 31600 net.cpp:455] tracker_overlaps_slice <- overlaps
I0122 12:17:32.958564 31600 net.cpp:412] tracker_overlaps_slice -> overlaps_1
I0122 12:17:32.958571 31600 net.cpp:412] tracker_overlaps_slice -> overlaps_2
I0122 12:17:32.958577 31600 net.cpp:412] tracker_overlaps_slice -> overlaps_3
I0122 12:17:32.958585 31600 net.cpp:412] tracker_overlaps_slice -> overlaps_4
I0122 12:17:32.958644 31600 net.cpp:151] Setting up tracker_overlaps_slice
I0122 12:17:32.958649 31600 net.cpp:158] Top shape: 1 1 1800 1800 (3240000)
I0122 12:17:32.958653 31600 net.cpp:158] Top shape: 1 1 1800 1800 (3240000)
I0122 12:17:32.958657 31600 net.cpp:158] Top shape: 1 1 1800 1800 (3240000)
I0122 12:17:32.958662 31600 net.cpp:158] Top shape: 1 1 1800 1800 (3240000)
I0122 12:17:32.958665 31600 net.cpp:166] Memory required for data: 73958416
I0122 12:17:32.958668 31600 layer_factory.hpp:76] Creating layer tracker_seg_num_slice
I0122 12:17:32.958673 31600 net.cpp:107] Creating Layer tracker_seg_num_slice
I0122 12:17:32.958676 31600 net.cpp:455] tracker_seg_num_slice <- seg_num
I0122 12:17:32.958683 31600 net.cpp:412] tracker_seg_num_slice -> nseg_1
I0122 12:17:32.958689 31600 net.cpp:412] tracker_seg_num_slice -> nseg_2
I0122 12:17:32.958695 31600 net.cpp:412] tracker_seg_num_slice -> nseg_3
I0122 12:17:32.958701 31600 net.cpp:412] tracker_seg_num_slice -> nseg_4
I0122 12:17:32.958768 31600 net.cpp:151] Setting up tracker_seg_num_slice
I0122 12:17:32.958773 31600 net.cpp:158] Top shape: 1 1 (1)
I0122 12:17:32.958778 31600 net.cpp:158] Top shape: 1 1 (1)
I0122 12:17:32.958782 31600 net.cpp:158] Top shape: 1 1 (1)
I0122 12:17:32.958786 31600 net.cpp:158] Top shape: 1 1 (1)
I0122 12:17:32.958789 31600 net.cpp:166] Memory required for data: 73958432
I0122 12:17:32.958792 31600 layer_factory.hpp:76] Creating layer tracker_overlaps_split_1
I0122 12:17:32.958798 31600 net.cpp:107] Creating Layer tracker_overlaps_split_1
I0122 12:17:32.958801 31600 net.cpp:455] tracker_overlaps_split_1 <- overlaps_1
I0122 12:17:32.958808 31600 net.cpp:412] tracker_overlaps_split_1 -> overlaps1_1
I0122 12:17:32.958814 31600 net.cpp:412] tracker_overlaps_split_1 -> overlaps2_1
I0122 12:17:32.958850 31600 net.cpp:151] Setting up tracker_overlaps_split_1
I0122 12:17:32.958855 31600 net.cpp:158] Top shape: 1 1 1800 1800 (3240000)
I0122 12:17:32.958860 31600 net.cpp:158] Top shape: 1 1 1800 1800 (3240000)
I0122 12:17:32.958863 31600 net.cpp:166] Memory required for data: 99878432
I0122 12:17:32.958866 31600 layer_factory.hpp:76] Creating layer tracker_x_split_1
I0122 12:17:32.958870 31600 net.cpp:107] Creating Layer tracker_x_split_1
I0122 12:17:32.958874 31600 net.cpp:455] tracker_x_split_1 <- x_1_tracker_x_slice_0_split_0
I0122 12:17:32.958879 31600 net.cpp:412] tracker_x_split_1 -> x1_1
I0122 12:17:32.958885 31600 net.cpp:412] tracker_x_split_1 -> x2_1
I0122 12:17:32.958891 31600 net.cpp:412] tracker_x_split_1 -> x3_1
I0122 12:17:32.958897 31600 net.cpp:412] tracker_x_split_1 -> x4_1
I0122 12:17:32.958955 31600 net.cpp:151] Setting up tracker_x_split_1
I0122 12:17:32.958961 31600 net.cpp:158] Top shape: 1 1 1800 256 (460800)
I0122 12:17:32.958964 31600 net.cpp:158] Top shape: 1 1 1800 256 (460800)
I0122 12:17:32.958968 31600 net.cpp:158] Top shape: 1 1 1800 256 (460800)
I0122 12:17:32.958973 31600 net.cpp:158] Top shape: 1 1 1800 256 (460800)
I0122 12:17:32.958976 31600 net.cpp:166] Memory required for data: 107251232
I0122 12:17:32.958979 31600 layer_factory.hpp:76] Creating layer tracker_cont_split_1
I0122 12:17:32.958983 31600 net.cpp:107] Creating Layer tracker_cont_split_1
I0122 12:17:32.958987 31600 net.cpp:455] tracker_cont_split_1 <- cont_1
I0122 12:17:32.958992 31600 net.cpp:412] tracker_cont_split_1 -> cont1_1
I0122 12:17:32.958999 31600 net.cpp:412] tracker_cont_split_1 -> cont2_1
I0122 12:17:32.959005 31600 net.cpp:412] tracker_cont_split_1 -> cont3_1
I0122 12:17:32.959012 31600 net.cpp:412] tracker_cont_split_1 -> cont4_1
I0122 12:17:32.959069 31600 net.cpp:151] Setting up tracker_cont_split_1
I0122 12:17:32.959074 31600 net.cpp:158] Top shape: 1 1 (1)
I0122 12:17:32.959079 31600 net.cpp:158] Top shape: 1 1 (1)
I0122 12:17:32.959082 31600 net.cpp:158] Top shape: 1 1 (1)
I0122 12:17:32.959086 31600 net.cpp:158] Top shape: 1 1 (1)
I0122 12:17:32.959089 31600 net.cpp:166] Memory required for data: 107251248
I0122 12:17:32.959092 31600 layer_factory.hpp:76] Creating layer tracker_h_split_0
I0122 12:17:32.959097 31600 net.cpp:107] Creating Layer tracker_h_split_0
I0122 12:17:32.959101 31600 net.cpp:455] tracker_h_split_0 <- h_0
I0122 12:17:32.959106 31600 net.cpp:412] tracker_h_split_0 -> h1_0
I0122 12:17:32.959111 31600 net.cpp:412] tracker_h_split_0 -> h2_0
I0122 12:17:32.959144 31600 net.cpp:151] Setting up tracker_h_split_0
I0122 12:17:32.959149 31600 net.cpp:158] Top shape: 1 1 256 256 (65536)
I0122 12:17:32.959154 31600 net.cpp:158] Top shape: 1 1 256 256 (65536)
I0122 12:17:32.959157 31600 net.cpp:166] Memory required for data: 107775536
I0122 12:17:32.959161 31600 layer_factory.hpp:76] Creating layer tracker_c_split_0
I0122 12:17:32.959164 31600 net.cpp:107] Creating Layer tracker_c_split_0
I0122 12:17:32.959168 31600 net.cpp:455] tracker_c_split_0 <- c_0
I0122 12:17:32.959172 31600 net.cpp:412] tracker_c_split_0 -> c1_0
I0122 12:17:32.959178 31600 net.cpp:412] tracker_c_split_0 -> c2_0
I0122 12:17:32.959211 31600 net.cpp:151] Setting up tracker_c_split_0
I0122 12:17:32.959216 31600 net.cpp:158] Top shape: 1 1 1800 256 (460800)
I0122 12:17:32.959226 31600 net.cpp:158] Top shape: 1 1 1800 256 (460800)
I0122 12:17:32.959229 31600 net.cpp:166] Memory required for data: 111461936
I0122 12:17:32.959233 31600 layer_factory.hpp:76] Creating layer tracker_s_cont_0
I0122 12:17:32.959244 31600 net.cpp:107] Creating Layer tracker_s_cont_0
I0122 12:17:32.959249 31600 net.cpp:455] tracker_s_cont_0 <- s_0
I0122 12:17:32.959252 31600 net.cpp:455] tracker_s_cont_0 <- cont4_1
I0122 12:17:32.959259 31600 net.cpp:412] tracker_s_cont_0 -> s_cont_0
I0122 12:17:32.959328 31600 net.cpp:151] Setting up tracker_s_cont_0
I0122 12:17:32.959334 31600 net.cpp:158] Top shape: 1 1 1 (1)
I0122 12:17:32.959337 31600 net.cpp:166] Memory required for data: 111461940
I0122 12:17:32.959341 31600 layer_factory.hpp:76] Creating layer tracker_s_cont_split_0
I0122 12:17:32.959345 31600 net.cpp:107] Creating Layer tracker_s_cont_split_0
I0122 12:17:32.959348 31600 net.cpp:455] tracker_s_cont_split_0 <- s_cont_0
I0122 12:17:32.959357 31600 net.cpp:412] tracker_s_cont_split_0 -> s1_cont_0
I0122 12:17:32.959362 31600 net.cpp:412] tracker_s_cont_split_0 -> s2_cont_0
I0122 12:17:32.959394 31600 net.cpp:151] Setting up tracker_s_cont_split_0
I0122 12:17:32.959399 31600 net.cpp:158] Top shape: 1 1 1 (1)
I0122 12:17:32.959404 31600 net.cpp:158] Top shape: 1 1 1 (1)
I0122 12:17:32.959408 31600 net.cpp:166] Memory required for data: 111461948
I0122 12:17:32.959410 31600 layer_factory.hpp:76] Creating layer tracker_hm1_0
I0122 12:17:32.959419 31600 net.cpp:107] Creating Layer tracker_hm1_0
I0122 12:17:32.959421 31600 net.cpp:455] tracker_hm1_0 <- h1_0
I0122 12:17:32.959426 31600 net.cpp:455] tracker_hm1_0 <- s1_cont_0
I0122 12:17:32.959430 31600 net.cpp:412] tracker_hm1_0 -> hm1_0
I0122 12:17:32.959471 31600 net.cpp:151] Setting up tracker_hm1_0
I0122 12:17:32.959476 31600 net.cpp:158] Top shape: 1 1 256 256 (65536)
I0122 12:17:32.959481 31600 net.cpp:166] Memory required for data: 111724092
I0122 12:17:32.959483 31600 layer_factory.hpp:76] Creating layer tracker_w_0
I0122 12:17:32.959489 31600 net.cpp:107] Creating Layer tracker_w_0
I0122 12:17:32.959493 31600 net.cpp:455] tracker_w_0 <- c1_0
I0122 12:17:32.959497 31600 net.cpp:455] tracker_w_0 <- hm1_0
I0122 12:17:32.959502 31600 net.cpp:412] tracker_w_0 -> w_0
I0122 12:17:32.959525 31600 net.cpp:151] Setting up tracker_w_0
I0122 12:17:32.959530 31600 net.cpp:158] Top shape: 1 1 1800 256 (460800)
I0122 12:17:32.959533 31600 net.cpp:166] Memory required for data: 113567292
I0122 12:17:32.959537 31600 layer_factory.hpp:76] Creating layer tracker_v_1
I0122 12:17:32.959542 31600 net.cpp:107] Creating Layer tracker_v_1
I0122 12:17:32.959544 31600 net.cpp:455] tracker_v_1 <- w_0
I0122 12:17:32.959549 31600 net.cpp:455] tracker_v_1 <- x_1_tracker_x_slice_0_split_1
I0122 12:17:32.959554 31600 net.cpp:412] tracker_v_1 -> v_1
I0122 12:17:32.959575 31600 net.cpp:151] Setting up tracker_v_1
I0122 12:17:32.959580 31600 net.cpp:158] Top shape: 1 1 1800 1800 (3240000)
I0122 12:17:32.959584 31600 net.cpp:166] Memory required for data: 126527292
I0122 12:17:32.959588 31600 layer_factory.hpp:76] Creating layer tracker_rename_overlaps_1
I0122 12:17:32.959591 31600 net.cpp:107] Creating Layer tracker_rename_overlaps_1
I0122 12:17:32.959595 31600 net.cpp:455] tracker_rename_overlaps_1 <- overlaps1_1
I0122 12:17:32.959599 31600 net.cpp:412] tracker_rename_overlaps_1 -> s_overlaps_1
I0122 12:17:32.959619 31600 net.cpp:151] Setting up tracker_rename_overlaps_1
I0122 12:17:32.959625 31600 net.cpp:158] Top shape: 1 1 1800 1800 (3240000)
I0122 12:17:32.959627 31600 net.cpp:166] Memory required for data: 139487292
I0122 12:17:32.959630 31600 layer_factory.hpp:76] Creating layer tracker_v_cont_1
I0122 12:17:32.959636 31600 net.cpp:107] Creating Layer tracker_v_cont_1
I0122 12:17:32.959640 31600 net.cpp:455] tracker_v_cont_1 <- s_overlaps_1
I0122 12:17:32.959645 31600 net.cpp:455] tracker_v_cont_1 <- v_1
I0122 12:17:32.959648 31600 net.cpp:455] tracker_v_cont_1 <- cont1_1
I0122 12:17:32.959653 31600 net.cpp:412] tracker_v_cont_1 -> v_cont_1
I0122 12:17:32.959682 31600 net.cpp:151] Setting up tracker_v_cont_1
I0122 12:17:32.959688 31600 net.cpp:158] Top shape: 1 1 1800 1800 (3240000)
I0122 12:17:32.959692 31600 net.cpp:166] Memory required for data: 152447292
I0122 12:17:32.959694 31600 layer_factory.hpp:76] Creating layer tracker_v_split_1
I0122 12:17:32.959699 31600 net.cpp:107] Creating Layer tracker_v_split_1
I0122 12:17:32.959702 31600 net.cpp:455] tracker_v_split_1 <- v_cont_1
I0122 12:17:32.959709 31600 net.cpp:412] tracker_v_split_1 -> v1_1
I0122 12:17:32.959715 31600 net.cpp:412] tracker_v_split_1 -> v3_1
I0122 12:17:32.959722 31600 net.cpp:412] tracker_v_split_1 -> v4_1
I0122 12:17:32.959728 31600 net.cpp:412] tracker_v_split_1 -> v2_1
I0122 12:17:32.959784 31600 net.cpp:151] Setting up tracker_v_split_1
I0122 12:17:32.959789 31600 net.cpp:158] Top shape: 1 1 1800 1800 (3240000)
I0122 12:17:32.959794 31600 net.cpp:158] Top shape: 1 1 1800 1800 (3240000)
I0122 12:17:32.959799 31600 net.cpp:158] Top shape: 1 1 1800 1800 (3240000)
I0122 12:17:32.959802 31600 net.cpp:158] Top shape: 1 1 1800 1800 (3240000)
I0122 12:17:32.959805 31600 net.cpp:166] Memory required for data: 204287292
I0122 12:17:32.959808 31600 layer_factory.hpp:76] Creating layer tracker_vtilde_1
I0122 12:17:32.959815 31600 net.cpp:107] Creating Layer tracker_vtilde_1
I0122 12:17:32.959818 31600 net.cpp:455] tracker_vtilde_1 <- v4_1
I0122 12:17:32.959822 31600 net.cpp:455] tracker_vtilde_1 <- overlaps2_1
I0122 12:17:32.959826 31600 net.cpp:455] tracker_vtilde_1 <- nseg_1
I0122 12:17:32.959831 31600 net.cpp:412] tracker_vtilde_1 -> vtilde_1
I0122 12:17:32.959866 31600 net.cpp:151] Setting up tracker_vtilde_1
I0122 12:17:32.959870 31600 net.cpp:158] Top shape: 1 1 1800 1800 (3240000)
I0122 12:17:32.959874 31600 net.cpp:166] Memory required for data: 217247292
I0122 12:17:32.959877 31600 layer_factory.hpp:76] Creating layer tracker_vtilde_split_1
I0122 12:17:32.959882 31600 net.cpp:107] Creating Layer tracker_vtilde_split_1
I0122 12:17:32.959884 31600 net.cpp:455] tracker_vtilde_split_1 <- vtilde_1
I0122 12:17:32.959889 31600 net.cpp:412] tracker_vtilde_split_1 -> vtilde1_1
I0122 12:17:32.959910 31600 net.cpp:151] Setting up tracker_vtilde_split_1
I0122 12:17:32.959915 31600 net.cpp:158] Top shape: 1 1 1800 1800 (3240000)
I0122 12:17:32.959918 31600 net.cpp:166] Memory required for data: 230207292
I0122 12:17:32.959921 31600 layer_factory.hpp:76] Creating layer tracker_reshape1_1
I0122 12:17:32.959928 31600 net.cpp:107] Creating Layer tracker_reshape1_1
I0122 12:17:32.959930 31600 net.cpp:455] tracker_reshape1_1 <- v1_1
I0122 12:17:32.959935 31600 net.cpp:412] tracker_reshape1_1 -> vr_1
I0122 12:17:32.959957 31600 net.cpp:151] Setting up tracker_reshape1_1
I0122 12:17:32.959964 31600 net.cpp:158] Top shape: 1 1 1800 1800 (3240000)
I0122 12:17:32.959966 31600 net.cpp:166] Memory required for data: 243167292
I0122 12:17:32.959969 31600 layer_factory.hpp:76] Creating layer tracker_max_1
I0122 12:17:32.959975 31600 net.cpp:107] Creating Layer tracker_max_1
I0122 12:17:32.959980 31600 net.cpp:455] tracker_max_1 <- vr_1
I0122 12:17:32.959983 31600 net.cpp:412] tracker_max_1 -> mr_1
I0122 12:17:32.960364 31600 net.cpp:151] Setting up tracker_max_1
I0122 12:17:32.960372 31600 net.cpp:158] Top shape: 1 1 1 1800 (1800)
I0122 12:17:32.960376 31600 net.cpp:166] Memory required for data: 243174492
I0122 12:17:32.960379 31600 layer_factory.hpp:76] Creating layer tracker_reshape2_1
I0122 12:17:32.960386 31600 net.cpp:107] Creating Layer tracker_reshape2_1
I0122 12:17:32.960389 31600 net.cpp:455] tracker_reshape2_1 <- mr_1
I0122 12:17:32.960397 31600 net.cpp:412] tracker_reshape2_1 -> m_1
I0122 12:17:32.960419 31600 net.cpp:151] Setting up tracker_reshape2_1
I0122 12:17:32.960424 31600 net.cpp:158] Top shape: 1 1 1800 (1800)
I0122 12:17:32.960428 31600 net.cpp:166] Memory required for data: 243181692
I0122 12:17:32.960432 31600 layer_factory.hpp:76] Creating layer tracker_m_split_1
I0122 12:17:32.960436 31600 net.cpp:107] Creating Layer tracker_m_split_1
I0122 12:17:32.960440 31600 net.cpp:455] tracker_m_split_1 <- m_1
I0122 12:17:32.960451 31600 net.cpp:412] tracker_m_split_1 -> m1_1
I0122 12:17:32.960458 31600 net.cpp:412] tracker_m_split_1 -> m2_1
I0122 12:17:32.960494 31600 net.cpp:151] Setting up tracker_m_split_1
I0122 12:17:32.960500 31600 net.cpp:158] Top shape: 1 1 1800 (1800)
I0122 12:17:32.960503 31600 net.cpp:158] Top shape: 1 1 1800 (1800)
I0122 12:17:32.960506 31600 net.cpp:166] Memory required for data: 243196092
I0122 12:17:32.960510 31600 layer_factory.hpp:76] Creating layer tracker_concat_s_elemens_1
I0122 12:17:32.960515 31600 net.cpp:107] Creating Layer tracker_concat_s_elemens_1
I0122 12:17:32.960518 31600 net.cpp:455] tracker_concat_s_elemens_1 <- m2_1
I0122 12:17:32.960522 31600 net.cpp:455] tracker_concat_s_elemens_1 <- s2_cont_0
I0122 12:17:32.960530 31600 net.cpp:412] tracker_concat_s_elemens_1 -> s_elem_1
I0122 12:17:32.960556 31600 net.cpp:151] Setting up tracker_concat_s_elemens_1
I0122 12:17:32.960562 31600 net.cpp:158] Top shape: 1 1 1801 (1801)
I0122 12:17:32.960566 31600 net.cpp:166] Memory required for data: 243203296
I0122 12:17:32.960569 31600 layer_factory.hpp:76] Creating layer tracker_sum_s_elemens_1
I0122 12:17:32.960574 31600 net.cpp:107] Creating Layer tracker_sum_s_elemens_1
I0122 12:17:32.960578 31600 net.cpp:455] tracker_sum_s_elemens_1 <- s_elem_1
I0122 12:17:32.960583 31600 net.cpp:412] tracker_sum_s_elemens_1 -> ns_1
I0122 12:17:32.960623 31600 net.cpp:151] Setting up tracker_sum_s_elemens_1
I0122 12:17:32.960628 31600 net.cpp:158] Top shape: (1)
I0122 12:17:32.960633 31600 net.cpp:166] Memory required for data: 243203300
I0122 12:17:32.960635 31600 layer_factory.hpp:76] Creating layer tracker_s_reshape_1
I0122 12:17:32.960640 31600 net.cpp:107] Creating Layer tracker_s_reshape_1
I0122 12:17:32.960644 31600 net.cpp:455] tracker_s_reshape_1 <- ns_1
I0122 12:17:32.960650 31600 net.cpp:412] tracker_s_reshape_1 -> s_1
I0122 12:17:32.960672 31600 net.cpp:151] Setting up tracker_s_reshape_1
I0122 12:17:32.960678 31600 net.cpp:158] Top shape: 1 1 1 (1)
I0122 12:17:32.960682 31600 net.cpp:166] Memory required for data: 243203304
I0122 12:17:32.960685 31600 layer_factory.hpp:76] Creating layer tracker_mx_1
I0122 12:17:32.960690 31600 net.cpp:107] Creating Layer tracker_mx_1
I0122 12:17:32.960693 31600 net.cpp:455] tracker_mx_1 <- m1_1
I0122 12:17:32.960697 31600 net.cpp:455] tracker_mx_1 <- x2_1
I0122 12:17:32.960702 31600 net.cpp:412] tracker_mx_1 -> mx_1
I0122 12:17:32.960726 31600 net.cpp:151] Setting up tracker_mx_1
I0122 12:17:32.960731 31600 net.cpp:158] Top shape: 1 1 1800 256 (460800)
I0122 12:17:32.960734 31600 net.cpp:166] Memory required for data: 245046504
I0122 12:17:32.960737 31600 layer_factory.hpp:76] Creating layer tracker_mx_split_1
I0122 12:17:32.960742 31600 net.cpp:107] Creating Layer tracker_mx_split_1
I0122 12:17:32.960747 31600 net.cpp:455] tracker_mx_split_1 <- mx_1
I0122 12:17:32.960750 31600 net.cpp:412] tracker_mx_split_1 -> mx1_1
I0122 12:17:32.960757 31600 net.cpp:412] tracker_mx_split_1 -> mx2_1
I0122 12:17:32.960793 31600 net.cpp:151] Setting up tracker_mx_split_1
I0122 12:17:32.960798 31600 net.cpp:158] Top shape: 1 1 1800 256 (460800)
I0122 12:17:32.960803 31600 net.cpp:158] Top shape: 1 1 1800 256 (460800)
I0122 12:17:32.960805 31600 net.cpp:166] Memory required for data: 248732904
I0122 12:17:32.960808 31600 layer_factory.hpp:76] Creating layer tracker_xmx_1
I0122 12:17:32.960814 31600 net.cpp:107] Creating Layer tracker_xmx_1
I0122 12:17:32.960818 31600 net.cpp:455] tracker_xmx_1 <- x3_1
I0122 12:17:32.960824 31600 net.cpp:455] tracker_xmx_1 <- mx1_1
I0122 12:17:32.960829 31600 net.cpp:412] tracker_xmx_1 -> xmx_1
I0122 12:17:32.960850 31600 net.cpp:151] Setting up tracker_xmx_1
I0122 12:17:32.960855 31600 net.cpp:158] Top shape: 1 1 256 256 (65536)
I0122 12:17:32.960858 31600 net.cpp:166] Memory required for data: 248995048
I0122 12:17:32.960861 31600 layer_factory.hpp:76] Creating layer tracker_h_cont_0
I0122 12:17:32.960866 31600 net.cpp:107] Creating Layer tracker_h_cont_0
I0122 12:17:32.960870 31600 net.cpp:455] tracker_h_cont_0 <- h2_0
I0122 12:17:32.960880 31600 net.cpp:455] tracker_h_cont_0 <- cont2_1
I0122 12:17:32.960886 31600 net.cpp:412] tracker_h_cont_0 -> h_cont_0
I0122 12:17:32.960975 31600 net.cpp:151] Setting up tracker_h_cont_0
I0122 12:17:32.960981 31600 net.cpp:158] Top shape: 1 1 256 256 (65536)
I0122 12:17:32.960984 31600 net.cpp:166] Memory required for data: 249257192
I0122 12:17:32.960988 31600 layer_factory.hpp:76] Creating layer tracker_h_1
I0122 12:17:32.960993 31600 net.cpp:107] Creating Layer tracker_h_1
I0122 12:17:32.960995 31600 net.cpp:455] tracker_h_1 <- h_cont_0
I0122 12:17:32.961000 31600 net.cpp:455] tracker_h_1 <- xmx_1
I0122 12:17:32.961006 31600 net.cpp:412] tracker_h_1 -> h_1
I0122 12:17:32.961030 31600 net.cpp:151] Setting up tracker_h_1
I0122 12:17:32.961035 31600 net.cpp:158] Top shape: 1 1 256 256 (65536)
I0122 12:17:32.961038 31600 net.cpp:166] Memory required for data: 249519336
I0122 12:17:32.961041 31600 layer_factory.hpp:76] Creating layer tracker_vmx_1
I0122 12:17:32.961045 31600 net.cpp:107] Creating Layer tracker_vmx_1
I0122 12:17:32.961050 31600 net.cpp:455] tracker_vmx_1 <- v2_1
I0122 12:17:32.961053 31600 net.cpp:455] tracker_vmx_1 <- mx2_1
I0122 12:17:32.961060 31600 net.cpp:412] tracker_vmx_1 -> vmx_1
I0122 12:17:32.961081 31600 net.cpp:151] Setting up tracker_vmx_1
I0122 12:17:32.961086 31600 net.cpp:158] Top shape: 1 1 1800 256 (460800)
I0122 12:17:32.961089 31600 net.cpp:166] Memory required for data: 251362536
I0122 12:17:32.961092 31600 layer_factory.hpp:76] Creating layer tracker_c_cont_0
I0122 12:17:32.961097 31600 net.cpp:107] Creating Layer tracker_c_cont_0
I0122 12:17:32.961100 31600 net.cpp:455] tracker_c_cont_0 <- c2_0
I0122 12:17:32.961104 31600 net.cpp:455] tracker_c_cont_0 <- cont3_1
I0122 12:17:32.961109 31600 net.cpp:412] tracker_c_cont_0 -> c_cont_0
I0122 12:17:32.961676 31600 net.cpp:151] Setting up tracker_c_cont_0
I0122 12:17:32.961684 31600 net.cpp:158] Top shape: 1 1 1800 256 (460800)
I0122 12:17:32.961688 31600 net.cpp:166] Memory required for data: 253205736
I0122 12:17:32.961693 31600 layer_factory.hpp:76] Creating layer tracker_c_1
I0122 12:17:32.961699 31600 net.cpp:107] Creating Layer tracker_c_1
I0122 12:17:32.961702 31600 net.cpp:455] tracker_c_1 <- c_cont_0
I0122 12:17:32.961707 31600 net.cpp:455] tracker_c_1 <- vmx_1
I0122 12:17:32.961714 31600 net.cpp:412] tracker_c_1 -> c_1
I0122 12:17:32.961737 31600 net.cpp:151] Setting up tracker_c_1
I0122 12:17:32.961743 31600 net.cpp:158] Top shape: 1 1 1800 256 (460800)
I0122 12:17:32.961747 31600 net.cpp:166] Memory required for data: 255048936
I0122 12:17:32.961750 31600 layer_factory.hpp:76] Creating layer tracker_overlaps_split_2
I0122 12:17:32.961755 31600 net.cpp:107] Creating Layer tracker_overlaps_split_2
I0122 12:17:32.961758 31600 net.cpp:455] tracker_overlaps_split_2 <- overlaps_2
I0122 12:17:32.961766 31600 net.cpp:412] tracker_overlaps_split_2 -> overlaps1_2
I0122 12:17:32.961772 31600 net.cpp:412] tracker_overlaps_split_2 -> overlaps2_2
I0122 12:17:32.961802 31600 net.cpp:151] Setting up tracker_overlaps_split_2
I0122 12:17:32.961807 31600 net.cpp:158] Top shape: 1 1 1800 1800 (3240000)
I0122 12:17:32.961812 31600 net.cpp:158] Top shape: 1 1 1800 1800 (3240000)
I0122 12:17:32.961815 31600 net.cpp:166] Memory required for data: 280968936
I0122 12:17:32.961818 31600 layer_factory.hpp:76] Creating layer tracker_x_split_2
I0122 12:17:32.961825 31600 net.cpp:107] Creating Layer tracker_x_split_2
I0122 12:17:32.961829 31600 net.cpp:455] tracker_x_split_2 <- x_2_tracker_x_slice_1_split_0
I0122 12:17:32.961834 31600 net.cpp:412] tracker_x_split_2 -> x1_2
I0122 12:17:32.961841 31600 net.cpp:412] tracker_x_split_2 -> x2_2
I0122 12:17:32.961848 31600 net.cpp:412] tracker_x_split_2 -> x3_2
I0122 12:17:32.961855 31600 net.cpp:412] tracker_x_split_2 -> x4_2
I0122 12:17:32.961902 31600 net.cpp:151] Setting up tracker_x_split_2
I0122 12:17:32.961908 31600 net.cpp:158] Top shape: 1 1 1800 256 (460800)
I0122 12:17:32.961913 31600 net.cpp:158] Top shape: 1 1 1800 256 (460800)
I0122 12:17:32.961917 31600 net.cpp:158] Top shape: 1 1 1800 256 (460800)
I0122 12:17:32.961927 31600 net.cpp:158] Top shape: 1 1 1800 256 (460800)
I0122 12:17:32.961931 31600 net.cpp:166] Memory required for data: 288341736
I0122 12:17:32.961935 31600 layer_factory.hpp:76] Creating layer tracker_cont_split_2
I0122 12:17:32.961940 31600 net.cpp:107] Creating Layer tracker_cont_split_2
I0122 12:17:32.961943 31600 net.cpp:455] tracker_cont_split_2 <- cont_2
I0122 12:17:32.961948 31600 net.cpp:412] tracker_cont_split_2 -> cont1_2
I0122 12:17:32.961956 31600 net.cpp:412] tracker_cont_split_2 -> cont2_2
I0122 12:17:32.961962 31600 net.cpp:412] tracker_cont_split_2 -> cont3_2
I0122 12:17:32.961969 31600 net.cpp:412] tracker_cont_split_2 -> cont4_2
I0122 12:17:32.962019 31600 net.cpp:151] Setting up tracker_cont_split_2
I0122 12:17:32.962024 31600 net.cpp:158] Top shape: 1 1 (1)
I0122 12:17:32.962029 31600 net.cpp:158] Top shape: 1 1 (1)
I0122 12:17:32.962033 31600 net.cpp:158] Top shape: 1 1 (1)
I0122 12:17:32.962038 31600 net.cpp:158] Top shape: 1 1 (1)
I0122 12:17:32.962040 31600 net.cpp:166] Memory required for data: 288341752
I0122 12:17:32.962044 31600 layer_factory.hpp:76] Creating layer tracker_h_split_1
I0122 12:17:32.962049 31600 net.cpp:107] Creating Layer tracker_h_split_1
I0122 12:17:32.962052 31600 net.cpp:455] tracker_h_split_1 <- h_1
I0122 12:17:32.962059 31600 net.cpp:412] tracker_h_split_1 -> h1_1
I0122 12:17:32.962064 31600 net.cpp:412] tracker_h_split_1 -> h2_1
I0122 12:17:32.962095 31600 net.cpp:151] Setting up tracker_h_split_1
I0122 12:17:32.962100 31600 net.cpp:158] Top shape: 1 1 256 256 (65536)
I0122 12:17:32.962105 31600 net.cpp:158] Top shape: 1 1 256 256 (65536)
I0122 12:17:32.962107 31600 net.cpp:166] Memory required for data: 288866040
I0122 12:17:32.962111 31600 layer_factory.hpp:76] Creating layer tracker_c_split_1
I0122 12:17:32.962116 31600 net.cpp:107] Creating Layer tracker_c_split_1
I0122 12:17:32.962118 31600 net.cpp:455] tracker_c_split_1 <- c_1
I0122 12:17:32.962123 31600 net.cpp:412] tracker_c_split_1 -> c1_1
I0122 12:17:32.962131 31600 net.cpp:412] tracker_c_split_1 -> c2_1
I0122 12:17:32.962158 31600 net.cpp:151] Setting up tracker_c_split_1
I0122 12:17:32.962172 31600 net.cpp:158] Top shape: 1 1 1800 256 (460800)
I0122 12:17:32.962177 31600 net.cpp:158] Top shape: 1 1 1800 256 (460800)
I0122 12:17:32.962179 31600 net.cpp:166] Memory required for data: 292552440
I0122 12:17:32.962183 31600 layer_factory.hpp:76] Creating layer tracker_s_cont_1
I0122 12:17:32.962188 31600 net.cpp:107] Creating Layer tracker_s_cont_1
I0122 12:17:32.962193 31600 net.cpp:455] tracker_s_cont_1 <- s_1
I0122 12:17:32.962196 31600 net.cpp:455] tracker_s_cont_1 <- cont4_2
I0122 12:17:32.962203 31600 net.cpp:412] tracker_s_cont_1 -> s_cont_1
I0122 12:17:32.962254 31600 net.cpp:151] Setting up tracker_s_cont_1
I0122 12:17:32.962258 31600 net.cpp:158] Top shape: 1 1 1 (1)
I0122 12:17:32.962262 31600 net.cpp:166] Memory required for data: 292552444
I0122 12:17:32.962265 31600 layer_factory.hpp:76] Creating layer tracker_s_cont_split_1
I0122 12:17:32.962270 31600 net.cpp:107] Creating Layer tracker_s_cont_split_1
I0122 12:17:32.962273 31600 net.cpp:455] tracker_s_cont_split_1 <- s_cont_1
I0122 12:17:32.962278 31600 net.cpp:412] tracker_s_cont_split_1 -> s1_cont_1
I0122 12:17:32.962286 31600 net.cpp:412] tracker_s_cont_split_1 -> s2_cont_1
I0122 12:17:32.962314 31600 net.cpp:151] Setting up tracker_s_cont_split_1
I0122 12:17:32.962321 31600 net.cpp:158] Top shape: 1 1 1 (1)
I0122 12:17:32.962324 31600 net.cpp:158] Top shape: 1 1 1 (1)
I0122 12:17:32.962327 31600 net.cpp:166] Memory required for data: 292552452
I0122 12:17:32.962343 31600 layer_factory.hpp:76] Creating layer tracker_hm1_1
I0122 12:17:32.962350 31600 net.cpp:107] Creating Layer tracker_hm1_1
I0122 12:17:32.962368 31600 net.cpp:455] tracker_hm1_1 <- h1_1
I0122 12:17:32.962373 31600 net.cpp:455] tracker_hm1_1 <- s1_cont_1
I0122 12:17:32.962378 31600 net.cpp:412] tracker_hm1_1 -> hm1_1
I0122 12:17:32.962409 31600 net.cpp:151] Setting up tracker_hm1_1
I0122 12:17:32.962415 31600 net.cpp:158] Top shape: 1 1 256 256 (65536)
I0122 12:17:32.962425 31600 net.cpp:166] Memory required for data: 292814596
I0122 12:17:32.962430 31600 layer_factory.hpp:76] Creating layer tracker_w_1
I0122 12:17:32.962434 31600 net.cpp:107] Creating Layer tracker_w_1
I0122 12:17:32.962437 31600 net.cpp:455] tracker_w_1 <- c1_1
I0122 12:17:32.962442 31600 net.cpp:455] tracker_w_1 <- hm1_1
I0122 12:17:32.962447 31600 net.cpp:412] tracker_w_1 -> w_1
I0122 12:17:32.962467 31600 net.cpp:151] Setting up tracker_w_1
I0122 12:17:32.962473 31600 net.cpp:158] Top shape: 1 1 1800 256 (460800)
I0122 12:17:32.962476 31600 net.cpp:166] Memory required for data: 294657796
I0122 12:17:32.962479 31600 layer_factory.hpp:76] Creating layer tracker_v_2
I0122 12:17:32.962486 31600 net.cpp:107] Creating Layer tracker_v_2
I0122 12:17:32.962489 31600 net.cpp:455] tracker_v_2 <- w_1
I0122 12:17:32.962494 31600 net.cpp:455] tracker_v_2 <- x_2_tracker_x_slice_1_split_1
I0122 12:17:32.962499 31600 net.cpp:412] tracker_v_2 -> v_2
I0122 12:17:32.962519 31600 net.cpp:151] Setting up tracker_v_2
I0122 12:17:32.962525 31600 net.cpp:158] Top shape: 1 1 1800 1800 (3240000)
I0122 12:17:32.962528 31600 net.cpp:166] Memory required for data: 307617796
I0122 12:17:32.962532 31600 layer_factory.hpp:76] Creating layer tracker_rename_overlaps_2
I0122 12:17:32.962538 31600 net.cpp:107] Creating Layer tracker_rename_overlaps_2
I0122 12:17:32.962541 31600 net.cpp:455] tracker_rename_overlaps_2 <- overlaps1_2
I0122 12:17:32.962546 31600 net.cpp:412] tracker_rename_overlaps_2 -> s_overlaps_2
I0122 12:17:32.962565 31600 net.cpp:151] Setting up tracker_rename_overlaps_2
I0122 12:17:32.962571 31600 net.cpp:158] Top shape: 1 1 1800 1800 (3240000)
I0122 12:17:32.962574 31600 net.cpp:166] Memory required for data: 320577796
I0122 12:17:32.962577 31600 layer_factory.hpp:76] Creating layer tracker_v_cont_2
I0122 12:17:32.962582 31600 net.cpp:107] Creating Layer tracker_v_cont_2
I0122 12:17:32.962586 31600 net.cpp:455] tracker_v_cont_2 <- s_overlaps_2
I0122 12:17:32.962590 31600 net.cpp:455] tracker_v_cont_2 <- v_2
I0122 12:17:32.962595 31600 net.cpp:455] tracker_v_cont_2 <- cont1_2
I0122 12:17:32.962605 31600 net.cpp:412] tracker_v_cont_2 -> v_cont_2
I0122 12:17:32.962627 31600 net.cpp:151] Setting up tracker_v_cont_2
I0122 12:17:32.962633 31600 net.cpp:158] Top shape: 1 1 1800 1800 (3240000)
I0122 12:17:32.962637 31600 net.cpp:166] Memory required for data: 333537796
I0122 12:17:32.962641 31600 layer_factory.hpp:76] Creating layer tracker_v_split_2
I0122 12:17:32.962646 31600 net.cpp:107] Creating Layer tracker_v_split_2
I0122 12:17:32.962649 31600 net.cpp:455] tracker_v_split_2 <- v_cont_2
I0122 12:17:32.962654 31600 net.cpp:412] tracker_v_split_2 -> v1_2
I0122 12:17:32.962661 31600 net.cpp:412] tracker_v_split_2 -> v3_2
I0122 12:17:32.962669 31600 net.cpp:412] tracker_v_split_2 -> v4_2
I0122 12:17:32.962677 31600 net.cpp:412] tracker_v_split_2 -> v2_2
I0122 12:17:32.962723 31600 net.cpp:151] Setting up tracker_v_split_2
I0122 12:17:32.962728 31600 net.cpp:158] Top shape: 1 1 1800 1800 (3240000)
I0122 12:17:32.962733 31600 net.cpp:158] Top shape: 1 1 1800 1800 (3240000)
I0122 12:17:32.962738 31600 net.cpp:158] Top shape: 1 1 1800 1800 (3240000)
I0122 12:17:32.962741 31600 net.cpp:158] Top shape: 1 1 1800 1800 (3240000)
I0122 12:17:32.962744 31600 net.cpp:166] Memory required for data: 385377796
I0122 12:17:32.962748 31600 layer_factory.hpp:76] Creating layer tracker_vtilde_2
I0122 12:17:32.962754 31600 net.cpp:107] Creating Layer tracker_vtilde_2
I0122 12:17:32.962759 31600 net.cpp:455] tracker_vtilde_2 <- v4_2
I0122 12:17:32.962762 31600 net.cpp:455] tracker_vtilde_2 <- overlaps2_2
I0122 12:17:32.962767 31600 net.cpp:455] tracker_vtilde_2 <- nseg_2
I0122 12:17:32.962772 31600 net.cpp:412] tracker_vtilde_2 -> vtilde_2
I0122 12:17:32.962802 31600 net.cpp:151] Setting up tracker_vtilde_2
I0122 12:17:32.962808 31600 net.cpp:158] Top shape: 1 1 1800 1800 (3240000)
I0122 12:17:32.962811 31600 net.cpp:166] Memory required for data: 398337796
I0122 12:17:32.962815 31600 layer_factory.hpp:76] Creating layer tracker_vtilde_split_2
I0122 12:17:32.962824 31600 net.cpp:107] Creating Layer tracker_vtilde_split_2
I0122 12:17:32.962828 31600 net.cpp:455] tracker_vtilde_split_2 <- vtilde_2
I0122 12:17:32.962833 31600 net.cpp:412] tracker_vtilde_split_2 -> vtilde1_2
I0122 12:17:32.962852 31600 net.cpp:151] Setting up tracker_vtilde_split_2
I0122 12:17:32.962858 31600 net.cpp:158] Top shape: 1 1 1800 1800 (3240000)
I0122 12:17:32.962862 31600 net.cpp:166] Memory required for data: 411297796
I0122 12:17:32.962864 31600 layer_factory.hpp:76] Creating layer tracker_reshape1_2
I0122 12:17:32.962872 31600 net.cpp:107] Creating Layer tracker_reshape1_2
I0122 12:17:32.962875 31600 net.cpp:455] tracker_reshape1_2 <- v1_2
I0122 12:17:32.962880 31600 net.cpp:412] tracker_reshape1_2 -> vr_2
I0122 12:17:32.962901 31600 net.cpp:151] Setting up tracker_reshape1_2
I0122 12:17:32.962906 31600 net.cpp:158] Top shape: 1 1 1800 1800 (3240000)
I0122 12:17:32.962910 31600 net.cpp:166] Memory required for data: 424257796
I0122 12:17:32.962913 31600 layer_factory.hpp:76] Creating layer tracker_max_2
I0122 12:17:32.962918 31600 net.cpp:107] Creating Layer tracker_max_2
I0122 12:17:32.962923 31600 net.cpp:455] tracker_max_2 <- vr_2
I0122 12:17:32.962929 31600 net.cpp:412] tracker_max_2 -> mr_2
I0122 12:17:32.963174 31600 net.cpp:151] Setting up tracker_max_2
I0122 12:17:32.963182 31600 net.cpp:158] Top shape: 1 1 1 1800 (1800)
I0122 12:17:32.963186 31600 net.cpp:166] Memory required for data: 424264996
I0122 12:17:32.963189 31600 layer_factory.hpp:76] Creating layer tracker_reshape2_2
I0122 12:17:32.963196 31600 net.cpp:107] Creating Layer tracker_reshape2_2
I0122 12:17:32.963201 31600 net.cpp:455] tracker_reshape2_2 <- mr_2
I0122 12:17:32.963207 31600 net.cpp:412] tracker_reshape2_2 -> m_2
I0122 12:17:32.963228 31600 net.cpp:151] Setting up tracker_reshape2_2
I0122 12:17:32.963234 31600 net.cpp:158] Top shape: 1 1 1800 (1800)
I0122 12:17:32.963238 31600 net.cpp:166] Memory required for data: 424272196
I0122 12:17:32.963241 31600 layer_factory.hpp:76] Creating layer tracker_m_split_2
I0122 12:17:32.963245 31600 net.cpp:107] Creating Layer tracker_m_split_2
I0122 12:17:32.963249 31600 net.cpp:455] tracker_m_split_2 <- m_2
I0122 12:17:32.963256 31600 net.cpp:412] tracker_m_split_2 -> m1_2
I0122 12:17:32.963263 31600 net.cpp:412] tracker_m_split_2 -> m2_2
I0122 12:17:32.963292 31600 net.cpp:151] Setting up tracker_m_split_2
I0122 12:17:32.963299 31600 net.cpp:158] Top shape: 1 1 1800 (1800)
I0122 12:17:32.963304 31600 net.cpp:158] Top shape: 1 1 1800 (1800)
I0122 12:17:32.963307 31600 net.cpp:166] Memory required for data: 424286596
I0122 12:17:32.963311 31600 layer_factory.hpp:76] Creating layer tracker_concat_s_elemens_2
I0122 12:17:32.963316 31600 net.cpp:107] Creating Layer tracker_concat_s_elemens_2
I0122 12:17:32.963320 31600 net.cpp:455] tracker_concat_s_elemens_2 <- m2_2
I0122 12:17:32.963325 31600 net.cpp:455] tracker_concat_s_elemens_2 <- s2_cont_1
I0122 12:17:32.963331 31600 net.cpp:412] tracker_concat_s_elemens_2 -> s_elem_2
I0122 12:17:32.963351 31600 net.cpp:151] Setting up tracker_concat_s_elemens_2
I0122 12:17:32.963356 31600 net.cpp:158] Top shape: 1 1 1801 (1801)
I0122 12:17:32.963359 31600 net.cpp:166] Memory required for data: 424293800
I0122 12:17:32.963362 31600 layer_factory.hpp:76] Creating layer tracker_sum_s_elemens_2
I0122 12:17:32.963368 31600 net.cpp:107] Creating Layer tracker_sum_s_elemens_2
I0122 12:17:32.963372 31600 net.cpp:455] tracker_sum_s_elemens_2 <- s_elem_2
I0122 12:17:32.963377 31600 net.cpp:412] tracker_sum_s_elemens_2 -> ns_2
I0122 12:17:32.963414 31600 net.cpp:151] Setting up tracker_sum_s_elemens_2
I0122 12:17:32.963420 31600 net.cpp:158] Top shape: (1)
I0122 12:17:32.963423 31600 net.cpp:166] Memory required for data: 424293804
I0122 12:17:32.963426 31600 layer_factory.hpp:76] Creating layer tracker_s_reshape_2
I0122 12:17:32.963431 31600 net.cpp:107] Creating Layer tracker_s_reshape_2
I0122 12:17:32.963435 31600 net.cpp:455] tracker_s_reshape_2 <- ns_2
I0122 12:17:32.963441 31600 net.cpp:412] tracker_s_reshape_2 -> s_2
I0122 12:17:32.963469 31600 net.cpp:151] Setting up tracker_s_reshape_2
I0122 12:17:32.963475 31600 net.cpp:158] Top shape: 1 1 1 (1)
I0122 12:17:32.963479 31600 net.cpp:166] Memory required for data: 424293808
I0122 12:17:32.963481 31600 layer_factory.hpp:76] Creating layer tracker_mx_2
I0122 12:17:32.963488 31600 net.cpp:107] Creating Layer tracker_mx_2
I0122 12:17:32.963492 31600 net.cpp:455] tracker_mx_2 <- m1_2
I0122 12:17:32.963496 31600 net.cpp:455] tracker_mx_2 <- x2_2
I0122 12:17:32.963503 31600 net.cpp:412] tracker_mx_2 -> mx_2
I0122 12:17:32.963523 31600 net.cpp:151] Setting up tracker_mx_2
I0122 12:17:32.963529 31600 net.cpp:158] Top shape: 1 1 1800 256 (460800)
I0122 12:17:32.963532 31600 net.cpp:166] Memory required for data: 426137008
I0122 12:17:32.963536 31600 layer_factory.hpp:76] Creating layer tracker_mx_split_2
I0122 12:17:32.963541 31600 net.cpp:107] Creating Layer tracker_mx_split_2
I0122 12:17:32.963546 31600 net.cpp:455] tracker_mx_split_2 <- mx_2
I0122 12:17:32.963551 31600 net.cpp:412] tracker_mx_split_2 -> mx1_2
I0122 12:17:32.963557 31600 net.cpp:412] tracker_mx_split_2 -> mx2_2
I0122 12:17:32.963587 31600 net.cpp:151] Setting up tracker_mx_split_2
I0122 12:17:32.963592 31600 net.cpp:158] Top shape: 1 1 1800 256 (460800)
I0122 12:17:32.963596 31600 net.cpp:158] Top shape: 1 1 1800 256 (460800)
I0122 12:17:32.963599 31600 net.cpp:166] Memory required for data: 429823408
I0122 12:17:32.963603 31600 layer_factory.hpp:76] Creating layer tracker_xmx_2
I0122 12:17:32.963608 31600 net.cpp:107] Creating Layer tracker_xmx_2
I0122 12:17:32.963611 31600 net.cpp:455] tracker_xmx_2 <- x3_2
I0122 12:17:32.963615 31600 net.cpp:455] tracker_xmx_2 <- mx1_2
I0122 12:17:32.963620 31600 net.cpp:412] tracker_xmx_2 -> xmx_2
I0122 12:17:32.963640 31600 net.cpp:151] Setting up tracker_xmx_2
I0122 12:17:32.963646 31600 net.cpp:158] Top shape: 1 1 256 256 (65536)
I0122 12:17:32.963649 31600 net.cpp:166] Memory required for data: 430085552
I0122 12:17:32.963652 31600 layer_factory.hpp:76] Creating layer tracker_h_cont_1
I0122 12:17:32.963660 31600 net.cpp:107] Creating Layer tracker_h_cont_1
I0122 12:17:32.963663 31600 net.cpp:455] tracker_h_cont_1 <- h2_1
I0122 12:17:32.963667 31600 net.cpp:455] tracker_h_cont_1 <- cont2_2
I0122 12:17:32.963673 31600 net.cpp:412] tracker_h_cont_1 -> h_cont_1
I0122 12:17:32.963981 31600 net.cpp:151] Setting up tracker_h_cont_1
I0122 12:17:32.963989 31600 net.cpp:158] Top shape: 1 1 256 256 (65536)
I0122 12:17:32.963994 31600 net.cpp:166] Memory required for data: 430347696
I0122 12:17:32.963996 31600 layer_factory.hpp:76] Creating layer tracker_h_2
I0122 12:17:32.964006 31600 net.cpp:107] Creating Layer tracker_h_2
I0122 12:17:32.964011 31600 net.cpp:455] tracker_h_2 <- h_cont_1
I0122 12:17:32.964016 31600 net.cpp:455] tracker_h_2 <- xmx_2
I0122 12:17:32.964022 31600 net.cpp:412] tracker_h_2 -> h_2
I0122 12:17:32.964045 31600 net.cpp:151] Setting up tracker_h_2
I0122 12:17:32.964051 31600 net.cpp:158] Top shape: 1 1 256 256 (65536)
I0122 12:17:32.964053 31600 net.cpp:166] Memory required for data: 430609840
I0122 12:17:32.964057 31600 layer_factory.hpp:76] Creating layer tracker_vmx_2
I0122 12:17:32.964062 31600 net.cpp:107] Creating Layer tracker_vmx_2
I0122 12:17:32.964066 31600 net.cpp:455] tracker_vmx_2 <- v2_2
I0122 12:17:32.964071 31600 net.cpp:455] tracker_vmx_2 <- mx2_2
I0122 12:17:32.964077 31600 net.cpp:412] tracker_vmx_2 -> vmx_2
I0122 12:17:32.964097 31600 net.cpp:151] Setting up tracker_vmx_2
I0122 12:17:32.964103 31600 net.cpp:158] Top shape: 1 1 1800 256 (460800)
I0122 12:17:32.964107 31600 net.cpp:166] Memory required for data: 432453040
I0122 12:17:32.964110 31600 layer_factory.hpp:76] Creating layer tracker_c_cont_1
I0122 12:17:32.964115 31600 net.cpp:107] Creating Layer tracker_c_cont_1
I0122 12:17:32.964119 31600 net.cpp:455] tracker_c_cont_1 <- c2_1
I0122 12:17:32.964123 31600 net.cpp:455] tracker_c_cont_1 <- cont3_2
I0122 12:17:32.964130 31600 net.cpp:412] tracker_c_cont_1 -> c_cont_1
I0122 12:17:32.964649 31600 net.cpp:151] Setting up tracker_c_cont_1
I0122 12:17:32.964658 31600 net.cpp:158] Top shape: 1 1 1800 256 (460800)
I0122 12:17:32.964668 31600 net.cpp:166] Memory required for data: 434296240
I0122 12:17:32.964671 31600 layer_factory.hpp:76] Creating layer tracker_c_2
I0122 12:17:32.964679 31600 net.cpp:107] Creating Layer tracker_c_2
I0122 12:17:32.964682 31600 net.cpp:455] tracker_c_2 <- c_cont_1
I0122 12:17:32.964687 31600 net.cpp:455] tracker_c_2 <- vmx_2
I0122 12:17:32.964692 31600 net.cpp:412] tracker_c_2 -> c_2
I0122 12:17:32.964717 31600 net.cpp:151] Setting up tracker_c_2
I0122 12:17:32.964722 31600 net.cpp:158] Top shape: 1 1 1800 256 (460800)
I0122 12:17:32.964726 31600 net.cpp:166] Memory required for data: 436139440
I0122 12:17:32.964730 31600 layer_factory.hpp:76] Creating layer tracker_overlaps_split_3
I0122 12:17:32.964736 31600 net.cpp:107] Creating Layer tracker_overlaps_split_3
I0122 12:17:32.964740 31600 net.cpp:455] tracker_overlaps_split_3 <- overlaps_3
I0122 12:17:32.964745 31600 net.cpp:412] tracker_overlaps_split_3 -> overlaps1_3
I0122 12:17:32.964752 31600 net.cpp:412] tracker_overlaps_split_3 -> overlaps2_3
I0122 12:17:32.964787 31600 net.cpp:151] Setting up tracker_overlaps_split_3
I0122 12:17:32.964792 31600 net.cpp:158] Top shape: 1 1 1800 1800 (3240000)
I0122 12:17:32.964797 31600 net.cpp:158] Top shape: 1 1 1800 1800 (3240000)
I0122 12:17:32.964800 31600 net.cpp:166] Memory required for data: 462059440
I0122 12:17:32.964803 31600 layer_factory.hpp:76] Creating layer tracker_x_split_3
I0122 12:17:32.964808 31600 net.cpp:107] Creating Layer tracker_x_split_3
I0122 12:17:32.964812 31600 net.cpp:455] tracker_x_split_3 <- x_3_tracker_x_slice_2_split_0
I0122 12:17:32.964818 31600 net.cpp:412] tracker_x_split_3 -> x1_3
I0122 12:17:32.964824 31600 net.cpp:412] tracker_x_split_3 -> x2_3
I0122 12:17:32.964830 31600 net.cpp:412] tracker_x_split_3 -> x3_3
I0122 12:17:32.964838 31600 net.cpp:412] tracker_x_split_3 -> x4_3
I0122 12:17:32.964886 31600 net.cpp:151] Setting up tracker_x_split_3
I0122 12:17:32.964891 31600 net.cpp:158] Top shape: 1 1 1800 256 (460800)
I0122 12:17:32.964896 31600 net.cpp:158] Top shape: 1 1 1800 256 (460800)
I0122 12:17:32.964900 31600 net.cpp:158] Top shape: 1 1 1800 256 (460800)
I0122 12:17:32.964905 31600 net.cpp:158] Top shape: 1 1 1800 256 (460800)
I0122 12:17:32.964908 31600 net.cpp:166] Memory required for data: 469432240
I0122 12:17:32.964911 31600 layer_factory.hpp:76] Creating layer tracker_cont_split_3
I0122 12:17:32.964916 31600 net.cpp:107] Creating Layer tracker_cont_split_3
I0122 12:17:32.964920 31600 net.cpp:455] tracker_cont_split_3 <- cont_3
I0122 12:17:32.964926 31600 net.cpp:412] tracker_cont_split_3 -> cont1_3
I0122 12:17:32.964936 31600 net.cpp:412] tracker_cont_split_3 -> cont2_3
I0122 12:17:32.964949 31600 net.cpp:412] tracker_cont_split_3 -> cont3_3
I0122 12:17:32.964956 31600 net.cpp:412] tracker_cont_split_3 -> cont4_3
I0122 12:17:32.965004 31600 net.cpp:151] Setting up tracker_cont_split_3
I0122 12:17:32.965010 31600 net.cpp:158] Top shape: 1 1 (1)
I0122 12:17:32.965015 31600 net.cpp:158] Top shape: 1 1 (1)
I0122 12:17:32.965019 31600 net.cpp:158] Top shape: 1 1 (1)
I0122 12:17:32.965024 31600 net.cpp:158] Top shape: 1 1 (1)
I0122 12:17:32.965028 31600 net.cpp:166] Memory required for data: 469432256
I0122 12:17:32.965030 31600 layer_factory.hpp:76] Creating layer tracker_h_split_2
I0122 12:17:32.965035 31600 net.cpp:107] Creating Layer tracker_h_split_2
I0122 12:17:32.965039 31600 net.cpp:455] tracker_h_split_2 <- h_2
I0122 12:17:32.965045 31600 net.cpp:412] tracker_h_split_2 -> h1_2
I0122 12:17:32.965052 31600 net.cpp:412] tracker_h_split_2 -> h2_2
I0122 12:17:32.965082 31600 net.cpp:151] Setting up tracker_h_split_2
I0122 12:17:32.965088 31600 net.cpp:158] Top shape: 1 1 256 256 (65536)
I0122 12:17:32.965093 31600 net.cpp:158] Top shape: 1 1 256 256 (65536)
I0122 12:17:32.965096 31600 net.cpp:166] Memory required for data: 469956544
I0122 12:17:32.965100 31600 layer_factory.hpp:76] Creating layer tracker_c_split_2
I0122 12:17:32.965104 31600 net.cpp:107] Creating Layer tracker_c_split_2
I0122 12:17:32.965108 31600 net.cpp:455] tracker_c_split_2 <- c_2
I0122 12:17:32.965118 31600 net.cpp:412] tracker_c_split_2 -> c1_2
I0122 12:17:32.965126 31600 net.cpp:412] tracker_c_split_2 -> c2_2
I0122 12:17:32.965154 31600 net.cpp:151] Setting up tracker_c_split_2
I0122 12:17:32.965162 31600 net.cpp:158] Top shape: 1 1 1800 256 (460800)
I0122 12:17:32.965165 31600 net.cpp:158] Top shape: 1 1 1800 256 (460800)
I0122 12:17:32.965169 31600 net.cpp:166] Memory required for data: 473642944
I0122 12:17:32.965173 31600 layer_factory.hpp:76] Creating layer tracker_s_cont_2
I0122 12:17:32.965178 31600 net.cpp:107] Creating Layer tracker_s_cont_2
I0122 12:17:32.965181 31600 net.cpp:455] tracker_s_cont_2 <- s_2
I0122 12:17:32.965185 31600 net.cpp:455] tracker_s_cont_2 <- cont4_3
I0122 12:17:32.965191 31600 net.cpp:412] tracker_s_cont_2 -> s_cont_2
I0122 12:17:32.965240 31600 net.cpp:151] Setting up tracker_s_cont_2
I0122 12:17:32.965245 31600 net.cpp:158] Top shape: 1 1 1 (1)
I0122 12:17:32.965250 31600 net.cpp:166] Memory required for data: 473642948
I0122 12:17:32.965252 31600 layer_factory.hpp:76] Creating layer tracker_s_cont_split_2
I0122 12:17:32.965256 31600 net.cpp:107] Creating Layer tracker_s_cont_split_2
I0122 12:17:32.965260 31600 net.cpp:455] tracker_s_cont_split_2 <- s_cont_2
I0122 12:17:32.965265 31600 net.cpp:412] tracker_s_cont_split_2 -> s1_cont_2
I0122 12:17:32.965272 31600 net.cpp:412] tracker_s_cont_split_2 -> s2_cont_2
I0122 12:17:32.965301 31600 net.cpp:151] Setting up tracker_s_cont_split_2
I0122 12:17:32.965307 31600 net.cpp:158] Top shape: 1 1 1 (1)
I0122 12:17:32.965312 31600 net.cpp:158] Top shape: 1 1 1 (1)
I0122 12:17:32.965315 31600 net.cpp:166] Memory required for data: 473642956
I0122 12:17:32.965318 31600 layer_factory.hpp:76] Creating layer tracker_hm1_2
I0122 12:17:32.965325 31600 net.cpp:107] Creating Layer tracker_hm1_2
I0122 12:17:32.965328 31600 net.cpp:455] tracker_hm1_2 <- h1_2
I0122 12:17:32.965333 31600 net.cpp:455] tracker_hm1_2 <- s1_cont_2
I0122 12:17:32.965338 31600 net.cpp:412] tracker_hm1_2 -> hm1_2
I0122 12:17:32.965369 31600 net.cpp:151] Setting up tracker_hm1_2
I0122 12:17:32.965375 31600 net.cpp:158] Top shape: 1 1 256 256 (65536)
I0122 12:17:32.965378 31600 net.cpp:166] Memory required for data: 473905100
I0122 12:17:32.965383 31600 layer_factory.hpp:76] Creating layer tracker_w_2
I0122 12:17:32.965387 31600 net.cpp:107] Creating Layer tracker_w_2
I0122 12:17:32.965390 31600 net.cpp:455] tracker_w_2 <- c1_2
I0122 12:17:32.965395 31600 net.cpp:455] tracker_w_2 <- hm1_2
I0122 12:17:32.965400 31600 net.cpp:412] tracker_w_2 -> w_2
I0122 12:17:32.965421 31600 net.cpp:151] Setting up tracker_w_2
I0122 12:17:32.965426 31600 net.cpp:158] Top shape: 1 1 1800 256 (460800)
I0122 12:17:32.965430 31600 net.cpp:166] Memory required for data: 475748300
I0122 12:17:32.965433 31600 layer_factory.hpp:76] Creating layer tracker_v_3
I0122 12:17:32.965440 31600 net.cpp:107] Creating Layer tracker_v_3
I0122 12:17:32.965443 31600 net.cpp:455] tracker_v_3 <- w_2
I0122 12:17:32.965447 31600 net.cpp:455] tracker_v_3 <- x_3_tracker_x_slice_2_split_1
I0122 12:17:32.965453 31600 net.cpp:412] tracker_v_3 -> v_3
I0122 12:17:32.965473 31600 net.cpp:151] Setting up tracker_v_3
I0122 12:17:32.965478 31600 net.cpp:158] Top shape: 1 1 1800 1800 (3240000)
I0122 12:17:32.965482 31600 net.cpp:166] Memory required for data: 488708300
I0122 12:17:32.965486 31600 layer_factory.hpp:76] Creating layer tracker_rename_overlaps_3
I0122 12:17:32.965492 31600 net.cpp:107] Creating Layer tracker_rename_overlaps_3
I0122 12:17:32.965497 31600 net.cpp:455] tracker_rename_overlaps_3 <- overlaps1_3
I0122 12:17:32.965502 31600 net.cpp:412] tracker_rename_overlaps_3 -> s_overlaps_3
I0122 12:17:32.965522 31600 net.cpp:151] Setting up tracker_rename_overlaps_3
I0122 12:17:32.965526 31600 net.cpp:158] Top shape: 1 1 1800 1800 (3240000)
I0122 12:17:32.965530 31600 net.cpp:166] Memory required for data: 501668300
I0122 12:17:32.965533 31600 layer_factory.hpp:76] Creating layer tracker_v_cont_3
I0122 12:17:32.965538 31600 net.cpp:107] Creating Layer tracker_v_cont_3
I0122 12:17:32.965548 31600 net.cpp:455] tracker_v_cont_3 <- s_overlaps_3
I0122 12:17:32.965553 31600 net.cpp:455] tracker_v_cont_3 <- v_3
I0122 12:17:32.965558 31600 net.cpp:455] tracker_v_cont_3 <- cont1_3
I0122 12:17:32.965564 31600 net.cpp:412] tracker_v_cont_3 -> v_cont_3
I0122 12:17:32.965584 31600 net.cpp:151] Setting up tracker_v_cont_3
I0122 12:17:32.965590 31600 net.cpp:158] Top shape: 1 1 1800 1800 (3240000)
I0122 12:17:32.965594 31600 net.cpp:166] Memory required for data: 514628300
I0122 12:17:32.965596 31600 layer_factory.hpp:76] Creating layer tracker_v_split_3
I0122 12:17:32.965601 31600 net.cpp:107] Creating Layer tracker_v_split_3
I0122 12:17:32.965605 31600 net.cpp:455] tracker_v_split_3 <- v_cont_3
I0122 12:17:32.965610 31600 net.cpp:412] tracker_v_split_3 -> v1_3
I0122 12:17:32.965616 31600 net.cpp:412] tracker_v_split_3 -> v3_3
I0122 12:17:32.965626 31600 net.cpp:412] tracker_v_split_3 -> v4_3
I0122 12:17:32.965633 31600 net.cpp:412] tracker_v_split_3 -> v2_3
I0122 12:17:32.965682 31600 net.cpp:151] Setting up tracker_v_split_3
I0122 12:17:32.965687 31600 net.cpp:158] Top shape: 1 1 1800 1800 (3240000)
I0122 12:17:32.965692 31600 net.cpp:158] Top shape: 1 1 1800 1800 (3240000)
I0122 12:17:32.965697 31600 net.cpp:158] Top shape: 1 1 1800 1800 (3240000)
I0122 12:17:32.965701 31600 net.cpp:158] Top shape: 1 1 1800 1800 (3240000)
I0122 12:17:32.965704 31600 net.cpp:166] Memory required for data: 566468300
I0122 12:17:32.965708 31600 layer_factory.hpp:76] Creating layer tracker_vtilde_3
I0122 12:17:32.965714 31600 net.cpp:107] Creating Layer tracker_vtilde_3
I0122 12:17:32.965718 31600 net.cpp:455] tracker_vtilde_3 <- v4_3
I0122 12:17:32.965723 31600 net.cpp:455] tracker_vtilde_3 <- overlaps2_3
I0122 12:17:32.965728 31600 net.cpp:455] tracker_vtilde_3 <- nseg_3
I0122 12:17:32.965733 31600 net.cpp:412] tracker_vtilde_3 -> vtilde_3
I0122 12:17:32.965765 31600 net.cpp:151] Setting up tracker_vtilde_3
I0122 12:17:32.965770 31600 net.cpp:158] Top shape: 1 1 1800 1800 (3240000)
I0122 12:17:32.965775 31600 net.cpp:166] Memory required for data: 579428300
I0122 12:17:32.965777 31600 layer_factory.hpp:76] Creating layer tracker_vtilde_split_3
I0122 12:17:32.965782 31600 net.cpp:107] Creating Layer tracker_vtilde_split_3
I0122 12:17:32.965785 31600 net.cpp:455] tracker_vtilde_split_3 <- vtilde_3
I0122 12:17:32.965790 31600 net.cpp:412] tracker_vtilde_split_3 -> vtilde1_3
I0122 12:17:32.965809 31600 net.cpp:151] Setting up tracker_vtilde_split_3
I0122 12:17:32.965814 31600 net.cpp:158] Top shape: 1 1 1800 1800 (3240000)
I0122 12:17:32.965817 31600 net.cpp:166] Memory required for data: 592388300
I0122 12:17:32.965821 31600 layer_factory.hpp:76] Creating layer tracker_reshape1_3
I0122 12:17:32.965827 31600 net.cpp:107] Creating Layer tracker_reshape1_3
I0122 12:17:32.965831 31600 net.cpp:455] tracker_reshape1_3 <- v1_3
I0122 12:17:32.965837 31600 net.cpp:412] tracker_reshape1_3 -> vr_3
I0122 12:17:32.965857 31600 net.cpp:151] Setting up tracker_reshape1_3
I0122 12:17:32.965862 31600 net.cpp:158] Top shape: 1 1 1800 1800 (3240000)
I0122 12:17:32.965865 31600 net.cpp:166] Memory required for data: 605348300
I0122 12:17:32.965868 31600 layer_factory.hpp:76] Creating layer tracker_max_3
I0122 12:17:32.965874 31600 net.cpp:107] Creating Layer tracker_max_3
I0122 12:17:32.965878 31600 net.cpp:455] tracker_max_3 <- vr_3
I0122 12:17:32.965884 31600 net.cpp:412] tracker_max_3 -> mr_3
I0122 12:17:32.966130 31600 net.cpp:151] Setting up tracker_max_3
I0122 12:17:32.966138 31600 net.cpp:158] Top shape: 1 1 1 1800 (1800)
I0122 12:17:32.966142 31600 net.cpp:166] Memory required for data: 605355500
I0122 12:17:32.966146 31600 layer_factory.hpp:76] Creating layer tracker_reshape2_3
I0122 12:17:32.966153 31600 net.cpp:107] Creating Layer tracker_reshape2_3
I0122 12:17:32.966157 31600 net.cpp:455] tracker_reshape2_3 <- mr_3
I0122 12:17:32.966166 31600 net.cpp:412] tracker_reshape2_3 -> m_3
I0122 12:17:32.966191 31600 net.cpp:151] Setting up tracker_reshape2_3
I0122 12:17:32.966197 31600 net.cpp:158] Top shape: 1 1 1800 (1800)
I0122 12:17:32.966207 31600 net.cpp:166] Memory required for data: 605362700
I0122 12:17:32.966212 31600 layer_factory.hpp:76] Creating layer tracker_m_split_3
I0122 12:17:32.966217 31600 net.cpp:107] Creating Layer tracker_m_split_3
I0122 12:17:32.966220 31600 net.cpp:455] tracker_m_split_3 <- m_3
I0122 12:17:32.966228 31600 net.cpp:412] tracker_m_split_3 -> m1_3
I0122 12:17:32.966236 31600 net.cpp:412] tracker_m_split_3 -> m2_3
I0122 12:17:32.966269 31600 net.cpp:151] Setting up tracker_m_split_3
I0122 12:17:32.966275 31600 net.cpp:158] Top shape: 1 1 1800 (1800)
I0122 12:17:32.966280 31600 net.cpp:158] Top shape: 1 1 1800 (1800)
I0122 12:17:32.966284 31600 net.cpp:166] Memory required for data: 605377100
I0122 12:17:32.966286 31600 layer_factory.hpp:76] Creating layer tracker_concat_s_elemens_3
I0122 12:17:32.966294 31600 net.cpp:107] Creating Layer tracker_concat_s_elemens_3
I0122 12:17:32.966297 31600 net.cpp:455] tracker_concat_s_elemens_3 <- m2_3
I0122 12:17:32.966301 31600 net.cpp:455] tracker_concat_s_elemens_3 <- s2_cont_2
I0122 12:17:32.966307 31600 net.cpp:412] tracker_concat_s_elemens_3 -> s_elem_3
I0122 12:17:32.966330 31600 net.cpp:151] Setting up tracker_concat_s_elemens_3
I0122 12:17:32.966334 31600 net.cpp:158] Top shape: 1 1 1801 (1801)
I0122 12:17:32.966338 31600 net.cpp:166] Memory required for data: 605384304
I0122 12:17:32.966341 31600 layer_factory.hpp:76] Creating layer tracker_sum_s_elemens_3
I0122 12:17:32.966346 31600 net.cpp:107] Creating Layer tracker_sum_s_elemens_3
I0122 12:17:32.966351 31600 net.cpp:455] tracker_sum_s_elemens_3 <- s_elem_3
I0122 12:17:32.966356 31600 net.cpp:412] tracker_sum_s_elemens_3 -> ns_3
I0122 12:17:32.966392 31600 net.cpp:151] Setting up tracker_sum_s_elemens_3
I0122 12:17:32.966398 31600 net.cpp:158] Top shape: (1)
I0122 12:17:32.966401 31600 net.cpp:166] Memory required for data: 605384308
I0122 12:17:32.966404 31600 layer_factory.hpp:76] Creating layer tracker_s_reshape_3
I0122 12:17:32.966410 31600 net.cpp:107] Creating Layer tracker_s_reshape_3
I0122 12:17:32.966413 31600 net.cpp:455] tracker_s_reshape_3 <- ns_3
I0122 12:17:32.966420 31600 net.cpp:412] tracker_s_reshape_3 -> s_3
I0122 12:17:32.966441 31600 net.cpp:151] Setting up tracker_s_reshape_3
I0122 12:17:32.966446 31600 net.cpp:158] Top shape: 1 1 1 (1)
I0122 12:17:32.966450 31600 net.cpp:166] Memory required for data: 605384312
I0122 12:17:32.966454 31600 layer_factory.hpp:76] Creating layer tracker_mx_3
I0122 12:17:32.966459 31600 net.cpp:107] Creating Layer tracker_mx_3
I0122 12:17:32.966464 31600 net.cpp:455] tracker_mx_3 <- m1_3
I0122 12:17:32.966469 31600 net.cpp:455] tracker_mx_3 <- x2_3
I0122 12:17:32.966473 31600 net.cpp:412] tracker_mx_3 -> mx_3
I0122 12:17:32.966495 31600 net.cpp:151] Setting up tracker_mx_3
I0122 12:17:32.966501 31600 net.cpp:158] Top shape: 1 1 1800 256 (460800)
I0122 12:17:32.966505 31600 net.cpp:166] Memory required for data: 607227512
I0122 12:17:32.966507 31600 layer_factory.hpp:76] Creating layer tracker_mx_split_3
I0122 12:17:32.966513 31600 net.cpp:107] Creating Layer tracker_mx_split_3
I0122 12:17:32.966517 31600 net.cpp:455] tracker_mx_split_3 <- mx_3
I0122 12:17:32.966523 31600 net.cpp:412] tracker_mx_split_3 -> mx1_3
I0122 12:17:32.966531 31600 net.cpp:412] tracker_mx_split_3 -> mx2_3
I0122 12:17:32.966559 31600 net.cpp:151] Setting up tracker_mx_split_3
I0122 12:17:32.966565 31600 net.cpp:158] Top shape: 1 1 1800 256 (460800)
I0122 12:17:32.966569 31600 net.cpp:158] Top shape: 1 1 1800 256 (460800)
I0122 12:17:32.966573 31600 net.cpp:166] Memory required for data: 610913912
I0122 12:17:32.966577 31600 layer_factory.hpp:76] Creating layer tracker_xmx_3
I0122 12:17:32.966583 31600 net.cpp:107] Creating Layer tracker_xmx_3
I0122 12:17:32.966586 31600 net.cpp:455] tracker_xmx_3 <- x3_3
I0122 12:17:32.966591 31600 net.cpp:455] tracker_xmx_3 <- mx1_3
I0122 12:17:32.966596 31600 net.cpp:412] tracker_xmx_3 -> xmx_3
I0122 12:17:32.966616 31600 net.cpp:151] Setting up tracker_xmx_3
I0122 12:17:32.966622 31600 net.cpp:158] Top shape: 1 1 256 256 (65536)
I0122 12:17:32.966630 31600 net.cpp:166] Memory required for data: 611176056
I0122 12:17:32.966634 31600 layer_factory.hpp:76] Creating layer tracker_h_cont_2
I0122 12:17:32.966641 31600 net.cpp:107] Creating Layer tracker_h_cont_2
I0122 12:17:32.966645 31600 net.cpp:455] tracker_h_cont_2 <- h2_2
I0122 12:17:32.966650 31600 net.cpp:455] tracker_h_cont_2 <- cont2_3
I0122 12:17:32.966655 31600 net.cpp:412] tracker_h_cont_2 -> h_cont_2
I0122 12:17:32.966717 31600 net.cpp:151] Setting up tracker_h_cont_2
I0122 12:17:32.966722 31600 net.cpp:158] Top shape: 1 1 256 256 (65536)
I0122 12:17:32.966727 31600 net.cpp:166] Memory required for data: 611438200
I0122 12:17:32.966729 31600 layer_factory.hpp:76] Creating layer tracker_h_3
I0122 12:17:32.966735 31600 net.cpp:107] Creating Layer tracker_h_3
I0122 12:17:32.966739 31600 net.cpp:455] tracker_h_3 <- h_cont_2
I0122 12:17:32.966744 31600 net.cpp:455] tracker_h_3 <- xmx_3
I0122 12:17:32.966749 31600 net.cpp:412] tracker_h_3 -> h_3
I0122 12:17:32.966769 31600 net.cpp:151] Setting up tracker_h_3
I0122 12:17:32.966775 31600 net.cpp:158] Top shape: 1 1 256 256 (65536)
I0122 12:17:32.966778 31600 net.cpp:166] Memory required for data: 611700344
I0122 12:17:32.966781 31600 layer_factory.hpp:76] Creating layer tracker_vmx_3
I0122 12:17:32.966786 31600 net.cpp:107] Creating Layer tracker_vmx_3
I0122 12:17:32.966790 31600 net.cpp:455] tracker_vmx_3 <- v2_3
I0122 12:17:32.966795 31600 net.cpp:455] tracker_vmx_3 <- mx2_3
I0122 12:17:32.966801 31600 net.cpp:412] tracker_vmx_3 -> vmx_3
I0122 12:17:32.966822 31600 net.cpp:151] Setting up tracker_vmx_3
I0122 12:17:32.966827 31600 net.cpp:158] Top shape: 1 1 1800 256 (460800)
I0122 12:17:32.966831 31600 net.cpp:166] Memory required for data: 613543544
I0122 12:17:32.966835 31600 layer_factory.hpp:76] Creating layer tracker_c_cont_2
I0122 12:17:32.966840 31600 net.cpp:107] Creating Layer tracker_c_cont_2
I0122 12:17:32.966843 31600 net.cpp:455] tracker_c_cont_2 <- c2_2
I0122 12:17:32.966847 31600 net.cpp:455] tracker_c_cont_2 <- cont3_3
I0122 12:17:32.966855 31600 net.cpp:412] tracker_c_cont_2 -> c_cont_2
I0122 12:17:32.967384 31600 net.cpp:151] Setting up tracker_c_cont_2
I0122 12:17:32.967393 31600 net.cpp:158] Top shape: 1 1 1800 256 (460800)
I0122 12:17:32.967396 31600 net.cpp:166] Memory required for data: 615386744
I0122 12:17:32.967401 31600 layer_factory.hpp:76] Creating layer tracker_c_3
I0122 12:17:32.967407 31600 net.cpp:107] Creating Layer tracker_c_3
I0122 12:17:32.967411 31600 net.cpp:455] tracker_c_3 <- c_cont_2
I0122 12:17:32.967417 31600 net.cpp:455] tracker_c_3 <- vmx_3
I0122 12:17:32.967422 31600 net.cpp:412] tracker_c_3 -> c_3
I0122 12:17:32.967447 31600 net.cpp:151] Setting up tracker_c_3
I0122 12:17:32.967452 31600 net.cpp:158] Top shape: 1 1 1800 256 (460800)
I0122 12:17:32.967455 31600 net.cpp:166] Memory required for data: 617229944
I0122 12:17:32.967458 31600 layer_factory.hpp:76] Creating layer tracker_overlaps_split_4
I0122 12:17:32.967464 31600 net.cpp:107] Creating Layer tracker_overlaps_split_4
I0122 12:17:32.967468 31600 net.cpp:455] tracker_overlaps_split_4 <- overlaps_4
I0122 12:17:32.967473 31600 net.cpp:412] tracker_overlaps_split_4 -> overlaps1_4
I0122 12:17:32.967480 31600 net.cpp:412] tracker_overlaps_split_4 -> overlaps2_4
I0122 12:17:32.967512 31600 net.cpp:151] Setting up tracker_overlaps_split_4
I0122 12:17:32.967519 31600 net.cpp:158] Top shape: 1 1 1800 1800 (3240000)
I0122 12:17:32.967522 31600 net.cpp:158] Top shape: 1 1 1800 1800 (3240000)
I0122 12:17:32.967526 31600 net.cpp:166] Memory required for data: 643149944
I0122 12:17:32.967530 31600 layer_factory.hpp:76] Creating layer tracker_x_split_4
I0122 12:17:32.967535 31600 net.cpp:107] Creating Layer tracker_x_split_4
I0122 12:17:32.967538 31600 net.cpp:455] tracker_x_split_4 <- x_4_tracker_x_slice_3_split_0
I0122 12:17:32.967543 31600 net.cpp:412] tracker_x_split_4 -> x1_4
I0122 12:17:32.967550 31600 net.cpp:412] tracker_x_split_4 -> x2_4
I0122 12:17:32.967557 31600 net.cpp:412] tracker_x_split_4 -> x3_4
I0122 12:17:32.967563 31600 net.cpp:412] tracker_x_split_4 -> x4_4
I0122 12:17:32.967617 31600 net.cpp:151] Setting up tracker_x_split_4
I0122 12:17:32.967622 31600 net.cpp:158] Top shape: 1 1 1800 256 (460800)
I0122 12:17:32.967628 31600 net.cpp:158] Top shape: 1 1 1800 256 (460800)
I0122 12:17:32.967631 31600 net.cpp:158] Top shape: 1 1 1800 256 (460800)
I0122 12:17:32.967635 31600 net.cpp:158] Top shape: 1 1 1800 256 (460800)
I0122 12:17:32.967639 31600 net.cpp:166] Memory required for data: 650522744
I0122 12:17:32.967643 31600 layer_factory.hpp:76] Creating layer tracker_cont_split_4
I0122 12:17:32.967648 31600 net.cpp:107] Creating Layer tracker_cont_split_4
I0122 12:17:32.967651 31600 net.cpp:455] tracker_cont_split_4 <- cont_4
I0122 12:17:32.967658 31600 net.cpp:412] tracker_cont_split_4 -> cont1_4
I0122 12:17:32.967664 31600 net.cpp:412] tracker_cont_split_4 -> cont2_4
I0122 12:17:32.967672 31600 net.cpp:412] tracker_cont_split_4 -> cont3_4
I0122 12:17:32.967679 31600 net.cpp:412] tracker_cont_split_4 -> cont4_4
I0122 12:17:32.967728 31600 net.cpp:151] Setting up tracker_cont_split_4
I0122 12:17:32.967733 31600 net.cpp:158] Top shape: 1 1 (1)
I0122 12:17:32.967737 31600 net.cpp:158] Top shape: 1 1 (1)
I0122 12:17:32.967742 31600 net.cpp:158] Top shape: 1 1 (1)
I0122 12:17:32.967746 31600 net.cpp:158] Top shape: 1 1 (1)
I0122 12:17:32.967749 31600 net.cpp:166] Memory required for data: 650522760
I0122 12:17:32.967752 31600 layer_factory.hpp:76] Creating layer tracker_h_split_3
I0122 12:17:32.967758 31600 net.cpp:107] Creating Layer tracker_h_split_3
I0122 12:17:32.967762 31600 net.cpp:455] tracker_h_split_3 <- h_3
I0122 12:17:32.967767 31600 net.cpp:412] tracker_h_split_3 -> h1_3
I0122 12:17:32.967773 31600 net.cpp:412] tracker_h_split_3 -> h2_3
I0122 12:17:32.967803 31600 net.cpp:151] Setting up tracker_h_split_3
I0122 12:17:32.967809 31600 net.cpp:158] Top shape: 1 1 256 256 (65536)
I0122 12:17:32.967814 31600 net.cpp:158] Top shape: 1 1 256 256 (65536)
I0122 12:17:32.967818 31600 net.cpp:166] Memory required for data: 651047048
I0122 12:17:32.967820 31600 layer_factory.hpp:76] Creating layer tracker_c_split_3
I0122 12:17:32.967825 31600 net.cpp:107] Creating Layer tracker_c_split_3
I0122 12:17:32.967829 31600 net.cpp:455] tracker_c_split_3 <- c_3
I0122 12:17:32.967834 31600 net.cpp:412] tracker_c_split_3 -> c1_3
I0122 12:17:32.967840 31600 net.cpp:412] tracker_c_split_3 -> c2_3
I0122 12:17:32.967869 31600 net.cpp:151] Setting up tracker_c_split_3
I0122 12:17:32.967875 31600 net.cpp:158] Top shape: 1 1 1800 256 (460800)
I0122 12:17:32.967880 31600 net.cpp:158] Top shape: 1 1 1800 256 (460800)
I0122 12:17:32.967882 31600 net.cpp:166] Memory required for data: 654733448
I0122 12:17:32.967886 31600 layer_factory.hpp:76] Creating layer tracker_s_cont_3
I0122 12:17:32.967891 31600 net.cpp:107] Creating Layer tracker_s_cont_3
I0122 12:17:32.967895 31600 net.cpp:455] tracker_s_cont_3 <- s_3
I0122 12:17:32.967900 31600 net.cpp:455] tracker_s_cont_3 <- cont4_4
I0122 12:17:32.967906 31600 net.cpp:412] tracker_s_cont_3 -> s_cont_3
I0122 12:17:32.967955 31600 net.cpp:151] Setting up tracker_s_cont_3
I0122 12:17:32.967962 31600 net.cpp:158] Top shape: 1 1 1 (1)
I0122 12:17:32.967964 31600 net.cpp:166] Memory required for data: 654733452
I0122 12:17:32.967968 31600 layer_factory.hpp:76] Creating layer tracker_s_cont_split_3
I0122 12:17:32.967972 31600 net.cpp:107] Creating Layer tracker_s_cont_split_3
I0122 12:17:32.967977 31600 net.cpp:455] tracker_s_cont_split_3 <- s_cont_3
I0122 12:17:32.967983 31600 net.cpp:412] tracker_s_cont_split_3 -> s1_cont_3
I0122 12:17:32.967989 31600 net.cpp:412] tracker_s_cont_split_3 -> s2_cont_3
I0122 12:17:32.968019 31600 net.cpp:151] Setting up tracker_s_cont_split_3
I0122 12:17:32.968024 31600 net.cpp:158] Top shape: 1 1 1 (1)
I0122 12:17:32.968029 31600 net.cpp:158] Top shape: 1 1 1 (1)
I0122 12:17:32.968031 31600 net.cpp:166] Memory required for data: 654733460
I0122 12:17:32.968034 31600 layer_factory.hpp:76] Creating layer tracker_hm1_3
I0122 12:17:32.968041 31600 net.cpp:107] Creating Layer tracker_hm1_3
I0122 12:17:32.968045 31600 net.cpp:455] tracker_hm1_3 <- h1_3
I0122 12:17:32.968065 31600 net.cpp:455] tracker_hm1_3 <- s1_cont_3
I0122 12:17:32.968071 31600 net.cpp:412] tracker_hm1_3 -> hm1_3
I0122 12:17:32.968103 31600 net.cpp:151] Setting up tracker_hm1_3
I0122 12:17:32.968109 31600 net.cpp:158] Top shape: 1 1 256 256 (65536)
I0122 12:17:32.968112 31600 net.cpp:166] Memory required for data: 654995604
I0122 12:17:32.968116 31600 layer_factory.hpp:76] Creating layer tracker_w_3
I0122 12:17:32.968121 31600 net.cpp:107] Creating Layer tracker_w_3
I0122 12:17:32.968124 31600 net.cpp:455] tracker_w_3 <- c1_3
I0122 12:17:32.968129 31600 net.cpp:455] tracker_w_3 <- hm1_3
I0122 12:17:32.968134 31600 net.cpp:412] tracker_w_3 -> w_3
I0122 12:17:32.968157 31600 net.cpp:151] Setting up tracker_w_3
I0122 12:17:32.968161 31600 net.cpp:158] Top shape: 1 1 1800 256 (460800)
I0122 12:17:32.968164 31600 net.cpp:166] Memory required for data: 656838804
I0122 12:17:32.968168 31600 layer_factory.hpp:76] Creating layer tracker_v_4
I0122 12:17:32.968173 31600 net.cpp:107] Creating Layer tracker_v_4
I0122 12:17:32.968176 31600 net.cpp:455] tracker_v_4 <- w_3
I0122 12:17:32.968181 31600 net.cpp:455] tracker_v_4 <- x_4_tracker_x_slice_3_split_1
I0122 12:17:32.968186 31600 net.cpp:412] tracker_v_4 -> v_4
I0122 12:17:32.968206 31600 net.cpp:151] Setting up tracker_v_4
I0122 12:17:32.968211 31600 net.cpp:158] Top shape: 1 1 1800 1800 (3240000)
I0122 12:17:32.968215 31600 net.cpp:166] Memory required for data: 669798804
I0122 12:17:32.968219 31600 layer_factory.hpp:76] Creating layer tracker_rename_overlaps_4
I0122 12:17:32.968225 31600 net.cpp:107] Creating Layer tracker_rename_overlaps_4
I0122 12:17:32.968228 31600 net.cpp:455] tracker_rename_overlaps_4 <- overlaps1_4
I0122 12:17:32.968233 31600 net.cpp:412] tracker_rename_overlaps_4 -> s_overlaps_4
I0122 12:17:32.968252 31600 net.cpp:151] Setting up tracker_rename_overlaps_4
I0122 12:17:32.968258 31600 net.cpp:158] Top shape: 1 1 1800 1800 (3240000)
I0122 12:17:32.968261 31600 net.cpp:166] Memory required for data: 682758804
I0122 12:17:32.968266 31600 layer_factory.hpp:76] Creating layer tracker_v_cont_4
I0122 12:17:32.968271 31600 net.cpp:107] Creating Layer tracker_v_cont_4
I0122 12:17:32.968276 31600 net.cpp:455] tracker_v_cont_4 <- s_overlaps_4
I0122 12:17:32.968281 31600 net.cpp:455] tracker_v_cont_4 <- v_4
I0122 12:17:32.968286 31600 net.cpp:455] tracker_v_cont_4 <- cont1_4
I0122 12:17:32.968291 31600 net.cpp:412] tracker_v_cont_4 -> v_cont_4
I0122 12:17:32.968312 31600 net.cpp:151] Setting up tracker_v_cont_4
I0122 12:17:32.968317 31600 net.cpp:158] Top shape: 1 1 1800 1800 (3240000)
I0122 12:17:32.968320 31600 net.cpp:166] Memory required for data: 695718804
I0122 12:17:32.968323 31600 layer_factory.hpp:76] Creating layer tracker_v_split_4
I0122 12:17:32.968329 31600 net.cpp:107] Creating Layer tracker_v_split_4
I0122 12:17:32.968333 31600 net.cpp:455] tracker_v_split_4 <- v_cont_4
I0122 12:17:32.968340 31600 net.cpp:412] tracker_v_split_4 -> v1_4
I0122 12:17:32.968348 31600 net.cpp:412] tracker_v_split_4 -> v3_4
I0122 12:17:32.968354 31600 net.cpp:412] tracker_v_split_4 -> v4_4
I0122 12:17:32.968363 31600 net.cpp:412] tracker_v_split_4 -> v2_4
I0122 12:17:32.968410 31600 net.cpp:151] Setting up tracker_v_split_4
I0122 12:17:32.968415 31600 net.cpp:158] Top shape: 1 1 1800 1800 (3240000)
I0122 12:17:32.968420 31600 net.cpp:158] Top shape: 1 1 1800 1800 (3240000)
I0122 12:17:32.968425 31600 net.cpp:158] Top shape: 1 1 1800 1800 (3240000)
I0122 12:17:32.968430 31600 net.cpp:158] Top shape: 1 1 1800 1800 (3240000)
I0122 12:17:32.968432 31600 net.cpp:166] Memory required for data: 747558804
I0122 12:17:32.968436 31600 layer_factory.hpp:76] Creating layer tracker_vtilde_4
I0122 12:17:32.968444 31600 net.cpp:107] Creating Layer tracker_vtilde_4
I0122 12:17:32.968448 31600 net.cpp:455] tracker_vtilde_4 <- v4_4
I0122 12:17:32.968453 31600 net.cpp:455] tracker_vtilde_4 <- overlaps2_4
I0122 12:17:32.968458 31600 net.cpp:455] tracker_vtilde_4 <- nseg_4
I0122 12:17:32.968463 31600 net.cpp:412] tracker_vtilde_4 -> vtilde_4
I0122 12:17:32.968502 31600 net.cpp:151] Setting up tracker_vtilde_4
I0122 12:17:32.968508 31600 net.cpp:158] Top shape: 1 1 1800 1800 (3240000)
I0122 12:17:32.968510 31600 net.cpp:166] Memory required for data: 760518804
I0122 12:17:32.968513 31600 layer_factory.hpp:76] Creating layer tracker_vtilde_split_4
I0122 12:17:32.968518 31600 net.cpp:107] Creating Layer tracker_vtilde_split_4
I0122 12:17:32.968523 31600 net.cpp:455] tracker_vtilde_split_4 <- vtilde_4
I0122 12:17:32.968528 31600 net.cpp:412] tracker_vtilde_split_4 -> vtilde1_4
I0122 12:17:32.968549 31600 net.cpp:151] Setting up tracker_vtilde_split_4
I0122 12:17:32.968554 31600 net.cpp:158] Top shape: 1 1 1800 1800 (3240000)
I0122 12:17:32.968557 31600 net.cpp:166] Memory required for data: 773478804
I0122 12:17:32.968561 31600 layer_factory.hpp:76] Creating layer tracker_reshape1_4
I0122 12:17:32.968569 31600 net.cpp:107] Creating Layer tracker_reshape1_4
I0122 12:17:32.968574 31600 net.cpp:455] tracker_reshape1_4 <- v1_4
I0122 12:17:32.968580 31600 net.cpp:412] tracker_reshape1_4 -> vr_4
I0122 12:17:32.968600 31600 net.cpp:151] Setting up tracker_reshape1_4
I0122 12:17:32.968605 31600 net.cpp:158] Top shape: 1 1 1800 1800 (3240000)
I0122 12:17:32.968610 31600 net.cpp:166] Memory required for data: 786438804
I0122 12:17:32.968612 31600 layer_factory.hpp:76] Creating layer tracker_max_4
I0122 12:17:32.968619 31600 net.cpp:107] Creating Layer tracker_max_4
I0122 12:17:32.968623 31600 net.cpp:455] tracker_max_4 <- vr_4
I0122 12:17:32.968629 31600 net.cpp:412] tracker_max_4 -> mr_4
I0122 12:17:32.968778 31600 net.cpp:151] Setting up tracker_max_4
I0122 12:17:32.968786 31600 net.cpp:158] Top shape: 1 1 1 1800 (1800)
I0122 12:17:32.968789 31600 net.cpp:166] Memory required for data: 786446004
I0122 12:17:32.968792 31600 layer_factory.hpp:76] Creating layer tracker_reshape2_4
I0122 12:17:32.968798 31600 net.cpp:107] Creating Layer tracker_reshape2_4
I0122 12:17:32.968801 31600 net.cpp:455] tracker_reshape2_4 <- mr_4
I0122 12:17:32.968808 31600 net.cpp:412] tracker_reshape2_4 -> m_4
I0122 12:17:32.968832 31600 net.cpp:151] Setting up tracker_reshape2_4
I0122 12:17:32.968837 31600 net.cpp:158] Top shape: 1 1 1800 (1800)
I0122 12:17:32.968842 31600 net.cpp:166] Memory required for data: 786453204
I0122 12:17:32.968844 31600 layer_factory.hpp:76] Creating layer tracker_m_split_4
I0122 12:17:32.968849 31600 net.cpp:107] Creating Layer tracker_m_split_4
I0122 12:17:32.968853 31600 net.cpp:455] tracker_m_split_4 <- m_4
I0122 12:17:32.968858 31600 net.cpp:412] tracker_m_split_4 -> m1_4
I0122 12:17:32.968865 31600 net.cpp:412] tracker_m_split_4 -> m2_4
I0122 12:17:32.968896 31600 net.cpp:151] Setting up tracker_m_split_4
I0122 12:17:32.968901 31600 net.cpp:158] Top shape: 1 1 1800 (1800)
I0122 12:17:32.968906 31600 net.cpp:158] Top shape: 1 1 1800 (1800)
I0122 12:17:32.968909 31600 net.cpp:166] Memory required for data: 786467604
I0122 12:17:32.968912 31600 layer_factory.hpp:76] Creating layer tracker_concat_s_elemens_4
I0122 12:17:32.968919 31600 net.cpp:107] Creating Layer tracker_concat_s_elemens_4
I0122 12:17:32.968922 31600 net.cpp:455] tracker_concat_s_elemens_4 <- m2_4
I0122 12:17:32.968927 31600 net.cpp:455] tracker_concat_s_elemens_4 <- s2_cont_3
I0122 12:17:32.968933 31600 net.cpp:412] tracker_concat_s_elemens_4 -> s_elem_4
I0122 12:17:32.968955 31600 net.cpp:151] Setting up tracker_concat_s_elemens_4
I0122 12:17:32.968960 31600 net.cpp:158] Top shape: 1 1 1801 (1801)
I0122 12:17:32.968963 31600 net.cpp:166] Memory required for data: 786474808
I0122 12:17:32.968966 31600 layer_factory.hpp:76] Creating layer tracker_sum_s_elemens_4
I0122 12:17:32.968971 31600 net.cpp:107] Creating Layer tracker_sum_s_elemens_4
I0122 12:17:32.968976 31600 net.cpp:455] tracker_sum_s_elemens_4 <- s_elem_4
I0122 12:17:32.968981 31600 net.cpp:412] tracker_sum_s_elemens_4 -> ns_4
I0122 12:17:32.969015 31600 net.cpp:151] Setting up tracker_sum_s_elemens_4
I0122 12:17:32.969022 31600 net.cpp:158] Top shape: (1)
I0122 12:17:32.969024 31600 net.cpp:166] Memory required for data: 786474812
I0122 12:17:32.969033 31600 layer_factory.hpp:76] Creating layer tracker_s_reshape_4
I0122 12:17:32.969040 31600 net.cpp:107] Creating Layer tracker_s_reshape_4
I0122 12:17:32.969045 31600 net.cpp:455] tracker_s_reshape_4 <- ns_4
I0122 12:17:32.969050 31600 net.cpp:412] tracker_s_reshape_4 -> s_4
I0122 12:17:32.969074 31600 net.cpp:151] Setting up tracker_s_reshape_4
I0122 12:17:32.969079 31600 net.cpp:158] Top shape: 1 1 1 (1)
I0122 12:17:32.969082 31600 net.cpp:166] Memory required for data: 786474816
I0122 12:17:32.969085 31600 layer_factory.hpp:76] Creating layer tracker_mx_4
I0122 12:17:32.969091 31600 net.cpp:107] Creating Layer tracker_mx_4
I0122 12:17:32.969095 31600 net.cpp:455] tracker_mx_4 <- m1_4
I0122 12:17:32.969100 31600 net.cpp:455] tracker_mx_4 <- x2_4
I0122 12:17:32.969106 31600 net.cpp:412] tracker_mx_4 -> mx_4
I0122 12:17:32.969128 31600 net.cpp:151] Setting up tracker_mx_4
I0122 12:17:32.969135 31600 net.cpp:158] Top shape: 1 1 1800 256 (460800)
I0122 12:17:32.969137 31600 net.cpp:166] Memory required for data: 788318016
I0122 12:17:32.969141 31600 layer_factory.hpp:76] Creating layer tracker_mx_split_4
I0122 12:17:32.969146 31600 net.cpp:107] Creating Layer tracker_mx_split_4
I0122 12:17:32.969149 31600 net.cpp:455] tracker_mx_split_4 <- mx_4
I0122 12:17:32.969154 31600 net.cpp:412] tracker_mx_split_4 -> mx1_4
I0122 12:17:32.969162 31600 net.cpp:412] tracker_mx_split_4 -> mx2_4
I0122 12:17:32.969192 31600 net.cpp:151] Setting up tracker_mx_split_4
I0122 12:17:32.969197 31600 net.cpp:158] Top shape: 1 1 1800 256 (460800)
I0122 12:17:32.969202 31600 net.cpp:158] Top shape: 1 1 1800 256 (460800)
I0122 12:17:32.969205 31600 net.cpp:166] Memory required for data: 792004416
I0122 12:17:32.969208 31600 layer_factory.hpp:76] Creating layer tracker_xmx_4
I0122 12:17:32.969215 31600 net.cpp:107] Creating Layer tracker_xmx_4
I0122 12:17:32.969219 31600 net.cpp:455] tracker_xmx_4 <- x3_4
I0122 12:17:32.969224 31600 net.cpp:455] tracker_xmx_4 <- mx1_4
I0122 12:17:32.969229 31600 net.cpp:412] tracker_xmx_4 -> xmx_4
I0122 12:17:32.969249 31600 net.cpp:151] Setting up tracker_xmx_4
I0122 12:17:32.969255 31600 net.cpp:158] Top shape: 1 1 256 256 (65536)
I0122 12:17:32.969259 31600 net.cpp:166] Memory required for data: 792266560
I0122 12:17:32.969261 31600 layer_factory.hpp:76] Creating layer tracker_h_cont_3
I0122 12:17:32.969266 31600 net.cpp:107] Creating Layer tracker_h_cont_3
I0122 12:17:32.969270 31600 net.cpp:455] tracker_h_cont_3 <- h2_3
I0122 12:17:32.969276 31600 net.cpp:455] tracker_h_cont_3 <- cont2_4
I0122 12:17:32.969282 31600 net.cpp:412] tracker_h_cont_3 -> h_cont_3
I0122 12:17:32.969375 31600 net.cpp:151] Setting up tracker_h_cont_3
I0122 12:17:32.969382 31600 net.cpp:158] Top shape: 1 1 256 256 (65536)
I0122 12:17:32.969385 31600 net.cpp:166] Memory required for data: 792528704
I0122 12:17:32.969388 31600 layer_factory.hpp:76] Creating layer tracker_h_4
I0122 12:17:32.969393 31600 net.cpp:107] Creating Layer tracker_h_4
I0122 12:17:32.969398 31600 net.cpp:455] tracker_h_4 <- h_cont_3
I0122 12:17:32.969401 31600 net.cpp:455] tracker_h_4 <- xmx_4
I0122 12:17:32.969408 31600 net.cpp:412] tracker_h_4 -> h_4
I0122 12:17:32.969429 31600 net.cpp:151] Setting up tracker_h_4
I0122 12:17:32.969434 31600 net.cpp:158] Top shape: 1 1 256 256 (65536)
I0122 12:17:32.969437 31600 net.cpp:166] Memory required for data: 792790848
I0122 12:17:32.969440 31600 layer_factory.hpp:76] Creating layer tracker_vmx_4
I0122 12:17:32.969445 31600 net.cpp:107] Creating Layer tracker_vmx_4
I0122 12:17:32.969449 31600 net.cpp:455] tracker_vmx_4 <- v2_4
I0122 12:17:32.969454 31600 net.cpp:455] tracker_vmx_4 <- mx2_4
I0122 12:17:32.969460 31600 net.cpp:412] tracker_vmx_4 -> vmx_4
I0122 12:17:32.969480 31600 net.cpp:151] Setting up tracker_vmx_4
I0122 12:17:32.969485 31600 net.cpp:158] Top shape: 1 1 1800 256 (460800)
I0122 12:17:32.969490 31600 net.cpp:166] Memory required for data: 794634048
I0122 12:17:32.969492 31600 layer_factory.hpp:76] Creating layer tracker_c_cont_3
I0122 12:17:32.969497 31600 net.cpp:107] Creating Layer tracker_c_cont_3
I0122 12:17:32.969506 31600 net.cpp:455] tracker_c_cont_3 <- c2_3
I0122 12:17:32.969511 31600 net.cpp:455] tracker_c_cont_3 <- cont3_4
I0122 12:17:32.969517 31600 net.cpp:412] tracker_c_cont_3 -> c_cont_3
I0122 12:17:32.970055 31600 net.cpp:151] Setting up tracker_c_cont_3
I0122 12:17:32.970064 31600 net.cpp:158] Top shape: 1 1 1800 256 (460800)
I0122 12:17:32.970067 31600 net.cpp:166] Memory required for data: 796477248
I0122 12:17:32.970072 31600 layer_factory.hpp:76] Creating layer tracker_c_4
I0122 12:17:32.970078 31600 net.cpp:107] Creating Layer tracker_c_4
I0122 12:17:32.970082 31600 net.cpp:455] tracker_c_4 <- c_cont_3
I0122 12:17:32.970088 31600 net.cpp:455] tracker_c_4 <- vmx_4
I0122 12:17:32.970093 31600 net.cpp:412] tracker_c_4 -> c_4
I0122 12:17:32.970119 31600 net.cpp:151] Setting up tracker_c_4
I0122 12:17:32.970125 31600 net.cpp:158] Top shape: 1 1 1800 256 (460800)
I0122 12:17:32.970129 31600 net.cpp:166] Memory required for data: 798320448
I0122 12:17:32.970132 31600 layer_factory.hpp:76] Creating layer tracker_v_concat
I0122 12:17:32.970149 31600 net.cpp:107] Creating Layer tracker_v_concat
I0122 12:17:32.970152 31600 net.cpp:455] tracker_v_concat <- v3_1
I0122 12:17:32.970157 31600 net.cpp:455] tracker_v_concat <- v3_2
I0122 12:17:32.970166 31600 net.cpp:455] tracker_v_concat <- v3_3
I0122 12:17:32.970171 31600 net.cpp:455] tracker_v_concat <- v3_4
I0122 12:17:32.970177 31600 net.cpp:412] tracker_v_concat -> v
I0122 12:17:32.970201 31600 net.cpp:151] Setting up tracker_v_concat
I0122 12:17:32.970206 31600 net.cpp:158] Top shape: 4 1 1800 1800 (12960000)
I0122 12:17:32.970209 31600 net.cpp:166] Memory required for data: 850160448
I0122 12:17:32.970213 31600 layer_factory.hpp:76] Creating layer tracker_vtilde_concat
I0122 12:17:32.970218 31600 net.cpp:107] Creating Layer tracker_vtilde_concat
I0122 12:17:32.970222 31600 net.cpp:455] tracker_vtilde_concat <- vtilde1_1
I0122 12:17:32.970227 31600 net.cpp:455] tracker_vtilde_concat <- vtilde1_2
I0122 12:17:32.970232 31600 net.cpp:455] tracker_vtilde_concat <- vtilde1_3
I0122 12:17:32.970235 31600 net.cpp:455] tracker_vtilde_concat <- vtilde1_4
I0122 12:17:32.970240 31600 net.cpp:412] tracker_vtilde_concat -> vtilde
I0122 12:17:32.970263 31600 net.cpp:151] Setting up tracker_vtilde_concat
I0122 12:17:32.970268 31600 net.cpp:158] Top shape: 4 1 1800 1800 (12960000)
I0122 12:17:32.970273 31600 net.cpp:166] Memory required for data: 902000448
I0122 12:17:32.970275 31600 net.cpp:229] tracker_vtilde_concat does not need backward computation.
I0122 12:17:32.970280 31600 net.cpp:229] tracker_v_concat does not need backward computation.
I0122 12:17:32.970284 31600 net.cpp:229] tracker_c_4 does not need backward computation.
I0122 12:17:32.970288 31600 net.cpp:229] tracker_c_cont_3 does not need backward computation.
…
I0122 12:17:32.970849 31600 net.cpp:271] This network produces output x1_3
I0122 12:17:32.970852 31600 net.cpp:271] This network produces output x1_4
I0122 12:17:32.970856 31600 net.cpp:271] This network produces output x4_1
I0122 12:17:32.970860 31600 net.cpp:271] This network produces output x4_2
I0122 12:17:32.970863 31600 net.cpp:271] This network produces output x4_3
I0122 12:17:32.970866 31600 net.cpp:271] This network produces output x4_4
I0122 12:17:32.970952 31600 net.cpp:284] Network initialization done.
I0122 12:17:32.971827 31600 net.cpp:151] Setting up tracker
I0122 12:17:32.971837 31600 net.cpp:158] Top shape: 4 1 1800 1800 (12960000)
I0122 12:17:32.971842 31600 net.cpp:158] Top shape: 4 1 1800 1800 (12960000)
I0122 12:17:32.971844 31600 net.cpp:166] Memory required for data: 2897893808
I0122 12:17:32.971848 31600 layer_factory.hpp:76] Creating layer trackerLoss
I0122 12:17:32.971859 31600 net.cpp:107] Creating Layer trackerLoss
I0122 12:17:32.971864 31600 net.cpp:455] trackerLoss <- v
I0122 12:17:32.971876 31600 net.cpp:455] trackerLoss <- gt_overlaps_data_11_split_0
I0122 12:17:32.971884 31600 net.cpp:455] trackerLoss <- gt_num_data_10_split_0
I0122 12:17:32.971889 31600 net.cpp:455] trackerLoss <- cont_data_0_split_1
I0122 12:17:32.971894 31600 net.cpp:412] trackerLoss -> supervised_loss
I0122 12:17:32.971904 31600 recurrent_layer.cpp:42] Initializing recurrent layer: assuming input batch contains 4 timesteps of 1 independent streams.
I0122 12:17:32.972048 31600 net.cpp:49] Initializing net from parameters: 
input: "v"
input: "gt_overlaps"
input: "gt_num"
input: "cont"
input: "o_0"
force_backward: true
input_shape {
  dim: 4
  dim: 1
  dim: 1800
  dim: 1800
}
input_shape {
  dim: 4
  dim: 1
  dim: 6
  dim: 1800
}
input_shape {
  dim: 4
  dim: 1
}
input_shape {
  dim: 4
  dim: 1
}
input_shape {
  dim: 1
  dim: 1
  dim: 6
  dim: 1
}
layer {
  name: "trackerLoss_gt_overlaps_split"
  type: "Split"
  bottom: "gt_overlaps"
  top: "gt1_overlaps"
  top: "gt2_overlaps"
}
layer {
  name: "trackerLoss_reshape0"
  type: "Reshape"
  bottom: "gt1_overlaps"
  top: "rgt1_overlaps"
  reshape_param {
    shape {
      dim: 4
      dim: 6
      dim: 1
      dim: 1800
    }
  }
}
layer {
  name: "trackerLoss_best_seg_match"
  type: "Pooling"
  bottom: "rgt1_overlaps"
  top: "tmp"
  top: "rbest_track"
  pooling_param {
    pool: MAX
    global_pooling: true
  }
}
layer {
  name: "trackerLoss_silent_tmp"
  type: "Silence"
  bottom: "tmp"
}
layer {
  name: "trackerLoss_reshape_best_track"
  type: "Reshape"
  bottom: "rbest_track"
  top: "best_track"
  reshape_param {
    shape {
      dim: 4
      dim: 1
      dim: 6
      dim: 1
    }
  }
}
layer {
  name: "trackerLoss_cont_slice"
  type: "Slice"
  bottom: "cont"
  top: "cont_1"
  top: "cont_2"
  top: "cont_3"
  top: "cont_4"
  slice_param {
    axis: 0
  }
}
layer {
  name: "trackerLoss_best_track_slice"
  type: "Slice"
  bottom: "best_track"
  top: "bt_1"
  top: "bt_2"
  top: "bt_3"
  top: "bt_4"
  slice_param {
    axis: 0
  }
}
layer {
  name: "trackerLoss_o_cont_0"
  type: "Switch"
  bottom: "bt_1"
  bottom: "o_0"
  bottom: "cont_1"
  top: "new_o_1"
  switch_param {
    axis: 2
  }
}
layer {
  name: "trackerLoss_o_split_1"
  type: "Split"
  bottom: "new_o_1"
  top: "o_1"
  top: "track_1"
}
layer {
  name: "trackerLoss_o_cont_1"
  type: "Switch"
  bottom: "bt_2"
  bottom: "o_1"
  bottom: "cont_2"
  top: "new_o_2"
  switch_param {
    axis: 2
  }
}
layer {
  name: "trackerLoss_o_split_2"
  type: "Split"
  bottom: "new_o_2"
  top: "o_2"
  top: "track_2"
}
layer {
  name: "trackerLoss_o_cont_2"
  type: "Switch"
  bottom: "bt_3"
  bottom: "o_2"
  bottom: "cont_3"
  top: "new_o_3"
  switch_param {
    axis: 2
  }
}
layer {
  name: "trackerLoss_o_split_3"
  type: "Split"
  bottom: "new_o_3"
  top: "o_3"
  top: "track_3"
}
layer {
  name: "trackerLoss_o_cont_3"
  type: "Switch"
  bottom: "bt_4"
  bottom: "o_3"
  bottom: "cont_4"
  top: "new_o_4"
  switch_param {
    axis: 2
  }
}
layer {
  name: "trackerLoss_o_split_4"
  type: "Split"
  bottom: "new_o_4"
  top: "o_4"
  top: "track_4"
}
layer {
  name: "trackerLoss_ob_concat"
  type: "Concat"
  bottom: "track_1"
  bottom: "track_2"
  bottom: "track_3"
  bottom: "track_4"
  top: "O"
  concat_param {
    axis: 0
  }
}
layer {
  name: "trackerLoss_reshape1"
  type: "Reshape"
  bottom: "O"
  top: "rO"
  reshape_param {
    shape {
      dim: 4
      dim: 1
      dim: 6
    }
  }
}
layer {
  name: "trackerLoss_hotmult"
  type: "HotMult"
  bottom: "rO"
  bottom: "v"
  bottom: "gt_num"
  top: "gt_bar"
  hotmult_param {
    mode: "ROW"
  }
}
layer {
  name: "trackerLoss_reshape2"
  type: "Reshape"
  bottom: "gt_bar"
  top: "rgt_bar"
  reshape_param {
    shape {
      dim: -1
      dim: 1
      dim: 1
      dim: 1
    }
  }
}
layer {
  name: "trackerLoss_reshape3"
  type: "Reshape"
  bottom: "gt2_overlaps"
  top: "rgt2_overlaps"
  reshape_param {
    shape {
      dim: -1
      dim: 1
      dim: 1
      dim: 1
    }
  }
}
layer {
  name: "trackerLoss_loss"
  type: "EuclideanLoss"
  bottom: "rgt2_overlaps"
  bottom: "rgt_bar"
  top: "loss"
}
I0122 12:17:32.972156 31600 net.cpp:414] Input 0 -> v
I0122 12:17:32.972189 31600 net.cpp:414] Input 1 -> gt_overlaps
I0122 12:17:32.972213 31600 net.cpp:414] Input 2 -> gt_num
I0122 12:17:32.972234 31600 net.cpp:414] Input 3 -> cont
I0122 12:17:32.972255 31600 net.cpp:414] Input 4 -> o_0
I0122 12:17:32.972280 31600 layer_factory.hpp:76] Creating layer trackerLoss_gt_overlaps_split
I0122 12:17:32.972287 31600 net.cpp:107] Creating Layer trackerLoss_gt_overlaps_split
I0122 12:17:32.972290 31600 net.cpp:455] trackerLoss_gt_overlaps_split <- gt_overlaps
I0122 12:17:32.972296 31600 net.cpp:412] trackerLoss_gt_overlaps_split -> gt1_overlaps
I0122 12:17:32.972302 31600 net.cpp:412] trackerLoss_gt_overlaps_split -> gt2_overlaps
I0122 12:17:32.972338 31600 net.cpp:151] Setting up trackerLoss_gt_overlaps_split
I0122 12:17:32.972344 31600 net.cpp:158] Top shape: 4 1 6 1800 (43200)
I0122 12:17:32.972349 31600 net.cpp:158] Top shape: 4 1 6 1800 (43200)
I0122 12:17:32.972352 31600 net.cpp:166] Memory required for data: 345600
I0122 12:17:32.972355 31600 layer_factory.hpp:76] Creating layer trackerLoss_reshape0
I0122 12:17:32.972362 31600 net.cpp:107] Creating Layer trackerLoss_reshape0
I0122 12:17:32.972365 31600 net.cpp:455] trackerLoss_reshape0 <- gt1_overlaps
I0122 12:17:32.972370 31600 net.cpp:412] trackerLoss_reshape0 -> rgt1_overlaps
I0122 12:17:32.972393 31600 net.cpp:151] Setting up trackerLoss_reshape0
I0122 12:17:32.972398 31600 net.cpp:158] Top shape: 4 6 1 1800 (43200)
I0122 12:17:32.972401 31600 net.cpp:166] Memory required for data: 518400
I0122 12:17:32.972404 31600 layer_factory.hpp:76] Creating layer trackerLoss_best_seg_match
I0122 12:17:32.972409 31600 layer_factory.cpp:58] cuDNN does not support multiple tops. Using Caffe's own pooling layer.
I0122 12:17:32.972414 31600 net.cpp:107] Creating Layer trackerLoss_best_seg_match
I0122 12:17:32.972417 31600 net.cpp:455] trackerLoss_best_seg_match <- rgt1_overlaps
I0122 12:17:32.972422 31600 net.cpp:412] trackerLoss_best_seg_match -> tmp
I0122 12:17:32.972429 31600 net.cpp:412] trackerLoss_best_seg_match -> rbest_track
I0122 12:17:32.972466 31600 net.cpp:151] Setting up trackerLoss_best_seg_match
I0122 12:17:32.972471 31600 net.cpp:158] Top shape: 4 6 1 1 (24)
I0122 12:17:32.972476 31600 net.cpp:158] Top shape: 4 6 1 1 (24)
I0122 12:17:32.972479 31600 net.cpp:166] Memory required for data: 518592
I0122 12:17:32.972483 31600 layer_factory.hpp:76] Creating layer trackerLoss_silent_tmp
I0122 12:17:32.972487 31600 net.cpp:107] Creating Layer trackerLoss_silent_tmp
I0122 12:17:32.972491 31600 net.cpp:455] trackerLoss_silent_tmp <- tmp
I0122 12:17:32.972496 31600 net.cpp:151] Setting up trackerLoss_silent_tmp
I0122 12:17:32.972498 31600 net.cpp:166] Memory required for data: 518592
I0122 12:17:32.972501 31600 layer_factory.hpp:76] Creating layer trackerLoss_reshape_best_track
I0122 12:17:32.972507 31600 net.cpp:107] Creating Layer trackerLoss_reshape_best_track
I0122 12:17:32.972511 31600 net.cpp:455] trackerLoss_reshape_best_track <- rbest_track
I0122 12:17:32.972515 31600 net.cpp:412] trackerLoss_reshape_best_track -> best_track
I0122 12:17:32.972537 31600 net.cpp:151] Setting up trackerLoss_reshape_best_track
I0122 12:17:32.972543 31600 net.cpp:158] Top shape: 4 1 6 1 (24)
I0122 12:17:32.972545 31600 net.cpp:166] Memory required for data: 518688
I0122 12:17:32.972549 31600 layer_factory.hpp:76] Creating layer trackerLoss_cont_slice
I0122 12:17:32.972554 31600 net.cpp:107] Creating Layer trackerLoss_cont_slice
I0122 12:17:32.972558 31600 net.cpp:455] trackerLoss_cont_slice <- cont
I0122 12:17:32.972563 31600 net.cpp:412] trackerLoss_cont_slice -> cont_1
I0122 12:17:32.972569 31600 net.cpp:412] trackerLoss_cont_slice -> cont_2
I0122 12:17:32.972575 31600 net.cpp:412] trackerLoss_cont_slice -> cont_3
I0122 12:17:32.972582 31600 net.cpp:412] trackerLoss_cont_slice -> cont_4
I0122 12:17:32.972642 31600 net.cpp:151] Setting up trackerLoss_cont_slice
I0122 12:17:32.972648 31600 net.cpp:158] Top shape: 1 1 (1)
I0122 12:17:32.972652 31600 net.cpp:158] Top shape: 1 1 (1)
I0122 12:17:32.972662 31600 net.cpp:158] Top shape: 1 1 (1)
I0122 12:17:32.972667 31600 net.cpp:158] Top shape: 1 1 (1)
I0122 12:17:32.972671 31600 net.cpp:166] Memory required for data: 518704
I0122 12:17:32.972674 31600 layer_factory.hpp:76] Creating layer trackerLoss_best_track_slice
I0122 12:17:32.972679 31600 net.cpp:107] Creating Layer trackerLoss_best_track_slice
I0122 12:17:32.972682 31600 net.cpp:455] trackerLoss_best_track_slice <- best_track
I0122 12:17:32.972688 31600 net.cpp:412] trackerLoss_best_track_slice -> bt_1
I0122 12:17:32.972695 31600 net.cpp:412] trackerLoss_best_track_slice -> bt_2
I0122 12:17:32.972703 31600 net.cpp:412] trackerLoss_best_track_slice -> bt_3
I0122 12:17:32.972709 31600 net.cpp:412] trackerLoss_best_track_slice -> bt_4
I0122 12:17:32.972772 31600 net.cpp:151] Setting up trackerLoss_best_track_slice
I0122 12:17:32.972777 31600 net.cpp:158] Top shape: 1 1 6 1 (6)
I0122 12:17:32.972782 31600 net.cpp:158] Top shape: 1 1 6 1 (6)
I0122 12:17:32.972786 31600 net.cpp:158] Top shape: 1 1 6 1 (6)
I0122 12:17:32.972790 31600 net.cpp:158] Top shape: 1 1 6 1 (6)
I0122 12:17:32.972795 31600 net.cpp:166] Memory required for data: 518800
I0122 12:17:32.972797 31600 layer_factory.hpp:76] Creating layer trackerLoss_o_cont_0
I0122 12:17:32.972802 31600 net.cpp:107] Creating Layer trackerLoss_o_cont_0
I0122 12:17:32.972806 31600 net.cpp:455] trackerLoss_o_cont_0 <- bt_1
I0122 12:17:32.972810 31600 net.cpp:455] trackerLoss_o_cont_0 <- o_0
I0122 12:17:32.972815 31600 net.cpp:455] trackerLoss_o_cont_0 <- cont_1
I0122 12:17:32.972820 31600 net.cpp:412] trackerLoss_o_cont_0 -> new_o_1
I0122 12:17:32.972841 31600 net.cpp:151] Setting up trackerLoss_o_cont_0
I0122 12:17:32.972847 31600 net.cpp:158] Top shape: 1 1 6 1 (6)
I0122 12:17:32.972851 31600 net.cpp:166] Memory required for data: 518824
I0122 12:17:32.972853 31600 layer_factory.hpp:76] Creating layer trackerLoss_o_split_1
I0122 12:17:32.972859 31600 net.cpp:107] Creating Layer trackerLoss_o_split_1
I0122 12:17:32.972863 31600 net.cpp:455] trackerLoss_o_split_1 <- new_o_1
I0122 12:17:32.972868 31600 net.cpp:412] trackerLoss_o_split_1 -> o_1
I0122 12:17:32.972874 31600 net.cpp:412] trackerLoss_o_split_1 -> track_1
I0122 12:17:32.972909 31600 net.cpp:151] Setting up trackerLoss_o_split_1
I0122 12:17:32.972914 31600 net.cpp:158] Top shape: 1 1 6 1 (6)
I0122 12:17:32.972919 31600 net.cpp:158] Top shape: 1 1 6 1 (6)
I0122 12:17:32.972923 31600 net.cpp:166] Memory required for data: 518872
I0122 12:17:32.972926 31600 layer_factory.hpp:76] Creating layer trackerLoss_o_cont_1
I0122 12:17:32.972931 31600 net.cpp:107] Creating Layer trackerLoss_o_cont_1
I0122 12:17:32.972935 31600 net.cpp:455] trackerLoss_o_cont_1 <- bt_2
I0122 12:17:32.972940 31600 net.cpp:455] trackerLoss_o_cont_1 <- o_1
I0122 12:17:32.972944 31600 net.cpp:455] trackerLoss_o_cont_1 <- cont_2
I0122 12:17:32.972949 31600 net.cpp:412] trackerLoss_o_cont_1 -> new_o_2
I0122 12:17:32.972970 31600 net.cpp:151] Setting up trackerLoss_o_cont_1
I0122 12:17:32.972976 31600 net.cpp:158] Top shape: 1 1 6 1 (6)
I0122 12:17:32.972980 31600 net.cpp:166] Memory required for data: 518896
I0122 12:17:32.972983 31600 layer_factory.hpp:76] Creating layer trackerLoss_o_split_2
I0122 12:17:32.972987 31600 net.cpp:107] Creating Layer trackerLoss_o_split_2
I0122 12:17:32.972991 31600 net.cpp:455] trackerLoss_o_split_2 <- new_o_2
I0122 12:17:32.972996 31600 net.cpp:412] trackerLoss_o_split_2 -> o_2
I0122 12:17:32.973003 31600 net.cpp:412] trackerLoss_o_split_2 -> track_2
I0122 12:17:32.973032 31600 net.cpp:151] Setting up trackerLoss_o_split_2
I0122 12:17:32.973037 31600 net.cpp:158] Top shape: 1 1 6 1 (6)
I0122 12:17:32.973042 31600 net.cpp:158] Top shape: 1 1 6 1 (6)
I0122 12:17:32.973047 31600 net.cpp:166] Memory required for data: 518944
I0122 12:17:32.973049 31600 layer_factory.hpp:76] Creating layer trackerLoss_o_cont_2
I0122 12:17:32.973054 31600 net.cpp:107] Creating Layer trackerLoss_o_cont_2
I0122 12:17:32.973058 31600 net.cpp:455] trackerLoss_o_cont_2 <- bt_3
I0122 12:17:32.973063 31600 net.cpp:455] trackerLoss_o_cont_2 <- o_2
I0122 12:17:32.973073 31600 net.cpp:455] trackerLoss_o_cont_2 <- cont_3
I0122 12:17:32.973078 31600 net.cpp:412] trackerLoss_o_cont_2 -> new_o_3
I0122 12:17:32.973098 31600 net.cpp:151] Setting up trackerLoss_o_cont_2
I0122 12:17:32.973104 31600 net.cpp:158] Top shape: 1 1 6 1 (6)
I0122 12:17:32.973109 31600 net.cpp:166] Memory required for data: 518968
I0122 12:17:32.973111 31600 layer_factory.hpp:76] Creating layer trackerLoss_o_split_3
I0122 12:17:32.973116 31600 net.cpp:107] Creating Layer trackerLoss_o_split_3
I0122 12:17:32.973119 31600 net.cpp:455] trackerLoss_o_split_3 <- new_o_3
I0122 12:17:32.973125 31600 net.cpp:412] trackerLoss_o_split_3 -> o_3
I0122 12:17:32.973131 31600 net.cpp:412] trackerLoss_o_split_3 -> track_3
I0122 12:17:32.973161 31600 net.cpp:151] Setting up trackerLoss_o_split_3
I0122 12:17:32.973166 31600 net.cpp:158] Top shape: 1 1 6 1 (6)
I0122 12:17:32.973171 31600 net.cpp:158] Top shape: 1 1 6 1 (6)
I0122 12:17:32.973175 31600 net.cpp:166] Memory required for data: 519016
I0122 12:17:32.973178 31600 layer_factory.hpp:76] Creating layer trackerLoss_o_cont_3
I0122 12:17:32.973183 31600 net.cpp:107] Creating Layer trackerLoss_o_cont_3
I0122 12:17:32.973187 31600 net.cpp:455] trackerLoss_o_cont_3 <- bt_4
I0122 12:17:32.973191 31600 net.cpp:455] trackerLoss_o_cont_3 <- o_3
I0122 12:17:32.973196 31600 net.cpp:455] trackerLoss_o_cont_3 <- cont_4
I0122 12:17:32.973201 31600 net.cpp:412] trackerLoss_o_cont_3 -> new_o_4
I0122 12:17:32.973222 31600 net.cpp:151] Setting up trackerLoss_o_cont_3
I0122 12:17:32.973227 31600 net.cpp:158] Top shape: 1 1 6 1 (6)
I0122 12:17:32.973230 31600 net.cpp:166] Memory required for data: 519040
I0122 12:17:32.973233 31600 layer_factory.hpp:76] Creating layer trackerLoss_o_split_4
I0122 12:17:32.973238 31600 net.cpp:107] Creating Layer trackerLoss_o_split_4
I0122 12:17:32.973242 31600 net.cpp:455] trackerLoss_o_split_4 <- new_o_4
I0122 12:17:32.973248 31600 net.cpp:412] trackerLoss_o_split_4 -> o_4
I0122 12:17:32.973254 31600 net.cpp:412] trackerLoss_o_split_4 -> track_4
I0122 12:17:32.973284 31600 net.cpp:151] Setting up trackerLoss_o_split_4
I0122 12:17:32.973289 31600 net.cpp:158] Top shape: 1 1 6 1 (6)
I0122 12:17:32.973294 31600 net.cpp:158] Top shape: 1 1 6 1 (6)
I0122 12:17:32.973296 31600 net.cpp:166] Memory required for data: 519088
I0122 12:17:32.973300 31600 layer_factory.hpp:76] Creating layer trackerLoss_ob_concat
I0122 12:17:32.973305 31600 net.cpp:107] Creating Layer trackerLoss_ob_concat
I0122 12:17:32.973309 31600 net.cpp:455] trackerLoss_ob_concat <- track_1
I0122 12:17:32.973315 31600 net.cpp:455] trackerLoss_ob_concat <- track_2
I0122 12:17:32.973320 31600 net.cpp:455] trackerLoss_ob_concat <- track_3
I0122 12:17:32.973323 31600 net.cpp:455] trackerLoss_ob_concat <- track_4
I0122 12:17:32.973328 31600 net.cpp:412] trackerLoss_ob_concat -> O
I0122 12:17:32.973348 31600 net.cpp:151] Setting up trackerLoss_ob_concat
I0122 12:17:32.973353 31600 net.cpp:158] Top shape: 4 1 6 1 (24)
I0122 12:17:32.973357 31600 net.cpp:166] Memory required for data: 519184
I0122 12:17:32.973361 31600 layer_factory.hpp:76] Creating layer trackerLoss_reshape1
I0122 12:17:32.973367 31600 net.cpp:107] Creating Layer trackerLoss_reshape1
I0122 12:17:32.973371 31600 net.cpp:455] trackerLoss_reshape1 <- O
I0122 12:17:32.973376 31600 net.cpp:412] trackerLoss_reshape1 -> rO
I0122 12:17:32.973398 31600 net.cpp:151] Setting up trackerLoss_reshape1
I0122 12:17:32.973403 31600 net.cpp:158] Top shape: 4 1 6 (24)
I0122 12:17:32.973407 31600 net.cpp:166] Memory required for data: 519280
I0122 12:17:32.973410 31600 layer_factory.hpp:76] Creating layer trackerLoss_hotmult
I0122 12:17:32.973417 31600 net.cpp:107] Creating Layer trackerLoss_hotmult
I0122 12:17:32.973420 31600 net.cpp:455] trackerLoss_hotmult <- rO
I0122 12:17:32.973424 31600 net.cpp:455] trackerLoss_hotmult <- v
I0122 12:17:32.973429 31600 net.cpp:455] trackerLoss_hotmult <- gt_num
I0122 12:17:32.973434 31600 net.cpp:412] trackerLoss_hotmult -> gt_bar
I0122 12:17:32.973469 31600 net.cpp:151] Setting up trackerLoss_hotmult
I0122 12:17:32.973479 31600 net.cpp:158] Top shape: 4 1 6 1800 (43200)
I0122 12:17:32.973484 31600 net.cpp:166] Memory required for data: 692080
I0122 12:17:32.973486 31600 layer_factory.hpp:76] Creating layer trackerLoss_reshape2
I0122 12:17:32.973492 31600 net.cpp:107] Creating Layer trackerLoss_reshape2
I0122 12:17:32.973496 31600 net.cpp:455] trackerLoss_reshape2 <- gt_bar
I0122 12:17:32.973501 31600 net.cpp:412] trackerLoss_reshape2 -> rgt_bar
I0122 12:17:32.973522 31600 net.cpp:151] Setting up trackerLoss_reshape2
I0122 12:17:32.973528 31600 net.cpp:158] Top shape: 43200 1 1 1 (43200)
I0122 12:17:32.973531 31600 net.cpp:166] Memory required for data: 864880
I0122 12:17:32.973536 31600 layer_factory.hpp:76] Creating layer trackerLoss_reshape3
I0122 12:17:32.973541 31600 net.cpp:107] Creating Layer trackerLoss_reshape3
I0122 12:17:32.973543 31600 net.cpp:455] trackerLoss_reshape3 <- gt2_overlaps
I0122 12:17:32.973549 31600 net.cpp:412] trackerLoss_reshape3 -> rgt2_overlaps
I0122 12:17:32.973569 31600 net.cpp:151] Setting up trackerLoss_reshape3
I0122 12:17:32.973575 31600 net.cpp:158] Top shape: 43200 1 1 1 (43200)
I0122 12:17:32.973578 31600 net.cpp:166] Memory required for data: 1037680
I0122 12:17:32.973582 31600 layer_factory.hpp:76] Creating layer trackerLoss_loss
I0122 12:17:32.973587 31600 net.cpp:107] Creating Layer trackerLoss_loss
I0122 12:17:32.973592 31600 net.cpp:455] trackerLoss_loss <- rgt2_overlaps
I0122 12:17:32.973595 31600 net.cpp:455] trackerLoss_loss <- rgt_bar
I0122 12:17:32.973600 31600 net.cpp:412] trackerLoss_loss -> loss
…
I0122 12:17:32.973899 31600 recurrent_layer.cpp:42] Initializing recurrent layer: assuming input batch contains 4 timesteps of 1 independent streams.
I0122 12:17:32.974027 31600 net.cpp:49] Initializing net from parameters: 
input: "v"
input: "gt_overlaps"
input: "gt_num"
input: "cont"
input: "o_0"
force_backward: true
input_shape {
  dim: 4
  dim: 1
  dim: 1800
  dim: 1800
}
input_shape {
  dim: 4
  dim: 1
  dim: 6
  dim: 1800
}
input_shape {
  dim: 4
  dim: 1
}
input_shape {
  dim: 4
  dim: 1
}
input_shape {
  dim: 1
  dim: 1
  dim: 6
  dim: 1
}
layer {
  name: "trackerLoss_refined_gt_overlaps_split"
  type: "Split"
  bottom: "gt_overlaps"
  top: "gt1_overlaps"
  top: "gt2_overlaps"
}
layer {
  name: "trackerLoss_refined_reshape0"
  type: "Reshape"
  bottom: "gt1_overlaps"
  top: "rgt1_overlaps"
  reshape_param {
    shape {
      dim: 4
      dim: 6
      dim: 1
      dim: 1800
    }
  }
}
layer {
  name: "trackerLoss_refined_best_seg_match"
  type: "Pooling"
  bottom: "rgt1_overlaps"
  top: "tmp"
  top: "rbest_track"
  pooling_param {
    pool: MAX
    global_pooling: true
  }
}
layer {
  name: "trackerLoss_refined_silent_tmp"
  type: "Silence"
  bottom: "tmp"
}
layer {
  name: "trackerLoss_refined_reshape_best_track"
  type: "Reshape"
  bottom: "rbest_track"
  top: "best_track"
  reshape_param {
    shape {
      dim: 4
      dim: 1
      dim: 6
      dim: 1
    }
  }
}
layer {
  name: "trackerLoss_refined_cont_slice"
  type: "Slice"
  bottom: "cont"
  top: "cont_1"
  top: "cont_2"
  top: "cont_3"
  top: "cont_4"
  slice_param {
    axis: 0
  }
}
layer {
  name: "trackerLoss_refined_best_track_slice"
  type: "Slice"
  bottom: "best_track"
  top: "bt_1"
  top: "bt_2"
  top: "bt_3"
  top: "bt_4"
  slice_param {
    axis: 0
  }
}
layer {
  name: "trackerLoss_refined_o_cont_0"
  type: "Switch"
  bottom: "bt_1"
  bottom: "o_0"
  bottom: "cont_1"
  top: "new_o_1"
  switch_param {
    axis: 2
  }
}
layer {
  name: "trackerLoss_refined_o_split_1"
  type: "Split"
  bottom: "new_o_1"
  top: "o_1"
  top: "track_1"
}
layer {
  name: "trackerLoss_refined_o_cont_1"
  type: "Switch"
  bottom: "bt_2"
  bottom: "o_1"
  bottom: "cont_2"
  top: "new_o_2"
  switch_param {
    axis: 2
  }
}
layer {
  name: "trackerLoss_refined_o_split_2"
  type: "Split"
  bottom: "new_o_2"
  top: "o_2"
  top: "track_2"
}
layer {
  name: "trackerLoss_refined_o_cont_2"
  type: "Switch"
  bottom: "bt_3"
  bottom: "o_2"
  bottom: "cont_3"
  top: "new_o_3"
  switch_param {
    axis: 2
  }
}
layer {
  name: "trackerLoss_refined_o_split_3"
  type: "Split"
  bottom: "new_o_3"
  top: "o_3"
  top: "track_3"
}
layer {
  name: "trackerLoss_refined_o_cont_3"
  type: "Switch"
  bottom: "bt_4"
  bottom: "o_3"
  bottom: "cont_4"
  top: "new_o_4"
  switch_param {
    axis: 2
  }
}
layer {
  name: "trackerLoss_refined_o_split_4"
  type: "Split"
  bottom: "new_o_4"
  top: "o_4"
  top: "track_4"
}
layer {
  name: "trackerLoss_refined_ob_concat"
  type: "Concat"
  bottom: "track_1"
  bottom: "track_2"
  bottom: "track_3"
  bottom: "track_4"
  top: "O"
  concat_param {
    axis: 0
  }
}
layer {
  name: "trackerLoss_refined_reshape1"
  type: "Reshape"
  bottom: "O"
  top: "rO"
  reshape_param {
    shape {
      dim: 4
      dim: 1
      dim: 6
    }
  }
}
layer {
  name: "trackerLoss_refined_hotmult"
  type: "HotMult"
  bottom: "rO"
  bottom: "v"
  bottom: "gt_num"
  top: "gt_bar"
  hotmult_param {
    mode: "ROW"
  }
}
layer {
  name: "trackerLoss_refined_reshape2"
  type: "Reshape"
  bottom: "gt_bar"
  top: "rgt_bar"
  reshape_param {
    shape {
      dim: -1
      dim: 1
      dim: 1
      dim: 1
    }
  }
}
layer {
  name: "trackerLoss_refined_reshape3"
  type: "Reshape"
  bottom: "gt2_overlaps"
  top: "rgt2_overlaps"
  reshape_param {
    shape {
      dim: -1
      dim: 1
      dim: 1
      dim: 1
    }
  }
}
layer {
  name: "trackerLoss_refined_loss"
  type: "EuclideanLoss"
  bottom: "rgt2_overlaps"
  bottom: "rgt_bar"
  top: "loss"
}
I0122 12:17:32.974125 31600 net.cpp:414] Input 0 -> v
I0122 12:17:32.974155 31600 net.cpp:414] Input 1 -> gt_overlaps
I0122 12:17:32.974187 31600 net.cpp:414] Input 2 -> gt_num
I0122 12:17:32.974210 31600 net.cpp:414] Input 3 -> cont
I0122 12:17:32.974231 31600 net.cpp:414] Input 4 -> o_0
I0122 12:17:32.974253 31600 layer_factory.hpp:76] Creating layer trackerLoss_refined_gt_overlaps_split
I0122 12:17:32.974259 31600 net.cpp:107] Creating Layer trackerLoss_refined_gt_overlaps_split
I0122 12:17:32.974263 31600 net.cpp:455] trackerLoss_refined_gt_overlaps_split <- gt_overlaps
I0122 12:17:32.974268 31600 net.cpp:412] trackerLoss_refined_gt_overlaps_split -> gt1_overlaps
I0122 12:17:32.974274 31600 net.cpp:412] trackerLoss_refined_gt_overlaps_split -> gt2_overlaps
I0122 12:17:32.974309 31600 net.cpp:151] Setting up trackerLoss_refined_gt_overlaps_split
I0122 12:17:32.974315 31600 net.cpp:158] Top shape: 4 1 6 1800 (43200)
I0122 12:17:32.974320 31600 net.cpp:158] Top shape: 4 1 6 1800 (43200)
I0122 12:17:32.974323 31600 net.cpp:166] Memory required for data: 345600
I0122 12:17:32.974328 31600 layer_factory.hpp:76] Creating layer trackerLoss_refined_reshape0
I0122 12:17:32.974334 31600 net.cpp:107] Creating Layer trackerLoss_refined_reshape0
I0122 12:17:32.974336 31600 net.cpp:455] trackerLoss_refined_reshape0 <- gt1_overlaps
I0122 12:17:32.974342 31600 net.cpp:412] trackerLoss_refined_reshape0 -> rgt1_overlaps
I0122 12:17:32.974364 31600 net.cpp:151] Setting up trackerLoss_refined_reshape0
I0122 12:17:32.974370 31600 net.cpp:158] Top shape: 4 6 1 1800 (43200)
I0122 12:17:32.974372 31600 net.cpp:166] Memory required for data: 518400
I0122 12:17:32.974376 31600 layer_factory.hpp:76] Creating layer trackerLoss_refined_best_seg_match
I0122 12:17:32.974380 31600 layer_factory.cpp:58] cuDNN does not support multiple tops. Using Caffe's own pooling layer.
I0122 12:17:32.974385 31600 net.cpp:107] Creating Layer trackerLoss_refined_best_seg_match
I0122 12:17:32.974388 31600 net.cpp:455] trackerLoss_refined_best_seg_match <- rgt1_overlaps
I0122 12:17:32.974393 31600 net.cpp:412] trackerLoss_refined_best_seg_match -> tmp
I0122 12:17:32.974400 31600 net.cpp:412] trackerLoss_refined_best_seg_match -> rbest_track
I0122 12:17:32.974436 31600 net.cpp:151] Setting up trackerLoss_refined_best_seg_match
I0122 12:17:32.974442 31600 net.cpp:158] Top shape: 4 6 1 1 (24)
I0122 12:17:32.974445 31600 net.cpp:158] Top shape: 4 6 1 1 (24)
I0122 12:17:32.974449 31600 net.cpp:166] Memory required for data: 518592
I0122 12:17:32.974452 31600 layer_factory.hpp:76] Creating layer trackerLoss_refined_silent_tmp
I0122 12:17:32.974457 31600 net.cpp:107] Creating Layer trackerLoss_refined_silent_tmp
I0122 12:17:32.974460 31600 net.cpp:455] trackerLoss_refined_silent_tmp <- tmp
I0122 12:17:32.974464 31600 net.cpp:151] Setting up trackerLoss_refined_silent_tmp
I0122 12:17:32.974467 31600 net.cpp:166] Memory required for data: 518592
I0122 12:17:32.974470 31600 layer_factory.hpp:76] Creating layer trackerLoss_refined_reshape_best_track
I0122 12:17:32.974477 31600 net.cpp:107] Creating Layer trackerLoss_refined_reshape_best_track
I0122 12:17:32.974479 31600 net.cpp:455] trackerLoss_refined_reshape_best_track <- rbest_track
I0122 12:17:32.974484 31600 net.cpp:412] trackerLoss_refined_reshape_best_track -> best_track
I0122 12:17:32.974505 31600 net.cpp:151] Setting up trackerLoss_refined_reshape_best_track
I0122 12:17:32.974519 31600 net.cpp:158] Top shape: 4 1 6 1 (24)
I0122 12:17:32.974521 31600 net.cpp:166] Memory required for data: 518688
I0122 12:17:32.974525 31600 layer_factory.hpp:76] Creating layer trackerLoss_refined_cont_slice
I0122 12:17:32.974530 31600 net.cpp:107] Creating Layer trackerLoss_refined_cont_slice
I0122 12:17:32.974534 31600 net.cpp:455] trackerLoss_refined_cont_slice <- cont
I0122 12:17:32.974539 31600 net.cpp:412] trackerLoss_refined_cont_slice -> cont_1
I0122 12:17:32.974545 31600 net.cpp:412] trackerLoss_refined_cont_slice -> cont_2
I0122 12:17:32.974552 31600 net.cpp:412] trackerLoss_refined_cont_slice -> cont_3
I0122 12:17:32.974558 31600 net.cpp:412] trackerLoss_refined_cont_slice -> cont_4
I0122 12:17:32.974619 31600 net.cpp:151] Setting up trackerLoss_refined_cont_slice
I0122 12:17:32.974624 31600 net.cpp:158] Top shape: 1 1 (1)
I0122 12:17:32.974629 31600 net.cpp:158] Top shape: 1 1 (1)
I0122 12:17:32.974634 31600 net.cpp:158] Top shape: 1 1 (1)
I0122 12:17:32.974638 31600 net.cpp:158] Top shape: 1 1 (1)
I0122 12:17:32.974642 31600 net.cpp:166] Memory required for data: 518704
I0122 12:17:32.974644 31600 layer_factory.hpp:76] Creating layer trackerLoss_refined_best_track_slice
I0122 12:17:32.974649 31600 net.cpp:107] Creating Layer trackerLoss_refined_best_track_slice
I0122 12:17:32.974653 31600 net.cpp:455] trackerLoss_refined_best_track_slice <- best_track
I0122 12:17:32.974658 31600 net.cpp:412] trackerLoss_refined_best_track_slice -> bt_1
I0122 12:17:32.974665 31600 net.cpp:412] trackerLoss_refined_best_track_slice -> bt_2
I0122 12:17:32.974673 31600 net.cpp:412] trackerLoss_refined_best_track_slice -> bt_3
I0122 12:17:32.974679 31600 net.cpp:412] trackerLoss_refined_best_track_slice -> bt_4
I0122 12:17:32.974738 31600 net.cpp:151] Setting up trackerLoss_refined_best_track_slice
I0122 12:17:32.974745 31600 net.cpp:158] Top shape: 1 1 6 1 (6)
I0122 12:17:32.974748 31600 net.cpp:158] Top shape: 1 1 6 1 (6)
I0122 12:17:32.974753 31600 net.cpp:158] Top shape: 1 1 6 1 (6)
I0122 12:17:32.974757 31600 net.cpp:158] Top shape: 1 1 6 1 (6)
I0122 12:17:32.974761 31600 net.cpp:166] Memory required for data: 518800
I0122 12:17:32.974763 31600 layer_factory.hpp:76] Creating layer trackerLoss_refined_o_cont_0
I0122 12:17:32.974768 31600 net.cpp:107] Creating Layer trackerLoss_refined_o_cont_0
I0122 12:17:32.974772 31600 net.cpp:455] trackerLoss_refined_o_cont_0 <- bt_1
I0122 12:17:32.974776 31600 net.cpp:455] trackerLoss_refined_o_cont_0 <- o_0
I0122 12:17:32.974781 31600 net.cpp:455] trackerLoss_refined_o_cont_0 <- cont_1
I0122 12:17:32.974786 31600 net.cpp:412] trackerLoss_refined_o_cont_0 -> new_o_1
I0122 12:17:32.974807 31600 net.cpp:151] Setting up trackerLoss_refined_o_cont_0
I0122 12:17:32.974813 31600 net.cpp:158] Top shape: 1 1 6 1 (6)
I0122 12:17:32.974817 31600 net.cpp:166] Memory required for data: 518824
I0122 12:17:32.974820 31600 layer_factory.hpp:76] Creating layer trackerLoss_refined_o_split_1
I0122 12:17:32.974825 31600 net.cpp:107] Creating Layer trackerLoss_refined_o_split_1
I0122 12:17:32.974829 31600 net.cpp:455] trackerLoss_refined_o_split_1 <- new_o_1
I0122 12:17:32.974834 31600 net.cpp:412] trackerLoss_refined_o_split_1 -> o_1
I0122 12:17:32.974840 31600 net.cpp:412] trackerLoss_refined_o_split_1 -> track_1
I0122 12:17:32.974874 31600 net.cpp:151] Setting up trackerLoss_refined_o_split_1
I0122 12:17:32.974879 31600 net.cpp:158] Top shape: 1 1 6 1 (6)
I0122 12:17:32.974884 31600 net.cpp:158] Top shape: 1 1 6 1 (6)
I0122 12:17:32.974887 31600 net.cpp:166] Memory required for data: 518872
I0122 12:17:32.974891 31600 layer_factory.hpp:76] Creating layer trackerLoss_refined_o_cont_1
I0122 12:17:32.974896 31600 net.cpp:107] Creating Layer trackerLoss_refined_o_cont_1
I0122 12:17:32.974900 31600 net.cpp:455] trackerLoss_refined_o_cont_1 <- bt_2
I0122 12:17:32.974905 31600 net.cpp:455] trackerLoss_refined_o_cont_1 <- o_1
I0122 12:17:32.974908 31600 net.cpp:455] trackerLoss_refined_o_cont_1 <- cont_2
I0122 12:17:32.974913 31600 net.cpp:412] trackerLoss_refined_o_cont_1 -> new_o_2
I0122 12:17:32.974939 31600 net.cpp:151] Setting up trackerLoss_refined_o_cont_1
I0122 12:17:32.974946 31600 net.cpp:158] Top shape: 1 1 6 1 (6)
I0122 12:17:32.974949 31600 net.cpp:166] Memory required for data: 518896
I0122 12:17:32.974952 31600 layer_factory.hpp:76] Creating layer trackerLoss_refined_o_split_2
I0122 12:17:32.974957 31600 net.cpp:107] Creating Layer trackerLoss_refined_o_split_2
I0122 12:17:32.974961 31600 net.cpp:455] trackerLoss_refined_o_split_2 <- new_o_2
I0122 12:17:32.974967 31600 net.cpp:412] trackerLoss_refined_o_split_2 -> o_2
I0122 12:17:32.974972 31600 net.cpp:412] trackerLoss_refined_o_split_2 -> track_2
I0122 12:17:32.975003 31600 net.cpp:151] Setting up trackerLoss_refined_o_split_2
I0122 12:17:32.975008 31600 net.cpp:158] Top shape: 1 1 6 1 (6)
I0122 12:17:32.975013 31600 net.cpp:158] Top shape: 1 1 6 1 (6)
I0122 12:17:32.975016 31600 net.cpp:166] Memory required for data: 518944
I0122 12:17:32.975020 31600 layer_factory.hpp:76] Creating layer trackerLoss_refined_o_cont_2
I0122 12:17:32.975025 31600 net.cpp:107] Creating Layer trackerLoss_refined_o_cont_2
I0122 12:17:32.975028 31600 net.cpp:455] trackerLoss_refined_o_cont_2 <- bt_3
I0122 12:17:32.975033 31600 net.cpp:455] trackerLoss_refined_o_cont_2 <- o_2
I0122 12:17:32.975038 31600 net.cpp:455] trackerLoss_refined_o_cont_2 <- cont_3
I0122 12:17:32.975042 31600 net.cpp:412] trackerLoss_refined_o_cont_2 -> new_o_3
I0122 12:17:32.975062 31600 net.cpp:151] Setting up trackerLoss_refined_o_cont_2
I0122 12:17:32.975067 31600 net.cpp:158] Top shape: 1 1 6 1 (6)
I0122 12:17:32.975071 31600 net.cpp:166] Memory required for data: 518968
I0122 12:17:32.975075 31600 layer_factory.hpp:76] Creating layer trackerLoss_refined_o_split_3
I0122 12:17:32.975080 31600 net.cpp:107] Creating Layer trackerLoss_refined_o_split_3
I0122 12:17:32.975083 31600 net.cpp:455] trackerLoss_refined_o_split_3 <- new_o_3
I0122 12:17:32.975088 31600 net.cpp:412] trackerLoss_refined_o_split_3 -> o_3
I0122 12:17:32.975095 31600 net.cpp:412] trackerLoss_refined_o_split_3 -> track_3
I0122 12:17:32.975123 31600 net.cpp:151] Setting up trackerLoss_refined_o_split_3
I0122 12:17:32.975129 31600 net.cpp:158] Top shape: 1 1 6 1 (6)
I0122 12:17:32.975133 31600 net.cpp:158] Top shape: 1 1 6 1 (6)
I0122 12:17:32.975136 31600 net.cpp:166] Memory required for data: 519016
I0122 12:17:32.975141 31600 layer_factory.hpp:76] Creating layer trackerLoss_refined_o_cont_3
I0122 12:17:32.975145 31600 net.cpp:107] Creating Layer trackerLoss_refined_o_cont_3
I0122 12:17:32.975149 31600 net.cpp:455] trackerLoss_refined_o_cont_3 <- bt_4
I0122 12:17:32.975153 31600 net.cpp:455] trackerLoss_refined_o_cont_3 <- o_3
I0122 12:17:32.975157 31600 net.cpp:455] trackerLoss_refined_o_cont_3 <- cont_4
I0122 12:17:32.975163 31600 net.cpp:412] trackerLoss_refined_o_cont_3 -> new_o_4
I0122 12:17:32.975183 31600 net.cpp:151] Setting up trackerLoss_refined_o_cont_3
I0122 12:17:32.975188 31600 net.cpp:158] Top shape: 1 1 6 1 (6)
I0122 12:17:32.975191 31600 net.cpp:166] Memory required for data: 519040
I0122 12:17:32.975195 31600 layer_factory.hpp:76] Creating layer trackerLoss_refined_o_split_4
I0122 12:17:32.975199 31600 net.cpp:107] Creating Layer trackerLoss_refined_o_split_4
I0122 12:17:32.975203 31600 net.cpp:455] trackerLoss_refined_o_split_4 <- new_o_4
I0122 12:17:32.975208 31600 net.cpp:412] trackerLoss_refined_o_split_4 -> o_4
I0122 12:17:32.975214 31600 net.cpp:412] trackerLoss_refined_o_split_4 -> track_4
I0122 12:17:32.975244 31600 net.cpp:151] Setting up trackerLoss_refined_o_split_4
I0122 12:17:32.975250 31600 net.cpp:158] Top shape: 1 1 6 1 (6)
I0122 12:17:32.975255 31600 net.cpp:158] Top shape: 1 1 6 1 (6)
I0122 12:17:32.975257 31600 net.cpp:166] Memory required for data: 519088
I0122 12:17:32.975261 31600 layer_factory.hpp:76] Creating layer trackerLoss_refined_ob_concat
I0122 12:17:32.975266 31600 net.cpp:107] Creating Layer trackerLoss_refined_ob_concat
I0122 12:17:32.975270 31600 net.cpp:455] trackerLoss_refined_ob_concat <- track_1
I0122 12:17:32.975275 31600 net.cpp:455] trackerLoss_refined_ob_concat <- track_2
I0122 12:17:32.975286 31600 net.cpp:455] trackerLoss_refined_ob_concat <- track_3
I0122 12:17:32.975291 31600 net.cpp:455] trackerLoss_refined_ob_concat <- track_4
I0122 12:17:32.975296 31600 net.cpp:412] trackerLoss_refined_ob_concat -> O
I0122 12:17:32.975316 31600 net.cpp:151] Setting up trackerLoss_refined_ob_concat
I0122 12:17:32.975320 31600 net.cpp:158] Top shape: 4 1 6 1 (24)
I0122 12:17:32.975324 31600 net.cpp:166] Memory required for data: 519184
I0122 12:17:32.975327 31600 layer_factory.hpp:76] Creating layer trackerLoss_refined_reshape1
I0122 12:17:32.975334 31600 net.cpp:107] Creating Layer trackerLoss_refined_reshape1
I0122 12:17:32.975337 31600 net.cpp:455] trackerLoss_refined_reshape1 <- O
I0122 12:17:32.975343 31600 net.cpp:412] trackerLoss_refined_reshape1 -> rO
I0122 12:17:32.975364 31600 net.cpp:151] Setting up trackerLoss_refined_reshape1
I0122 12:17:32.975370 31600 net.cpp:158] Top shape: 4 1 6 (24)
I0122 12:17:32.975373 31600 net.cpp:166] Memory required for data: 519280
I0122 12:17:32.975378 31600 layer_factory.hpp:76] Creating layer trackerLoss_refined_hotmult
I0122 12:17:32.975383 31600 net.cpp:107] Creating Layer trackerLoss_refined_hotmult
I0122 12:17:32.975386 31600 net.cpp:455] trackerLoss_refined_hotmult <- rO
I0122 12:17:32.975391 31600 net.cpp:455] trackerLoss_refined_hotmult <- v
I0122 12:17:32.975395 31600 net.cpp:455] trackerLoss_refined_hotmult <- gt_num
I0122 12:17:32.975400 31600 net.cpp:412] trackerLoss_refined_hotmult -> gt_bar
I0122 12:17:32.975422 31600 net.cpp:151] Setting up trackerLoss_refined_hotmult
I0122 12:17:32.975428 31600 net.cpp:158] Top shape: 4 1 6 1800 (43200)
I0122 12:17:32.975431 31600 net.cpp:166] Memory required for data: 692080
I0122 12:17:32.975435 31600 layer_factory.hpp:76] Creating layer trackerLoss_refined_reshape2
I0122 12:17:32.975440 31600 net.cpp:107] Creating Layer trackerLoss_refined_reshape2
I0122 12:17:32.975443 31600 net.cpp:455] trackerLoss_refined_reshape2 <- gt_bar
I0122 12:17:32.975448 31600 net.cpp:412] trackerLoss_refined_reshape2 -> rgt_bar
I0122 12:17:32.975468 31600 net.cpp:151] Setting up trackerLoss_refined_reshape2
I0122 12:17:32.975474 31600 net.cpp:158] Top shape: 43200 1 1 1 (43200)
I0122 12:17:32.975477 31600 net.cpp:166] Memory required for data: 864880
I0122 12:17:32.975481 31600 layer_factory.hpp:76] Creating layer trackerLoss_refined_reshape3
I0122 12:17:32.975486 31600 net.cpp:107] Creating Layer trackerLoss_refined_reshape3
I0122 12:17:32.975489 31600 net.cpp:455] trackerLoss_refined_reshape3 <- gt2_overlaps
I0122 12:17:32.975495 31600 net.cpp:412] trackerLoss_refined_reshape3 -> rgt2_overlaps
I0122 12:17:32.975517 31600 net.cpp:151] Setting up trackerLoss_refined_reshape3
I0122 12:17:32.975522 31600 net.cpp:158] Top shape: 43200 1 1 1 (43200)
I0122 12:17:32.975525 31600 net.cpp:166] Memory required for data: 1037680
I0122 12:17:32.975528 31600 layer_factory.hpp:76] Creating layer trackerLoss_refined_loss
I0122 12:17:32.975533 31600 net.cpp:107] Creating Layer trackerLoss_refined_loss
I0122 12:17:32.975538 31600 net.cpp:455] trackerLoss_refined_loss <- rgt2_overlaps
I0122 12:17:32.975541 31600 net.cpp:455] trackerLoss_refined_loss <- rgt_bar
…
